models/intermedium_save/q_ind_agent_1.pt (torch, 108573 bytes, 6 tensors)

fc1.weight f4 [128, 71]
00000000: 4397 0bbc e92a f43d 16d0 16bc 377b 74be
00000010: 25ee f73d db9f 62bd 555f 383e f9c9 c63e
00000020: fb50 13be 206c bb3c 709f efbd 6fd0 d5bd
00000030: 05df 503d 9cf0 d33d 7655 aebd 6a25 cdbc
00000040: bb3c 193e f1bf df3d b56d 93bd 0280 a13d
00000050: 9c2f e7bd 6935 de3c 8cf3 043e 4479 77bc
00000060: e629 ca3d ec1e 63bd 5e75 17be 6f56 f3bc
00000070: 3029 9a3d 0dca 783d a23a d53c 33d8 003b
00000080: 9d04 94bc 0a4e b2bd 88a8 eabd fcf3 d73d
00000090: 114c d8bd 2b81 4ebe 3544 cb3d 0aaa d4bc
000000a0: 4873 6f3e 0bc3 a6be 1f4f 223d d09b 8b3d
000000b0: 2729 133e 1ae5 383e 170a b03d f4cd 173e
000000c0: d558 53be 8b30 c4ba ce34 9cba d246 ddbb
000000d0: 5c60 99bd a148 a5bd 3e55 2fbd 9924 493e
000000e0: de4a 01be 32f0 a6bd dbb6 753d 1bfd d73d
000000f0: 4d4e d2bd 5ead f33c 0026 28be fabf a6bd
00000100: 5496 3a3b 539b a73d d0fc 0dbe df70 f93d
00000110: 0b50 62bc 0962 1abe 81d7 99bd 5d3c a03d
00000120: 1aac 623d e92b 0e3d e157 dd3d a594 3fbe
00000130: 2103 ed3c 5928 c2bc 19a0 a2be 963c 993a
00000140: 0faf bc3c e3ef f83d 0fdd e63b ff2f ee3d
00000150: 352e aa3d 2e93 ac3d c204 933c 1142 c53d
00000160: d746 5a3d f730 b43c 7a1c bf3d e716 1f3e
00000170: 3678 b0bd 1133 863d 1128 d33d 9cde 043e
00000180: a0b2 6e3d 9ea4 2c3c 3177 db3c 2675 a7bc
00000190: 762e 93bc 0ad7 ebbd 0d54 a1bc b399 183e
000001a0: a9d3 a8bd 464d 433e 02ab 873d 8c1c 903d
000001b0: d7de 42bd 4115 c73d c384 e93d 1eb5 7a3d
000001c0: 3096 563e 9061 203d bc03 63bb 743d f33c
000001d0: c505 583d 1f91 373d 6ba2 633d 65ef 7f3e
000001e0: 4d79 473d 4484 503c 3baa a63d ec8c f0bd
000001f0: 6c40 c93d 6eda b43d 05a3 18bd 23ca e33a
00000200: 48d2 d13d 17df 4e3d e4b6 b83d f6e0 1b3e
00000210: 25b8 933c d6f3 853e 88c7 02be 8495 9b3d
00000220: f892 1fbd a0db 54bd 7f50 1bbe 28ca 0c3e
00000230: c2fc 903d 9f14 0abd e8bc 11bc ea8f 883b
00000240: 9472 e73c 75e0 963e aa75 073d 8eb9 f03b
00000250: 8fde 79be 82f8 0b3f 534c 0fbd 5630 973d
00000260: dec0 76be 2efd 8f3e 67df 333b 029d 713d
00000270: 8e7a 113c 77f2 d23d eb84 24bc 3c0b b5bd
00000280: 7ece 9a3d eaab d6ba 4663 863c 47e9 043e
00000290: 53aa 0c3e dcce 513e 96b1 663c c4ff 50bd
000002a0: b00e 2abc e26f 053e 1b5a 3c3c 7efc 623d
000002b0: e337 eb3d a958 63bd 5404 8c3d a867 32bd
000002c0: fc2f cfbd 0aa8 0dbe 1414 c6bc e25e ca3d
000002d0: 25a7 b23e c50e be3c f92d 11be f1f1 cebe
000002e0: b581 42be 8bb4 363d 21a1 963d 7317 bdbd
000002f0: ddf0 29be 32bf c03d dd24 a33d 06db 28bd
00000300: b812 503d 04fd e73b 1c13 3dbe aad4 023d
00000310: 5df5 4fbd 5d8d 093e 9dec bbbd 4199 edbc
00000320: dab5 363e d9b8 babe 3107 e73d 175c a8bd
00000330: 05ea 383e 3068 df3d b919 b2bd b730 6e3d
00000340: 5f3c aebd 8aa5 7d3d 6639 1d3d 3d63 b63d
00000350: a82f 9fbd 7fbc 42bd 6923 d5bc ee48 ccbc
00000360: 3a10 4d3e aab8 a03d d971 7dbc d74b 11be
00000370: c702 05bf 515c 4f3e a58a c03d 0963 ad3b
00000380: f42d 083e 97a3 063e b5a8 4c3d 8be3 08be
00000390: 005b 13be 38ec cbb9 fb28 9d3d c1a8 feb9
000003a0: cf95 3abe 4956 2c3e 3699 afbd 88e7 36be
000003b0: e3ea b33c 7b7d 8fbc aed6 e43d 2c7a e53d
000003c0: 194c de3c fbbf 2e3d b2f7 583d 3b1e 733c
000003d0: dbe1 49bd 9679 87bd 4eaa 74bc 099f 273e
000003e0: b0e0 953c a0bd 063e c209 d4bb 2435 fe3a
000003f0: c82e 893d 56e4 803d 28ce cf3e 355b bb3d
-0.00851995 0.11922247 -0.009204885 -0.23875128 0.12105969 -0.05532823 0.18005116 0.38825968
-0.1438636 0.022878706 -0.11700332 -0.10440146 0.050993938 0.10348627 -0.08512394 -0.025042254
0.14964573 0.10925282 -0.07198659 0.07885744 -0.11288378 0.027125077 0.12983531 -0.015104596
0.09871273 -0.05544941 -0.14790866 -0.0297043 0.07527387 0.060739566 0.026028935 0.0019660115
-0.018068606 -0.08706291 -0.11457926 0.10544583 -0.105613835 -0.20166461 0.09925119 -0.025959987
0.2338382 -0.3257068 0.039626237 0.06816828 0.14371167 0.18056145 0.085956745 0.14824659
-0.20639355 -0.001496808 -0.0011917592 -0.006752827 -0.07489082 -0.080704935 -0.042805903 0.19642867
-0.12626216 -0.08151282 0.059988838 0.10546323 -0.10268841 0.029745754 -0.16420746 -0.081420854
0.002847095 0.081839226 -0.13865972 0.121797316 -0.013813029 -0.1507646 -0.07511807 0.078240134
0.05533991 0.034709845 0.10807777 -0.18709047 0.028932156 -0.02370088 -0.3176277 0.001169103
0.023032693 0.1215513 0.007045395 0.11630248 0.083095945 0.0842651 0.017946605 0.09631742
0.053290214 0.021996005 0.09331603 0.1553608 -0.086166784 0.06552709 0.103103764 0.12975544
0.05827582 0.010537295 0.026790233 -0.020441603 -0.01796649 -0.11515625 -0.019693399 0.14902382
-0.08243496 0.19072446 0.06624414 0.07036695 -0.047575798 0.09720851 0.114022754 0.061207883
0.2095573 0.039155543 -0.0034639677 0.02969239 0.052739877 0.044816133 0.055574816 0.24993666
0.048699666 0.012726847 0.08137938 -0.11745629 0.098267406 0.08830725 -0.037264843 0.0017378967
0.10245186 0.050505724 0.090192586 0.15222535 0.018032143 0.26162595 -0.12771428 0.07596877
-0.03895852 -0.051967263 -0.15167426 0.13748991 0.0707946 -0.033711072 -0.008895136 0.0041675465
0.028252877 0.29468122 0.033071198 0.0073463386 -0.24401306 0.5467607 -0.034984898 0.07382266
-0.2409701 0.28122848 0.002744639 0.058987625 0.008879317 0.10300153 -0.010041456 -0.088400334
0.075589165 -0.0016378139 0.01640476 0.12979613 0.13736849 0.20489067 0.014080426 -0.051025167
-0.010379478 0.13030961 0.011496092 0.055416577 0.11485269 -0.055504475 0.06836763 -0.043555886
-0.10116574 -0.13833633 -0.024179496 0.09881379 0.34893146 0.023200402 -0.14177693 -0.40418962
-0.18994792 0.044605773 0.07354952 -0.09232988 -0.16595788 0.094114676 0.079660155 -0.041224502
0.0507991 0.0070797224 -0.18464321 0.031941094 -0.050771106 0.13432832 -0.0917599 -0.029003741
0.17842808 -0.36469153 0.112806685 -0.0822069 0.18058021 0.10908544 -0.086963125 0.058151927
-0.085076086 0.06192545 0.038384818 0.08905647 -0.077727616 -0.047543045 -0.026017861 -0.02493712
0.20025721 0.07847722 -0.015469038 -0.14189087 -0.5195736 0.2025006 0.09401444 0.005291347
0.1329878 0.13148342 0.04996558 -0.13368051 -0.14390182 -0.00038895174 0.07673832 -0.00048572387
-0.1822121 0.1682979 -0.085741445 -0.1786176 0.021962589 -0.017515888 0.111737594 0.11204943
0.027135896 0.042663556 0.052970596 0.0148387505 -0.04928766 -0.066149876 -0.014933182 0.16369261
0.018295616 0.13158274 -0.00647089 0.0019394499 0.06698376 0.062935516 0.40586972 0.09148256

fc1.bias f4 [128]
00000000: c7cb 913c 4c57 803d 3f34 823d 5495 c9bc
00000010: 1d14 8dbd bd10 b4bc 8005 77bd 4b7d 993d
00000020: cb75 79bd 1274 8abb d251 c0bd eb01 673d
00000030: dff1 9f3c 4a87 b6bb 8d65 d73b 4096 c4bc
00000040: 6b80 e13d 5be9 cf3c f931 0a3e 5d8f d7bd
00000050: 63ec a43d 4e01 b63d 51f9 583e 8bb5 38bd
00000060: 9266 02be e350 3e3d 4690 6e3c b7c8 9c3d
00000070: 483d 943d 45da b03d 9303 c53d 8152 6f3d
00000080: ea81 193d 8102 e4bd e078 ac3d b3a1 ad3b
00000090: d5e1 a33d 42be 98bc 292a 8fbd ea32 423d
000000a0: 32ee aa3d 6745 97bc 3553 02bd 2e4c 823b
000000b0: c684 bc3d b0f3 b73b b6b5 c73d 0541 42bd
000000c0: a134 663d 8c8e a1bd a800 903d 2fb5 483e
000000d0: b26b c6bc 76e3 043e de58 a03d 2e27 90bd
000000e0: 8367 273d c55c 3c3e f1de 783d 52b8 9ebd
000000f0: 85f9 a03d 622a 063e cf79 313d 569f fc3d
00000100: b782 4dbd 362c a23c 686f 31bd 9763 0ebd
00000110: fc1d bd3d 21a4 443e fe97 07be b165 ff3d
00000120: d3c7 85bd f96a d33d d3c4 1c3e 059f ccbd
00000130: 8e59 57bb 2c75 e23d 5b60 d4bd 27f1 aabd
00000140: aaf3 10bd 06c4 ec3d 4dc8 753d fbcd 673d
00000150: f1dd 8abb c61e 7cbd 61ec d43c e4f3 673d
00000160: afd5 d3bb 17d6 9a3d 31d5 d53d b879 913d
00000170: 2bbc 31bc e022 8a3d 5360 74bd 006b 683c
00000180: a371 a1bd 33a6 963d a1fc d9bc 40df 923d
00000190: a990 013d c229 09be bdc7 9dbd 8ec5 a0bc
000001a0: 0f1e 0d3d 2ddd 72bd 1610 d73d 81e8 73bc
000001b0: c520 513d 27a9 0e3e 0be5 663d d76e d53d
000001c0: 9d0b 76bd 8bbd d53c 457d 1a3d afd5 bebd
000001d0: b12d 053d 0fbb e73d 6c6c 11bd 3d8c 60bc
000001e0: 37d5 b7bd 89a3 a33d 4dc3 1d3c b776 9fbb
000001f0: 5202 58bd b98e ff3c e30d cd3d 3fe2 9dbc
0.017797364 0.062666506 0.063576214 -0.024607338 -0.06888602 -0.021980638 -0.06030798 0.07494601
-0.06090335 -0.0042252624 -0.09390606 0.056398313 0.019524513 -0.005570327 0.006573385 -0.023997426
0.11010822 0.025379827 0.13495626 -0.10525391 0.080529 0.088869676 0.21188857 -0.045095008
-0.1273444 0.04646386 0.014560765 0.07655471 0.07238251 0.086353816 0.09619822 0.05842829
0.03747741 -0.1113329 0.084214926 0.005298817 0.080020584 -0.01864541 -0.06990463 0.047411837
0.083462134 -0.01846571 -0.031817634 0.0039763665 0.09205012 0.0056137666 0.097514555 -0.04742529
0.056202535 -0.07888517 0.07031375 0.19600366 -0.024221275 0.12977394 0.0782945 -0.07038723
0.0408702 0.18394764 0.06075949 -0.0775 0.07860092 0.13102105 0.043329056 0.123350784
-0.050173488 0.019796472 -0.043319136 -0.034762945 0.09234235 0.19203235 -0.13241574 0.12470568
-0.06532254 0.10323138 0.15309457 -0.09991268 -0.0032859775 0.11057505 -0.10369941 -0.083467774
-0.035388626 0.11560826 0.060005475 0.056592923 -0.0042378833 -0.061552785 0.02599162 0.056629077
-0.006464682 0.07560366 0.10441054 0.07103294 -0.010848085 0.06744933 -0.059662174 0.014185667
-0.078830026 0.07355919 -0.02660972 0.07171488 0.0316321 -0.13394836 -0.07704113 -0.019625451
0.034452494 -0.05929296 0.10501115 -0.014886976 0.051056642 0.13931714 0.056370776 0.10421532
-0.06006967 0.026091358 0.037717123 -0.09318101 0.032514278 0.113149755 -0.03550379 -0.01370531
-0.089762144 0.07990176 0.009629083 -0.004866447 -0.052736588 0.031195985 0.10012414 -0.019272922

fc2.weight f4 [128, 128]
00000000: 7c5f 0cbe 5eac ca3c 5944 03bd 3d1c 583e
00000010: a795 483e dee5 163e 621d 103e 1a4b 21be
00000020: 248d 08bd 7794 df3d 3612 1c3e 77f8 dc3d
00000030: f316 e7bd 643c c9be 2e9f 60be 7c8f 1e3c
00000040: bda9 013e 9392 823d cc19 44be 736c 303e
00000050: 6fc5 683e ea06 8e3c 38b8 fabd 06fb 8dbe
00000060: f233 713d 5505 8e3b a80c a2bc e707 5e3c
00000070: 8ca6 2b3e 78d1 b63d 86dd acbe 2611 023e
00000080: a597 c1bc 0c73 853e 4bcc 963d 8bcf 93be
00000090: 140b a5be 6b1d 6d3d 7af9 52bc 7c8d bbbd
000000a0: d92c 033e 1116 9f3d 7f41 8a3d f591 83be
000000b0: 513e 413e 8432 8dbe 2b26 48be b0cd f63d
000000c0: 8603 61be c8b5 f33d 7665 013e 96ef 61be
000000d0: 2b81 b33d d704 1fbe 9f8d 213e 8fb2 3d3e
000000e0: 0a43 b13d fa2e d3bd c084 503e f615 1abd
000000f0: 62fe dcbe 9075 873d b874 ffbe 0e3c 143e
00000100: 0af7 25bc 091f ffbc 64da e33c 27a9 5cbd
00000110: a3d2 12be df27 8abe 2b06 843d 84dd fcbd
00000120: 760d 98bb cfca 103e 0534 6ebe f1e6 8dbc
00000130: 0299 ec3d 8045 4bbe 1be7 dc3d c7ed c93d
00000140: 97ef a5bd 5bdf ca3d f596 443e 12f0 65be
00000150: c3bf 8fbe 6cb4 803e 1a14 0d3e 029e 2a3c
00000160: 8c9e 0fbe 1ac5 dcbe a5a8 8dbe 4b98 313e
00000170: 175a 573e 68d8 5f3d 4213 4f3e f210 11bd
00000180: 5b84 b33a 094a c13d eb3c 113e 5b7c f5bc
00000190: 7b45 563e 8d09 0c3e 59ac ebbc 8b1b 213d
000001a0: 96db dbbd 2233 35be 78f0 a63d 7561 453e
000001b0: 063d fe3d 1b34 1abe a826 513d d707 c3bd
000001c0: 67fd 8e3d 4045 65be b354 353e a72d 103d
000001d0: 5533 583c 2ffb c2be 4e4d bc3d f0ac e73d
000001e0: 1b8f 063e 8d8c 803d 6145 11be bff5 453e
000001f0: 28c7 b5bd 3c74 52be 49e1 9d3d 56d9 e6bd
00000200: 3b9e 2abe 5f11 89bd 215c 113d f9d8 623e
00000210: f34e ca3d ec37 e23d 7ba2 6a3d 6db0 4abe
00000220: 9840 d73d d40a 803d 5f78 363d 5d1a 2f3c
00000230: 9b06 45be 0ec3 e0be ce8f babe 44f4 c33d
00000240: 2087 243e 8c20 243d 39ef 1cbe e66f 013e
00000250: 11fb 3d3e 3f13 203e 05e4 06be bbe8 77be
00000260: deaa f83d 83b2 483d c5c4 9d3d 4f98 ad3d
00000270: 1ec7 9a3d b2c3 1a3e 9091 0dbf 7e7a 3b3e
00000280: 764c 053e 75a6 7d3e 9c19 b63d 1c16 aebe
00000290: 29cb e8be 6895 0e3d 715e 44bd aca5 e4bd
000002a0: 396b 41bc 6786 483e 3061 2a3e 5cbc b0be
000002b0: 160e 203d be6a 8bbe 701c 87be 01f0 703d
000002c0: e128 50be 00b8 9dbc 4f89 f33d d802 b5be
000002d0: bc31 eb3d ef44 59be f1c6 9ebc 2679 7e3c
000002e0: 118d f03d 5aef e6bd f6db 363e 11ed 353c
000002f0: a72d 20bf a939 33bd e54d ccbe 45e4 d43d
00000300: 3d41 afbd a521 8b3d 296c 563e 0633 c5bd
00000310: d940 b0be 69da 7ebe 9c3b 58bd 2e8f 56bc
00000320: aa89 943d efb1 d33d af89 67bd 645b ea3b
00000330: 834d a23d 424d 9ebd 0155 2d3e fbbf 563d
00000340: bcf8 7fbe 78f7 02bc 09ca f83d 7c3e 88bd
00000350: 6219 4dbe 90dc 553d 2671 363e 03e0 bd3d
00000360: 7fd6 52be 32de 98be 7869 94be 717b 033e
00000370: e5b4 1e3e 8b35 1dbb 8348 e83d 60fc b73d
00000380: 3bbe 93bd c492 a43d a990 023e ffa3 f73b
00000390: fe39 373e af91 fe3d bb49 0e3e 6f2a d33d
000003a0: 624b fcbd 680b 08be 16ec 9dbc dc81 133e
000003b0: 77e3 433d 7d94 ecbd 9672 5c3d f0ee 9cbb
000003c0: 8dcc c7bb 1082 49be b554 1d3e ed26 9f3c
000003d0: 4f19 5e3b 1509 dfbe ca52 aebd c694 f83c
000003e0: bdfa f83d e274 8fbc 47ac 40be aadb 233e
000003f0: 0ade d1bd 2bdc 42be 029d c23c fc15 31be
-0.137083 0.024740394 -0.032047603 0.21104522 0.19588338 0.14736125 0.14073709 -0.15751305
-0.033337727 0.10916989 0.15241322 0.107895784 -0.11283674 -0.39303887 -0.21935722 0.009677764
0.12662406 0.06375613 -0.19150466 0.1722887 0.22731565 0.017337281 -0.12242168 -0.27730578
0.05888743 0.0043341317 -0.019781426 0.013551689 0.16762751 0.08926672 -0.3376276 0.12701854
-0.02363188 0.26064336 0.073631845 -0.2886928 -0.32235014 0.057889383 -0.012876863 -0.091578454
0.12810077 0.07767881 0.06750774 -0.25697294 0.18871428 -0.27577603 -0.1954581 0.120509505
-0.21974 0.118999064 0.1263636 -0.22064051 0.08764871 -0.1552919 0.1577668 0.18525146
0.08655365 -0.103116944 0.2036314 -0.0376186 -0.4316283 0.0661422 -0.49893737 0.14476034
-0.0101296995 -0.031142728 0.027814098 -0.053872254 -0.14338164 -0.26983544 0.06446489 -0.12346938
-0.0046402765 0.14139865 -0.23262031 -0.017322036 0.115526214 -0.19850731 0.10786267 0.098598056
-0.08102339 0.09905883 0.1919821 -0.22454861 -0.2807599 0.2513765 0.137772 0.010413649
-0.14025325 -0.43119127 -0.27667728 0.17343251 0.2103046 0.05464974 0.2022219 -0.03541655
0.0013696061 0.09437949 0.14183395 -0.029966524 0.20924942 0.13675518 -0.028768705 0.039332908
-0.10735242 -0.17695287 0.081513345 0.19275458 0.12413983 -0.15058939 0.051062256 -0.0952298
0.069819264 -0.22389698 0.17708091 0.035199787 0.013195832 -0.38082263 0.09194432 0.11312282
0.13140528 0.06276808 -0.14186622 0.19332026 -0.08875877 -0.20552152 0.07708985 -0.11271922
-0.16661923 -0.066927664 0.03548825 0.22153081 0.098783396 0.110458225 0.05728386 -0.19793864
0.10510367 0.06252065 0.04454839 0.010687438 -0.19240801 -0.43898815 -0.3643784 0.09568074
0.16067171 0.0400701 -0.15325631 0.12640342 0.18552805 0.15632342 -0.1317292 -0.24209873
0.12141965 0.048998367 0.077035464 0.08476316 0.0755751 0.15113714 -0.55300236 0.18308446
0.13017449 0.2477053 0.08891603 -0.34001243 -0.454675 0.034810454 -0.04794163 -0.11164412
-0.011805349 0.1958252 0.16638637 -0.34518707 0.039075933 -0.27229875 -0.26388884 0.058822636
-0.20328094 -0.019252777 0.11891424 -0.35353732 0.114840955 -0.21217702 -0.019381972 0.015531814
0.11745656 -0.112761214 0.17857346 0.011103884 -0.6256966 -0.04375616 -0.3990318 0.103951015
-0.08557365 0.067935266 0.20939697 -0.096288726 -0.34424475 -0.24888004 -0.052791223 -0.01309566
0.0725282 0.103366725 -0.05652779 0.007152008 0.079249404 -0.077295795 0.16926958 0.05242918
-0.24997228 -0.007993571 0.1214791 -0.06652543 -0.20029214 0.052212298 0.178166 0.092712425
-0.20589636 -0.29857022 -0.28986716 0.12840058 0.15498693 -0.0023988213 0.113419555 0.089836836
-0.07214018 0.08035806 0.12750496 0.0075573917 0.17893216 0.12430131 0.13895313 0.10310828
-0.12319066 -0.13285601 -0.019277614 0.14405006 0.04782435 -0.115517594 0.053820215 -0.0047892258
-0.0060973824 -0.19678521 0.15364344 0.019427741 0.0033889597 -0.43561617 -0.085118845 0.030344378
0.121571995 -0.017511789 -0.18815719 0.16001764 -0.10247429 -0.190293 0.023756508 -0.17293543

fc2.bias f4 [128]
00000000: da7b 78bd 9165 373d 577c 2b3d ef0c e4bb
00000010: 1f5a e1bc 89f0 9fbc e7c5 cabc 8ef1 4ebd
00000020: 03b9 d4bc e452 233d 342f 87bc a12e 8dbb
00000030: 8005 983d 7248 773d 2ce9 413d b7de 78bd
00000040: abb1 ea3c 2294 46bd 2e3a dcbd 2ec3 dbbc
00000050: 58f6 3fbb 7303 463d cc23 a63d 98a2 5fbd
00000060: ea36 1e3c 4e79 4d3d eb0a 3d3c ae2a 313e
00000070: 056c 023e 92c2 b6bd b156 8e3d 85c3 28bd
00000080: 1e37 353d e51f 81bd b012 59bd a66f 84bd
00000090: e2cf 093d b100 bfbd 7c10 9bbc 7f41 103a
000000a0: 3272 27bd 7c7e af3c 6aa0 813d faf0 9e3d
000000b0: 686c 69bd 357e 96bd d7d9 b9bd 9b16 8f3d
000000c0: 5ae3 a83c 69bb 053d 0ee1 93bd fdb7 683d
000000d0: d3e0 143d 9a80 7fbd bc25 34bd a737 db3d
000000e0: d1c4 42bd 0da2 583c 59fd 883d 89cb 303d
000000f0: 7305 a1bd 88f8 cf3d 611a babd 8f55 f4bc
00000100: 8e53 92b9 742f ff3d 2964 923d ada3 c13d
00000110: 981f a83d bda9 143d 3dcd 353e 02c7 4fbd
00000120: 04fe c6bd 7695 bc3d 6fbe a83d 3ad9 883c
00000130: a5a5 28bd ba50 aabd 22b5 13bd 1f10 743d
00000140: b97b 113e 15d0 92bd a454 b0bd ffc5 59bd
00000150: 7353 963b 29e8 36bd f371 733d 6450 773d
00000160: 0af0 6fbd 8c33 023d ee8c 463d 2733 98bd
00000170: 0712 fa3c d94f 2dbd ed44 293d b588 36bc
00000180: b277 6d3b 3cdf 82bd ed0c b2bb 2880 51bc
00000190: 9eaf 9bbd 2ca7 34bd 13d0 5b3d 84f6 89bd
000001a0: fcc4 a6bc 295d 173d f7e8 113d 1667 5ebd
000001b0: fe9f 903d a8df 143c 3803 7abd 13c5 bebb
000001c0: a619 493d b01e aebd 5888 abbd dc71 ab3d
000001d0: 98a3 64bb d8be acbd 552f 1e3d a9e1 bb3a
000001e0: 8976 07be ab72 acbd 429c d8bd 6708 973d
000001f0: f539 093c 2165 ed3d a67f 92bb 8f3e e63d
-0.06066499 0.044774596 0.041866627 -0.0069595496 -0.027508793 -0.019523876 -0.02475257 -0.050523333
-0.025967127 0.039873973 -0.016502 -0.004308537 0.07422924 0.060371824 0.04734151 -0.060759272
0.028649172 -0.048481114 -0.107532844 -0.026826467 -0.002929112 0.048343133 0.081122965 -0.05459842
0.009656647 0.050164513 0.011538248 0.17301437 0.12736519 -0.0892383 0.06950129 -0.041202087
0.044242017 -0.063049115 -0.052996337 -0.06466608 0.033645518 -0.09326304 -0.018928759 0.0005502924
-0.04088039 0.021422617 0.06329425 0.077608064 -0.05698815 -0.07348291 -0.09074753 0.069867335
0.020616222 0.03264943 -0.0722066 0.05681609 0.03634722 -0.062378503 -0.0439813 0.10703974
-0.04755098 0.01322223 0.06688947 0.043162856 -0.078623675 0.101548254 -0.090870626 -0.029825954
-0.00027909543 0.12460223 0.0714801 0.09455047 0.08209151 0.036294688 0.17754073 -0.050726898
-0.097164184 0.09208195 0.08239447 0.016705144 -0.041173596 -0.083161786 -0.036061414 0.059585687
0.14207353 -0.07168595 -0.08609894 -0.05316734 0.0045875846 -0.044655 0.059434842 0.0603794
-0.05857853 0.03178744 0.048474245 -0.074316315 0.030526174 -0.042312477 0.0413255 -0.011140992
0.0036234674 -0.06390235 -0.00543367 -0.0127869025 -0.07601856 -0.04410474 0.053665232 -0.06736472
-0.020357601 0.03695408 0.035622563 -0.05429753 0.07061766 0.009086527 -0.061038226 -0.005821833
0.049096726 -0.08501947 -0.08375615 0.08371326 -0.0034887549 -0.08434838 0.038619358 0.001433422
-0.13228811 -0.08420309 -0.10576679 0.073746495 0.008375634 0.115915544 -0.0044707833 0.11242401

q_out.weight f4 [5, 128]
00000000: a9a0 dabd 9cf8 80be e84d be3c 98e3 183d
00000010: 55a6 38be 1ec8 54bc c0f1 90be 0c16 38be
00000020: 4315 2ebd 40bf 3abe b596 4dbd aa8c 793d
00000030: d26c 31be 140c 02be 277f 70bd f9c0 a0bd
00000040: dee8 8abd 5a73 76be faee 1e3d 7d5a 573c
00000050: 3fbd bd3d a10a 12be 1a7f 6bbe 61a7 dabd
00000060: e57b ae3c 4ad2 273d 958e 6c3d 5f2e f83d
00000070: 98e6 2f3e 3369 4fbe 483f 8ebe 9057 3bbe
00000080: 1e31 2bbe 2c20 873d f422 52be 94b2 683d
00000090: 0b78 f9bd aaa6 433d c99b 13be a159 56be
000000a0: 75f5 563d ade0 10bd b71a 88be 2032 f339
000000b0: df22 58bd 886b 39be 9b19 fd3d 6d12 993d
000000c0: 4c39 b03b 9430 9ebd e23d d0bd 281c a83d
000000d0: 0ca6 893c 09fa 59be e054 a73e 4263 56be
000000e0: 6365 313e 9ac9 213e 7e09 543d e71e 55be
000000f0: c7f2 833d 039b 1a3e 1d0e efbd b48d 51bd
00000100: 7bd9 b53d 7297 3e3e 5eeb 64be 2d69 4bbe
00000110: 2a7d 6bbe 517d 11be 777f 30bd fac3 1abe
00000120: 4c5d b1bc 741b f33d 1e06 4bbd 6ec4 bdbd
00000130: 35bb e53c ff95 963d c32c 7f3d 4cfb a43c
00000140: de0c 593e b1f0 ddbb e94b 92bb aa5d 53be
00000150: f82a 33bd 2d64 1cbe 2a7a d4bd 914d 7bbe
00000160: edfc b6bd 8499 253e a41c cb3d cb7c c33c
00000170: a58d 4e3e 1193 55be 0832 9c3d 658a dbbc
00000180: 7aac b33e 168c 0bbd 3f9e 11be 4761 2cbd
00000190: 2ddc 94bd 0414 613d 1efc 96bd bba9 78be
000001a0: a5c5 f4bc 180d eabb 2fe4 69be ce40 ef3d
000001b0: 3d2e 4cbe 667f 3c3d 78ac 91bd bd6a 90bd
000001c0: 02b4 4d3e 020e 5dbe 0369 8cbd afab 05be
000001d0: 88d9 953d ad53 9dbc 8684 353d a7ec 62bc
000001e0: 81f7 e13d 42e0 dbbc 329d 6ebe 69ac 02be
000001f0: 9bac 163d 73c1 0c3e cf77 223d 57a7 363c
00000200: ee31 29be 2cbe 6abe b123 893d 8fb7 8e3d
00000210: 7a08 3bbe fdf8 b83d 6ced eabd b4a1 36be
00000220: b3bf a33c 944d 28be ec22 333d 9617 32be
00000230: 0319 9abd 6576 30be 529a a13d c2a4 14be
00000240: 9ef9 d6bc b26a 55be 015d 583d 52c3 d13c
00000250: 0feb a93e 2327 1abe 69ff 97bd ebbb 25be
00000260: 7078 afbc 622f a73d 49b6 fb3b a41d 81be
00000270: 4e7a b1be c23f 64be e4ad 24be a3a0 0cbe
00000280: 8ff2 48be f4ed be3c 7569 0cbe 55a3 633c
00000290: 6f50 43be 80ee cebc 6e65 36be 8499 49be
000002a0: 3b17 753d 1b59 51bd 1f23 3bbe 0d3c 67be
000002b0: 29c7 16bd d00b 5abe 4d17 39bd b357 bbbe
000002c0: bed9 013f 3cc4 01bc 34d9 1d3d e65e 0ebc
000002d0: 7949 2e3c 3f95 a1bd 5028 483e 3eeb 84bd
000002e0: 4317 be3e 6f8d 88bd 6d13 3fbd 2479 3bbe
000002f0: fa18 a13d a286 9c3e 0be1 6cbe cf67 29bc
00000300: 7a5e 863e 5ff0 31be 3cc0 2cbe 6686 36be
00000310: b5cf 11be 69c6 2ebe 9a23 2cbe b8a5 19be
00000320: c76e 9f3d d552 98be a95c 3cbe dede 84be
00000330: 03ca a8bb e726 75bc 1b5c 32bc 776a 00bc
00000340: a6a8 bbbc 532d 9c3d c1a1 50bd c222 53be
00000350: 82b1 413c 6f2f 03be 9237 1dbe bf96 20be
00000360: 6109 923d 685d d63d 811f 983e e9bb 833d
00000370: d782 ab3e 4d2d 48be a16a e43e 2ef1 f63c
00000380: 2634 3cbe 8f03 2d3d c3c2 a3bd 718e 9d3d
00000390: 6dae 7e3d 9c7e 923d e8e9 3ebe 2bd1 30be
000003a0: 7aa8 553d c969 6c3d 5d40 04be f09c 353e
000003b0: c513 f2bd be97 8bbd f14c 7a3d d110 25be
000003c0: e33f 6bbd e428 33be a36e 8a3d 5372 3bbe
000003d0: d92d 8d3e 52e8 32bd 805c 933c ec03 6b3d
000003e0: a82c f53e 0da1 fe3c f5a4 45be 5522 5bbe
000003f0: cb35 143d f157 a63e 9798 893c cd31 afbe
-0.10675175 -0.25189674 0.023230508 0.037326425 -0.180322 -0.012987165 -0.2830944 -0.1797716
-0.042500746 -0.18237019 -0.050192554 0.060925163 -0.17326668 -0.1269992 -0.058715012 -0.078493066
-0.06782697 -0.2406744 0.038802125 0.013144133 0.092646115 -0.14261867 -0.22997704 -0.10676456
0.021299312 0.04097203 0.057753164 0.121182196 0.17177808 -0.20254974 -0.27782655 -0.18295121
-0.16717955 0.06597933 -0.20521146 0.05681093 -0.121810995 0.047766365 -0.14414896 -0.20932628
0.05248018 -0.035370518 -0.26582882 0.00046385918 -0.05276763 -0.18107426 0.123583995 0.074742176
0.005377924 -0.07724109 -0.10168053 0.082084954 0.01680281 -0.21286787 0.32681942 -0.20936301
0.17323832 0.15799561 0.051766865 -0.2081257 0.064427905 0.15098195 -0.11672614 -0.05116053
0.08879372 0.1861246 -0.2235541 -0.1986434 -0.22996965 -0.1420796 -0.04309031 -0.15113822
-0.021650933 0.11870471 -0.04956638 -0.092659816 0.028043369 0.07352828 0.062298547 0.020139359
0.21196315 -0.0067730774 -0.0044646156 -0.20641199 -0.04374215 -0.15272589 -0.103748634 -0.24541308
-0.089349605 0.16171843 0.09917572 0.023863217 0.2017122 -0.20856883 0.0762673 -0.02679939
0.35092527 -0.034069143 -0.14220522 -0.04208496 -0.07268558 0.05495073 -0.07372306 -0.24283497
-0.0298794 -0.007142674 -0.22840951 0.116822824 -0.19939514 0.046019934 -0.07112974 -0.07051609
0.20088199 -0.21587375 -0.06855967 -0.13053773 0.073168814 -0.019204939 0.044315837 -0.013850368
0.11033536 -0.026840333 -0.23302153 -0.12761082 0.036785703 0.1374567 0.03966504 0.011148295
-0.16522953 -0.22924107 0.06696261 0.06968605 -0.18264952 0.09031866 -0.11471066 -0.17835122
0.01998887 -0.16435844 0.043734476 -0.1739181 -0.07524302 -0.17232664 0.078907624 -0.14515975
-0.026242074 -0.20841482 0.05282307 0.025605831 0.33187148 -0.15053992 -0.074217625 -0.16184966
-0.021419734 0.081633344 0.007681642 -0.25217927 -0.34663624 -0.22289947 -0.16081959 -0.13733153
-0.19623779 0.023306824 -0.13712104 0.013893922 -0.19073652 -0.02526021 -0.1781213 -0.19687468
0.059836607 -0.05111037 -0.18275116 -0.22581501 -0.036811028 -0.21293569 -0.045188237 -0.36590347
0.50722873 -0.007920321 0.03853722 -0.008689618 0.010637634 -0.078897946 0.19546628 -0.064901814
0.37127122 -0.06667601 -0.046649385 -0.1830793 0.07866092 0.30571467 -0.23132722 -0.010339691
0.26243955 -0.1737685 -0.16870207 -0.17824706 -0.1423939 -0.17067875 -0.16810456 -0.15004623
0.07784801 -0.29750696 -0.18394722 -0.25951284 -0.005151035 -0.014962888 -0.0108862175 -0.007837883
-0.022907566 0.076258324 -0.05093551 -0.20618728 0.011822106 -0.12811063 -0.1535323 -0.15682505
0.07130695 0.104670346 0.29711536 0.064323254 0.3349826 -0.19548531 0.446126 0.0301443
-0.18379268 0.042239722 -0.07996132 0.07693184 0.062178064 0.07153055 -0.18643916 -0.17267291
0.052162625 0.057718072 -0.12915178 0.17735648 -0.11820177 -0.06816052 0.061108533 -0.16119696
-0.057433974 -0.17496067 0.067593835 -0.1830533 0.2757404 -0.04367859 0.017988443 0.057376787
0.47885633 0.031082654 -0.19301207 -0.21399815 0.036184113 0.3248897 0.016796393 -0.34217682

q_out.bias f4 [5]
00000000: 74be 803d 47f0 b4bd 455f fabd a217 9dbd
00000010: bddb dc3d
0.06286326 -0.08834892 -0.122252025 -0.07670523 0.10784099
