models/intermedium_save/q_ind_agent_0.pt (torch, 108573 bytes, 6 tensors)

fc1.weight f4 [128, 71]
000000 47 35 77 3d 20 16 11 bd 33 16 7e bd fe 4c df 3d
       0.060353544 -0.03542149 -0.06203289 0.10903357
000010 05 41 01 bd ad d0 b3 bd 77 8a 49 bd f1 7f e8 be
       -0.031556148 -0.08780036 -0.049204316 -0.45410112
000020 35 c4 d0 3d f5 8d 24 bd 92 e2 5e 3e 55 66 b3 3c
       0.101936735 -0.040174443 0.21766117 0.021899382
000030 1c 16 5d bc 99 de 8f 3d 65 b1 eb bd 15 65 9e bc
       -0.013494041 0.07024879 -0.11508445 -0.019335309
000040 ac 81 59 bd ef 2b 2b 3e d9 0f cd 3d e3 db bf bc
       -0.05310218 0.16715978 0.10012788 -0.02342028
000050 67 94 69 3e 68 2b f5 3c fa 4a 25 be 08 3c d6 3d
       0.22810517 0.029927924 -0.16141883 0.10460669
000060 c5 26 bc 3b ef da ba 3d 1b b4 35 3d 09 2f 04 bd
       0.0057419264 0.091237895 0.044361215 -0.03227142
000070 44 bf 8a 3d 4a 7e 0e 3e c8 ca 87 3c bb 8e d6 3c
       0.06774762 0.13915363 0.016576186 0.026191106
000080 1a 25 b6 3d 13 12 e5 bc 1d ab 30 3e 92 8d 88 3d
       0.08893795 -0.02796272 0.17252775 0.066676274
000090 45 08 83 3d 31 9e b8 3d ed a1 d0 3c 65 4b 77 bd
       0.06398062 0.090145476 0.025467837 -0.060374636
0000a0 aa ec 6a 3d b8 db d1 3e 8d 78 34 bc 14 e6 a0 bc
       0.057354607 0.40987945 -0.01101507 -0.01964096
0000b0 84 e2 31 bd ef 00 7b bc 3b 4d d2 3d f0 ee 0c be
       -0.043428913 -0.015320047 0.10268637 -0.13763022
0000c0 8b 9c 50 3e ee e1 8a 3d 33 50 be 3c e1 08 ad bc
       0.20372216 0.06781374 0.023231601 -0.021122398
0000d0 39 c9 88 bd d1 37 e1 3d 85 a2 8d bc b7 98 e3 bb
       -0.06679005 0.10996974 -0.01728941 -0.0069456953
0000e0 63 2e 80 3d 19 34 22 3e ad 4e 63 3d e1 cf 85 3d
       0.062588476 0.15840186 0.055494953 0.065337904
0000f0 08 02 0b bd c3 96 e4 3d e9 6d 29 3e c1 31 14 3d
       -0.033937484 0.11161568 0.16545834 0.03618026
000100 d7 f6 12 3c b6 0f 6c bd 23 2d 9c 3d a4 42 d3 bd
       0.008969984 -0.05763217 0.07625797 -0.10315445
000110 c3 0c 62 bd 49 5f 46 bd dc d5 4d bc 96 4a 3b 3d
       -0.05518795 -0.048430715 -0.012563195 0.045725428
000120 70 c0 36 bd 84 d4 15 3d 13 f6 d1 bd 54 4d 7b 3c
       -0.044617116 0.036579624 -0.10252013 0.015338261
000130 54 b1 c1 bd b5 40 f5 3d fa 15 c2 3e f5 de 0f 3d
       -0.09457651 0.119752325 0.37907392 0.035124738
000140 a1 2c 73 3c 10 4b ab 3d c5 16 7a bd 54 a3 f4 bd
       0.014842183 0.083639264 -0.06105687 -0.11945215
000150 3d 1b 86 3d 89 f8 16 bd 9b de 22 3e 21 48 dd 3b
       0.06548164 -0.036858115 0.1590523 0.006752983
000160 4c cf 89 3d ed 55 22 3d ca 30 a4 3d 42 81 7e be
       0.06728992 0.039632726 0.08017118 -0.24853995
000170 35 c8 26 3d 20 bb 08 bd b8 94 fe 3d dd e6 01 be
       0.040718276 -0.03338158 0.124307096 -0.12685724
000180 18 c4 af bd fb 01 6e 3d 2e d7 32 3b 01 fc 29 be
       -0.08582324 0.058107357 0.0027288902 -0.16600038
000190 29 d9 d1 3b 8b d3 d5 3d 05 90 b9 3d c9 40 bd bd
       0.0064040613 0.10440739 0.09060673 -0.092408724
0001a0 f7 b9 3c 3d 09 ff aa bc 7f a3 1a be 8a f6 09 bd
       0.046075787 -0.020873563 -0.15101431 -0.033682384
0001b0 5b da b3 3c 3f 8a 02 be 5f c7 da 3d 87 3d 44 3e
       0.021954706 -0.12748049 0.10682558 0.19164096
0001c0 14 e1 e3 be 35 0a c8 bd 72 3b 05 bd de 43 ab 3d
       -0.44507658 -0.09767572 -0.032527395 0.08362554
0001d0 f9 3b 46 bd 59 00 0c 3d 18 64 6b 3d e4 cc 16 be
       -0.048397038 0.03418002 0.057468504 -0.14726597
0001e0 e8 76 bf bd 53 4c d3 3d d5 0e f8 bc d0 0e 0a 3d
       -0.093488514 0.10317292 -0.03028051 0.033705533
0001f0 04 95 c7 bc 3e 17 24 be 39 e4 33 3e 0d 29 47 bd
       -0.024363048 -0.16024491 0.17567529 -0.048623133
000200 70 52 85 bd d7 a1 96 bc 35 03 16 3b 12 50 ee 3c
       -0.06509864 -0.018387718 0.0022890095 0.029090915
000210 fc 43 59 3d 60 28 06 be 5a 1c 26 bc b9 b2 8c 3d
       0.05304335 -0.1310134 -0.0101385955 0.06870026
000220 03 df 82 3d 0b 35 ca bd 00 f4 96 bd 71 58 de bd
       0.06390192 -0.098733984 -0.07370758 -0.108567126
000230 95 75 0a 3d e2 f8 c2 bd 23 f7 8e bd 3e 88 82 bc
       0.03380354 -0.09520127 -0.06980731 -0.015934106
000240 a3 e4 f9 bc c4 6e 15 3e 16 a7 54 3e 56 28 06 be
       -0.03050453 0.14593035 0.20766863 -0.13101324
000250 d8 f6 21 3d eb 44 b7 be 92 80 28 3e 3d 99 af bd
       0.03954205 -0.35794768 0.16455296 -0.0857415
000260 b1 de 82 3d 34 df 14 bd 64 fa ee 3c 22 f5 cc bd
       0.06390131 -0.036345676 0.02917213 -0.10007693
000270 21 8d f5 bc ce 98 94 3d 5a aa e0 bd a1 54 54 3d
       -0.029974522 0.07255708 -0.10969992 0.05183852
000280 99 ff d8 bc a7 08 df bd e5 2c 9b 3d da 69 14 be
       -0.026489066 -0.10890322 0.07576922 -0.14493504
000290 13 21 1e be 6e 4e 18 3d a3 79 44 3c ed 93 86 3d
       -0.15442304 0.03718417 0.011991891 0.06571183
0002a0 89 17 1a 3d ad 23 ef bd 12 6f de 3d 31 c2 49 3c
       0.0376201 -0.116767265 0.10861029 0.012314365
0002b0 e5 1f 10 bb 37 73 ed 3d 77 f3 62 3c a3 7e c3 3d
       -0.0021991667 0.11594241 0.013851992 0.095456384
0002c0 e5 7d 88 3d f9 75 2b 3e 12 d5 48 bc 0f 1f 29 3d
       0.066646375 0.16744222 -0.012257831 0.041289385
0002d0 7a a8 29 3e a6 01 83 bd c1 36 4a be d1 82 a6 3e
       0.16568175 -0.06396799 -0.1974745 0.3252168
0002e0 cc a5 0d bd 13 fc 4c 3d 8c dd 85 3d 51 c6 68 3b
       -0.034581944 0.050045084 0.06536397 0.0035518596
0002f0 54 b8 80 bc ba 8e 15 3d 29 d9 ca 3d bc 47 d7 3d
       -0.015712894 0.036513068 0.09904701 0.10511729
000300 78 b6 d4 bc 91 27 a7 3d 78 ad 2e 3d 69 d6 17 3d
       -0.025965914 0.081618436 0.0426459 0.03706971
000310 3f e6 8c 3d 52 32 fd 3d 33 62 eb 3d eb 41 de 3d
       0.068798535 0.123631135 0.114933394 0.108524166
000320 31 0b 38 bc 5b bb 83 3d 20 6e 04 bd 25 48 02 3e
       -0.011233137 0.064322196 -0.032331586 0.12722833
000330 04 0e 40 3e a2 c2 a1 bc a4 b7 98 3c 22 2b 0f be
       0.18755347 -0.019746128 0.018642254 -0.13981298
000340 d3 c4 1c 3d 39 59 b8 bd 9f c5 a6 3d 4e 8c 94 3d
       0.038273644 -0.09001393 0.08143162 0.072533235
000350 98 82 47 bd 7f 0e 84 3d d6 1e 18 bd 17 30 8d bd
       -0.04870853 0.064480774 -0.037138782 -0.06893938
000360 af 5a 31 3e 44 03 67 3e 4e 1a 88 bd a5 a6 86 3d
       0.1731975 0.2255984 -0.06645642 0.06574754
000370 65 55 19 3f 5f 2a 25 3d e8 f6 1a 3e bf df cb bd
       0.59895927 0.04032361 0.1513325 -0.099547856
000380 25 2b 53 bd 4d c2 cb bd 02 63 9f 3d 21 a0 dd 3d
       -0.051554818 -0.09949169 0.07782556 0.10821558
000390 1a df 92 3c f7 b0 4f 3e 1d da 05 3c 6e 95 ac 3d
       0.017928649 0.2028235 0.008169678 0.08426939
0003a0 a6 1f f0 3d 07 f2 68 be 2a 3c a4 bd 52 cd 29 3e
       0.117247865 -0.22748576 -0.08019288 0.1658223
0003b0 f2 93 02 3e da 22 03 3e bc 6a 70 bd d3 51 1f bd
       0.12751749 0.12806264 -0.05869554 -0.038896393
0003c0 03 72 b8 3d d8 08 5e bd 95 10 50 bd 87 33 9f 3c
       0.09006121 -0.054207653 -0.050797064 0.01943375
0003d0 c3 ce 8b bd 41 8f 3d bd 32 f9 be 3c f4 d3 c2 bd
       -0.06826546 -0.046279196 0.023312185 -0.09513083
0003e0 43 b6 e3 bd 0d 14 b8 bc 82 17 1c bc a3 13 5a 3c
       -0.11118748 -0.022470498 -0.009527089 0.013310346
0003f0 ea e1 03 3e eb 5b 6b bd 9c 31 e6 be 9a a1 96 3d
       0.12879148 -0.057460707 -0.44959724 0.07355042

fc1.bias f4 [128]
000000 6f d6 ea 3c dd 5d 70 3d 88 9d 10 bd 56 e9 31 3e
       0.028666703 0.058683265 -0.035306484 0.17374167
000010 18 d1 af 3d 3b 76 02 3d 9d 9f 48 3d 3e fe 6e 3d
       0.08584803 0.031851035 0.048980344 0.058347933
000020 59 a5 6b bc 04 f7 89 3d 4d 23 e9 3c fb 8d 16 bc
       -0.014382684 0.067365676 0.028459216 -0.009189124
000030 f3 53 e4 3d 56 bc 53 bd fd 48 52 3c 89 df bc 3c
       0.111488245 -0.051693283 0.012834785 0.023055809
000040 36 aa 93 bd 58 f9 4f bd 67 eb 1c 3d df eb 8b bc
       -0.072101995 -0.050774902 0.038310435 -0.017080246
000050 ab b0 b3 bd 1b dd 4e bd 20 e7 d8 3d 38 d4 5f bb
       -0.08773931 -0.05050383 0.105909586 -0.0034153592
000060 d6 e5 7c 3d 7f ed 57 bd 79 a1 38 3e 2a c0 9c 3d
       0.061742626 -0.05271673 0.18030347 0.0765384
000070 68 19 0d bc d0 c9 f5 3d 4a 51 6c 3d 14 9c 10 3c
       -0.008612014 0.12001383 0.05769471 0.008826274
000080 d5 f4 34 39 e7 25 97 3d ee 40 bb 3c 93 c8 ae bd
       0.00017257345 0.07380276 0.02285811 -0.0853435
000090 cb a2 a9 bd 53 b4 54 3e 56 17 1f 3d 43 8b 3b 3e
       -0.082830034 0.20771913 0.038840614 0.18314843
0000a0 3f 98 f2 3d 38 d4 e2 bc 73 69 30 bd ef 91 ee 3d
       0.11845445 -0.027689084 -0.043069314 0.116489284
0000b0 9f 6e cc bd 97 62 b6 3c d3 ca 7f 3d 7c f0 0a bd
       -0.09982037 0.022263808 0.062449288 -0.03392075
0000c0 8b d3 b9 3d 61 56 df 3d 3e bc 23 bd ff 90 eb bc
       0.09073552 0.10905147 -0.039974444 -0.028755663
0000d0 38 f9 b7 3c c4 67 c8 bc cb 6b ca 3d 18 9b c3 bc
       0.022457704 -0.024463542 0.09883841 -0.023877665
0000e0 32 9c 22 bd 51 4f d9 3d 5a 94 89 3b 6c f5 e5 3d
       -0.03969974 0.106108315 0.004198593 0.11228451
0000f0 2b 13 56 bd 59 79 51 bb 7c bb 42 3d b9 27 9c bd
       -0.052264374 -0.0031963198 0.04754208 -0.07624764
000100 8f 46 8b 3d 3d d1 9a bd 5d 21 3e 3e 09 4a 01 3d
       0.06800567 -0.0755944 0.18567415 0.031564746
000110 9f 05 46 bd a8 41 bd 3b 55 b9 8b 3d 21 58 53 3d
       -0.048345204 0.005775649 0.06822459 0.05159772
000120 9b 01 e1 3d e2 1a 4a 3d b6 7a 6f 3d f0 6d 0a bc
       0.10986634 0.049342044 0.058466636 -0.008449063
000130 a0 e1 2e 3c 1a b3 82 bd aa de 3e 3d 7a 92 ec 3d
       0.01067391 -0.06381817 0.046599068 0.11551376
000140 84 87 ff 3d c4 3d 3e 3d b5 0c 84 3d ab cd 31 3d
       0.124770194 0.046445623 0.06447736 0.04340903
000150 6c 34 4a bd e3 21 b3 3d 6c 78 7b 3d fc 09 4c bc
       -0.0493664 0.08746698 0.06139414 -0.012453552
000160 63 09 8b 3d 50 da eb 3d 24 c7 c5 bd b0 99 3b bd
       0.067889 0.11516249 -0.09657124 -0.045800865
000170 d6 f0 88 3d 56 c9 f0 3d e8 d9 14 3e 89 f0 cd 3b
       0.06686561 0.11757152 0.1453625 0.0062847775
000180 50 68 38 3e d1 b7 b6 bd d2 c1 e3 3d fc 44 a1 bd
       0.18008542 -0.08921779 0.11120953 -0.07874486
000190 6b 8d f6 3c 16 71 b5 bd e2 ba 8e bc 50 84 a9 bc
       0.03009673 -0.0885946 -0.017423097 -0.020692974
0001a0 f2 5e fa 3d 81 58 23 3e 30 7a 37 bd a2 b2 0e 3c
       0.12225141 0.1595173 -0.04479426 0.008709582
0001b0 90 77 bb bd 47 89 18 3e c7 71 fd 3c ea dc 20 3e
       -0.09153664 0.14896117 0.030938042 0.15709272
0001c0 36 95 b7 3d b6 c1 8e bd 3d 9b 6f 3d 36 28 91 3a
       0.089640066 -0.06970541 0.058497656 0.0011074606
0001d0 12 50 58 bb 3a 5a c9 3c bd d1 39 bd 4c dc 07 3d
       -0.003300671 0.024579156 -0.045366038 0.033169076
0001e0 84 be cb bc 75 25 0c bc e6 a0 9b bd ce 48 ee 3d
       -0.024871118 -0.008553852 -0.07599048 0.1163498
0001f0 fc 7f 91 3d c0 bd 25 3d 02 6f 83 bc 61 36 03 3e
       0.07104489 0.040464163 -0.016044144 0.12813713

fc2.weight f4 [128, 128]
000000 96 aa db 3d c8 bb 42 be f9 6d 6c 3e 41 4b 42 be
       0.10725896 -0.19016945 0.23088826 -0.1897402
000010 57 fb 8a bd 81 9c 14 3e b6 4d 44 3d 68 25 05 be
       -0.067862205 0.14512827 0.047925673 -0.1300255
000020 97 35 6b 3d 95 8a a7 be 0a 62 d8 be 43 90 fb be
       0.057424154 -0.32722917 -0.42262298 -0.491335
000030 ef b0 b6 3d d5 c7 19 bd 2d 82 94 bc 65 41 42 3e
       0.08920466 -0.03754409 -0.018128479 0.18970259
000040 bb 26 7e 3d c4 f2 13 3e 86 a8 07 3e d9 a2 04 3e
       0.062048655 0.14448076 0.1324788 0.12952746
000050 fb 5c 4b 3d a3 9e 09 3e 49 b5 9e 3d bd 5e af bc
       0.04964922 0.13439421 0.07749421 -0.02140748
000060 1d b4 10 bd 8a 40 4b 3e 0c a0 4f be ad b8 4e be
       -0.03532802 0.19848838 -0.20275897 -0.20187636
000070 27 91 81 be ea 3a a4 ba 86 b7 5a be a6 4d 7c 3d
       -0.25306055 -0.0012529765 -0.21359071 0.06159749
000080 1a 44 bb bb 5e bb 13 be 58 f6 cd be 87 45 38 bc
       -0.0057149054 -0.14426944 -0.40227008 -0.011247045
000090 69 76 94 3c 05 e3 5f be 0d 10 06 3e 6a f8 33 be
       0.018122869 -0.21863945 0.1309206 -0.17575231
0000a0 04 12 24 be 61 fa 82 3d da 89 d8 bc 49 a1 e5 be
       -0.16022497 0.06395412 -0.02643292 -0.44849613
0000b0 f6 c1 da 3d 75 02 d9 bc 05 e7 0c 3c fb 1f 99 be
       0.10681526 -0.02649043 0.008600001 -0.29907212
0000c0 3c 58 35 be fa 13 13 be 9a 69 36 3e de 57 34 bd
       -0.1770944 -0.14363089 0.17813721 -0.04402911
0000d0 23 0e 98 3d 37 84 01 3e 2e a8 43 3e 4b bc 85 3d
       0.07424571 0.12648092 0.19107124 0.06530055
0000e0 e3 b0 74 3d 0d fa 2d bd 26 b8 16 3d 45 67 3d be
       0.059739005 -0.042474795 0.03679671 -0.18496425
0000f0 b5 77 5b 3d 2c 56 e7 3b ce 59 01 3e 91 f5 45 3e
       0.05358096 0.007059833 0.12631914 0.19331957
000100 db e1 9a be 86 47 1c 3e 7c 70 98 be e7 97 40 3d
       -0.3025044 0.15261659 -0.2977332 0.047019865
000110 c2 f5 4d 3d 2f 7a b6 3d 27 a2 1d 3e 58 77 f9 3d
       0.0502832 0.089100234 0.15393887 0.12180966
000120 fb c2 95 be 4c 2e a1 bb 83 f6 0b 3e d5 1c 54 3b
       -0.2925032 -0.004918849 0.13668256 0.0032365818
000130 c5 f5 6b 3e 56 d9 40 3e 7b ca 1b 3e 3c be 09 3e
       0.23042972 0.18832907 0.15213959 0.13451475
000140 5e 14 42 be f0 7a 28 be 9a b2 07 3e 13 6d ce 3d
       -0.18953082 -0.16453147 0.13251725 0.10079398
000150 3d 3e 5b be a9 30 9f be 4a 2b 7a bd 85 d7 0c 3d
       -0.21410461 -0.31091812 -0.06107644 0.034385223
000160 e5 ee 14 be 4d fc 9a 3d 19 5c 03 3d d7 b2 d8 bd
       -0.14544256 0.07567654 0.032070253 -0.10580986
000170 42 40 33 be 5a 48 54 3d 60 d3 e9 be f9 99 3f 3d
       -0.17504981 0.051826812 -0.4566908 0.0467777
000180 d5 41 c4 be 7c 61 d2 3c ee e4 cd bd d4 27 79 3e
       -0.38331476 0.02568125 -0.100534305 0.243316
000190 7b 21 3e 3e 72 98 4c 3e cc bc f9 bd 6a b3 2f 3e
       0.1856746 0.19980028 -0.12194213 0.17158285
0001a0 20 7c 58 bd fb 39 2d be d7 7d 39 3e 81 9b d2 be
       -0.05285275 -0.16916649 0.1811441 -0.41134265
0001b0 98 90 28 3e 0b 7f b5 3d 99 34 4c be 50 45 93 be
       0.16461408 0.08862122 -0.1994194 -0.2876382
0001c0 1f df 35 3d 6d 1e 18 3e 02 9c 11 3e 64 45 a7 3d
       0.044402238 0.14855357 0.14219669 0.08167532
0001d0 4e 11 a3 be a4 89 93 3d a4 d2 ff bd 54 04 4c bb
       -0.3184914 0.07203987 -0.124913484 -0.003113051
0001e0 de a6 77 be dd 7a cb be e1 5a 0d 3e 4e 59 55 be
       -0.24184749 -0.39742175 0.13804199 -0.20834848
0001f0 b2 43 09 3e 6f fc 3b 3e cf db 40 3d f1 7a ff 3d
       0.1340473 0.18358015 0.047084626 0.12474621
000200 7d 8e 37 3e 85 0e ad bd bd e3 53 3e 82 d7 46 be
       0.17925449 -0.08450035 0.20692344 -0.19418147
000210 c7 5a b2 3d 22 5d 81 3d 85 46 be 3c 5c 4a 18 be
       0.08708721 0.06316592 0.023226986 -0.14872116
000220 6c a4 a2 3d ee 98 ca be 10 b0 9b be e5 3f d0 be
       0.07941517 -0.395698 -0.30407763 -0.40673748
000230 4a 57 a6 3d d5 7f 6c bd 9f 84 34 3d d3 6d 1d 3e
       0.08122118 -0.057739098 0.04407179 0.15373926
000240 12 9e 34 3e 10 ce 52 3e ba 44 e2 3d 17 6b 14 3e
       0.17638424 0.20586419 0.11048265 0.14493977
000250 d7 96 11 3e b6 f5 59 bc 08 96 dd 3d f3 f3 3a 3e
       0.14217697 -0.013303211 0.10819632 0.18257122
000260 29 d0 c4 3d 97 95 4d 3e d5 e5 b3 bd 99 6d c2 bd
       0.09610016 0.20076595 -0.08784071 -0.0949356
000270 08 c6 91 be 79 5e 91 3d e4 08 42 be 38 2c a0 3d
       -0.28471398 0.07098097 -0.18948704 0.07820934
000280 fc 7c 8d 3d 9f 75 11 be 58 12 c2 be 52 d6 16 bd
       0.069086045 -0.14205025 -0.3790462 -0.036825486
000290 38 e8 70 3d d1 bf c7 bd b3 86 e9 3d dc da 63 be
       0.05881521 -0.09753383 0.11402645 -0.22251457
0002a0 a7 bb 52 be c5 34 25 3e 76 99 c3 bd 29 ce c1 be
       -0.20579396 0.16133411 -0.09550755 -0.378526
0002b0 b2 8f e7 3c 5a f3 e4 3c 55 0d e3 3b 81 a8 9f be
       0.028266761 0.02794807 0.0069290795 -0.31183246
0002c0 7a 9a 6d bd 84 2e 39 be 4f 23 ff 3d 18 74 47 be
       -0.05800865 -0.1808415 0.124579065 -0.1947788
0002d0 84 81 40 3d 6d 6a 59 3d 45 3c 95 3d 54 65 54 bb
       0.046998516 0.05308001 0.07286886 -0.003240903
0002e0 8f 7e 07 3e 7c 7c bc bd d0 33 d0 ba 88 9a 36 be
       0.13231872 -0.09203431 -0.0015884582 -0.17832386
0002f0 91 c1 ce 3d 6b 87 f1 3c 3f 50 4c 3e 39 56 93 3d
       0.100955136 0.029483518 0.19952486 0.0719418
000300 2e 65 05 be c6 23 3a 3d 6f 2d c6 be 08 e4 a7 3d
       -0.13026878 0.045444272 -0.38706538 0.081977904
000310 fc 0d ab 3d 22 80 a0 3d 3d a2 20 3e ba f6 0a 3e
       0.08352277 0.078369394 0.15686889 0.13570681
000320 5d 23 47 be e4 25 96 3d 86 e9 18 3e 9b 83 a4 3d
       -0.19447084 0.07331446 0.14932832 0.08032914
000330 b4 80 50 3e 5c c7 70 3d e1 2c 08 3d da 8c 17 3e
       0.20361596 0.058783874 0.033245925 0.14799824
000340 13 2c 1b be 1d 81 1e be 28 84 d4 3d ba 68 53 3d
       -0.15153532 -0.1547894 0.10376769 0.051613547
000350 39 21 cd be d3 ae ad be aa ef a5 bd 9e 9a 96 bc
       -0.4006441 -0.33922443 -0.08102353 -0.018384274
000360 ba 55 d6 bd 79 d3 b0 bc 27 3b e8 3b c2 92 61 be
       -0.1046557 -0.021585213 0.0070871296 -0.2202864
000370 fe 44 29 be 21 4f d7 3d b2 dc d0 be 4c d0 f0 3b
       -0.16530225 0.105131395 -0.40793377 0.0073490497
000380 4c 80 9b be 12 70 3d 3d d4 c2 f2 bd 69 62 cf 3e
       -0.3037132 0.046249457 -0.11853567 0.40504768
000390 92 1d 0a 3e 8e 2e a1 3c 8a 72 31 be cd 70 03 3e
       0.13487843 0.01967552 -0.1732885 0.12835999
0003a0 de 45 d0 bd aa c3 54 be 2c 6c a3 3d 9c 8e d4 be
       -0.10169576 -0.20777765 0.079796165 -0.41515052
0003b0 b7 a5 a8 bc a9 77 55 3e 47 00 42 be 4d 95 0e be
       -0.020586831 0.20846428 -0.18945418 -0.13924141
0003c0 a4 a2 14 3d b6 0e 12 3e 8d 4e c1 3d 9b 17 c8 3d
       0.03628792 0.14263424 0.094388105 0.097701274
0003d0 57 76 ea be f2 f2 c2 bc 67 64 d3 bd 15 ae 30 3b
       -0.4579341 -0.023797486 -0.103218846 0.002695923
0003e0 e3 c7 a0 be 07 a2 ba be 2b 69 b8 3d cd d1 85 bd
       -0.314025 -0.36451742 0.09004434 -0.06534157
0003f0 25 1c a0 bb 80 8f 98 3d c6 72 e7 bc 8a d6 38 3d
       -0.0048861676 0.074492455 -0.02825297 0.045126475

fc2.bias f4 [128]
000000 f0 61 3b 3c 22 8e 6f 3d 85 c5 53 bb 80 a1 2f 3d
       0.011436924 0.058485158 -0.0032313776 0.042878628
000010 b9 02 3d bb d7 02 9b bd f5 f9 4e 3c be 02 95 3d
       -0.0028840734 -0.07568901 0.012632837 0.07275914
000020 52 4c 58 3d 36 b2 53 bd cd c7 74 b9 13 38 67 3d
       0.05280716 -0.051683627 -0.00023344085 0.05644996
000030 3a 97 21 bd ba 1f e1 3d c5 e1 32 3c ba 34 6e bd
       -0.03945086 0.109923795 0.010918085 -0.058155753
000040 32 06 0f bc 88 86 1b bd a5 bc 81 3d 57 ae a3 bd
       -0.008729504 -0.037970096 0.06334809 -0.07992237
000050 37 75 16 3c 3d fc fa 3b 8a b4 3b bc 97 f0 82 bd
       0.00918322 0.0076594637 -0.011456618 -0.06393545
000060 58 bc 9c bd 0d 96 40 bb 66 b5 d0 bb 72 a5 61 3d
       -0.07653111 -0.0029386312 -0.0063692806 0.05508942
000070 b2 e8 94 bd 88 31 9f 3d 4a 18 81 3c 0f b1 b8 3d
       -0.072709456 0.07773119 0.015758652 0.09018146
000080 3a 6e 91 3d 6f c2 e6 bc 97 34 61 bd b2 ee ae bc
       0.07101102 -0.028168885 -0.054981794 -0.021354053
000090 61 b9 14 3d aa 2d 02 3d df f8 ec 3c ff 40 7a 3d
       0.036309604 0.03178183 0.028927265 0.06109714
0000a0 73 a2 73 bd 9f fb a4 bd f9 f9 b4 3d e9 66 ce bd
       -0.059481096 -0.080558054 0.08836741 -0.10078222
0000b0 48 ae 51 3d 09 4b 92 3d 3b 28 44 3c 64 3b e7 3d
       0.0511916 0.07143218 0.011972482 0.11290625
0000c0 3d 90 a7 3c fa 00 03 bc f6 55 db bc ab d7 1b bd
       0.02045452 -0.007995838 -0.026774388 -0.038047474
0000d0 f3 e0 b4 bd 52 dd a4 3d 0c b2 ca 3d ee d3 fc bc
       -0.08831968 0.08050026 0.09897241 -0.030862775
0000e0 47 2f 43 3d 88 9e b9 bd 4e c9 5b bd 8c 90 91 3a
       0.04765251 -0.090634406 -0.053658776 0.00111057
0000f0 15 52 85 3d 27 c9 bb 3c 5c da ba 3d 85 98 2f 3d
       0.065097965 0.022923065 0.0912368 0.042870063
000100 e8 27 01 bd 0f 49 e3 bd f6 a0 9f bb 59 01 64 bc
       -0.0315322 -0.11097919 -0.004871483 -0.013916337
000110 11 ea 26 3c b4 d6 7d 3d 61 06 8a 3c b7 d9 96 3d
       0.010187642 0.061972335 0.016848745 0.073657446
000120 ad 3c 6d bd 31 e4 a8 bc c3 2a 1c 3e 1f 84 ec 3c
       -0.057919193 -0.020616623 0.15250687 0.028871594
000130 76 c9 6a 3b e7 a5 cf bc aa 77 82 3d cf 81 18 bd
       0.0035825646 -0.025347663 0.0637048 -0.03723317
000140 6c 47 15 3c 60 cb 48 bd 09 46 fd bc 5f d8 75 3d
       0.009111267 -0.04902208 -0.030917184 0.0600208
000150 ae 64 71 bc 1d 2d f8 bc 87 6c c7 3d c8 a8 66 bd
       -0.014733477 -0.03029495 0.09737497 -0.056313306
000160 7e 59 d5 3b 94 9a eb 3b 98 8a 14 3e 39 a5 bc 3d
       0.0065109124 0.007190058 0.14505994 0.09211201
000170 08 c7 90 bc d3 ab 6e 3c b2 cf 99 bc ef 25 17 3d
       -0.01767303 0.014567333 -0.018775795 0.03690141
000180 6a e1 77 3d 9d a6 df 3c 51 1a ae 3c 05 59 90 3b
       0.060517706 0.027301127 0.021252783 0.004405143
000190 bb 20 ce bd 9c bb 9f bd f8 60 83 3c 64 82 30 3c
       -0.100648366 -0.077994555 0.01603745 0.010773275
0001a0 f4 70 49 bd 56 7a 55 bc 16 56 31 3d 49 b9 1c 3d
       -0.049179986 -0.013029655 0.04329499 0.03826264
0001b0 f7 01 86 3d 78 c3 65 3a b7 bc 4e 3d 1e 66 9e bd
       0.065433435 0.0008764784 0.05047294 -0.07734321
0001c0 74 f2 69 3d b8 00 8c 3c e7 da be bd 7e da 08 3e
       0.057115987 0.017090186 -0.09319096 0.13364598
0001d0 53 0d 65 3d 14 1a 10 3c a1 3b b8 bd 0e df b6 3b
       0.05592091 0.00879528 -0.08995748 0.0055807894
0001e0 20 e8 dc 3d 80 bd 32 3d 7c 66 e6 bb cd fa b9 bd
       0.10786462 0.043637753 -0.00703126 -0.090810396
0001f0 07 06 b2 3d 7f 49 9e bd 06 2c 1f 3d bf 78 a0 bd
       0.08692556 -0.07728862 0.038860343 -0.078355305

q_out.weight f4 [5, 128]
000000 ce 31 2e be c0 30 4e be a0 3d f9 bd c3 46 de bd
       -0.17011186 -0.20135784 -0.12169957 -0.108533405
000010 83 bb e4 bb 0c 45 15 3d 71 40 d6 3c 13 53 7e be
       -0.006980361 0.0364428 0.026153775 -0.24836378
000020 b3 d8 30 3c 87 1e f8 bc c8 bf 5d be 85 0f 2e bb
       0.010793853 -0.030287994 -0.2165519 -0.0026559543
000030 a7 92 95 bb 32 cc e9 bd a6 53 66 be dd ce 47 3d
       -0.0045646015 -0.114159 -0.22492847 0.048781265
000040 bb ba af bd b1 4f f6 bd e1 5b 3d bd df 46 58 be
       -0.08580538 -0.12026919 -0.0462302 -0.21120785
000050 80 0d 4f 3e 3b 42 19 be f1 4f 8b bd 6e a3 f2 bc
       0.20219994 -0.14966671 -0.06802357 -0.029618945
000060 2f 5a 29 3c 3d 4d 9e bd 0c d5 17 3d f6 f2 b6 3d
       0.010336443 -0.07729576 0.03706841 0.0893306
000070 04 51 90 bd 90 e9 eb 3d 8f e8 54 be 33 eb 1c be
       -0.070467025 0.11519158 -0.20791839 -0.15324096
000080 dd ad 32 3e f1 39 11 be c3 51 e7 bc e8 35 85 be
       0.17449136 -0.14182259 -0.02823723 -0.2601769
000090 62 15 31 3e 9a 2d 38 3d a8 e0 82 bd c8 e4 e6 3e
       0.17293313 0.044965364 -0.06390506 0.4509642
0000a0 66 e1 a5 3d bc 41 81 bd a0 a8 48 be 41 80 34 bd
       0.08099632 -0.06311366 -0.19595575 -0.044067625
0000b0 84 3c 8e bc 4b ec 23 bc 9a 77 87 be 0f d2 26 3e
       -0.01736284 -0.010005067 -0.26458436 0.16291068
0000c0 ff a4 27 be 92 3d 1d be 48 5e 2d bd 73 df 88 3d
       -0.16371535 -0.15355518 -0.04232624 0.066832446
0000d0 11 a8 95 3d 1b a3 7b be 8e 15 9b 3d 0d 6b 37 be
       0.07307447 -0.24573939 0.075724706 -0.1791193
0000e0 e7 80 1c be b6 a6 55 be b8 3b a6 3d 08 5f d4 3c
       -0.15283547 -0.20864376 0.08116859 0.02592422
0000f0 a7 96 49 be 6b ec 03 3d d9 32 88 be e9 b9 58 be
       -0.19686376 0.032207888 -0.26601294 -0.21164669
000100 a9 19 0b be 6d 2b 5d 3d 63 33 64 bd 23 bf 80 bd
       -0.13584007 0.053996492 -0.05571307 -0.062864564
000110 20 41 5e 3e f3 47 dc 3d 8b 7f 18 be e8 96 9e 3c
       0.2170453 0.10755911 -0.14892404 0.019359067
000120 a6 cf e5 bd b1 b4 71 3d 7e 07 29 3e 12 af 0e be
       -0.112212464 0.05901021 0.16506764 -0.13933972
000130 c4 43 81 bd 96 29 0a bd 4c a9 0f 3e 3d b9 9e 3d
       -0.063117534 -0.033731066 0.14029425 0.07750175
000140 6e 1e 8f 3d ae 96 51 3c 53 65 88 3d a3 41 89 3c
       0.06988226 0.0127922725 0.06659951 0.01675493
000150 2a 02 3c bd 4f a2 7a be 2f fa 06 be 0e 8e 8c 3e
       -0.0459005 -0.24475978 -0.13181375 0.2745213
000160 48 21 cc bc f9 f4 0b bd 1b 09 16 be 2d 3d 87 3e
       -0.024918213 -0.03416917 -0.14651911 0.2641386
000170 18 88 a0 bd f3 32 8b be 4c 54 db ba a7 ff 8a be
       -0.07838458 -0.2718731 -0.0016733496 -0.27148172
000180 71 3c 5d be b6 06 44 be 40 87 85 3d 77 9b b9 bd
       -0.21605088 -0.19143185 0.065199375 -0.09062856
000190 ce bb 57 be 75 53 6b bb c3 e9 f1 3b 0b a8 21 bd
       -0.21067736 -0.0035907899 0.007382603 -0.0394669
0001a0 8b ea 3d be 29 55 1a 3d d8 34 4d 3e e1 ec 05 3e
       -0.18546502 0.03767887 0.2003969 0.13078643
0001b0 c4 54 9c bc 87 f4 0b bc 3c 63 57 3e 9c 23 b5 3d
       -0.019083388 -0.008542187 0.21033949 0.088446826
0001c0 a0 b6 29 be e6 bd d9 3d 03 ee 24 bd 2a cd 6d be
       -0.16573572 0.106319234 -0.04026605 -0.23222795
0001d0 e2 91 61 be 3b e5 82 be 81 f3 cf 3c c4 e5 9f bd
       -0.22028306 -0.25565514 0.025384666 -0.07807496
0001e0 ff cf f9 3d 9f e6 dd 3d 87 de 96 be 54 42 50 be
       0.12197875 0.10835003 -0.2946665 -0.20337802
0001f0 54 56 e0 3d 20 5c 75 3d a6 5d 4b 3e 94 0f 83 be
       0.10953966 0.05990231 0.19859943 -0.25597823
000200 8f 6c 35 be f5 fe 34 be e3 f0 40 be 2c 5c 1c be
       -0.17717193 -0.17675383 -0.18841891 -0.15269536
000210 f0 f7 2a be 2a fb 1b bd d1 a9 8d 3e 1d dd 6b bd
       -0.16696143 -0.038081326 0.27668622 -0.057583917
000220 eb b2 75 3d a7 ed b4 3d b2 93 18 be e0 2f 4a 3d
       0.059985083 0.08834391 -0.14900091 0.049362063
000230 f2 49 8f 3c 79 ff 9d bd b4 41 17 be b6 6d 13 3d
       0.017491315 -0.07714743 -0.14771158 0.0359933
000240 11 2b 4d be 4d f8 27 be 57 0a 3b bc db c6 36 be
       -0.2003596 -0.16403313 -0.011416039 -0.17849295
000250 b9 ba b3 be 35 32 26 be 4e 93 39 3d 9f 70 b6 3d
       -0.35103396 -0.1623009 0.045306496 0.089081995
000260 08 6b df 3c 91 6e 04 bd 1d c6 d3 3c b9 07 c4 be
       0.027272716 -0.032332007 0.025851304 -0.38287142
000270 f0 5b 67 bd 8f c2 87 3e 73 10 0d be 8e 62 3e be
       -0.056484163 0.26515624 -0.13775806 -0.18592283
000280 d4 3d 48 3e ce 75 f8 bd 5a 03 8d 3d 48 fa 27 be
       0.19554836 -0.121318445 0.06885405 -0.16404068
000290 fb b7 c2 be 2e 4c 45 be 5a e3 2d 3c bb 9b a2 3e
       -0.3803099 -0.19267341 0.010613287 0.31759438
0002a0 73 9a 60 3d ef 46 66 be f6 16 b4 bd b5 05 79 3d
       0.054834794 -0.22487997 -0.08793442 0.06079646
0002b0 9c 73 19 3d 8d 15 9e bd 58 22 26 be 2d e7 67 3d
       0.03746377 -0.07718954 -0.16224039 0.05661695
0002c0 83 a3 3a be a2 bd 2b be a9 23 4e be db 4c 53 3d
       -0.18226437 -0.16771558 -0.20130791 0.051586967
0002d0 81 86 35 3d 54 03 c4 bd ad 9d c6 3e c6 d1 37 be
       0.044317726 -0.09570947 0.38792172 -0.17951116
0002e0 f1 1e 3f be 28 92 62 be 5a 6f b2 bd 50 ac 35 3c
       -0.18664147 -0.22126067 -0.08712645 0.011088446
0002f0 1c a8 1b be 1a 0e 38 3d 4a 71 e5 bd 62 59 41 be
       -0.15200847 0.044935323 -0.11203249 -0.18881753
000300 d8 59 3a be 0b f6 82 3c 04 65 06 3d c9 21 05 3d
       -0.18198335 0.015986463 0.03281118 0.032502923
000310 d4 b4 91 3e 51 6e a0 3e 6c 44 37 be aa 6b bc be
       0.28458273 0.31334165 -0.17897195 -0.3680089
000320 e4 85 3e be 25 01 9d be 1a ad 5f 3e 03 c3 16 be
       -0.18605763 -0.30664936 0.21843377 -0.14722829
000330 3d 10 93 bd eb 13 6c 3d 3b 7c 8a 3e 51 2b 72 3d
       -0.071808316 0.057636183 0.27047905 0.05912334
000340 66 e3 5e 3d 67 79 e1 bb 56 ad 0d bc 6d 03 b9 bb
       0.054416083 -0.0068809274 -0.008647284 -0.0056461603
000350 f3 9a de bc 42 f1 25 be 42 0c 05 be 8b f4 81 3e
       -0.027173495 -0.16205314 -0.12992957 0.25381884
000360 22 5e 8a bc 83 a1 33 bc 0f 8a c5 bd 0a c0 c9 be
       -0.01689059 -0.0109638 -0.09645473 -0.39404327
000370 8b 72 40 be 1f 86 06 be d7 39 58 3c 1d 96 fb bd
       -0.18793695 -0.131371 0.013197384 -0.12284491
000380 67 a0 0f be 05 6d 5f be 4c 1a c9 3c 4a 7b df bc
       -0.14026032 -0.21818931 0.024548672 -0.027280468
000390 4c da 0f be 55 c1 92 3d fe 12 94 3b 42 53 c3 3d
       -0.14048117 0.071657814 0.0045188656 0.095373645
0003a0 f1 0f 1d be 77 c5 e2 3b 80 c9 1b bd 9d f6 8a bd
       -0.15338112 0.0069205123 -0.038033962 -0.06785319
0003b0 b3 84 a6 bb 62 e5 19 ba 7d b2 9b 3e a7 92 8d bd
       -0.005081737 -0.00058706675 0.30409613 -0.06912737
0003c0 78 26 37 be b8 5a 0e 3e 32 0d 82 3d 03 54 ba bd
       -0.17885768 0.13901794 0.06350173 -0.09098055
0003d0 fd 5f ff bd 49 d7 6c be 6d 4a 6c bd 93 f5 26 be
       -0.1246948 -0.23129 -0.057688165 -0.16304617
0003e0 46 c9 ff be b5 15 a6 3e f6 8e 02 be e6 b9 21 be
       -0.49958247 0.32438436 -0.12749848 -0.15793571
0003f0 46 8e b1 3e 96 dc 05 3d 5e 40 64 bc 1d f6 5c be
       0.3467886 0.03268107 -0.013931362 -0.2157826

q_out.bias f4 [5]
000000 f3 a2 73 3b 52 e3 58 bc ef 70 19 3c 2c 48 09 ba
       0.0037175983 -0.013237791 0.009365304 -0.00052368897
000010 e8 42 71 3c
       0.014725424
