models/intermedium_save/q_te_agent_1.pt (torch, 108561 bytes, 6 tensors)

fc1.weight f4 [128, 71]
-0.005372131 -0.13155295 0.031073006 0.03230778 0.12264277 0.081157565 0.16377077 0.13147077
0.00823362 0.02457147 0.19005845 0.03646315 0.13509904 -0.034742508 0.017533068 -0.10950987
0.13870755 0.20521103 0.19309977 0.059770882 -0.028574793 0.1153313 -0.008953747 0.13114268
0.15470932 -0.029437132 0.004899682 -0.049542204 0.039717134 -0.4004942 0.16771822 0.069733545
0.06529356 -0.13052733 0.02607819 -0.095081456 -0.23645966 0.13501371 0.10609334 0.037736144
0.14343578 -0.1811249 -0.02007363 -0.23626658 0.0040905755 0.076226614 0.09652784 0.086807184
-0.104821794 0.15442626 -0.20657231 0.062018994 0.1446095 -0.06040131 0.19855152 0.012373047
-0.08775485 -0.22402732 0.12887 0.10742862 0.16925184 0.056847475 -0.10453951 -0.089557074
-0.13112433 0.11356986 0.16944675 0.068734564 0.1431636 -0.07161274 -0.10195869 -0.10278466
0.014185777 0.015667198 0.16503122 0.05703211 -0.022715038 -0.033012114 0.025340477 -0.013365118
0.1104358 0.3083192 0.20056975 0.0019140912 -0.012668513 -0.021831999 -0.26755765 0.10874091
0.1294716 0.21866892 -0.033196446 0.05321409 0.10344097 -0.056793936 0.11002179 0.09936479
0.21037216 0.13918245 -0.085081846 -0.005829619 -0.34627086 0.051182028 0.20013939 -0.20575619
0.19156164 -0.0109993685 0.03160281 -0.43740028 -0.02602443 0.02568269 -0.010466702 0.1818058
-0.43611988 -0.08250241 -0.3264779 0.15198001 0.06989602 -0.020144803 0.21215822 -0.011633155
0.112775505 -0.01432674 0.08728165 -0.12773843 0.1593686 0.20907508 -0.16157827 0.12033502
-0.3721551 0.17334534 -0.11704545 0.09357193 0.060876623 0.035104178 -0.05371818 -0.27434406
0.023005288 0.036825523 0.011830258 0.016640235 -0.14990567 -0.016558582 0.049568772 -0.1106454
-0.09402643 0.10865965 -0.118040554 -0.016646722 0.085341506 0.15618192 0.026674017 0.010413577
0.017162284 0.15079176 0.20836356 -0.13178645 0.09002908 -0.2947545 0.15305011 -0.10520014
0.06965939 0.11178545 -0.08996864 0.061295927 0.00087464316 0.078553915 0.030899592 0.14808413
0.18909796 0.012801564 0.09295887 -0.26456764 -0.034146875 0.0641784 0.14840207 -0.1035528
-0.09815327 -0.0453864 -0.4919099 0.16517577 0.123005815 0.22341262 -0.12943491 -0.34707996
-0.10611092 -0.23375204 0.08371553 0.11569676 -0.10757438 0.020282824 -0.1894663 0.014152527
-0.035674453 0.09650111 0.18100388 0.14703137 0.02680708 -0.13770406 0.020188026 -0.27711052
0.057557415 0.18211614 0.12514752 0.1605894 0.012907883 0.007004232 -0.10593915 0.10479673
0.24237013 -0.0038320129 0.16225287 -0.039354134 -0.15840814 -0.13846894 0.006711884 -0.03771
0.040860932 -0.04877634 -0.01613384 -0.044038616 -0.032066185 0.10298326 0.020756438 -0.111253075
-0.07832921 -0.09785087 0.04133603 0.12026654 0.07405667 -0.090332724 -0.13488875 0.05304018
-0.10349963 -0.055897877 -0.059629377 0.14349793 -0.14690553 0.17073387 0.06477352 0.11694023
-0.04269054 0.045175273 0.079036646 -0.104942776 0.0740579 -0.041079473 -0.03819036 0.057334743
-0.10779475 -0.08926586 -0.029034479 0.012496567 0.12243475 -0.084223844 0.19327459 -0.09444825
00000000: b308 b0bb d1b5 06be d18c fe3c 2a55 043d
00000010: 222c fb3d f035 a63d 86b3 273e 46a0 063e
00000020: 4ee6 063c 1c4a c93c af9e 423e 625a 153d
00000030: 6757 0a3e 294e 0ebd 82a1 8f3c b646 e0bd
00000040: 5a09 0e3e d722 523e f2bb 453e 50d2 743d
00000050: af15 eabc d132 ec3d bdb2 12bc 444a 063e
00000060: 1f6c 1e3e 2426 f1bc 838d a03b c4ec 4abd
00000070: 6fae 223d 930d cdbe 53be 2b3e 76d0 8e3d
00000080: a1b8 853d f5a8 05be eea1 d53c 11ba c2bd
00000090: 7b22 72be 0941 0a3e 7747 d93d 3791 1a3d
000000a0: d4e0 123e ce78 39be 7471 a4bc deef 71be
000000b0: 3c0a 863b b31c 9c3d 63b0 c53d f7c7 b13d
000000c0: cfac d6bd eb21 1e3e b187 53be a107 7e3d
000000d0: 8314 143e 5d67 77bd 1751 4b3e 52b8 4a3c
000000e0: d1b8 b3bd 6b67 65be 7ff6 033e 8903 dc3d
000000f0: 5b50 2d3e e6d8 683d d018 d6bd b369 b7bd
00000100: 7545 06be 5197 e83d 7383 2d3e b5c4 8c3d
00000110: 7b99 123e b3a9 92bd b8cf d0bd c480 d2bd
00000120: 766b 683c 7f58 803c f2fd 283e 809a 693d
00000130: e314 babc b637 07bd d596 cf3c 5ef9 5abc
00000140: 2a2c e23d 04dc 9d3e 2862 4d3e 3ee2 fa3a
00000150: 988f 4fbc 05d9 b2bc 51fd 88be 8eb3 de3d
00000160: 3494 043e bfea 5f3e fff8 07bd 05f7 593d
00000170: dcd8 d33d c2a0 68bd 1b53 e13d c47f cb3d
00000180: cd6b 573e d885 0e3e 643f aebd 6306 bfbb
00000190: 6a4a b1be 3fa4 513d 57f1 4c3e c0b1 52be
000001a0: bc28 443e b236 34bc f371 013d eef2 dfbe
000001b0: 2f31 d5bc 8164 d23c 887c 2bbc 4d2b 3a3e
000001c0: 1b4b dfbe 06f7 a8bd 1c28 a7be a6a0 1b3e
000001d0: a525 8f3d b706 a5bc 0140 593e fd98 3ebc
000001e0: d8f6 e63d b4ba 6abc b9c0 b23d ddcd 02be
000001f0: 8631 233e c717 563e c674 25be 3572 f63d
00000200: 1d8b bebe 7181 313e 86b5 efbd a4a2 bf3d
00000210: c459 793d 66c9 0f3d 9807 5cbd d376 8cbe
00000220: 9675 bc3c 5cd6 163d b3d3 413c 1a51 883c
00000230: df80 19be dda5 87bc a008 4b3d 0e9a e2bd
00000240: ee90 c0bd f388 de3d 3fbf f1bd b55e 88bc
00000250: 87c7 ae3d 27ee 1f3e 7883 da3c b59d 2a3c
00000260: eb97 8c3c 2869 1a3e 425d 553e 07f3 06be
00000270: 2b61 b83d 10ea 96be 2bb9 1c3e 2c73 d7bd
00000280: 95a9 8e3d c5ef e43d 7a41 b8bd 7011 7b3d
00000290: 4f48 653a e0e0 a03d 2421 fd3c 5ea3 173e
000002a0: e5a2 413e a7bd 513c 3861 be3d 6975 87be
000002b0: 98dd 0bbd f76f 833d b6f6 173e 7e13 d4bd
000002c0: 9504 c9bd 17e7 39bd 9ddb fbbe d623 293e
000002d0: 79ea fb3d 47c6 643e 968a 04be 77b4 b1be
000002e0: af50 d9bd b25c 6fbe 0c73 ab3d 6cf2 ec3d
000002f0: f54f dcbd 2a28 a63c 7403 42be 00e0 673c
00000300: 601f 12bd 60a2 c53d 1559 393e 648f 163e
00000310: 859a db3c 4b02 0dbe 5c61 a53c 6ee1 8dbe
00000320: 53c1 6b3d a77c 3a3e ac26 003e 8c71 243e
00000330: 967b 533c c283 e53b a0f6 d8bd ab9f d63d
00000340: e02f 783e 8222 7bbb 9e25 263e cd31 21bd
00000350: be35 22be cdca 0dbe 5def db3b cd75 1abd
00000360: cb5d 273d b3c9 47bd 1d2b 84bc d661 34bd
00000370: d557 03bd e3e8 d23d 6809 aa3c a7d8 e3bd
00000380: 116b a0bd 0966 c8bd f84f 293d 4e4e f63d
00000390: 06ab 973d 5d00 b9bd 4720 0abe a940 593d
000003a0: 9df7 d3bd 2cf5 64bd ef3d 74bd 1ff1 123e
000003b0: 676e 16be dcd4 2e3e fba7 843d 5c7e ef3d
000003c0: 47dc 2ebd b509 393d f7dd a13d 3dec d6bd
000003d0: abab 973d f342 28bd 7f6d 1cbd d6d7 6a3d
000003e0: 7ec3 dcbd 05d1 b6bd b7d9 edbc 67be 4c3c
000003f0: 12bf fa3d 8d7d acbd c6e9 453e 166e c1bd

fc1.bias f4 [128]
0.17953603 0.077857584 0.11926967 -0.12491544 0.0732854 0.012619874 0.13314821 -0.009298904
0.104457594 -0.0127585195 0.03273126 0.06879434 0.084731616 0.0332149 0.18943706 0.09912636
0.14802428 0.036041886 -0.058553513 0.00442868 0.11288814 0.016894566 -0.1334803 0.092703775
-0.014719567 -0.13903311 0.13425775 0.00806662 0.08866917 0.04734537 0.03273277 0.029163228
-0.10216669 -0.032125954 -0.041300803 0.09975337 0.09094976 0.0025490872 -0.08163465 -0.11084839
-0.029721001 -0.13496841 0.036284268 0.1449321 0.11778975 0.10587369 0.07632341 0.015634108
0.21988353 0.20458116 0.050000045 0.049809337 0.17205274 0.101062104 0.05659072 0.01909858
-0.014388386 -0.017777018 0.011050193 -0.00917757 0.17730191 0.1767289 0.046004448 -0.020897578
0.024012474 -0.113793634 -0.062796995 0.12252264 0.11563046 0.11651412 -0.10072162 -0.02271429
0.07905569 0.064051636 0.06386642 0.10337075 0.041159667 -0.028838892 -0.0044932636 0.018635424
0.066031575 -0.0746066 -0.10097933 0.09603128 0.09291293 0.017351495 0.085394666 0.13710803
0.10123785 0.055051107 -0.010741776 -0.06288034 0.03296013 0.072161905 -0.10264984 0.09811189
-0.00049859355 0.08623162 0.051386733 -0.06297433 0.16636692 0.25127986 0.042601887 0.012815313
0.19227186 0.008029746 0.11060059 -0.035804793 -0.07402181 0.02055898 0.12086775 0.05335999
0.15360752 0.12073218 -0.046903715 0.053828366 0.15537405 0.01899672 0.06257238 0.008884764
-0.017460791 0.02856063 -0.080431215 -0.10570123 0.042065468 -0.08569049 -0.0017019227 0.10218236
00000000: 4bd8 373e cc73 9f3d a843 f43d abd3 ffbd
00000010: a816 963d 97c3 4e3c 0158 083e 6e5a 18bc
00000020: dded d53d 1c09 51bc 3711 063d 0ce4 8c3d
00000030: c587 ad3d 590c 083d cafb 413e c302 cb3d
00000040: ad93 173e a8a0 133d cfd5 6fbd 761e 913b
00000050: e631 e73d 7966 8a3c 0faf 08be 7adb bd3d
00000060: 572a 71bc b25e 0ebe dd7a 093e db29 043c
00000070: 2f98 b53d 38ed 413d cc12 063d b9e7 ee3c
00000080: c53c d1bd 8196 03bd 082b 29bd 7f4b cc3d
00000090: de43 ba3d 960e 273b 1130 a7bd 7b04 e3bd
000000a0: 7579 f3bc 2935 0abe d09e 143d 1569 143e
000000b0: c13b f13d 4ed4 d83d 734f 9c3d 1a13 803c
000000c0: 2629 613e b97d 513e d9cc 4c3d e004 4c3d
000000d0: 982e 303e a6f9 ce3d accb 673d a074 9c3c
000000e0: 44bd 6bbc 1ca1 91bc de0b 353c 855d 16bc
000000f0: a28e 353e 6cf8 343e 296f 3c3d 6631 abbc
00000100: cfb5 c43c a30c e9bd b69b 80bd 26ed fa3d
00000110: aacf ec3d f49e ee3d 2347 cebd 5213 babc
00000120: f3e7 a13d 812d 833d 66cc 823d 0bb4 d33d
00000130: 0a97 283d 8a3f ecbc 3a3c 93bb 51a9 983c
00000140: 903b 873d 58cb 98bd 40ce cebd 0cac c43d
00000150: 2249 be3d b924 8e3c 66e3 ae3d 0c66 0c3e
00000160: ca55 cf3d 457d 613d 46fe 2fbc 68c7 80bd
00000170: 3401 073d 9fc9 933d 143a d2bd e3ee c83d
00000180: 0cb4 02ba 349a b03d e57a 523d aff8 80bd
00000190: 175c 2a3e c1a7 803e 517f 2e3d 52f7 513c
000001a0: eae2 443e 328f 033c 9082 e23d 0ca8 12bd
000001b0: bf98 97bd 4e6b a83c 8389 f73d 0190 5a3d
000001c0: 4a4b 1d3e 6f42 f73d 1c1e 40bd 227b 5c3d
000001d0: 601a 1f3e 029f 9b3c f325 803d 6791 113c
000001e0: ef09 8fbc fbf7 e93c 1fb9 a4bd e379 d8bd
000001f0: d74c 2c3d 7f7e afbd 0d13 dfba fc44 d13d

fc2.weight f4 [128, 128]
0.15574054 0.1980052 -0.0039050665 -0.069377676 0.08167134 -0.027816478 0.12521917 0.08217251
-0.0031667782 0.048984848 -0.10703219 -0.011978955 0.0040284274 0.13393842 0.19661152 0.27583706
0.06399648 0.057476103 0.20357578 -0.045046262 0.06889999 -0.013891716 -0.0064353873 0.2404183
-0.07688768 -0.09482358 0.089454226 0.04445439 0.118309535 0.16315258 0.13147342 0.13786517
0.09345824 0.018275626 0.1320896 0.18326718 0.081571415 0.18004057 0.13734284 0.0649833
0.11755911 -0.033929754 0.22116534 0.05675217 0.15392469 0.100004084 0.108699605 -0.054826878
-0.019285759 0.15976115 0.23745497 0.23819043 0.0017942769 0.1390286 0.07717079 0.17134438
0.02769968 0.22736499 0.056930073 0.063251644 0.10133634 0.121959835 0.11516889 0.06083523
0.15322737 -0.04856734 0.1000193 0.10415707 0.14678168 0.12468441 0.044628788 0.16884239
0.16329242 0.27700594 0.19727434 0.24716774 0.06496146 -0.07574118 0.11682563 0.089047365
0.21892309 -0.0770983 -0.0873588 0.25881898 0.110516205 -0.04916787 0.10430371 0.09285399
0.125144 0.048208874 0.08542851 -0.08323017 0.23809755 0.16390723 -0.028099114 0.21008742
0.22451693 0.11942167 0.0042606965 0.08889992 0.1056436 0.19872683 -0.014374754 0.08969548
0.00013973926 0.17431028 0.07619055 0.0761455 0.054550953 0.06673927 0.1289909 0.033420287
-0.036645383 0.08050156 0.12879278 0.1673796 -0.04177989 0.06704776 0.02704786 0.023902962
0.0932539 0.1386484 0.109518066 0.08907897 0.17544357 0.07616977 0.013228136 0.23080555
0.038409915 0.099715635 0.13197131 0.0045869276 0.15882123 0.04974371 0.2410579 0.02875152
0.06417618 -0.035761908 0.026285637 0.0064733136 0.07730227 0.19318178 0.16497245 0.16260411
0.10229576 0.04729174 0.25429147 0.0048594344 0.027992317 0.015227062 0.029424587 0.21128899
0.04715893 -0.020341616 0.14531232 -0.04806246 0.119656496 -0.0038916473 0.07448933 0.1261423
-0.074410856 0.037814572 0.15004426 0.117125675 0.14318387 0.16936551 0.11533364 0.053368807
0.13901474 0.102835365 0.04562093 0.20117596 0.21331604 0.00079788256 0.04269277 -0.023905681
-0.025600834 0.082841255 0.036352906 0.1377095 0.03668582 0.19695583 0.11157686 0.13743904
0.12947708 0.17406082 0.0698868 0.13574016 0.11465741 0.073006816 0.09728094 0.05488663
0.18961513 -0.075419016 0.016100373 0.06897092 0.14478578 -0.014807166 0.041174345 0.14039554
0.105216645 0.19613057 0.1203552 0.23941179 0.12289129 0.05306158 0.08955395 0.116600655
0.17813598 -0.04856515 0.052987006 0.1311939 0.18357705 -0.09513368 0.18826644 0.0013361843
0.13197188 0.15733184 0.09155727 0.041432705 0.18740071 0.14130445 0.07973679 0.18717258
0.15028694 0.13042627 -0.081633665 -0.061585836 0.15701082 0.31992784 -0.029716566 0.072227284
-0.017304387 -0.0080419965 0.14946656 -0.027446393 0.044810634 0.15425809 0.12998916 0.15047431
0.049065158 0.101239264 0.030221837 0.15368088 0.03542784 -0.030632656 -0.0069323615 -0.015538879
0.013685269 0.124055125 0.050167393 -0.029682772 0.21045847 0.09863579 -0.054341722 0.23913549
00000000: 737a 1f3e e0c1 4a3e 25ec 7fbb e215 8ebd
00000010: 4e43 a73d 62df e3bc 7439 003e 104a a83d
00000020: b989 4fbb 56a4 483d b133 dbbd 6143 44bc
00000030: e600 843b 2727 093e 8854 493e 843a 8d3e
00000040: 9610 833d 106c 6b3d 2b76 503e 6e82 38bd
00000050: 701b 8d3d 149a 63bc f1df d2bb 3730 763e
00000060: 4a77 9dbd dd32 c2bd c733 b73d ce15 363d
00000070: 454c f23d 7811 273e f8a0 063e 872c 0d3e
00000080: 0967 bf3d c4b6 953c 7f42 073e 64aa 3b3e
00000090: ea0e a73d 8e5c 383e 9aa3 0c3e f715 853d
000000a0: d5c2 f03d edf9 0abd 2b79 623e f774 683d
000000b0: 6f9e 1d3e f1ce cc3d e69d de3d 2692 60bd
000000c0: 2bfd 9dbc 6d98 233e 6527 733e 31e8 733e
000000d0: f12d eb3a 835d 0e3e b80b 9e3d e774 2f3e
000000e0: 70ea e23c 5ed2 683e 822f 693d 148a 813d
000000f0: 6d89 cf3d 14c6 f93d abdd eb3d 5d2e 793d
00000100: a3e7 1c3e 8cee 46bd ebd6 cc3d 4d50 d53d
00000110: f04d 163e 8a5a ff3d adcc 363d 05e5 2c3e
00000120: 2136 273e b9d3 8d3e 4902 4a3e 8a19 7d3e
00000130: 840a 853d 311e 9bbd 4742 ef3d 775e b63d
00000140: 602d 603e b7e5 9dbd 2ce9 b2bd ec83 843e
00000150: 5256 e23d 4064 49bd 2f9d d53d 3c2a be3d
00000160: c025 003e ab76 453d 25f5 ae3d 9474 aabd
00000170: d8cf 733e 4cd7 273e 1d30 e6bc 2821 573e
00000180: c4e7 653e 5993 f43d 509d 8b3b 2911 b63d
00000190: ac5b d83d 0c7f 4b3e 1784 6bbc 44b2 b73d
000001a0: f986 1239 657e 323e cb09 9c3d 2cf2 9b3d
000001b0: d270 5f3d 99ae 883d 3116 043e b6e3 083d
000001c0: 7819 16bd 00de a43d 41e2 033e 8f65 2b3e
000001d0: 6421 2bbd 5650 893d 7993 dd3c 25d0 c33c
000001e0: e7fb be3d d9f9 0d3e 024b e03d 096f b63d
000001f0: 7ba7 333e e5fe 9b3d d3ba 583c 4a58 6c3e
00000200: b753 1d3d b637 cc3d 7d23 073e f04d 963b
00000210: 08a2 223e 0fc0 4b3d e2d7 763e 4f88 eb3c
00000220: cd6e 833d 147b 12bd fa54 d73c 171e d43b
00000230: a750 9e3d 72d1 453e 8aee 283e b181 263e
00000240: 7080 d13d fcb4 413d 7e32 823e e43b 9f3b
00000250: 2550 e53c ed7a 793c d50b f13c 245c 583e
00000260: b929 413d 76a3 a6bc c1cc 143e 24dd 44bd
00000270: 770e f53d 020b 7fbb dd8d 983d 722b 013e
00000280: b864 98bd 74e3 1a3d 34a5 193e 96df ef3d
00000290: cb9e 123e 276e 2d3e 0b34 ec3d 4099 5a3d
000002a0: e159 0e3e 599b d23d 03dd 3a3d 1201 4e3e
000002b0: 856f 5a3e fe28 513a 9dde 2e3d d9d5 c3bc
000002c0: d7b8 d1bc ada8 a93d c9e6 143d b803 0d3e
000002d0: df43 163d caae 493e 6982 e43d d2bc 0c3e
000002e0: a495 043e 003d 323e d020 8f3d 78ff 0a3e
000002f0: 81d1 ea3d 9984 953d 3b3b c73d ced0 603d
00000300: 782a 423e 4975 9abd eee4 833c a040 8d3d
00000310: b942 143e c199 72bc 6ea6 283d d9c3 0f3e
00000320: d37b d73d 74d6 483e c97c f63d 5d28 753e
00000330: 6eae fb3d 1957 593d 1068 b73d 53cc ee3d
00000340: 4769 363e 40ec 46bd e708 593d b257 063e
00000350: 9ffb 3b3e 72d5 c2bd ebc8 403e e822 af3a
00000360: a323 073e 991b 213e 6182 bb3d 57b5 293d
00000370: f9e5 3f3e 1db2 103e 0b4d a33d 2baa 3f3e
00000380: d2e4 193e 778e 053e 8d2f a7bd 6e41 7cbd
00000390: 72c7 203e 95cd a33e 2870 f3bc e6eb 933d
000003a0: eec1 8dbc 94c2 03bc c30d 193e 42d7 e0bc
000003b0: 5b8b 373d d5f5 1d3e e11b 053e f015 1a3e
000003c0: 8cf8 483d 8856 cf3d c993 f73c 855e 1d3e
000003d0: c81c 113d 56f1 fabc dd28 e3bb c896 7ebc
000003e0: 2e38 603c 9d10 fe3d 537c 4d3d 4929 f3bc
000003f0: 6d82 573e 9001 ca3d 6d95 5ebd efdf 743e

fc2.bias f4 [128]
0.08191246 0.01157326 0.064836055 -0.001628914 -0.044876147 0.110041164 -0.07049146 -0.09616843
-0.05662803 0.008071332 0.13476765 -0.013184689 -0.041411035 0.2684613 -0.009584857 0.08100737
0.030453395 0.028920466 0.08540575 -0.047059797 0.035592385 0.03592614 0.1655578 0.0025214604
-0.07382093 -0.03272451 0.06596675 -0.065197796 0.034693696 0.25172406 0.14231214 -0.012223694
0.0059587965 -0.061990872 0.047961757 0.009180563 -0.10156634 -0.039580498 0.096885726 -0.021527778
-0.045704305 0.045903426 0.14516711 0.1001596 0.31758687 0.03243397 0.010890466 -0.007907735
0.010453912 -0.053566333 0.0057215057 0.07981257 0.1643192 0.16843405 0.023656556 -0.04734299
0.07015571 0.05671279 -0.026183214 -0.004714546 0.0204442 0.120145075 -0.07090886 0.0022381498
0.020736923 -0.05348776 -0.038039215 0.04363302 -0.022044238 0.094186135 0.049075082 0.09123608
-0.100467294 0.08449982 0.29903996 0.04522847 0.04875932 0.044547193 0.010520446 0.023167722
0.21061763 0.10121947 0.07552668 0.07607129 -0.055213973 0.384558 -0.025714943 0.06636
-0.10328997 0.085606456 -0.059518587 0.18986145 -0.0054444247 0.067169525 -0.024881704 0.045523845
0.15016791 -0.014177462 0.014602424 0.08009876 0.13583344 -0.006796907 -0.024935093 0.12796253
0.32261372 0.18957224 0.066707276 0.03720082 0.066931486 -0.027496789 -0.09407879 0.22112064
0.022520976 0.19468983 0.069570415 -0.030740902 0.033355396 0.06769205 0.06973373 -0.063085906
-0.028399335 -0.020504806 0.12143596 0.028702766 0.019768286 -0.015743947 0.13098755 -0.07559322
00000000: b8c1 a73d c59d 3d3c c4c8 843d 4981 d5ba
00000010: 0dd0 37bd 435d e13d d45d 90bd f4f3 c4bd
00000020: cbf2 67bd 9f3d 043c 8800 0a3e 9804 58bc
00000030: 9e9e 29bd c273 893e ce09 1dbc 31e7 a53d
00000040: 6679 f93c 9dea ec3c 36e9 ae3d c6c1 40bd
00000050: 52c9 113d 4a27 133d fc87 293e 163f 253b
00000060: 6e2f 97bd 230a 06bd 9319 873d 6c86 85bd
00000070: fa1a 0e3d fae1 803e 46ba 113e e345 48bc
00000080: 0242 c33b 24ea 7dbd 8c73 443d 126a 163c
00000090: 0302 d0bd 291f 22bd 066c c63d 065b b0bc
000000a0: 7034 3bbd 3b05 3c3d b0a6 143e 7a20 cd3d
000000b0: bf9a a23e 7cd9 043d ed6d 323c 728f 01bc
000000c0: e346 2b3c 5f68 5bbd 787b bb3b c674 a33d
000000d0: 4b43 283e fa79 2c3e 65cb c13c b9ea 41bd
000000e0: ccad 8f3d ac4b 683d 2e7e d6bc 7a7c 9abb
000000f0: 987a a73c 9f0e f63d aa38 91bd ecad 123b
00000100: 7be0 a93c fb15 5bbd 02cf 1bbd 8ab8 323d
00000110: 1e96 b4bc a9e4 c03d f402 493d fbd9 ba3d
00000120: ccc1 cdbd 3e0e ad3d c41b 993e 7d41 393d
00000130: dab7 473d 1e77 363d f35d 2c3c 3cca bd3c
00000140: 26ac 573e 274c cf3d bbad 9a3d 44cb 9b3d
00000150: 0c28 62bd c9e4 c43e 25a8 d2bc c0e7 873d
00000160: b189 d3bd 7052 af3d c3c9 73bd 0a6b 423e
00000170: 2567 b2bb 2d90 893d b7d4 cbbc 3677 3a3d
00000180: 9ec5 193e 9648 68bc 013f 6f3c d20a a43d
00000190: ec17 0b3e 97b8 debb ae44 ccbc 9c08 033e
000001a0: a02d a53e 3a1f 423e d39d 883d e35f 183d
000001b0: 6013 893d f240 e1bc 61ac c0bd 736d 623e
000001c0: e97d b83c c55c 473e ef7a 8e3d 58d4 fbbc
000001d0: ab9f 083d 21a2 8a3d 8fd0 8e3d 2f33 81bd
000001e0: b9a5 e8bc b2f9 a7bc 6bb3 f83d 1022 eb3c
000001f0: 1af1 a13c 73f9 80bc 9a21 063e 9ed0 9abd

q_out.weight f4 [5, 128]
-0.13788696 -0.11001957 -0.00936615 -0.04888589 -0.025279177 -0.1433443 0.062309153 -0.015988532
0.012342057 0.033273347 -0.16200645 -0.096460104 0.06970128 0.2436145 -0.07058653 -0.055867855
0.0044428245 -0.15135661 -0.11615315 0.06933501 0.10405313 0.025087638 -0.024361173 -0.13137479
-0.12097445 0.029200708 -0.15838923 0.028005274 -0.1649481 0.11404319 -0.11112886 -0.105238356
-0.050041135 -0.08331213 0.0670533 -0.09943452 0.07248392 -0.03914044 -0.10245984 -0.13071242
-0.09201473 -0.12857026 -0.12555452 -0.015521144 -0.058793686 -0.03241147 -0.14283603 -0.07662396
-0.0065875114 -0.021747367 -0.0984104 -0.11910687 -0.13788423 -0.10273665 -0.024157753 -0.018404976
-0.018870061 -0.03899094 -0.1289133 -0.024086265 -0.083536655 -0.07462623 0.07486798 -0.058201693
-0.1468144 -0.046114888 0.073742844 -0.16291003 0.016456235 -0.13600655 -0.0466646 -0.15998738
0.00071645936 -0.16124336 0.1991198 0.06725313 -0.13422687 -0.07795656 -0.09554819 -0.14704657
-0.0938446 -0.16002437 -0.15653467 -0.0051717362 -0.014839979 0.28334236 0.07057277 -0.09211915
0.014092991 -0.015177169 0.039441325 0.029557489 -0.10080637 -0.02443228 -0.06685977 -0.03487833
-0.12104397 -0.028363697 0.06300764 -0.07696869 -0.1442956 0.062369134 -0.02757077 -0.06743522
0.039936498 -0.056331288 -0.09299198 -0.0060907765 -0.094455756 0.0128677 -0.04781368 -0.13987353
-0.014904615 -0.09184958 -0.07190551 -0.010159444 -0.13775215 -0.05778192 -0.058402684 -0.03767411
-0.009106817 -0.026036529 -0.023052458 -0.09681734 0.009555596 0.024981974 -0.08595492 -0.084213346
0.03806977 -0.018468963 -0.025450759 -0.046747945 0.28937343 -0.11119942 0.07780758 -0.019542597
-0.003401118 -0.007953115 -0.20418635 -0.046609882 0.0111161815 -0.5235407 0.081356734 -0.01235039
-0.14160807 0.015734823 -0.095166005 0.07737789 -0.01662565 -0.045775082 -0.12094527 -0.08148907
0.059182696 -0.066330895 -0.002733366 0.051514447 -0.092049435 -0.4627558 -0.14889129 -0.039244693
-0.062982835 -0.01573733 -0.07757042 -0.020717734 0.054742645 -0.049445774 -0.111106575 -0.007105608
0.013037164 -0.12088559 -0.13633996 -0.21295956 -0.44566035 0.00065918703 -0.04557185 -0.0795907
0.032262456 0.050863825 0.04997318 -0.13390902 -0.16172482 -0.18279059 0.07282499 0.019412918
-0.0007481477 -0.1680953 -0.077447675 0.1007607 -0.13761723 -0.096253365 0.09969995 -0.066318095
0.039215397 0.103838265 0.042809416 -0.1218532 -0.04141309 -0.04009843 0.06612624 -0.059441205
-0.047128253 -0.15599634 -0.54682016 0.2460528 -0.03738546 0.04589539 0.00095722947 -0.14900224
-0.28744727 -0.1586903 -0.090618834 -0.21684876 0.06915162 -0.6434214 -0.019893145 -0.14413327
-0.081938416 -0.13434671 -0.016591057 -0.43417788 -0.15002012 -0.06076248 0.023693474 -0.09674132
-0.14612031 -0.024187753 0.035396192 -0.12706716 -0.120397575 0.049783558 -0.06796339 -0.11345404
-0.4105625 -0.15067732 -0.11767504 0.05858469 -0.084483795 0.06692517 0.07058467 -0.27320483
0.04886864 -0.23102441 -0.17418134 0.0022731635 -0.16279733 -0.024070859 -0.17299636 -0.01998937
-0.046577036 0.019936105 -0.112722546 0.009122838 0.31727445 -0.017169734 -0.11396673 0.04189947
00000000: 3d32 0dbe f151 e1bd 7b74 19bc 923c 48bd
00000010: 4716 cfbc d9c8 12be e237 7f3d 62fa 82bc
00000020: 5736 4a3c a249 083d 05e5 25be e08c c5bd
00000030: 8bbf 8e3d 1476 793e ac8f 90bd b1d5 64bd
00000040: 1d95 913b 3afd 1abe b4e1 edbd 84ff 8d3d
00000050: cf19 d53d 9784 cd3c 1591 c7bc 1d87 06be
00000060: 74c1 f7bd 5336 ef3c c930 22be 516b e53c
00000070: 28e8 28be 7a8f e93d 8797 e3bd 3587 d7bd
00000080: eff7 4cbd 8d9f aabd 3e53 893d 53a4 cbbd
00000090: 7372 943d ba51 20bd 77d6 d1bd 7ad9 05be
000000a0: 3872 bcbd eca7 03be 5d91 00be 654c 7ebc
000000b0: a6d1 70bd e4c1 04bd 9c43 12be 06ed 9cbd
000000c0: 0ddc d7bb 8927 b2bc 648b c9bd 4dee f3bd
000000d0: 8631 0dbe 9867 d2bd 7be6 c5bc 08c6 96bc
000000e0: 6395 9abc f7b4 1fbd d901 04be 8f50 c5bc
000000f0: 4415 abbd a3d5 98bd 6254 993d e664 6ebd
00000100: 8456 16be f7e2 3cbd 7d06 973d e3d1 26be
00000110: 3acf 863c 4d45 0bbe 6123 3fbd bbd3 23be
00000120: c6d0 3b3a fb1c 25be 10e6 4b3e 02bc 893d
00000130: c572 09be b0a7 9fbd c5ae c3bd 6093 16be
00000140: 9931 c0bd 6edd 23be a04a 20be ab77 a9bb
00000150: 6223 73bc 4012 913e 7588 903d f7a8 bcbd
00000160: 4ae6 663c a9a9 78bc 3a8d 213d 8c22 f23c
00000170: 9273 cebd 3426 c8bc c6ed 88bd 94dc 0ebd
00000180: e7e5 f7bd fc5a e8bc 260a 813d c3a1 9dbd
00000190: 3ac2 13be c776 7f3d 18dc e1bc 7a1b 8abd
000001a0: 7494 233d a3bb 66bd 9472 bebd 2395 c7bb
000001b0: 0572 c1bd 0cd3 523c 47d8 43bd 023b 0fbe
000001c0: 7c32 74bc a21b bcbd 3243 93bd cc73 26bc
000001d0: e60e 0dbe bcac 6cbd a737 6fbd 2b50 1abd
000001e0: c234 15bc 8f4a d5bc 82d8 bcbc 2b48 c6bd
000001f0: 138f 1c3c ffa6 cc3c 2209 b0bd 0c78 acbd
00000200: 0cef 1b3d 394c 97bc 1c7e d0bc c67a 3fbd
00000210: c128 943e 86bc e3bd 9559 9f3d cc17 a0bc
00000220: 4be5 5ebb c84d 02bc 3a16 51be 01ea 3ebd
00000230: a520 363c c306 06bf 5c9e a63d 4a59 4abc
00000240: b501 11be 51e6 803c 65e6 c2bd 4d78 9e3d
00000250: 8432 88bc a77e 3bbd 27b2 f7bd bee3 a6bd
00000260: 8e69 723d 7ed8 87bd 4622 33bb d000 533d
00000270: 6a84 bcbd 54ee ecbe f576 18be 0bbf 20bd
00000280: 25fd 80bd 93eb 80bc 3edd 9ebd 3db8 a9bc
00000290: d339 603d a787 4abd d88b e3bd 29d6 e8bb
000002a0: d499 553c dd92 f7bd b49c 0bbe 1212 5abe
000002b0: 982d e4be 4bcd 2c3a 8ca9 3abd 7300 a3bd
000002c0: a325 043d 9656 503d adb0 4c3d 721f 09be
000002d0: 319b 25be 752d 3bbe 4525 953d d707 9f3c
000002e0: 581f 44ba 2d21 2cbe e39c 9ebd a05b ce3d
000002f0: 88eb 0cbe 7c20 c5bd 7d2f cc3d c8d1 87bd
00000300: 53a0 203d 28a9 d43d ed58 2f3d 2c8e f9bd
00000310: c6a0 29bd 403e 24bd 326d 873d 9f78 73bd
00000320: 8e09 41bd 81bd 1fbe 68fc 0bbf 44f5 7b3e
00000330: 7f21 19bd cefc 3b3d 95ee 7a3a 0b94 18be
00000340: 4a2c 93be b67f 22be 5e96 b9bd 9a0d 5ebe
00000350: 5d9f 8d3d 44b7 24bf f3f6 a2bc ac97 13be
00000360: 54cf a7bd 2f92 09be f8e9 87bc 904c debe
00000370: e09e 19be 14e2 78bd d118 c23c 5020 c6bd
00000380: 90a0 15be 6525 c6bc 99fb 103d e51d 02be
00000390: 0193 f6bd d8e9 4b3d 6430 8bbd 975a e8bd
000003a0: 3f35 d2be 284b 1abe 9dff f0bd 80f6 6f3d
000003b0: d705 adbd 1010 893d b28e 903d 81e1 8bbe
000003c0: 7c2a 483d aa91 6cbe 985c 32be 5bf9 143b
000003d0: 58b4 26be 4030 c5bc f525 31be bfc0 a3bc
000003e0: 90c7 3ebd 0b51 a33c 14db e6bd f577 153c
000003f0: cc71 a23e 8ba7 8cbc 6467 e9bd c79e 2b3d

q_out.bias f4 [5]
-0.033061594 -0.2774951 -0.09314248 -0.08305343 -0.10597207
00000000: 986b 07bd d613 8ebe 7cc1 bebd eb17 aabd
00000010: e207 d9bd
