models/intermedium_save/q_te_agent_0.pt (torch, 108561 bytes, 6 tensors)

fc1.weight f4 [128, 71]
000000 9f 21 24 bd a1 0e cb bc c1 cd 85 bc 42 af 73 3e
       -0.040071126 -0.024787249 -0.016333463 0.23797324
000010 71 4b 97 3d 95 e9 30 3e ed 97 99 3d 1f 86 3c 3e
       0.07387436 0.17276604 0.07499681 0.18410538
000020 70 43 38 3b 2d 67 dd 3d 3c ec 63 3e 9f 26 40 3e
       0.0028116368 0.10810695 0.22258085 0.18764733
000030 aa e5 5e 3d 3c a4 72 3d 00 b7 ac bd 31 86 49 be
       0.054418243 0.059238657 -0.08433342 -0.19680096
000040 d8 f1 7d 3e f4 6c 34 3e b8 24 0f 3e aa 91 b5 3d
       0.24799287 0.17619687 0.13978851 0.08865674
000050 35 85 a1 3d 47 08 87 3d 87 8e 16 be 1c 7d 68 3d
       0.07886735 0.06593376 -0.14702807 0.05675994
000060 9f 98 71 3e ae 48 22 3e 35 5b 83 3d 72 62 d8 3d
       0.23593377 0.15848038 0.06413881 0.10565652
000070 14 cb c3 3d 60 24 37 be 29 3f a1 3d c8 d9 1e 3e
       0.095602185 -0.1788497 0.07873375 0.15512764
000080 53 8f d4 3d 29 26 43 3e 61 7f eb bc 9e 14 9e 3d
       0.103788994 0.19057526 -0.028747262 0.07718776
000090 bc 5d 8a be 41 7b 89 3e d8 d5 16 3e b0 81 1b 3e
       -0.2702464 0.26851848 0.14730012 0.1518619
0000a0 a2 bd 03 3d ba 05 2d be 1d d1 28 be 10 f2 35 be
       0.03216327 -0.16896716 -0.1648602 -0.17768121
0000b0 ef cb 3b 3e 32 4e 51 3d a2 9e 25 3e 76 f1 36 3d
       0.18339513 0.051099963 0.16173795 0.04466387
0000c0 68 bb 04 3d 27 76 4f 3d 57 20 96 3d a4 1e 6d 3e
       0.032405287 0.05064979 0.07330387 0.2315622
0000d0 55 f0 19 3d 01 9c 5f 3e 4b 7f 6f 3e cb 6d 31 bd
       0.037582714 0.21836855 0.23388402 -0.043317597
0000e0 08 4d 4f 3d 84 be 85 be 0f 50 88 3e 74 36 e8 3d
       0.050610572 -0.26121914 0.2662358 0.11338511
0000f0 b1 8d 90 3d 21 b3 9e 3d a7 4a ba 3c ae 0e 00 bd
       0.070582755 0.0774901 0.022740675 -0.031264
000100 1f 05 a8 3c e8 a5 1d 3e 96 2b 94 3b 67 e3 aa 3d
       0.020510254 0.1539532 0.0045217974 0.08344155
000110 e6 3a 5b 3d 7d ee 23 bd 38 de bb bc 24 02 ba b9
       0.053522967 -0.040022362 -0.02293311 -0.0003547828
000120 7a 5d 60 3c f2 c8 b5 bd 82 a0 71 3e eb 7d b2 3d
       0.013694162 -0.08876218 0.23596385 0.08715423
000130 af c6 56 3d dd c6 d9 3d b0 4a 2d 3e 9f 78 a0 bd
       0.052435573 0.10633633 0.16923022 -0.07835507
000140 48 38 c0 3d 84 40 47 3e 46 3a 11 3e 3c 92 3e 3e
       0.09385735 0.19458205 0.14182386 0.18610471
000150 d7 20 d0 bd 31 e0 c2 3d 65 a8 05 be e4 79 09 3e
       -0.10162514 0.09515417 -0.13052519 0.13425404
000160 9b 6b 95 3e 7f 7c 71 3e 2e 67 ce 3d cb c1 bc 3d
       0.2918366 0.23582648 0.10078274 0.092166506
000170 6a 37 32 3d 0d 4c 58 3c 36 04 88 3e 0a d6 7b 3e
       0.04350988 0.013201726 0.26565713 0.24593368
000180 b6 94 88 3e 0d 74 74 3e 8a 15 79 bc c3 04 f7 3d
       0.26675957 0.23872395 -0.015202889 0.12061455
000190 88 7c 1f be e1 29 0c 3e de cf 64 3e ee ed a5 3d
       -0.15574849 0.1368785 0.2234492 0.08102022
0001a0 0f 44 72 3e d1 ea fe bd 5b 63 bd 3d ad e4 af be
       0.23658775 -0.124471314 0.09247466 -0.34354153
0001b0 ce 69 6e 3e 0a d0 3f 3d 61 17 b2 3d 9f ba ef 3d
       0.23282549 0.04682926 0.086958654 0.11705517
0001c0 16 f0 fb bd 7c 35 69 be bc 3d 1c be cc 67 71 3e
       -0.12301652 -0.22774309 -0.15257925 0.23574752
0001d0 ac a1 84 3d a5 31 29 3e 0e ab f5 bb 33 91 ec bd
       0.06476149 0.16522844 -0.007497198 -0.11551132
0001e0 85 59 60 bd 56 51 04 3d 44 9b 84 3e 03 28 1b 3e
       -0.054772872 0.03230413 0.25899708 0.15151982
0001f0 37 89 20 3e 96 4b 82 3e 87 9d 77 bd d5 c7 ba bd
       0.15677343 0.25448292 -0.060452964 -0.09120146
000200 59 9d 0e be da 58 43 3e b1 bc f9 3d 42 c6 33 3e
       -0.13927211 0.19076863 0.12194193 0.17556098
000210 5e 7a 8c 3d 4b 27 ef 3d 7a 95 ea bd d5 a8 06 bc
       0.06859277 0.116774164 -0.11454292 -0.008218964
000220 c9 df 7e 3e 65 84 71 3d 5f 5d ca 3d d4 2f b9 3d
       0.24890055 0.058964152 0.098810904 0.090423256
000230 fa f8 8d 3d 62 22 c2 3d ee c3 d5 3c 09 fb 28 3e
       0.06932254 0.09479214 0.026094403 0.16502012
000240 c6 af 96 bc c9 db 24 3e 56 9b 4e 3e aa 16 63 3e
       -0.018394362 0.16099466 0.20176443 0.22176614
000250 ea 6e f9 3d ac 26 74 3e d1 6f 2b be ef f5 3e 3e
       0.12179358 0.23842877 -0.16741873 0.18648504
000260 01 fb 14 3e ff a4 f2 3d e4 9e 8a 3e 7b d4 fd 3d
       0.14548875 0.11847877 0.2707435 0.12394043
000270 59 5f 8c 3d 0f f5 de bd 1c d1 83 3e b0 86 f7 3d
       0.068541236 -0.10886585 0.25745475 0.120862365
000280 31 aa 1e 3e 5a 07 f4 3d 23 23 26 3e 7a 42 ad 3d
       0.1549461 0.11915465 0.16224341 0.08459945
000290 b1 f7 30 be bd ad 2b 3d bd 60 62 3e e8 11 6a 3e
       -0.17281987 0.041913737 0.22107215 0.22858393
0002a0 d7 7a 0f 3e 60 fc a0 3d b4 f4 98 bd b4 5f fd bd
       0.14011703 0.07860637 -0.074685484 -0.123717695
0002b0 41 89 1b 3e f4 0a 5d 3e 25 65 7d 3d 82 dd fd 3d
       0.15189077 0.2158621 0.061864037 0.12395765
0002c0 e2 ac 89 3d d7 ab 0c bc bd 5b 5f be 38 3a 3a 3d
       0.06722428 -0.008585892 -0.21812339 0.045465678
0002d0 bc f7 86 3e 0c ae c4 3d 6b ce 82 3e 24 80 f5 bc
       0.2636088 0.09603509 0.2554811 -0.029968329
0002e0 52 b8 00 bd a4 84 7c be ea 2c 07 3e 7e 0a 22 3e
       -0.03142578 -0.24659973 0.13200727 0.15824315
0002f0 f5 95 13 3e 7e 98 8b 3d 8a 08 6d 3b 74 f6 04 3e
       0.14412673 0.06816195 0.003616842 0.1298464
000300 31 62 3f bd e6 6b 57 3e e9 85 b5 3d 07 3d 33 3e
       -0.046724502 0.21037254 0.08863432 0.17503749
000310 a7 c3 30 3e 7a 70 1d 3e 00 4a de bd 2f 78 ec bd
       0.17262135 0.15374938 -0.10853958 -0.11546361
000320 00 4e 84 3e 6c 90 ea 3d 8b fd 1c 3e 3a e6 48 3e
       0.2584076 0.114533275 0.15331094 0.19619074
000330 e4 55 3a 3d ae cb ac 3d 8e 7c 50 3c ad ab 39 3e
       0.045492068 0.08437286 0.012725009 0.18131895
000340 44 95 11 3e b6 0a 19 3e 33 64 69 3e e6 73 d6 bc
       0.14217097 0.14945492 0.22792129 -0.026178312
000350 b7 64 97 bc b2 5b 4d 3d e9 da e6 bc 6c cc c9 3d
       -0.018480642 0.050136276 -0.028180556 0.098534435
000360 e3 60 b3 bc 4d b3 81 bd 74 18 e6 bd a7 74 18 be
       -0.021896785 -0.06333027 -0.11235133 -0.1488825
000370 31 d3 9b 3d e0 2a f2 3d df 42 c8 bd 1a ad 11 3e
       0.07608641 0.11824584 -0.0977838 0.1422619
000380 14 c2 a8 bd d1 c5 92 3d 66 ae 84 bd 94 a5 9a 3d
       -0.082401425 0.07166637 -0.06478576 0.07551113
000390 f7 24 1f bd ff d5 e6 bd 14 35 53 3c 7e 74 07 bd
       -0.03885361 -0.11271285 0.012891073 -0.03307008
0003a0 99 a4 e0 bc 5f bd b3 3d c4 ad f2 bd d1 2a 76 3d
       -0.027422236 0.08776354 -0.118495494 0.060099427
0003b0 62 d9 0d be 97 f5 e3 3d 13 79 c2 3d 81 e9 32 bd
       -0.13852456 0.11130827 0.09495749 -0.043679718
0003c0 7f aa 02 bc 8d 8b 8a 3d 99 8a d3 3d aa 71 2b bd
       -0.00797522 0.067648984 0.1032917 -0.041856445
0003d0 da 99 9f 3d 73 4f d9 3c 27 07 91 bd 2a 6e 81 bd
       0.07793017 0.026527142 -0.07081442 -0.0631984
0003e0 a7 be 7f bc 01 0b 93 bd 39 d8 ca bd c1 c9 6b 3c
       -0.01560942 -0.07179833 -0.099045224 0.014391364
0003f0 6a 6d 11 3d 6b 14 54 3d e7 8b 37 3d 99 de bc bd
       0.035504736 0.051777285 0.044811156 -0.09222145

fc1.bias f4 [128]
000000 f6 b3 97 3e 9d d7 82 3e d1 dd 58 3e 8c 73 28 bc
       0.29629487 0.25555125 0.21178366 -0.010281455
000010 5a a6 50 3e af cf 49 3e 96 dc 9c 3c ea 46 1c 3e
       0.20375958 0.19708131 0.019148152 0.15261427
000020 a1 eb 7b 3e 15 01 7b 3e bd b2 0f 3e df b1 48 3e
       0.24601604 0.24512132 0.14033027 0.19599102
000030 b0 90 81 3e 6c 22 66 3e 41 02 93 3d d3 1a 35 3e
       0.253057 0.22474068 0.07178164 0.17686014
000040 c8 54 3e 3e e6 62 3a 3e 45 c6 93 3e 4f b0 85 3e
       0.18587029 0.1820179 0.28862205 0.26111075
000050 b3 e9 7e 3e 8b 1d 83 3e 03 b4 90 3e a3 92 86 3d
       0.24893837 0.25608477 0.28262338 0.065709375
000060 77 4b f5 3d 1c 72 62 3e a8 9c 28 3e 52 a3 82 3e
       0.119772844 0.22113842 0.1646601 0.2551523
000070 be 6c 43 3e ba 1b d5 3d 11 7e 27 3e 41 df 8a 3e
       0.1908445 0.10405679 0.16356684 0.27123454
000080 74 2c 6d 3e 9c 0c 18 3e 7c 4b 5c 3e ac 92 a3 3d
       0.23161489 0.1484856 0.2151317 0.0798696
000090 f7 5b 59 3d 1c 27 ea 3d 97 e8 08 3e 3d bc 84 3e
       0.05306622 0.11433241 0.13369976 0.25924864
0000a0 a1 4d 09 3e 3c 19 2c 3e fc 18 53 3e 81 ed 27 3e
       0.1340852 0.16806501 0.20615 0.16399194
0000b0 b2 c1 14 3c 71 44 54 3e 9d 48 36 3e d1 40 32 3e
       0.009079384 0.20729233 0.17801137 0.17407538
0000c0 31 26 55 3e 57 82 85 3d c9 96 85 3e de 98 23 3d
       0.2081535 0.06519001 0.26091602 0.039940707
0000d0 eb 6d 3f 3e 03 e7 6e bd ba 39 ce 3d e4 f4 96 3e
       0.18694274 -0.05832578 0.10069604 0.29483712
0000e0 d0 ba 5f 3e 78 18 a6 3d a4 fe 5d 3e 6d 23 6d 3e
       0.21848607 0.08110136 0.21679169 0.23158045
0000f0 4c 1b 64 3e 2e ab 21 3e ec 64 89 3e 21 13 3d 3e
       0.22276038 0.15787956 0.2683481 0.18464328
000100 58 fd 7b 3d c4 b8 19 3e 04 97 fb 3d 3e 0f 31 3e
       0.061520904 0.15011889 0.12284663 0.1729097
000110 09 40 8b 3e 77 a3 21 3e 1c 81 60 3e d1 72 6b 3e
       0.27197292 0.15785013 0.21924251 0.22993018
000120 e2 3d 8a 3e 5c d7 52 3e 4b 46 77 3e e4 0c 10 3e
       0.27000338 0.20589966 0.24147908 0.14067417
000130 4b ff 80 3e f9 79 83 3e bc dc 22 3e 0f 59 3a 3e
       0.25194773 0.25678995 0.15904516 0.18198036
000140 9d 24 81 3e b0 69 42 3e 20 75 8c 3e 2e 31 9e 3e
       0.25223246 0.18985629 0.2743311 0.30896896
000150 a7 38 84 3e 4b 96 ff bd fc a7 77 3e 36 af 74 3e
       0.25824472 -0.12479838 0.24185175 0.23894963
000160 e5 da 65 3c 9d 05 91 3d b9 e3 e0 3d 53 28 84 bc
       0.014029239 0.07081149 0.10980935 -0.01613251
000170 84 b9 97 bc 3a 7f 8c 3e b2 07 c0 3d b7 b9 1c 3e
       -0.018521078 0.27440816 0.09376468 0.1530522
000180 51 df c8 3d f7 58 7d 3e a9 44 62 3e d3 9a 65 3e
       0.09808219 0.24740969 0.22096504 0.22422342
000190 1b d0 d1 3d c0 89 92 3e ae e8 09 3e ad 2e 16 3e
       0.10244771 0.2862072 0.13467667 0.14666243
0001a0 0d 4d a3 3d a3 fd a7 3c 6b c1 36 3e e4 8b 4d 3e
       0.07973681 0.020506686 0.1784722 0.20072895
0001b0 78 f0 6c 3e 02 07 e6 3d 21 4e 4e 3d 06 2e 24 3e
       0.23138607 0.112318054 0.05036748 0.16033182
0001c0 55 3a c8 3d 94 4a 88 3d db 30 03 3e 05 41 53 3e
       0.09776751 0.0665485 0.12811606 0.20630272
0001d0 66 2c a9 3c 86 b5 0a be 57 b2 41 3e 55 93 01 3e
       0.020651054 -0.13545808 0.18915688 0.12653859
0001e0 60 c2 52 3e 52 e8 c8 3d 5e 9d 3d 3e c7 9e cd bd
       0.2058196 0.098099366 0.18517062 -0.1004005
0001f0 4b 22 62 3e 79 7d 87 3e ff df 2c 3e dd 37 51 3e
       0.22083394 0.26462916 0.16882323 0.20431466

fc2.weight f4 [128, 128]
000000 60 6b 81 3e 86 01 6c 3e ee 88 06 3e d0 54 31 bc
       0.25277233 0.23047456 0.13138172 -0.0108234435
000010 43 e5 49 3e 13 8e 30 3e f7 eb 15 3d da ed 4d 3e
       0.19716363 0.17241697 0.036601987 0.20110264
000020 b5 42 a5 3e 03 80 98 3e f8 b3 1a 3e 8b 21 b3 3d
       0.32277456 0.29785165 0.15107715 0.08746632
000030 09 9d 42 3e 13 d7 43 3e 5d b6 00 3d 7e 3d 5c 3e
       0.19005217 0.19125013 0.031423915 0.21507832
000040 44 b3 a2 3d 1a 15 62 3e 88 64 14 3e 42 21 02 3e
       0.079443485 0.22078362 0.14491475 0.12708
000050 46 19 29 3e 75 2e e0 3c ff 77 4f 3d cd bf 6f 3d
       0.16513547 0.027365902 0.050651547 0.058532525
000060 65 96 4f 3e 80 03 fb 3d 29 e9 25 3e 19 fb 9a 3d
       0.20272215 0.12256527 0.16202225 0.07567424
000070 74 1e 3e 3e 2e fb 7b 3e 98 7c 93 3d 2e e0 6d 3e
       0.18566304 0.24607536 0.07201499 0.23230049
000080 08 4f 92 3d 22 95 93 3e 21 7c 04 3e 61 08 6e 3e
       0.0714398 0.28824717 0.12937976 0.23245384
000090 c9 93 d2 3e df 95 22 3e b0 29 5b 3e 8c 1f 42 3e
       0.41128376 0.15877484 0.21402621 0.18957347
0000a0 4d f5 70 3e 7b 92 82 3e c1 19 85 3d dc 65 c3 3d
       0.23531075 0.2550238 0.06499053 0.095409125
0000b0 d9 37 03 3d c3 d5 33 3e ae 35 d8 3d 58 59 4f 3e
       0.032035682 0.17562012 0.105571136 0.20248926
0000c0 9c 7e 74 3e f7 84 9d 3d e3 16 20 3e 49 93 cc 3d
       0.23876423 0.07691377 0.1563373 0.0998903
0000d0 69 0d 62 3e a6 20 01 3d 14 48 eb 3d 8d 93 48 3e
       0.22075428 0.031525277 0.11488357 0.19587536
0000e0 81 e8 05 3e 0d b6 e0 3c 09 47 f6 3d 17 8d 0f 3e
       0.13076974 0.027430559 0.12025268 0.14018665
0000f0 d6 cc 35 3e c4 ef 64 3e 69 0d 24 3e 1a 7f 12 3e
       0.1775392 0.22357088 0.1602074 0.14306298
000100 32 6f 2f 3e a0 8e 97 3d 38 49 3d 3d 15 97 e0 3d
       0.17132261 0.074002504 0.046212405 0.109663166
000110 ec 49 14 3e ea e6 a7 3e 13 fc c5 3d ed 3f 5d 3e
       0.14481324 0.3279336 0.0966722 0.21606417
000120 a6 b5 85 3e 30 2a ab 3d a4 62 f1 3d a0 af 28 3e
       0.2611515 0.08357656 0.11786392 0.16473246
000130 6d e6 6b 3e b2 97 98 3e 4c 9a 45 3e 8c 76 a4 3d
       0.23037119 0.29803234 0.19297141 0.080304235
000140 d2 bf 4e 3e 8f b5 7e 3e 61 6f 88 3e 28 1b 76 3e
       0.20190361 0.24873947 0.26647475 0.24033797
000150 6d 03 64 3e 83 54 99 bd 4b d3 2d 3e 5d 82 05 3e
       0.22266932 -0.074868225 0.16975133 0.13038011
000160 c1 87 a1 3d 76 15 85 3e df 6f e3 3d 89 71 70 3d
       0.07887221 0.25992936 0.11105322 0.058702026
000170 cb 95 88 3c d8 64 13 3e 42 62 00 3d e4 70 1c 3e
       0.01667299 0.14393938 0.031343706 0.1527744
000180 da 07 c5 3d f1 33 f5 3d 7f 9a f2 3d f6 72 09 3e
       0.09620638 0.11972798 0.11845874 0.1342276
000190 26 82 c0 3d a3 c4 5b 3e f7 58 11 3e 38 63 95 3d
       0.09399824 0.2146173 0.14194094 0.07294315
0001a0 66 6e 5d 3e 9e 3f b1 3d c9 f3 ae 3d 9f 91 15 3e
       0.21624145 0.08654712 0.08542592 0.14606331
0001b0 4b 5d 25 3e 88 cd ca 3e d3 c2 ef 3d 8d 30 15 3e
       0.1614887 0.39609933 0.11707082 0.14569302
0001c0 45 95 2a 3d e7 c0 10 3e a0 75 67 3e f3 85 7d 3d
       0.04164626 0.14136086 0.22603464 0.061895322
0001d0 3c 1e a9 3b 5a c5 45 bd 80 42 a9 3e ac 46 d5 3d
       0.005161075 -0.048283912 0.33058548 0.1041387
0001e0 94 03 3e 3e 6f 51 59 3e 0a 6f 40 3e 34 bb b3 3d
       0.18556052 0.2122247 0.18792358 0.087759405
0001f0 70 42 63 3e 75 32 a7 3d 37 55 c8 3d ed 20 9f 3d
       0.22193313 0.08163921 0.097818784 0.07769952
000200 55 38 64 3e 79 1b 69 3e 45 b2 58 3d 7b f6 9f 3d
       0.22287114 0.22764386 0.052904386 0.07810684
000210 1e 52 5c 3e c1 43 ec 3d 6d ab 69 bb 90 39 34 3e
       0.215157 0.115363605 -0.0035655156 0.17600083
000220 b1 77 31 3e b2 e2 4e 3e 56 c1 2a 3e b7 8c 5b 3e
       0.17330815 0.20203665 0.16675314 0.21440397
000230 fe da 2c 3e 59 4c 2d 3e 27 e9 44 3d 5d b7 07 3e
       0.16880414 0.16923656 0.048073914 0.13253541
000240 1e 1f 90 3d 31 ed f7 3c 1d 19 23 3e c6 be 8b 3d
       0.07037185 0.030264469 0.15927549 0.068234965
000250 1e 71 0a 3e 11 56 09 3e 3a 35 a0 3d 98 8a 06 3d
       0.13519713 0.13411738 0.07822652 0.032847017
000260 79 bc 9c 3e 68 78 21 3e d8 19 4c 3e e0 fb 1c 3e
       0.30612543 0.15768588 0.19931734 0.15330458
000270 04 61 04 3e 6a bb a1 3e de 90 c6 3d d5 6b 1c 3e
       0.12927634 0.31588298 0.096956 0.1527551
000280 70 a5 09 3d 21 6b 95 3e 86 1b 2d 3e c4 9b 85 3e
       0.03360504 0.29183295 0.1690503 0.26095402
000290 1f 13 22 3e c2 76 76 3e f5 50 6d 3e b4 9f c4 3d
       0.15827607 0.2406874 0.23175414 0.096007735
0002a0 9a cc 58 3d ae 34 6d 3e 41 10 e6 3d 4f 2d 56 3e
       0.0529295 0.23164627 0.11233569 0.20915721
0002b0 55 da 6b 3d dd 95 4a 3e 19 88 f4 3c 64 ee 41 3e
       0.057581265 0.19783731 0.029850053 0.18938595
0002c0 22 ca 63 3e 13 4d 1f 3d 21 7d dc 3d 92 b8 38 3a
       0.22245076 0.038891863 0.10766054 0.0007046546
0002d0 e0 ba 19 3e 09 7f a1 bd 04 d8 33 3e da 13 80 3e
       0.15012693 -0.07885558 0.17562872 0.25015146
0002e0 26 38 e6 3d aa bd 26 3e b5 3a c6 3d aa a8 5c 3d
       0.11241178 0.16283289 0.09679166 0.053871788
0002f0 88 ec e6 3d 41 04 1e 3e 64 77 00 3e 65 f2 ea 3d
       0.112755835 0.1543131 0.12545544 0.11472014
000300 70 97 0f 3e 93 11 31 3d 22 ac aa 3c e9 cb 1d 3e
       0.14022613 0.04322965 0.020834032 0.15409817
000310 e8 fe b8 3d ef c9 93 3e 8c 2a 0b 3e ba 8a 89 3e
       0.090329945 0.28865 0.13590449 0.26863652
000320 25 89 1f 3e f3 3e 48 3c 9c 18 ec 3d 72 1e 8a 3d
       0.1557966 0.0122220395 0.11528131 0.06744088
000330 bf 96 2e 3e 4a bd 35 3e 1b 8b 3f 3e 05 30 9a 3d
       0.17049693 0.1774799 0.18705408 0.0752869
000340 d4 1b 82 3e d0 c0 82 3e 06 9d 24 3e e3 06 97 3e
       0.25411856 0.2553773 0.16075525 0.29497442
000350 36 a0 3a 3e 90 c5 8a bd 39 c5 73 3e ba ed bc 3d
       0.18225178 -0.06775963 0.23805703 0.0922503
000360 1a 82 09 3d a7 d2 e8 3d 1f ec 2e 3e ec bf 41 3d
       0.03357134 0.11368304 0.1708226 0.04730217
000370 6d 23 5b bd 0a a9 bc 3d 63 bd cd 3c 97 05 bd 3d
       -0.05350058 0.09211929 0.02511472 0.09229582
000380 65 6c 98 3d ca 6f 8f 3d 23 81 e5 3d 6c ad 33 3e
       0.074425496 0.07003744 0.112062715 0.17546624
000390 2a c8 95 3d 9c 72 91 3d 5d a6 22 3e 9f 1b 6f 3d
       0.07313569 0.07101938 0.15883775 0.05837595
0003a0 49 2e 95 3d b0 46 b7 3d ac 66 5c 3e df fe fc 3d
       0.07284219 0.089490294 0.21523541 0.123533
0003b0 f3 f6 8d 3c 8e ee b5 3e 05 6d cc 3d c8 da 18 3e
       0.017329669 0.35533565 0.09981731 0.14927208
0003c0 6d 17 0f 3d af 18 d3 3d 16 05 47 3e a5 82 f6 3d
       0.03493445 0.103074424 0.19435534 0.12036637
0003d0 b7 10 19 3b 85 46 1b 3c 86 57 62 3e 93 ba 26 3d
       0.002335591 0.009477262 0.221037 0.040705275
0003e0 f5 ab f3 3d d5 db 13 3e 0d af 08 3e 0c 04 62 bc
       0.118980326 0.14439328 0.13348027 -0.01379491
0003f0 4f 91 dc 3d d9 8b b1 3d a7 10 0a 3e 78 7c 22 3e
       0.10769903 0.08669252 0.13482915 0.15867794

fc2.bias f4 [128]
000000 7b 85 7a 3e 79 f1 ca 3d f3 2a 0d 3e cf 69 6f 3d
       0.24464981 0.099093385 0.13785915 0.058450516
000010 85 dd 83 bd bd fa 11 3e 00 b3 f3 3c e4 a5 83 3d
       -0.06438736 0.14255805 0.02974844 0.064281255
000020 7c b0 f5 3a 48 22 f0 3d eb ba ad 3c 4f b7 88 3d
       0.0018744613 0.11725289 0.021207293 0.06675588
000030 f8 50 7b 3e bd 97 b3 3d 9c e6 6b 3e 66 a9 1d 3e
       0.24542606 0.08769176 0.23037189 0.15396652
000040 23 5d 19 bb 06 be 53 3e a7 5d 1e 3e af 87 b0 bd
       -0.002340146 0.20677957 0.15465413 -0.086196296
000050 ee 6a 18 3e 64 6b b8 bc c5 98 91 3c ae 73 fa 3d
       0.1488454 -0.022512145 0.017773042 0.122290954
000060 83 a8 46 bd 76 66 22 3e 44 cf 20 3e 73 46 0c 3d
       -0.04850055 0.15859398 0.15704066 0.034246873
000070 14 fc 3e bd e8 9d 25 3e 3f 72 1f bd f2 91 79 bd
       -0.04662712 0.16173518 -0.038927313 -0.0609302
000080 6e f8 cb 3b b5 eb 65 3e 17 a5 67 3d 7b 59 77 3e
       0.0062246835 0.22453196 0.056553926 0.24155228
000090 56 be d5 3d 67 07 02 3d b8 3b 22 bd 20 8e 40 bd
       0.10436694 0.03174534 -0.039607733 -0.04701054
0000a0 fc ff 72 3e 40 f6 6e bd ff 69 9e bd 81 30 08 bc
       0.23730463 -0.05834031 -0.07735061 -0.0083123455
0000b0 9a 81 b2 3d 8b 7c 55 3e f2 45 76 3e ac 7c 01 3d
       0.08716126 0.2084829 0.2405012 0.031613037
0000c0 d4 1b 6a bd 40 0c c0 bd e4 66 29 bd 44 e3 03 3e
       -0.057155445 -0.093773365 -0.04135789 0.12879664
0000d0 29 56 17 3c 1b 18 f1 3d 9a 81 06 3e de f2 ae 3c
       0.009236851 0.11772176 0.13135377 0.021356042
0000e0 34 ac 4e bc e2 5e 62 3e 9e d3 62 bd fc c6 63 bd
       -0.012614299 0.22106507 -0.055377595 -0.05560969
0000f0 51 a1 55 bc 9e 9b 04 3e 59 ba 97 3d bc c4 8f 3d
       -0.013038949 0.12949988 0.0740859 0.07019946
000100 9e 66 c5 3c d4 9e a0 3d fb 0f 7a 3e 1e 7a 86 bd
       0.024096783 0.07842794 0.24420159 -0.06566261
000110 d3 4b 4b 3d 74 e0 d4 3d 7a 18 31 3e 03 10 8e 3d
       0.04963286 0.103943735 0.17294493 0.06936648
000120 9f c8 8f 3d b4 5f aa 3c 00 f8 10 3d d4 6a 81 bc
       0.07020687 0.020797588 0.03539276 -0.01579801
000130 d5 12 11 3e 16 e6 7b bd b9 bf a0 bd b2 93 a8 bd
       0.1416734 -0.061498724 -0.07849068 -0.08231296
000140 10 d0 79 3e 7e 2b 9b bc ae 56 22 3e 44 9c 86 3d
       0.24395776 -0.018941637 0.15853378 0.06572774
000150 ab 38 24 3e 37 3e 32 3e b9 02 31 3e 7d 90 12 3e
       0.16037242 0.17406546 0.17286195 0.1431293
000160 a2 3b 62 3e c6 39 11 3e f9 78 8d 3d f1 a7 f1 3c
       0.2209306 0.14182195 0.06907839 0.029499026
000170 2a cd e5 3d 6a a5 c9 3d c1 8c 93 3d 66 2a 56 3e
       0.112207726 0.09846003 0.07204581 0.20914611
000180 4a 87 a8 3d 9b 2d 85 3d 3f 9b 4b 3e a1 29 b8 bd
       0.08228929 0.06502839 0.1988344 -0.08992315
000190 71 76 2d 3d cc 6b 8b 3e 74 5d d6 3d 04 66 91 bc
       0.042349283 0.2723068 0.104670435 -0.01774884
0001a0 b3 8d 8e bd 5f fb 27 3d 0a db 5e 3e 85 f9 69 3e
       -0.06960621 0.04101121 0.21763244 0.2284909
0001b0 b6 f9 aa bd 68 4e d7 3d 4d 24 00 3e aa a7 4c bd
       -0.0834841 0.10513002 0.12513848 -0.049964584
0001c0 c1 eb 57 3e e1 98 1e bd 98 1f 19 3e 4b 1c 82 3e
       0.21086027 -0.038720015 0.14953458 0.2541221
0001d0 63 6f 1b 3e 90 1f fe bc 2e 19 c1 3c 50 ad 76 3e
       0.1517921 -0.03102091 0.023571577 0.24089551
0001e0 cb de b6 bc e9 2a ee 3d f1 61 77 bd 1a 3e 3c bd
       -0.022323033 0.11629278 -0.06039614 -0.045957662
0001f0 5a ba 27 3a 35 73 91 bd 8b c0 a6 3c 82 3d 36 3e
       0.0006398313 -0.07102052 0.020355484 0.17796901

q_out.weight f4 [5, 128]
000000 ac 71 24 be 0f 99 16 be ab 4f c0 bd 6d 59 dc bc
       -0.16058987 -0.14706825 -0.093901955 -0.02689811
000010 f5 62 39 bd 97 3a 11 bd 4e 71 77 3d c0 64 84 3d
       -0.04526039 -0.035456266 0.06041079 0.06464529
000020 64 79 77 3d 3c 95 80 bd af 36 a1 3d 8d d9 3b 3b
       0.0604185 -0.06278464 0.07871758 0.0028663606
000030 32 8f 3d be e0 1e 30 be 02 7a 4c be 01 6d 0c be
       -0.18511656 -0.17199278 -0.19968417 -0.13713457
000040 c9 f1 e4 bd 3d 0a 37 be 7b 27 51 be 03 8a b3 bd
       -0.11178929 -0.17875 -0.20425217 -0.08766558
000050 df d4 89 bd 08 5d 26 3d c1 f7 19 3d e0 be 2c bd
       -0.06730055 0.040616065 0.037589792 -0.04217422
000060 04 9a 64 3d b5 89 f6 bd 22 5c 1e be 1e 3d 7e 3d
       0.055810943 -0.12037984 -0.15464833 0.062070005
000070 a5 25 65 bd d2 99 1d be ec a6 0a 3d 7f dc 1e bd
       -0.055944104 -0.15390709 0.033850595 -0.0387845
000080 d6 1c e3 bc f3 e2 94 bd 6c 58 bc 3c 94 72 45 be
       -0.027723711 -0.0726985 0.022991382 -0.1928199
000090 b6 ea 36 be 04 89 4b bd ea f4 5f bd 31 b2 20 bc
       -0.17862973 -0.049691215 -0.054676928 -0.009808109
0000a0 cc e6 31 be 73 c9 6c bc cb 95 64 bd f8 98 0f bd
       -0.17373198 -0.014452326 -0.055806916 -0.03505799
0000b0 44 fd 4f be 28 0b 49 be 9a 79 26 be 0a 4c ae bc
       -0.20311457 -0.19633162 -0.16257325 -0.021276493
0000c0 05 2b 50 bd e0 fa 24 bd 0f c8 1b 3d f2 cb 4b bd
       -0.050822277 -0.040278316 0.038032588 -0.049755044
0000d0 85 1a fc bb 1c a1 09 be f5 30 8f bd 38 a0 c3 3c
       -0.007693591 -0.13440365 -0.0699176 0.02388011
0000e0 89 39 a5 bd c4 cc 2d bd 1a 8e db 3c 67 46 e8 bc
       -0.080676146 -0.042431608 0.026801158 -0.028353883
0000f0 8a ba a1 3c 6c 47 1a be f4 db 1a bd e4 92 e5 bd
       0.01974227 -0.15066308 -0.03780742 -0.11209658
000100 73 52 b4 bd 9a 82 2f bd 16 cb a2 bd 68 87 88 3d
       -0.088047884 -0.04284916 -0.07948892 0.06666452
000110 0e 9f ba 3c 4b d8 22 be 09 5d 9c bd 2a c0 60 3d
       0.022780921 -0.15902822 -0.076349325 0.054870762
000120 59 32 76 3d 8d 54 62 3d 55 4c 3d bc 40 25 95 bd
       0.06010661 0.055256415 -0.0115538435 -0.072824955
000130 db de 43 be cd 1e bf bd 9d f2 d7 bd ed 1a 73 3c
       -0.19127981 -0.09332047 -0.10544322 0.014837963
000140 71 45 3d be e4 11 25 3d 94 8d 4b be 99 eb 47 be
       -0.18483521 0.040300265 -0.19878227 -0.19523467
000150 cd 34 27 be 31 4a fb bd 16 fa 2d be 4b a1 8d bd
       -0.16328736 -0.1227001 -0.16989931 -0.0691553
000160 7d 32 33 be 6b bf 51 be 96 17 46 be 25 7b 57 3d
       -0.17499729 -0.20483176 -0.19344935 0.052607674
000170 45 71 06 be fd 03 1e be 76 ab 2e be 0c f6 31 be
       -0.13129146 -0.15431209 -0.17057595 -0.17379016
000180 00 83 8c bd 9a e4 ba bb 71 56 d7 bd 83 1d 66 3d
       -0.06860924 -0.005703521 -0.10514534 0.05618049
000190 55 a6 ba bd 5d d9 02 be 17 3f f5 bd 03 39 77 bd
       -0.091137566 -0.1277823 -0.11974924 -0.060357105
0001a0 29 72 6e bd 53 1c 3a b9 87 8d 4f be f9 67 20 be
       -0.05821434 -0.00017748894 -0.20268832 -0.15664662
0001b0 89 5e 0c bd 08 25 0b be 2f 97 f1 bd ac 27 56 bd
       -0.034269843 -0.13588345 -0.11796414 -0.052283928
0001c0 53 ae bd bd 32 cd 82 bc c8 5c 28 be 8b 30 54 bd
       -0.09261765 -0.015966985 -0.16441643 -0.051804107
0001d0 2c 65 89 bd 3c cc 32 3d af c1 88 3d 78 f1 90 bd
       -0.0670875 0.043651804 0.06677567 -0.070773065
0001e0 73 5d 45 3d 67 40 e9 bd 7e 07 24 3c 5c 7b 9c 3c
       0.048184823 -0.11389237 0.010011552 0.019101791
0001f0 6f 60 88 3d c6 00 12 3c 40 12 0f 3d bf 08 4e be
       0.06659018 0.008911317 0.034929514 -0.20120524
000200 f1 1e 0c be 46 d6 c0 bd 4d 46 ab bd c8 9e 38 bd
       -0.13683678 -0.094158694 -0.08363018 -0.0450733
000210 03 9f a1 3c 9f 91 06 be af 87 9f bc b7 d3 9f bd
       0.019729143 -0.13141488 -0.019473879 -0.07804053
000220 fb dd 4a 3d 57 d1 1a be 40 92 54 3d 07 9f b1 bd
       0.049528103 -0.1511892 0.051897287 -0.0867291
000230 bf f0 5b be 9b 68 97 bd 5f 60 26 be 6b 25 0e be
       -0.21478556 -0.07392999 -0.162477 -0.13881461
000240 f1 b9 6d bd fb 5d 56 be 46 ca 5d bd 2b 4c 8d 3d
       -0.058038656 -0.20934288 -0.05414798 0.068992935
000250 fb ae 64 be 18 98 72 bd 99 f1 dd 3c 7b 8a 9f bd
       -0.22332375 -0.05922708 0.027092742 -0.07790085
000260 46 5d 53 3c e5 1c ea bd 56 1d 5a be b2 91 a4 bd
       0.012900656 -0.114312924 -0.21300253 -0.08035602
000270 f8 b4 b4 bd 25 3f 15 be 05 9f 46 bd d4 2c b0 3d
       -0.088235795 -0.14574869 -0.048491497 0.086023
000280 81 ea e1 3c 9c 2e 34 be 69 18 86 3c 3f db 4c be
       0.02757764 -0.17595905 0.016369062 -0.20005511
000290 30 50 5e be 3c dc 9c bd ff e5 04 3d f5 d0 66 3d
       -0.21710277 -0.07659194 0.032445904 0.05635162
0002a0 24 3e 46 be e3 b3 ef 3c 99 1e 9f bd 16 4e 92 bc
       -0.19359642 0.029260581 -0.07769508 -0.0178595
0002b0 bc 00 64 bd 63 27 25 be 44 b8 15 be 80 d4 39 ba
       -0.055664763 -0.16128306 -0.14621073 -0.0007088855
0002c0 de 8a b0 bc e9 be c8 bd b4 d7 69 3c 9b 1a 44 be
       -0.021550592 -0.09802038 0.014272619 -0.19150774
0002d0 8a ba 93 bd d4 39 d8 bd 4f 3b 5c be f6 4d 28 bb
       -0.07213314 -0.10557905 -0.21507 -0.0025681234
0002e0 d9 36 f6 3c d2 2e 60 be 65 a8 31 3d 77 d2 62 3d
       0.03005545 -0.2189286 0.043373484 0.055376496
0002f0 b3 fc 9a 3d 10 32 67 bd 74 59 5f 3c ab f7 78 bd
       0.0756773 -0.056444228 0.013632167 -0.06078307
000300 fc 64 62 bd a1 ad a6 3d b7 77 46 be 22 a1 8d bd
       -0.055272087 0.08138586 -0.19381605 -0.06915499
000310 e6 32 f2 bc 6c 74 34 be f8 20 5d be 6d f5 9e bd
       -0.029565286 -0.17622536 -0.21594608 -0.07761655
000320 e7 b8 9d bd 69 29 b3 bd 11 10 ab bd a4 71 c5 bb
       -0.07701283 -0.08748133 -0.08352674 -0.00602551
000330 67 f6 4a be 65 1f 98 bd 6d c5 86 3c 5a 29 9c bd
       -0.19820558 -0.07427863 0.016451562 -0.07625075
000340 6c d9 59 be cc da 4f bd c3 70 84 bd 50 e9 57 bd
       -0.21274346 -0.05074577 -0.0646682 -0.05271274
000350 9a 65 ab bd 74 1a c3 bd 1d 62 2a be 57 39 e8 bd
       -0.08368988 -0.0952653 -0.1663899 -0.11339062
000360 e7 8e 5d be 36 be 5f be 19 85 fa bd 27 c4 2d bc
       -0.21636544 -0.21849903 -0.122324176 -0.010605848
000370 d7 88 ce bd 75 af ea bd 58 61 63 bd 0c 97 ff bd
       -0.10084694 -0.11459247 -0.055512756 -0.12479982
000380 c4 12 66 bd 99 4d 8e 3c da 7c 44 be da c2 93 bc
       -0.05617024 0.017370986 -0.19188252 -0.018037248
000390 8c e4 82 3d ec 25 5b be 01 49 fe bd 09 63 c3 bd
       0.06391248 -0.21401185 -0.12416268 -0.09540374
0003a0 9d b3 b7 bd ba ed 38 bd d8 28 30 be a0 6a 63 be
       -0.089698054 -0.04514859 -0.1720308 -0.22208643
0003b0 f4 4f 23 3d 68 24 96 bd 08 68 4c be f5 bd a2 3d
       0.03987117 -0.07331163 -0.1996156 0.07946388
0003c0 9d f2 a0 bd f7 ea 55 3d 17 a8 56 bd be 42 27 be
       -0.07858775 0.052226033 -0.052406397 -0.16334054
0003d0 42 d6 39 be 8e 3c b6 bd 96 37 8e 3d 7f 39 3c be
       -0.18148139 -0.08898269 0.06944196 -0.18381308
0003e0 03 b9 72 bd 9c 1e d2 bd 41 35 4a bc 8d 5a 2d 3d
       -0.059258472 -0.102597445 -0.012341798 0.042322684
0003f0 0d 43 8b bd 21 8e bc 3c 8d a7 58 bd 4a cf c6 bd
       -0.06799898 0.023016991 -0.052894164 -0.09707506

q_out.bias f4 [5]
000000 5e 9f d8 bd 1d 25 92 be 2f d7 d3 bd ee 08 1e be
       -0.10577272 -0.2854394 -0.103437774 -0.15433094
000010 7a 7a e9 bb
       -0.007125196
