models/First_Model/q_ind_agent_3.pt (torch, 108573 bytes, 6 tensors)

fc1.weight f4 [128, 71]
0.04689377 -0.008174355 -0.09484205 -0.19581923 0.018525032 -0.104150295 0.14753348 -0.061591238
-0.13179195 -0.13487135 -0.10798057 0.019040816 -0.011722642 -0.084271766 -0.097173296 -0.035836145
-0.035715036 -0.01585107 -0.011359534 -0.04236415 -0.21383405 -0.04287022 -0.04348149 -0.036591757
-0.117895454 -0.09218641 0.114172265 -0.23662338 0.026062125 0.07891527 -0.14514464 -0.0008152803
0.026970495 -0.064337626 0.0098006055 -0.014325237 0.043130428 -0.19665404 -0.060080502 -0.2133812
0.07142898 -0.2191756 0.015567044 -0.07812511 -0.10175609 -0.056955166 -0.0013289825 -0.16899519
-0.20869619 0.06911275 0.005949064 0.037014343 0.05805076 -0.007768065 -0.00045399804 -0.04821381
-0.058311608 0.010947949 -0.14194018 0.017176867 0.10091714 -0.0010700052 -0.0626153 0.024618478
-0.025564693 -0.07375282 -0.020048276 -0.049215253 -0.10015578 -0.12843256 -0.115716636 -0.015790176
-0.10615137 0.09426443 0.22791341 -0.13248388 -0.052888557 -0.1947539 -0.052387387 0.2070739
0.056961812 -0.018157542 0.17188792 0.03144694 -0.23028705 -0.0043246085 -0.046321083 0.041682888
0.021503452 0.15526985 -0.10191116 0.09142233 0.060762182 0.011475674 -0.080321565 -0.08464068
-0.20194882 -0.04211064 0.057083774 -0.09821601 0.075848766 -0.088325396 0.07593039 0.18537274
-0.004434336 -0.15950407 -0.15528971 0.07475937 0.2095018 -0.12921387 -0.06123529 -0.1746974
0.016949441 0.06945237 0.13145539 0.026343783 0.08995883 -0.05802949 0.060031947 -0.09426365
-0.19095644 -0.06985962 -0.08140596 -0.084157154 -0.01547649 0.12474189 0.019203572 -0.00284364
-0.0541498 -0.04355705 -0.03207021 0.005512442 0.12790196 0.19188762 -0.07916894 -0.016913066
-0.10831482 0.008015384 -0.061654244 0.1156978 0.035349116 0.046136316 -0.040260058 0.06514935
0.07645289 -0.5895372 0.19959937 0.11764075 -0.41595212 0.098329335 -0.21235628 0.016499523
-0.031624787 -0.15739626 0.021180201 -0.5643101 -0.14156006 -0.13952082 -0.09029805 -0.020343272
0.023606855 0.07143471 -0.08495109 0.04469573 -0.07134597 0.016402746 -0.10571576 -0.063426666
-0.004562159 0.08025046 -0.0354703 -0.09991933 0.083569646 -0.080548584 0.0510016 0.13897072
-0.2951991 -0.0620288 0.03834731 -0.4850759 0.24974857 0.13981652 -0.4847621 -0.056197803
0.08855593 -0.17570329 0.025134226 0.046786714 -0.09068079 0.045766354 0.14661063 0.10470994
-0.14193156 -0.057191655 0.028349083 0.0032433374 -0.08963213 -0.18698002 0.049201135 -0.030909972
0.039908446 -0.07104591 -0.042529047 0.00066193944 -0.12614827 0.24096575 -0.05891556 -0.04709055
-0.13500676 -0.000781758 -0.0957204 0.068219505 -0.10555286 0.027092077 0.03546023 0.0011963638
-0.05830734 -0.021570288 -0.07189883 -0.022723915 -0.001930219 -0.057852026 -0.1428356 -0.021014448
0.030531827 -0.118340254 -0.26392367 -0.0100466255 -0.041180953 -0.03624672 -0.09858249 -0.16745545
-0.021320729 -0.15667923 0.071151115 -0.08984205 -0.1387743 -0.01554294 -0.07079766 -0.09328495
-0.2582011 -0.14584959 -0.16979428 -0.17839387 0.051582925 0.042469665 0.009633863 -0.12653175
-0.020735666 -0.05386788 -0.04244401 0.045642536 -0.005233277 0.097512774 -0.15374403 0.08099525
00000000: af13 403d bbed 05bc 8c3c c2bd d684 48be
00000010: cfc1 973c c04c d5bd 0413 173e 1847 7cbd
00000020: 78f4 06be b71b 0abe eb24 ddbd 7cfb 9b3c
00000030: 5310 40bc ad96 acbd cb02 c7bd ecc8 12bd
00000040: ee49 12bd 1ada 81bc 571d 3abc 0886 2dbd
00000050: 50f7 5abe af98 2fbd a619 32bd 3de1 15bd
00000060: 2c73 f1bd 3bcc bcbd 26d3 e93d 664d 72be
00000070: 3d80 d53c 549e a13d cca0 14be 89b8 55ba
00000080: 3af1 dc3c 72c3 83bd b892 203c 66b4 6abc
00000090: 88a9 303d ad5f 49be f916 76bd 9a80 5abe
000000a0: 5b49 923d 926f 60be ea0c 7f3c 0f00 a0bd
000000b0: 7f65 d0bd d249 69bd 4131 aeba 130d 2dbe
000000c0: 74b4 55be fc8a 8d3d 5ef0 c23b 5a9c 173d
000000d0: a2c6 6d3d 418b febb 9606 eeb9 d87b 45bd
000000e0: 27d8 6ebd 075f 333c c458 11be 80b6 8c3c
000000f0: a5ad ce3d 6b3f 8cba 733c 80bd b1ac c93c
00000100: 0c6d d1bc b80b 97bd 483c a4bc ef95 49bd
00000110: 791e cdbd d383 03be d8fc ecbd 665a 81bc
00000120: e465 d9bd b60d c13d 2262 693e dba9 07be
00000130: aca1 58bd 916d 47be 2894 56bd 2e0b 543e
00000140: ca50 693d 20bf 94bc 6303 303e 82ce 003d
00000150: 5ed0 6bbe 72b5 8dbb 2dbb 3dbd adbb 2a3d
00000160: 0228 b03c 0fff 1e3e ccb6 d0bd a13b bb3d
00000170: c4e1 783d 7704 3c3c a27f a4bd 1858 adbd
00000180: accb 4ebe 357c 2cbd add0 693d 7a25 c9bd
00000190: 9956 9b3d f2e3 b4bd 6481 9b3d 5ad2 3d3e
000001a0: e84d 91bb 0955 23be 4404 1fbe 711b 993d
000001b0: a487 563e a450 04be dbd1 7abd e0e3 32be
000001c0: 8ed9 8a3c 0b3d 8e3d 3e9c 063e ebce d73c
000001d0: 563c b83d 55b0 6dbd 0fe4 753d 4d0d c1bd
000001e0: 168a 43be 8f12 8fbd 2bb8 a6bd 965a acbd
000001f0: 1b91 7dbc ad78 ff3d cf50 9d3c 5d5c 3abb
00000200: 2ecc 5dbd e168 32bd 0d5c 03bd b7a1 b43b
00000210: bbf8 023e 307e 443e 5323 a2bd 458d 8abc
00000220: 29d4 ddbd f552 033c 2989 7cbd f8f2 ec3d
00000230: 3cca 103d 6ff9 3c3d bbe7 24bd 066d 853d
00000240: 5593 9c3d e9eb 16bf c763 4c3e a2ed f03d
00000250: adf7 d4be e460 c93d ed73 59be 022a 873c
00000260: fe88 01bd 7c2c 21be 1a82 ad3c a076 10bf
00000270: 1ff5 10be 8cde 0ebe 2fee b8bd efa6 a6bc
00000280: 2a63 c13c 5c4c 923d d6fa adbd df12 373d
00000290: d61d 92bd 0d5f 863c 8181 d8bd d7e5 81bd
000002a0: 2a7e 95bb 5a5a a43d 4e49 11bd 81a2 ccbd
000002b0: 9026 ab3d a8f6 a4bd 0ee7 503d 574e 0e3e
000002c0: 5624 97be e911 7ebd 1212 1d3d de5b f8be
000002d0: 17be 7f3e 102c 0f3e bd32 f8be ab2f 66bd
000002e0: d05c b53d 90eb 33be 4be6 cd3c 6da3 3f3d
000002f0: dab6 b9bd 8075 3b3d 1921 163e 2a72 d63d
00000300: 8256 11be cc41 6abd 563c e83c 2c8e 543b
00000310: 0d91 b7bd b177 3fbe 2187 493d e936 fdbc
00000320: 0a77 233d 8580 91bd f032 2ebd 0186 2d3a
00000330: 032d 01be babf 763e 7151 71bd 05e2 40bd
00000340: 363f 0abe e4ee 4cba 0f09 c4bd abb6 8b3d
00000350: 192c d8bd 34f0 dd3c bf3e 113d 4fcf 9c3a
00000360: add3 6ebd 2cb4 b0bc b23f 93bd 8127 babc
00000370: 67ff fcba 3ff6 6cbd 7f43 12be 7e26 acbc
00000380: e21d fa3c 605c f2bd 0121 87be 9a9a 24bc
00000390: 5cad 28bd 7177 14bd 9ee5 c9bd 7179 2bbe
000003a0: cfa8 aebc 8570 20be adb7 913d 1cff b7bd
000003b0: da1a 0ebe d1a7 7ebc 5dfe 90bd 2e0c bfbd
000003c0: ef32 84be 9859 15be 8dde 2dbe e2ac 36be
000003d0: 9e48 533d acf4 2d3d 5ad7 1d3c 8a91 01be
000003e0: d8dd a9bc 91a4 5cbd c5d9 2dbd abf3 3a3d
000003f0: e97b abbb c7b4 c73d 136f 1dbe d6e0 a53d

fc1.bias f4 [128]
-0.016200757 -0.08794569 -0.08416481 -0.09619691 0.036157254 -0.044536643 -0.07757739 -0.022413464
0.06882767 -0.157015 0.03922185 0.05830315 -0.075491324 0.06187701 -0.12617108 -0.0979696
-0.022995146 -0.12137143 -0.12289419 0.014303456 0.053239938 0.018142875 -0.04900645 0.031214446
0.20140949 -0.08743529 -0.13307011 -0.017463217 -0.03454666 -0.15472654 -0.16297996 -0.17708103
0.012462011 -0.06775053 -0.015203857 -0.04202996 -0.13655698 -0.16494945 -0.036563605 -0.030394765
-0.003582893 -0.030182753 0.009766982 -0.055524327 0.026554031 -0.11486483 -0.11342706 -0.18233626
-0.057172514 -0.011393346 -0.10935469 -0.097287975 -0.05732062 -0.054428097 0.041699767 -0.036644064
0.010037663 0.017439246 -0.09221281 -0.14912353 -0.070911035 -0.19370759 -0.17286465 0.08971092
-0.11793291 0.057420142 0.030808626 0.057057094 -0.0037531627 -0.027042728 -0.02068882 -0.08110995
-0.04301447 0.029870244 -0.051941168 -0.07824501 -0.13601856 -0.025086803 -0.001997351 -0.013858437
-0.07830049 -0.0871759 -0.09145748 0.03019651 0.01792288 -0.14215326 0.08014479 0.012135508
-0.057203606 -0.007934989 -0.09469244 -0.023377916 0.03906304 0.030490773 -0.073815584 0.038612537
-0.081489466 -0.120462835 0.032111708 -0.025057128 0.030745206 -0.085175745 -0.055676196 0.0062867478
-0.11674603 -0.008945623 -0.035615385 -0.11601184 -0.09464037 0.057271477 0.04438251 0.038815886
0.02996638 -0.064398296 -0.09010768 -0.029549444 0.002678136 0.032336228 0.16165708 0.09704327
-0.101869345 0.066122375 0.045957703 -0.124324575 -0.067155145 0.02087163 -0.09340825 -0.004604237
00000000: 73b7 84bc df1c b4bd 9a5e acbd e302 c5bd
00000010: a119 143d 0e6c 36bd e5e0 9ebd 719c b7bc
00000020: 85f5 8c3d 8ac8 20be 17a7 203d 49cf 6e3d
00000030: 329b 9abd bf72 7d3d fe32 01be 49a4 c8bd
00000040: 5160 bcbc 9691 f8bd f3af fbbd 0b59 6a3c
00000050: 1f12 5a3d 5ea0 943c fdba 48bd 70b5 ff3c
00000060: 4a3e 4e3e 4611 b3bd 8843 08be 050f 8fbc
00000070: cc80 0dbd a270 1ebe 38e4 26be bb54 35be
00000080: 762d 4c3c cac0 8abd 9919 79bc 9b27 2cbd
00000090: 98d5 0bbe 82e8 28be b8c3 15bd 71fe f8bc
000000a0: f8ce 6abb d241 f7bc b105 203c 7a6d 63bd
000000b0: d787 d93c 413e ebbd 724c e8bd 5bb6 3abe
000000c0: ba2d 6abd 28ab 3abc 5af5 dfbd eb3e c7bd
000000d0: 07c9 6abd ffef 5ebd 60cd 2a3d 1618 16bd
000000e0: 0375 243c c0dc 8e3c 12da bcbd d7b3 18be
000000f0: ce39 91bd 485b 46be 6e03 31be 5cba b73d
00000100: cf86 f1bd 6231 6b3d 5f62 fc3c b3b4 693d
00000110: 9ff7 75bb b688 ddbc 9a7b a9bc f91c a6bd
00000120: f12f 30bd 71b2 f43c 43c0 54bd eb3e a0bd
00000130: 7348 0bbe d782 cdbc fde5 02bb 7f0e 63bc
00000140: 025c a0bd 4789 b2bd 0f4e bbbd ac5e f73c
00000150: 01d3 923c a090 11be f422 a43d 02d4 463c
00000160: 544e 6abd c201 02bc 1cee c1bd 0b83 bfbc
00000170: 9100 203d c9c7 f93c a02c 97bd 2e28 1e3d
00000180: f3e3 a6bd 38b5 f6bd 9187 033d 9b44 cdbc
00000190: 5fdd fb3c 9f70 aebd b90c 64bd 1001 ce3b
000001a0: 8b18 efbd aa90 12bc 70e1 11bd 9e97 edbd
000001b0: cfd2 c1bd 7f95 6a3d 6fca 353d 68fd 1e3d
000001c0: 0e7c f53c 41e3 83bd 608a b8bd ad11 f2bc
000001d0: ab83 2f3b fe72 043d 6f89 253e 9fbe c63d
000001e0: e0a0 d0bd 2b6b 873d 253e 3c3d e29d febd
000001f0: a388 89bd fbfa aa3c d34c bfbd 24df 96bb

fc2.weight f4 [128, 128]
-0.0024358144 -0.008893587 -0.009187538 -0.08451048 -0.032055907 0.031135082 0.030817054 0.026996668
0.026998866 -0.06288083 -0.10021296 -0.0055930223 -0.013852816 -0.09644389 -0.022586077 0.0104284445
-0.02877157 -0.025519628 0.07176741 -0.11335981 -0.056779474 -0.059760224 0.07462239 0.03675859
-0.10541342 0.06340201 0.046772797 0.07739279 -0.047984116 0.009268488 -0.0718861 -0.08154635
0.04363939 0.034452807 0.028038237 -0.11310023 0.056607377 -0.008644477 -0.037329543 -0.0006704299
-0.02525237 -0.020840308 -0.014371215 -0.0206789 -0.0028451916 0.07592122 -0.099386126 -0.010358036
0.028850434 0.042270616 -0.041765835 0.0019438884 -0.038058355 -0.08670619 -0.029103687 -0.02254989
-0.020514477 0.02422716 0.042359903 -0.050216913 -0.093824126 0.044657707 0.07856534 0.009488276
-0.072368026 0.047064815 0.021598386 0.024786292 -0.09095806 -0.09233149 -0.04032289 0.03142605
-0.04556529 -0.1155119 -0.027090617 -0.08116721 -0.080488935 0.009080608 -0.09653788 -0.07200293
0.0013993875 -0.0764763 0.10830399 -0.021987526 0.07555237 -0.0024366048 0.033415843 -0.07045718
0.0042667524 -0.063031174 0.0077093327 0.043430008 -0.08802733 -0.020523438 -0.08556355 -0.07488817
0.04676964 0.07861792 -0.06151811 -0.04289581 0.031109503 0.010341964 0.07214692 -0.049179707
-0.040742878 0.001747317 -0.11273264 0.072270736 -0.022281168 0.04871343 -0.05940376 0.013984173
-0.0042157746 -0.07633033 -0.020728283 -0.048697952 0.056909267 0.057083175 0.042996343 -0.117153734
-0.058538146 0.03629708 -0.06787671 0.02906027 0.007336908 -0.08491817 0.08437864 -0.036302827
0.0070257406 -0.025872221 0.022059986 0.041327626 0.0028859212 0.09926765 0.043097336 -0.20088845
0.08159052 0.17032714 -0.061006453 0.022827566 0.088615365 0.093488514 0.29863247 -0.07320704
-0.050012372 0.10755221 0.04170231 0.10241588 -0.2499807 -0.029120727 0.13465686 -0.05745114
-0.029488504 0.05698548 0.0025960517 0.059047155 0.08723797 0.10837476 -0.042514198 0.06794093
-0.029567989 0.0056132795 0.006004583 0.108399294 0.1652347 0.004395475 0.18076794 -0.21595627
0.09278929 0.30288652 -0.05891927 0.0018947675 -0.019247282 -0.032301575 0.0015945433 -0.024056843
-0.018060017 0.10564774 0.055982094 0.034579083 -0.114771485 0.061777946 -0.0018231561 0.09244134
-0.044600546 -0.040288433 -0.09572126 -0.043401465 0.14209308 0.08271739 -0.025176728 0.09287131
0.049818035 0.05667271 0.14488728 0.19470392 0.0430789 0.020963557 -0.015691996 0.10624325
0.11168985 -0.054880552 0.2666307 0.056782693 0.10345912 -0.036165617 -0.095068045 0.06817889
0.3028737 0.03400246 0.050001964 -0.036853798 0.12921934 -0.30936074 0.107032925 0.05591766
0.09541806 0.2131674 0.055784937 0.14214727 -0.139866 0.15121746 -0.033887297 -0.012923272
0.11268658 0.01786281 0.1299403 0.0568285 0.07704036 0.12509996 0.1325502 0.13928176
0.2285475 0.035959985 0.34431353 -0.027163222 -0.06639025 -0.051183328 0.016478002 0.18998711
0.2080275 0.13209467 0.059713054 0.04020715 0.0880419 -0.1361614 -0.3614692 -0.085306674
0.08957778 0.120459355 -0.07173956 -0.028333034 0.026156886 0.11047564 0.021428654 0.04455257
00000000: 2fa2 1fbb 68b6 11bc 5487 16bc d513 adbd
00000010: 0e4d 03bd 000f ff3c 0c74 fc3c 1e28 dd3c
00000020: ba2c dd3c aac7 80bd 743c cdbd ac45 b7bb
00000030: ecf6 62bc 6084 c5bd 7006 b9bc 11dc 2a3c
00000040: 5bb2 ebbc 8a0e d1bc cbfa 923d 3029 e8bd
00000050: 9891 68bd 23c7 74bd a0d3 983d 2d90 163d
00000060: fee2 d7bd ead8 813d d594 3f3d 1c80 9e3d
00000070: fe8a 44bd dbda 173c 0539 93bd c601 a7bd
00000080: 38bf 323d 631e 0d3d 72b0 e53c 18a1 e7bd
00000090: 23dd 673d 91a1 0dbc dde6 18bd cabf 2fba
000000a0: 0fde cebc 4bb9 aabc 3f75 6bbc cc66 a9bc
000000b0: 6576 3abb 967c 9b3d f48a cbbd c0b4 29bc
000000c0: bf57 ec3c f423 2d3d a712 2bbd 12ca fe3a
000000d0: 14e3 1bbd 0493 b1bd db6a eebc 8cba b8bc
000000e0: fa0d a8bc 0978 c63c 9481 2d3d 40b0 4dbd
000000f0: dd26 c0bd 00eb 363d dde6 a03d b774 1b3c
00000100: b035 94bd 09c7 403d 19ef b03c 9f0c cb3c
00000110: 3848 babd 4b18 bdbd 9d29 25bd 9ab8 003d
00000120: aba2 3abd 8191 ecbd 24ed ddbc ff3a a6bd
00000130: 62d7 a4bd d5c6 143c a7b5 c5bd 4676 93bd
00000140: a76b b73a 9b9f 9cbd 7bce dd3d 2f1f b4bc
00000150: 33bb 9a3d 72af 1fbb 0ddf 083d db4b 90bd
00000160: 1dd0 8b3b 7d16 81bd 929e fc3b aae3 313d
00000170: ac47 b4bd c520 a8bc f13b afbd f85e 99bd
00000180: 8691 3f3d 6f02 a13d 6afa 7bbd 84b3 2fbd
00000190: 5bd9 fe3c 5771 293c c4c1 933d a970 49bd
000001a0: 01e2 26bd 3b06 e53a 5fe0 e6bd ae02 943d
000001b0: ff86 b6bc bc87 473d 5b51 73bd df1d 653c
000001c0: 7b24 8abb 1353 9cbd 5cce a9bc 8177 47bd
000001d0: b119 693d 0cd0 693d ef1c 303d 4cee efbd
000001e0: b2c5 6fbd 3fac 143d f202 8bbd ce0f ee3c
000001f0: 726a f03b 94e9 adbd b5ce ac3d 46b2 14bd
00000200: 2f38 e63b fbf1 d3bc 25b7 b43c 2847 293d
00000210: b921 3d3b d64c cb3d d586 303d b4b5 4dbe
00000220: ee18 a73d 3d6a 2e3e e7e1 79bd e000 bb3c
00000230: f97b b53d e876 bf3d 5be6 983e 93ed 95bd
00000240: c6d9 4cbd 5544 dc3d 0bd0 2a3d 6bbf d13d
00000250: f1fa 7fbe 978e eebc 7de3 093e e351 6bbd
00000260: e091 f1bc 9b69 693d 8522 2a3b 6edb 713d
00000270: d2a9 b23d 96f3 dd3d 5e23 2ebd 9d24 8b3d
00000280: 9138 f2bc 9aef b73b 18c2 c43b 7300 de3d
00000290: 4933 293e eb07 903b 3b1b 393e a423 5dbe
000002a0: 5008 be3d f113 9b3e 5555 71bd d959 f83a
000002b0: 7aac 9dbc a84e 04bd ffff d03a db12 c5bc
000002c0: 9af2 93bc d85d d83d 7b4d 653d cca2 0d3d
000002d0: 500d ebbd df0a 7d3d f8f6 eeba e351 bd3d
000002e0: 10af 36bd 7c05 25bd 8209 c4bd bcc5 31bd
000002f0: d980 113e bc67 a93d 6d3f cebc 5033 be3d
00000300: ff0d 4c3d a521 683d 555d 143e 7760 473e
00000310: 8073 303d c4bb ab3c 808c 80bc 1096 d93d
00000320: a6bd e43d 6eca 60bd d283 883e f894 683d
00000330: 60e2 d33d 6622 14bd 09b3 c2bd 60a1 8b3d
00000340: 4312 9b3e 2a46 0b3d dcce 4c3d 02f4 16bd
00000350: 1352 043e 8864 9ebe 1434 db3d eb09 653d
00000360: 8b6a c33d 8e48 5a3e bf7e 643d 0e8f 113e
00000370: 0839 0fbe c0d8 1a3e 68cd 0abd 22bc 53bc
00000380: 39c8 e63d 0755 923c 120f 053e 00c5 683d
00000390: 56c7 9d3d 341a 003e 3dbb 073e e19f 0e3e
000003a0: 5b08 6a3e c74a 133d dd49 b03e 6885 debc
000003b0: 9df7 87bd 9ca5 51bd e0fc 863c fb8b 423e
000003c0: 2905 553e d343 073e ad95 743d 41b0 243d
000003d0: 504f b43d e56d 0bbe 7e12 b9be 44b5 aebd
000003e0: 8e74 b73d 65b3 f63d 31ec 92bd ae1a e8bc
000003f0: f746 d63c 0d41 e23d 258b af3c c17c 363d

fc2.bias f4 [128]
-0.036781296 -0.10699011 -0.11349041 0.03172487 -0.041434843 -0.063628204 -0.11256726 -0.055954847
0.044785213 -0.12067199 -0.0876038 -0.1027766 -0.0573299 0.13134386 -0.06109865 0.22173856
-0.08030209 0.21729042 -0.0029965264 -0.06425705 0.037781663 0.120249346 -0.06863373 0.01728616
-0.09697602 -0.0024122328 -0.11941444 0.0030657013 0.022492182 -0.096414156 -0.06260495 0.024255237
0.014335767 -0.095591635 0.12967819 -0.039820597 -0.032856546 -0.032809522 0.06153929 0.024293382
-0.06042854 -0.0554606 0.12109224 0.09480442 -0.08290178 -0.07681905 -0.05519739 0.11421782
0.1262118 0.15116136 -0.0069216504 -0.040395983 0.060147326 -0.16172346 -0.028848313 0.037169255
-0.07146815 0.1536299 0.005184259 -0.0037636124 -0.043057416 -0.04908648 -0.024605641 -0.15485942
0.05501502 0.11005523 0.016268037 0.011484725 0.15194236 0.08847264 -0.13697243 0.12713376
0.21098512 -0.084022455 -0.028091736 0.04999039 -0.044286486 -0.011325756 -0.06330329 -0.1182675
-0.01712811 -0.049371455 0.0015991437 -0.112877086 -0.04313303 -0.05938692 -0.04685185 0.07144679
-0.119791366 -0.057368696 -0.10676806 -0.088226765 -0.04612073 -0.06790393 -0.024634127 0.019057395
-0.026686959 -0.09397227 -0.102585614 -0.07374471 -0.015108685 -0.061356805 -0.0716544 -0.04840546
-0.055209577 0.020722779 -0.06180104 0.10331335 0.093796715 0.14672802 -0.026740115 -0.024200633
-0.11555821 -0.09241678 -0.014525478 -0.09152689 -0.015260483 -0.1172681 0.12028453 -0.07741631
-0.1308251 -0.122195244 -0.08535928 -0.08924446 -0.033290036 -0.13726147 -0.044527333 0.08582532
00000000: fca7 16bd a11d dbbd a96d e8bd f0f1 013d
00000010: 95b7 29bd 814f 82bd aa89 e6bd e930 65bd
00000020: b370 373d e022 f7bd 9f69 b3bd 8a7c d2bd
00000030: c2d2 6abd 017f 063e 9442 7abd 6f0f 633e
00000040: 6c75 a4bd 6181 5e3e 5f61 44bb 3399 83bd
00000050: f2c0 1a3d 4a45 f63d d78f 8cbd b49b 8d3c
00000060: 5d9b c6bd 8d16 1ebb 8f8f f4bd efe9 483b
00000070: 8641 b83c c974 c5bd 0637 80bd ebb2 c63c
00000080: 91e0 6a3c 8cc5 c3bd 5cca 043e ec1a 23bd
00000090: 9694 06bd 4763 06bd 9f10 7c3d ea02 c73c
000000a0: eb83 77bd a72a 63bd 35ff f73d d228 c23d
000000b0: 69c8 a9bd 4e53 9dbd a916 62bd 08eb e93d
000000c0: ab3d 013e 0bca 1a3e 03cf e2bb 4276 25bd
000000d0: 0b5d 763d d69a 25be 4c53 ecbc ca3e 183d
000000e0: e55d 92bd 2851 1d3e b7e0 a93b f0a6 76bb
000000f0: f95c 30bd e80e 49bd c591 c9bc 7893 1ebe
00000100: 6e57 613d a364 e13d 8c44 853c 6e2a 3c3c
00000110: c796 1b3e 2531 b53d 8042 0cbe 5a2f 023e
00000120: 7c0c 583e f713 acbd a420 e6bc b9c2 4c3d
00000130: bf65 35bd aa8f 39bc 28a5 81bd 3b36 f2bd
00000140: 4050 8cbc b939 4abd 5c9a d13a 1a2c e7bd
00000150: 43ac 30bd b33f 73bd bae7 3fbd b252 923d
00000160: 2d55 f5bd 70fb 6abd 36a9 dabd 3cb0 b4bd
00000170: 17e9 3cbd 3711 8bbd 82cd c9bc 411e 9c3c
00000180: 9c9e dabc 8974 c0bd 6818 d2bd 7707 97bd
00000190: 6b8a 77bc 4651 7bbd 8bbf 92bd ce44 46bd
000001a0: 7023 62bd d1c2 a93c 1623 7dbd f395 d33d
000001b0: 7e18 c03d df3f 163e 160e dbbc 6840 c6bc
000001c0: c8a9 ecbd 0245 bdbd 45fc 6dbc 7372 bbbd
000001d0: 1b07 7abc 422a f0bd bc57 f63d 718c 9ebd
000001e0: 04f7 05be 8041 fabd d9d0 aebd cdc5 b6bd
000001f0: 225b 08bd 458e 0cbe 4b62 36bd 2fc5 af3d

q_out.weight f4 [5, 128]
0.00022677988 0.04105299 -0.0056364555 0.061846122 -0.045331698 -0.08004445 0.0031428174 0.06962888
-0.010092178 -0.026452027 -0.03759992 -0.084838584 0.061423056 0.19126797 0.025305638 0.1677144
0.037718087 0.098656565 0.05096146 0.008738001 0.04305315 0.101347685 -0.18506217 0.060264762
-0.08630612 -0.071318924 0.010360869 0.0041425037 0.069637105 -0.025690883 0.01109452 -0.043714244
0.08266054 0.10470489 0.1490701 0.07192362 -0.07984411 -0.012072333 0.117958784 0.10275215
0.05624162 0.08860549 0.16940276 -0.19553469 0.0051323487 0.07341448 -0.05138244 0.085846916
0.100693926 0.0035422249 0.010484026 0.02031319 0.12358041 -0.033513337 0.039158683 0.0870601
-0.042383276 0.20092526 -0.01588463 -0.0076126857 0.010381013 0.06496247 0.05234918 -0.059468087
0.06178108 0.14148644 -0.0019324062 0.06771173 0.1866116 0.115011014 0.122245334 0.18619683
0.10539986 0.057733126 0.1066504 -0.043301757 0.027394911 0.2023281 0.030348685 -0.035541043
0.033561192 -0.011936437 -0.32136613 -0.014146079 0.21411762 0.18688203 -0.17596267 0.19562918
0.015314899 0.061390407 -0.044700712 -0.0679663 0.019346772 -0.10844547 -0.027896633 0.038995676
-0.08395014 -0.007196165 -0.03483637 0.068783276 0.017282955 -0.0033619034 -0.04631977 0.019998519
-0.040106397 -0.05928631 -0.008085135 0.10976567 0.07494473 0.053054918 0.06972373 0.09845569
0.13954923 -0.037053376 0.008318608 0.061790537 -0.038289968 0.04041007 0.124516584 0.10131006
-0.001515749 0.05188025 0.017320754 -0.007506266 -0.009881644 -0.00093102833 -0.0032464874 0.041410923
0.024564955 -0.19316424 -0.08891075 0.1735998 -0.20059775 -0.0069565973 -0.17019962 -0.19737546
-0.17536855 -0.13762806 -0.08417227 0.008380047 -0.12307838 0.08015216 -0.19917312 0.13524814
-0.16224217 0.14095268 -0.13070376 -0.1117328 -0.16901347 0.15320678 -0.06475131 0.082772836
0.0019271988 -0.017813683 -0.14214997 -0.093687706 0.0498791 -0.07446849 -0.013715711 0.03865754
0.10353216 -0.07179606 0.15169054 -0.14001583 -0.015609789 -0.07533632 0.07992812 -0.1591447
0.015685575 0.05731413 0.15210868 0.0048136995 -0.15904455 0.08066591 -0.15188372 0.1312464
0.24063809 0.1964398 0.05989022 -0.16073091 -0.087572224 -0.16281793 -0.08521605 -0.01997258
-0.12299935 0.10276475 -0.03590191 -0.114141524 0.03636063 0.043319814 0.08917786 -0.21636292
0.062532574 0.19478342 0.05457649 -0.0089979265 0.15232274 0.1620173 -0.15239446 0.18429087
0.15923057 -0.17054482 -0.07355064 0.06864882 -0.027807068 0.11484437 -0.05079318 -0.11642929
-0.12159188 -0.14665303 0.06754186 -0.114695705 0.2753486 0.10233648 0.036640473 0.21490307
-0.12967698 -0.12224881 -0.10543704 -0.08226927 -0.16761698 -0.16479948 0.006627771 -0.101723745
0.08261346 0.030274134 -0.12841055 -0.0839724 -0.080320425 0.0002653764 0.021646231 0.050494134
0.013062697 0.04518988 -0.081062675 0.1021239 0.12044112 0.16994327 -0.14261107 0.07632218
-0.109161876 0.009919792 0.05703142 -0.14647852 -0.12394337 -0.03257018 0.13047765 -0.17057826
-0.039590016 -0.105283745 -0.1017047 -0.0045725727 -0.026715927 -0.08642803 -0.0759246 0.18715724
00000000: c3cb 6d39 2e27 283d 04b2 b8bb 5c52 7d3d
00000010: bbad 39bd 58ee a3bd baf7 4d3b 9699 8e3d
00000020: aa59 25bc ecb1 d8bc 6002 1abd dabf adbd
00000030: be96 7b3d c0db 433e c54d cf3c 53bd 2b3e
00000040: 487e 1a3d 740c ca3d f7bc 503d d529 0f3c
00000050: 8058 303d 608f cf3d f080 3dbe 2fd8 763d
00000060: 43c1 b0bd a80f 92bd a2c0 293c d7bd 873b
00000070: e69d 8e3d b075 d2bc cac5 353c b50d 33bd
00000080: ee49 a93d 846f d63d d5a5 183e b14c 933d
00000090: 4f85 a3bd 09cb 45bc 6094 f13d b86f d23d
000000a0: 9d5d 663d cc76 b53d eb77 2d3e 3f3a 48be
000000b0: 432d a83b 555a 963d 6576 52bd 82d0 af3d
000000c0: 9e38 ce3d ac24 683b 31c5 2b3c d967 a63c
000000d0: ba17 fd3d 4845 09bd db64 203d 914c b23d
000000e0: 169a 2dbd 5abf 4d3e 7c20 82bc d673 f9bb
000000f0: 2015 2a3c 0b0b 853d 186c 563d cf94 73bd
00000100: 280e 7d3d d2e1 103e cb48 fdba 73ac 8a3d
00000110: 1c17 3f3e e58a eb3d c35b fa3d 62aa 3e3e
00000120: e2db d73d 9279 6c3d 866b da3d 2f5d 31bd
00000130: 4b6b e03c 192f 4f3e ce9d f83c 7c93 11bd
00000140: 7677 093d 0c91 43bc 1a8a a4be f5c4 67bc
00000150: a641 5b3e 015e 3f3e 8f2f 34be 0453 483e
00000160: 58eb 7a3c 8274 7b3d 1818 37bd ea31 8bbd
00000170: 1f7d 9e3c a918 debd 7b87 e4bc eeb9 1f3d
00000180: 0dee abbd cfcd ebbb 95b0 0ebd 3fde 8c3d
00000190: fc94 8d3c 6153 5cbb cdb9 3dbd efd3 a33c
000001a0: 9b46 24bd 34d6 72bd 8477 04bc d3cc e03d
000001b0: 9f7c 993d 1d50 593d 51cb 8e3d 23a3 c93d
000001c0: fee5 0e3e 48c5 17bd c54a 083c 1318 7d3d
000001d0: f1d5 1cbd 0885 253d 8d02 ff3d a67b cf3d
000001e0: 19ac c6ba 6380 543d 41e4 8d3c 1ff7 f5bb
000001f0: 9ee6 21bc 4110 74ba 05c3 54bb 809e 293d
00000200: 723c c93c d9cc 45be d716 b6bd 25c4 313e
00000210: 7f69 4dbe 2bf4 e3bb cf48 2ebe cb1c 4abe
00000220: d093 33be 5fee 0cbe 8362 acbd 774c 093c
00000230: 8510 fcbd d126 a43d 0af4 4bbe 7d7e 0a3e
00000240: d022 26be e655 103e 35d7 05be 2bd4 e4bd
00000250: de11 2dbe 3de2 1c3e 569c 84bd ce84 a93d
00000260: 109a fc3a 00ee 91bc c38f 11be 57df bfbd
00000270: 074e 4c3d f082 98bd ddb7 60bc 5e57 1e3d
00000280: ab08 d43d d009 93bd c454 1b3e 4f60 0fbe
00000290: 33c0 7fbc ee49 9abd 5bb1 a33d d4f6 22be
000002a0: 097f 803c 39c2 6a3d 61c2 1b3e 3dbc 9d3b
000002b0: 93dc 22be 2b34 a53d 6887 1bbe 7565 063e
000002c0: d569 763e 8427 493e 734f 753d a596 24be
000002d0: 1159 b3bd beb9 26be c185 aebd 899d a3bc
000002e0: 15e7 fbbd 5376 d23d e20d 13bd 08c3 e9bd
000002f0: e2ee 143d 1e70 313d e2a2 b63d 3e8e 5dbe
00000300: 1411 803d 4e75 473e 998b 5f3d 0a6c 13bc
00000310: 7efa 1b3e dde7 253e 4b0d 1cbe bfb6 3c3e
00000320: 570d 233e 4da3 2ebe b8a1 96bd c197 8c3d
00000330: a6cb e3bc 8633 eb3d 820c 50bd 7b72 eebd
00000340: 2a05 f9bd 362c 16be 6353 8a3d 95e5 eabd
00000350: 7efa 8c3e ca95 d13d 5214 163d 8d0f 5c3e
00000360: 0bca 04be 965d fabd 60ef d7bd cb7c a8bd
00000370: c9a3 2bbe 32c1 28be c62d d93b 8a54 d0bd
00000380: 3f31 a93d 7601 f83c 0e7e 03be b9f9 abbd
00000390: 097f a4bd 3822 8b39 7053 b13c f0d2 4e3d
000003a0: ec04 563c 0619 393d 3004 a6bd 5626 d13d
000003b0: d5a9 f63d 9c05 2e3e a308 12be ce4e 9c3d
000003c0: 4390 dfbd a086 223c c799 693d 77fe 15be
000003d0: 06d6 fdbd 4f68 05bd ef9b 053e 11ac 2ebe
000003e0: 2429 22bd 019f d7bd 8e4a d0bd 85d5 95bb
000003f0: 5cdb dabc 2e01 b1bd 5b7e 9bbd 26a6 3f3e

q_out.bias f4 [5]
-0.01473472 -0.0034366392 0.026368318 0.06735773 0.01624503
00000000: e569 71bc 3d39 61bb 5f02 d83c d9f2 893d
00000010: 4c14 853c
