models/First_Model/q_ind_agent_2.pt (torch, 108573 bytes, 6 tensors)

fc1.weight f4 [128, 71]
00000000: e5a1 afbc de40 f23d bba8 65be 10df 1ebe
00000010: a219 143e 520a 2b3d 67cb c23d ff61 d73d
00000020: ed9c 64bd fa95 02be 6047 083d 0485 f03c
00000030: c4c5 053d a976 7ebe 5e91 16be b7e5 0ebe
00000040: 666a 293d 8ed1 c7bd 8cba d6bd 6c2d 6abd
00000050: a598 b0be 7464 873b 323d 4bbd 3afc 843d
00000060: 4c90 d53d ceda 02bc dd22 a63c bb3e debe
00000070: 2457 0dbe 7918 74bd 46ff 5b3d 72e1 d9bb
00000080: e5d7 363e 412b babd d69f d5bd cf35 78bd
00000090: f894 773d 3141 7ebe d5e1 873d 67aa 9f3d
000000a0: b1ae e1bc 5899 8cbe 5ee9 233d 0b22 50bc
000000b0: e065 84bd 84f5 873d eae2 babb f0ff 633d
000000c0: b3fd 62be 84bd adbd 5f59 2a3c 94fb f9bd
000000d0: 397a cabd fb21 db3d df8f 1ebd eea7 cfbd
000000e0: f8eb 1f3c 4a8c f33d 8e10 11bc 02c3 cf3d
000000f0: 724b 503c 75c4 1b3d 8455 26be 72a6 da3d
00000100: 0c73 4fbe 74d1 e2bd 4f51 e03c 35f2 e0bd
00000110: ae3a bcbd 10e5 4dbe 0536 56be d18a da3c
00000120: e151 0fbd c16f b1bd 0744 a3bc bc8a 31bc
00000130: 6a93 05bd 6778 903d bd56 c33d b7f5 db3d
00000140: ca86 81bc 173e 7abd 5db5 963c ab56 2a3d
00000150: 498d 30be 5a70 2cbd 73dc 93bd 8d15 98bd
00000160: 9485 4e3d 1e04 d93d f2a6 a3bd 1d8d 51be
00000170: 7662 06bd 891a 30bd 77fa 2a3d 8edc 283c
00000180: 41ea 7dbc 671c 9a3c b873 1dbd 35e3 25be
00000190: 6022 e3bd 9ae2 53bc 04c0 5bbc fdce 9a3b
000001a0: 0448 393d af8c e3bd 702a 04be b7ec 77bd
000001b0: 415d c6bd b86b d1bd 4b7e debd b489 083b
000001c0: 98eb d2bd 8009 9dbd 5988 3abe 44b6 ebbc
000001d0: 4ec8 ad3d 2394 763d 3ef1 dfbd 759a 21bd
000001e0: 9019 ae3c e94c 823b d2df 1fbe e261 c4bd
000001f0: 38f2 77bd 5cd1 f23c b0ef 91bc e90b 1abd
00000200: 04d8 abbc 8ebf 703d e332 4cbd 723c 293c
00000210: f8b9 d2bd 4464 12be f72b fdbd f1a6 10be
00000220: 8b1f f1bd cbc2 96bd 7c4f 9cbc 590b 4e3c
00000230: be10 3e3d 2291 16bc d3c2 bfbd 6334 e4bd
00000240: 3dbb aebc a133 7a3c d3f8 87b9 13ed 4b3d
00000250: 389a c3bd 642a 8bbc 9045 c73d 2aed 6e3d
00000260: 2e1a a63d 5e21 9b3d dcc6 abbd f659 d6bd
00000270: 2d45 033e 8d44 2dbd 0361 fe3c 32d0 a53d
00000280: 9174 0a3e 7043 21bc 31cb 873d 76be 5bbd
00000290: c431 873d 9768 b23d fd4d 883d 25cc e1bd
000002a0: ff06 1bbd 4a97 a93d cbe1 64bd a617 1a3d
000002b0: e3b3 abbb f468 263d ba32 bf3d 6c0d d53b
000002c0: ad36 30bc 24ee 58bd 6810 cdbc 97b3 9cbd
000002d0: 694d afbc d99a dfbd 893a 1bbe b508 88bd
000002e0: 0c04 d83d a96b 71bd c552 bf3d cac8 763d
000002f0: 63c2 8e3b 179b 7e3d c8d4 343d 8596 fb3d
00000300: 6853 cb3d 7834 24bd 5c5a a03d 7941 453d
00000310: 92a0 a53d 6147 ae3d 5e5d 51bd ad42 00be
00000320: ba15 03be c29a 5dbd 93bc 6ebb 9238 143d
00000330: c821 f3bd 8f4d 8e3d 56ab 5cbd e024 85bd
00000340: dd19 c33d 5210 3cbd 62c8 0bbd 14a5 07be
00000350: 7dd5 12be 8888 af3d 0b4f b3bd f623 c33c
00000360: 2c0c 1b3d cbec ab3e fecb 983d b747 97be
00000370: ff7e e9bd ebcf a5bd 5204 b8bd 22d8 4cbc
00000380: 9cde 013e 34b0 21bd 9f6e 7f3e f073 963d
00000390: c270 c6bd 16e3 adbd 283f afbc 497d 163e
000003a0: 0fbd ecbd cb8e e43d ef0f 2abe 8678 fd3d
000003b0: 61cc e8bc 998d 2a3e 668f ab3d b396 e23d
000003c0: 6f13 1f3e 21c9 1abb abe2 14bd c571 b4bd
000003d0: e425 c2bd 59cf 2e3d ccad 48bd 6529 5d3e
000003e0: f8da da3d 879d 4fbd a885 83bb 3c42 913e
000003f0: fe10 1f3e bb88 3bbe beee a33d 5c7a d8bd
-0.021439502 0.11828779 -0.22427647 -0.15514779 0.14462903 0.04175789 0.09511452 0.10516738
-0.05581372 -0.12752524 0.033271194 0.029360302 0.032659307 -0.24849953 -0.1470389 -0.13954817
0.041361235 -0.09756766 -0.104848 -0.057172224 -0.3449146 0.004131848 -0.049618907 0.06493421
0.10427913 -0.007986737 0.020280296 -0.43407235 -0.13802773 -0.05959365 0.053710245 -0.0066491896
0.17855795 -0.09090281 -0.10430877 -0.06059819 0.060444802 -0.24829556 0.06634871 0.077961735
-0.02754912 -0.27460742 0.04001748 -0.012703429 -0.064647436 0.06638625 -0.00570332 0.055664003
-0.22167091 -0.08483413 0.010397284 -0.12206188 -0.09886593 0.10699841 -0.038711425 -0.10139452
0.009760849 0.118919924 -0.008854045 0.10144617 0.0127133 0.038029153 -0.16243559 0.10676278
-0.2025873 -0.11075106 0.027382521 -0.10983697 -0.0919088 -0.20106912 -0.20919044 0.026677521
-0.034990195 -0.086638935 -0.019929899 -0.0108362995 -0.032611288 0.07054215 0.095380284 0.10740226
-0.015811343 -0.06109437 0.018397028 0.04158656 -0.17241396 -0.042099334 -0.07219782 -0.074259855
0.05042036 0.105964884 -0.07990827 -0.20463987 -0.032808743 -0.042994056 0.04174277 0.010306491
-0.015497745 0.018812371 -0.038440436 -0.16199954 -0.11090541 -0.012932444 -0.013412479 0.004724382
0.045234695 -0.11110818 -0.12906814 -0.060528483 -0.096857555 -0.10225624 -0.10863932 0.002083403
-0.10298842 -0.076678276 -0.18216075 -0.028773434 0.08485471 0.060199868 -0.10934685 -0.039453942
0.021252424 0.0039764536 -0.15612724 -0.09588982 -0.060533732 0.029640846 -0.017814487 -0.037609015
-0.020977028 0.05877643 -0.049853217 0.010329353 -0.10289377 -0.14296061 -0.12361901 -0.14126183
-0.117735945 -0.073613726 -0.01908087 0.012575948 0.046402685 -0.009189876 -0.09363332 -0.111428045
-0.021329517 0.015271098 -0.00025934595 0.04978664 -0.09550899 -0.016987987 0.09730065 0.058331646
0.08110462 0.07574724 -0.08387539 -0.104663774 0.12819357 -0.042301703 0.031052118 0.08096351
0.13521029 -0.0098427385 0.066305526 -0.053648435 0.06601289 0.08711355 0.066555 -0.110252656
-0.03784847 0.08280809 -0.055879395 0.03762021 -0.00523995 0.040627435 0.09335847 0.006501844
-0.010755223 -0.052961484 -0.025032237 -0.076514415 -0.021399217 -0.10918207 -0.15159048 -0.06642286
0.10547647 -0.058940563 0.09341959 0.06025008 0.004356669 0.062159624 0.044148237 0.12284569
0.09928018 -0.0400891 0.07829735 0.048158143 0.08087267 0.08509708 -0.051114433 -0.12525435
-0.12801257 -0.054102667 -0.0036428317 0.036186762 -0.11871678 0.06948387 -0.053874336 -0.06501174
0.095264174 -0.045914 -0.034126647 -0.13246566 -0.14339252 0.08570963 -0.087553106 0.023820858
0.037853405 0.33579096 0.074607834 -0.29546902 -0.11401176 -0.08096298 -0.08985199 -0.012502702
0.12682575 -0.03947468 0.24944542 0.07346332 -0.096894756 -0.08490579 -0.02139242 0.1469623
-0.115594976 0.11160048 -0.1660764 0.12376504 -0.028417768 0.16655578 0.083769605 0.110639
0.15534757 -0.0023618417 -0.03634898 -0.08810762 -0.09479883 0.04267821 -0.04899387 0.21597822
0.10686296 -0.05068734 -0.004013736 0.28370845 0.15533826 -0.18313877 0.08004521 -0.10570213

fc1.bias f4 [128]
00000000: 9e07 0fbd 8f90 723d 2222 f9bd 6d75 d33d
00000010: 6cd9 ffbc f64b 5abe 043c 473d 508f 16bd
00000020: d79e 283d 22a0 db3d b10d 9ebd 0ebd 17be
00000030: 4add c13d 4bfe b0bc 425e ef3c ee27 80bc
00000040: 94ad af3d fb2a c7bd d9b4 02be 3a1e 30bd
00000050: 8e61 cebd 44a1 04bd f944 a33d 39a9 33bd
00000060: 1d19 0fbe 8801 0cbd 16c1 c9bd 4baf c5bd
00000070: 7b81 3d3b 2c8d 42be cdd4 efbd 8f48 e9bc
00000080: e43f d7bb bb00 8dbd e0b3 233d 0764 6d3d
00000090: 5870 9e3d c668 54bd e298 a63d 70cd 9ebd
000000a0: 7a05 a3bd 910b 04bc d6ea 833d 7f50 18be
000000b0: 7ed1 d4bd debd c3bc 078f 893d 9fb5 dd3d
000000c0: 0865 2a3d 6c3f e9bd e67a 6fbd 3cf4 c0bc
000000d0: 31f4 07be 5303 8bbd 6446 34be 9cb3 aa3c
000000e0: e5d9 d7bd 79da fe3d 5159 32bd 5b03 733d
000000f0: 6ef5 acbd 825b 8dbd 3f4b 1c3e 6db5 aabd
00000100: 3c62 74bd 1308 56bd 458e 57bd 17ac dbbd
00000110: 8c89 f7bd e4d3 92bd 059d 95bd 219c 873d
00000120: a811 a03c 393e 4ebb fd75 d4bc 47f6 a4bd
00000130: e581 963a 55ce 6e3d 1b67 af3c 8241 19be
00000140: 9cf3 c63c 6754 34be 9253 28bd bebe 03be
00000150: fde3 bd3c 1076 00be 7010 973d 9d46 adbc
00000160: 8aaf 2bbd ba59 79bc b498 893d 5729 9ebd
00000170: 05cc df3d 4d75 8ebd bdd2 fd3c a04f 173d
00000180: a756 e2bd 33bc babc 60f2 3438 f988 3b3d
00000190: 093f dcbd 0550 d5bc 9b5c 873d b860 35be
000001a0: bbaf 9fbd 8e6c 7cbb f14c bbbc 2fcd 9abd
000001b0: 9c80 e8bd c8ed 743d 4ae9 69bd 1256 5f3c
000001c0: 3be6 0fbe 7381 0dbd 4b1c c2bb ae19 adbd
000001d0: 33dc 50bd bf66 d2bd a6d3 403e 23e1 a1bd
000001e0: dbc4 a53d 4eb1 993d 3077 863b d53a 0c3e
000001f0: 2263 cb3d 9196 1c3d 1bb9 3c3a f8ab 2e3d
-0.034919374 0.059219893 -0.121647134 0.103251316 -0.031231605 -0.2131804 0.04864122 -0.036757767
0.041167106 0.10723902 -0.07717455 -0.14818212 0.09466036 -0.021605631 0.02921975 -0.01564404
0.08578029 -0.09724995 -0.127643 -0.042997576 -0.10077201 -0.032380357 0.0797214 -0.043862555
-0.13974424 -0.034181148 -0.09851281 -0.09652575 0.0028916288 -0.18999165 -0.117105104 -0.028476981
-0.0065688957 -0.06884905 0.039966464 0.05795672 0.077362716 -0.051857732 0.08134629 -0.07754028
-0.07960029 -0.008059398 0.06441276 -0.14874457 -0.1039152 -0.023894247 0.067167334 0.10825657
0.041600257 -0.1138905 -0.058466814 -0.02355396 -0.13276745 -0.067877434 -0.17604977 0.020837598
-0.10539607 0.12444014 -0.04354221 0.059329372 -0.084452495 -0.06902219 0.15263079 -0.083353855
-0.059663996 -0.052253794 -0.052625913 -0.10726183 -0.12086782 -0.07169321 -0.0730534 0.06621576
0.01953967 -0.0031470193 -0.025935167 -0.08054786 0.0011482803 0.058302242 0.02141147 -0.14966395
0.024286084 -0.17610322 -0.041095324 -0.12865731 0.023180002 -0.12545037 0.07376182 -0.021151835
-0.041915454 -0.015219146 0.06718579 -0.07722729 0.109275855 -0.06955967 0.030984277 0.03694117
-0.11051684 -0.022794819 4.3141074e-05 0.045784924 -0.107542105 -0.026039133 0.0660946 -0.17712677
-0.0779719 -0.0038516852 -0.022863837 -0.07558667 -0.11352655 0.05979708 -0.057107247 0.013631361
-0.1405267 -0.03454728 -0.005923783 -0.08452164 -0.05099125 -0.102735035 0.18830737 -0.079042695
0.08094188 0.07504521 0.0041035637 0.13694318 0.099310175 0.03822953 0.0007199214 0.04264447

fc2.weight f4 [128, 128]
00000000: f251 9c3d a8be be3b a69a 3cbd 0da3 283d
00000010: a1e2 d23a 955f 933c c315 1cbc 3dd8 013d
00000020: 44d1 083e e413 12be 4075 ffbd 8621 99bd
00000030: 90d6 233d 4676 8d3d bf14 e53d 84d1 5bbc
00000040: 601b 3abd b985 903c 3a7a 82bd 81f2 a73d
00000050: 6965 1f3c 5c22 bc3b e89b 063d ddfc bfbd
00000060: 2f8d 633d 402d eb3d 3bcf 7cbd 4ece 513d
00000070: 5eac 6e3d 9914 e13b 527a 433d 3ff5 833c
00000080: a909 7e3d 6a6f 83bc d62f 293d b399 913c
00000090: c76a b1bc e73e 0e3d dd88 003e 2824 173d
000000a0: 9439 c4bd 6292 c7bd 2e55 d6bd dee2 373d
000000b0: f503 34be a2d9 e2bd f524 55bd fb3e d53c
000000c0: 549a d5bc 3051 903c 2b68 aa3d a807 a33d
000000d0: 0bbf b03d cc95 f93c 8d39 b9bd eac5 febd
000000e0: 423d 11bc 6b4d af3d 4bf5 9d3c 6a55 53bd
000000f0: 8d23 39bd 848a cb3c e8ca ca3d 7b00 363d
00000100: ba3a 11be 17a0 39bc 737f 09be 652a c23d
00000110: 8d96 28be d4b8 ba3c 11b8 31bc 5c66 09bd
00000120: 8f5e a1bc d7e8 1fbe 424f 243d cfd3 b13c
00000130: 8dfc e23c 8c35 843d 022c 0e3e 003e 8c3c
00000140: cabc 80bd d937 d2bd 2149 1ebe a6ce a2bc
00000150: 6a81 98bc f55e 26bd 5c7d 663e 3c58 43be
00000160: fe71 8dbd 6756 d13c c73b fa3d 065a c6bd
00000170: 39db 8b3d 5a3a 78be 8a96 15be c1cb 59be
00000180: 8642 8c3b e023 833d a3a8 8c3d a066 fc3d
00000190: 8d39 bdbd 4c5f d0bd 7853 163d 4ec8 693d
000001a0: f5ac 29bc d662 563d 1ee7 42bd 1a90 d7be
000001b0: 7255 1fbe 0af0 bf3b da36 1fbe 2a47 f4bd
000001c0: 1b83 cd3c e584 0cbd cf22 c43d 252c bbbd
000001d0: eead 81bc ed13 26be bce0 0f3e fc97 25bd
000001e0: cfc3 913d bd97 59bc b16d 8bbc 8eca 9a3d
000001f0: 601f 2ebe aa58 b5bb 8be8 a0bd bd16 233d
00000200: 5def 69be 055a 80bd 433b a3bc f9f4 bcbc
00000210: d2ec 25bd b8df 07be 88a6 1ebd 9956 12be
00000220: 2cad c5bb e86c 19be 8d6d 39be 20ed 37be
00000230: 5774 823d 1269 55bd 746c f83b f091 30be
00000240: 541a 833d 6de8 283d 2ced 71ba e17c 02be
00000250: 863a 7cbd bbf5 983d eca0 47be f4d5 3a3d
00000260: 7db4 52bd 82c7 1cbe 4679 01be e550 143d
00000270: 52b3 85bc 02e9 adbc a76a 67bc 8cce fabd
00000280: fc15 913d 1b4e e23c 2c2a eabd c3f4 babd
00000290: 76f1 85bd 858d 9c3b 789b 17bd 1f55 d0bd
000002a0: c282 22bc d1f1 8e3d b9ef ca3b 5c6e 25bd
000002b0: 7c72 b83d cb98 863d a825 083d e774 75bd
000002c0: fc7b dabc f981 f3bd d4fe 19bc 869d c4bb
000002d0: ee84 2abd 02b3 403d 59b1 12bd bd72 27bc
000002e0: ecbc c0bd 742c 6cbe 4e38 d9bd 339c 9dbd
000002f0: ba6e 98bd bb85 b0bc bcb4 febc 6d1f 013d
00000300: d7bb b2bd 402d c23d b949 fabd 9f43 5ebe
00000310: c163 a2bd 386f 61bc f03d 4b3d 01e6 d6bc
00000320: 79e3 efbc 7e56 243e ad35 19be 075a 8f3d
00000330: 9a36 1cbb 3b4d 1a3d 0984 df3d 55d9 1a3d
00000340: 89c6 8b3d 13e4 9cbd b8e9 903d 8458 a8bd
00000350: 6a74 37be 6e4c 75bd 4db5 5abc 9e4e 9abb
00000360: 9f7f 9a3d 8655 92bc 6c66 ecbd c414 ea3c
00000370: 558f 9fbc b112 d83d 8069 8b3d 303b a13d
00000380: d929 c03d c6d0 82bb 74cf 65be 0743 41be
00000390: 6dce e23d c629 71bc dbd3 1abe 6096 ebbc
000003a0: e307 81bd c328 86bd 0c84 263c c7b9 6b3e
000003b0: f9bd e53d a169 a6bb 9c53 f23d 2f8b 70be
000003c0: 211b 873c 9812 493c ccb7 aebd e198 153d
000003d0: b7f3 f33c 2985 103d c71a 0dbe 9000 adbd
000003e0: 5930 b9bd e501 053d 0a0a aebd b689 7ebe
000003f0: b411 32bc 1e93 413d 3d87 243d ffa1 7cbd
0.07632817 0.005821068 -0.04604592 0.041171122 0.0016089269 0.017989913 -0.009526673 0.03170036
0.13361079 -0.142654 -0.124735355 -0.07477097 0.039999545 0.069073245 0.11185598 -0.013416652
-0.045436263 0.017641889 -0.06370969 0.08200551 0.009728768 0.0057414006 0.032863528 -0.09374402
0.055554565 0.1148324 -0.061721068 0.051222138 0.05826985 0.0068689105 0.047724076 0.016108153
0.06202093 -0.016044337 0.041305386 0.017773485 -0.02165736 0.034727957 0.12552209 0.036899716
-0.09581295 -0.09744717 -0.104654655 0.04489409 -0.17579634 -0.110766664 -0.052037198 0.026031008
-0.026074566 0.017616838 0.0832065 0.07960445 0.086301886 0.030466937 -0.0904418 -0.12440093
-0.008864703 0.08559688 0.019282004 -0.05159513 -0.04519992 0.024846323 0.099019825 0.044434052
-0.14182559 -0.011329672 -0.13427524 0.09480742 -0.1646368 0.022793211 -0.0108471075 -0.033544883
-0.01969841 -0.15616165 0.04011465 0.021707444 0.027708316 0.06455526 0.13883975 0.017119408
-0.06286009 -0.10264558 -0.15457584 -0.019873928 -0.018616397 -0.0406179 0.22508758 -0.19076627
-0.06906508 0.025553895 0.12218433 -0.09685139 0.06828923 -0.2424101 -0.14608207 -0.21269132
0.004280391 0.06403327 0.068681024 0.12324262 -0.092394926 -0.101744264 0.036700696 0.05707579
-0.010356178 0.05234035 -0.04758369 -0.42102128 -0.15559939 0.0058574723 -0.15548268 -0.11927636
0.02508693 -0.034306426 0.09576952 -0.09139279 -0.015830006 -0.16218539 0.14050573 -0.040428147
0.07117426 -0.013280806 -0.017020078 0.075581655 -0.17004156 -0.005534251 -0.07856854 0.039816607
-0.22845216 -0.0626717 -0.01992572 -0.02306603 -0.040509053 -0.13268936 -0.038733035 -0.14290847
-0.0060326066 -0.1498295 -0.18108197 -0.1796155 0.06369846 -0.052102156 0.007581288 -0.1724317
0.06401506 0.041237283 -0.0009228762 -0.1274295 -0.06157925 0.07468744 -0.1949498 0.045614198
-0.05144166 -0.15310481 -0.12643918 0.03620996 -0.016320858 -0.02122927 -0.014124549 -0.12246427
0.07084271 0.027625134 -0.11433825 -0.09128716 -0.06540196 0.0047776126 -0.0370135 -0.101724856
-0.00991887 0.069797166 0.006193128 -0.04038845 0.09006211 0.06572112 0.033239037 -0.05992594
-0.026670448 -0.11890025 -0.009399135 -0.0060002236 -0.041630678 0.047045715 -0.035813663 -0.010220227
-0.09411034 -0.23063833 -0.106064424 -0.07695808 -0.074429944 -0.021548143 -0.03109204 0.03152411
-0.08727234 0.09481287 -0.12221093 -0.21705483 -0.07929183 -0.013759427 0.049619615 -0.026232721
-0.029283272 0.16048619 -0.14961882 0.06999593 -0.0023836256 0.03767131 0.109138556 0.03780492
0.06824977 -0.07660689 0.07075828 -0.08220008 -0.17915502 -0.059887342 -0.01334889 -0.004709079
0.07543873 -0.017863046 -0.11542973 0.028574355 -0.019477526 0.1055044 0.06807232 0.07872617
0.09382982 -0.003992173 -0.22442418 -0.18873225 0.11074529 -0.014719432 -0.15119879 -0.028758228
-0.063003324 -0.065507434 0.010163318 0.23020087 0.11217875 -0.00507851 0.118323535 -0.23490594
0.016492428 0.0122724995 -0.0853115 0.03652275 0.029779298 0.03528324 -0.13779746 -0.08447373
-0.09042425 0.03247251 -0.084980085 -0.2485722 -0.010868479 0.047259443 0.040168036 -0.06167793

fc2.bias f4 [128]
00000000: 4fa8 283e ddba 01be 9fe6 39bd cfd2 283e
00000010: 0288 7dbb 922f fbbd 94f2 a6bd f931 c5bd
00000020: a0ba fabd 1626 2fbe 7955 84bc 6221 16bd
00000030: 2034 8fbd b091 723c 6129 fbbc 2405 b4bc
00000040: f919 f8bd fa38 4d3c d5e2 4c3d 2a62 ef3d
00000050: 1331 29be 6e0d cbbd 2447 14bb e5c5 163d
00000060: 5ae3 4fbd 0124 a7bd 482f b9bc 992e 89bd
00000070: a5c0 723c 4c31 dcbc 6798 f93c c214 debc
00000080: 012c c63c 49fd 5ebd 51b0 fb3b 60f6 3abe
00000090: c2f9 1a3e 4310 acbd 3486 2f3d 2659 eebd
000000a0: b586 d1bd 002e 0f3c a698 05be 8d51 6b3d
000000b0: aa6f 9ebd bd78 27bd bbfa 2dbd f1cf b1bd
000000c0: 6f18 853d 8fc0 f0bd 2ebd 0c3d cdb5 b6bd
000000d0: 297d b83c 7329 d93c 9a89 c4bc cd65 f4bd
000000e0: b631 5ebd d6ba 9abd 2b2f 033d e47e 0ebe
000000f0: 14d0 5bbd 08cb 36bd cf37 23bd 2c48 93bc
00000100: 8c71 abbd 70cd 15bd 76b8 6cbd b79b 333e
00000110: 6c38 83bd 4a64 fbbd bec5 3bbd ab3b 1fbd
00000120: 565c bcbd deb9 a8bd 8bbe e4bc 393e f2bd
00000130: c569 d43d 4452 f13d 83cb 2b3e 1e74 da3d
00000140: c5b7 343c 8edd 5ebd ef5a d4bd 3cb7 c9bd
00000150: 46dd 843d cbd7 cc3d 54ed 97bc e4b2 aebd
00000160: efe8 0abe 3d87 2f3e 5754 6bbd 2b8a 193d
00000170: 6e6b 9d3b cfb5 b0bd cd64 0cbd 82cf 00bd
00000180: 87c9 f0bd 9273 513e 687b 17bd 1d2d a43d
00000190: 6eed a3bd 558c f1bd 6ab6 10bc 30e4 dcbd
000001a0: fddf a8bd fbe2 903e 9e7b 3cbe add0 80bc
000001b0: 75f1 08be 9d62 90bd 66e1 88bd 36c9 193d
000001c0: 17f1 0c3d 398b 123e 2ab7 b7bd 873e 923d
000001d0: afc5 443d 6fab ab3d f08f c0bd 9b5a dfbc
000001e0: 9038 7dbc 7315 f43d 49f1 433d 9b03 e1bd
000001f0: 9412 8cbd 2f9f 3c3d 68f2 a73c 1611 bcbc
0.16470455 -0.12668939 -0.045385953 0.16486667 -0.0038685803 -0.12264933 -0.08151737 -0.09628672
-0.12242627 -0.17104372 -0.016154038 -0.03665293 -0.06992364 0.014805242 -0.03065938 -0.021975107
-0.12114329 0.012525791 0.05002101 0.11688645 -0.16522627 -0.09914671 -0.002262541 0.03680982
-0.05075393 -0.08161164 -0.022605553 -0.06698341 0.014816438 -0.026878975 0.030468179 -0.027109507
0.024190905 -0.05444077 0.0076809307 -0.18258047 0.15134338 -0.08401539 0.042852595 -0.116380975
-0.102307715 0.008738995 -0.13046512 0.05745082 -0.07736142 -0.04088663 -0.042475443 -0.0868224
0.06498801 -0.11755478 0.034360103 -0.089213945 0.022520619 0.026509022 -0.023991395 -0.119334795
-0.054246627 -0.075551674 0.032027405 -0.13915592 -0.053665236 -0.04462722 -0.039848145 -0.01797875
-0.08371267 -0.036572874 -0.057793103 0.17539869 -0.06407246 -0.12274988 -0.04584288 -0.038875263
-0.09197299 -0.08238576 -0.02792289 -0.11828274 0.103717364 0.11783269 0.16776852 0.10666679
0.011030142 -0.05441051 -0.10368907 -0.09849402 0.06487517 0.10002097 -0.018545784 -0.085302144
-0.1356542 0.17141433 -0.05745348 0.037485283 0.0048040664 -0.08628427 -0.03427582 -0.031447895
-0.11757188 0.20454243 -0.036982924 0.08016417 -0.080042705 -0.11794344 -0.008832553 -0.10785711
-0.082458474 0.28298172 -0.18406531 -0.015724504 -0.13373359 -0.07050059 -0.06683616 0.037545405
0.03440961 0.14310922 -0.08970483 0.071408324 0.04804009 0.08382308 -0.09402454 -0.027264884
-0.01545538 0.119181536 0.04783753 -0.10987016 -0.06839481 0.046050247 0.02050133 -0.022957366

q_out.weight f4 [5, 128]
00000000: cedb 0c3e 946b 87bd 5165 143e 99a5 cd3d
00000010: 8658 70bc b7fd 823d 8ea4 373d 61d2 3abd
00000020: f5d3 803d 4613 0b3e 8424 52bd 103c ff3d
00000030: 95da ac3d 2120 0abc 4503 e3bc 60d3 023d
00000040: 5d51 053d e8c0 483d 6e41 933b 6f8f 03be
00000050: 6086 173d 5ab5 b03d 71f9 ba3c fdb4 d83d
00000060: 2672 e4bc df7d f03d a502 093e 631f a43c
00000070: 1c37 bd3d a875 093e 7349 723d afc3 1c3e
00000080: b183 793c 4bae 43bb 158e 683c 67fa 913d
00000090: 1006 bd3d cfc0 c8bc ad66 e53d 5b06 38bd
000000a0: 87d6 103d e28a 023d 0589 fa3d 7389 343e
000000b0: d99f 49bd c687 383d a4a0 3f3d 4fd2 22bd
000000c0: 88b2 8d3c d489 083e 4434 8a3e 3f00 33be
000000d0: eaae cd3d 9b80 9abb 9b1a 013d 597b 073d
000000e0: 47ba a73b d982 fc3d ae82 3dbd de02 47bd
000000f0: 46b0 9f3d c3f4 413b 7470 7d3d 902d a43d
00000100: 0722 533c d2f9 32bd aff5 13bd e5ba fe3d
00000110: 2655 28bc 6e74 8cbc a9d6 a33c de24 933d
00000120: 38e8 173b 7163 3ebd 76bc c63d ce77 8cbd
00000130: bb1a 42be a723 323e d6ec d93d 7187 db3d
00000140: c573 d03c 311e db3c 1cce 823d 4ce2 07bd
00000150: 98b0 163d 8af1 c73d 32c7 1b3d 28c4 cf3d
00000160: 5039 4a3d dd79 453e 45f0 583e c69c e6bc
00000170: 9da6 4f3d 0d1b 063e 0ebf 86be fd81 45bd
00000180: dbce 80bd 158c 0c3e a22f 793d ca8f 6f3d
00000190: bf96 cf3d 17ae 75bd 7a23 60bd 6035 c93d
000001a0: 7970 a73d d20f 403e ca0a 973d 6439 5dbd
000001b0: 339b b5bc e8a8 70bc 1f58 a23d 7863 cebc
000001c0: 8f09 ac3d b973 6b3e 2cd2 423e ddaa 79be
000001d0: 76f6 1a3e 832e 263e aab3 a5bc 7ad8 8dbb
000001e0: 6d71 e73d 3808 f63d e320 0dbe ab0e 593e
000001f0: 80b1 1c3d 3d9c 003d a5a5 61bd f92a 863d
00000200: 09c5 173e 542a 07be d652 11be 0a09 3f3e
00000210: 75fe 34be 7441 993c aee9 92bd 5099 f33c
00000220: 4c3f 74bd 03eb 40be 4f55 2fbe c10a 6bbe
00000230: 7a5b 95bd c6c2 8b3d 5ef6 e7bd 727a 1ebd
00000240: 9671 7ebd d071 0cbe a7d1 08be a97d b2be
00000250: 7820 44be 5e3a 4cbe a50c 7f3d eee4 a43d
00000260: 4ab8 15be ed6f 00be 07d9 0a3e b321 59bd
00000270: 75c4 df3c 8425 bd3c 59aa d3bd 73d6 aa3c
00000280: ecaa 46be 8f90 dfbd 345d c83d d2ec 033b
00000290: 6d01 413e b1d1 983d a80f 183e 124a 6cbd
000002a0: 6df6 3cbe 8594 6b3d 664c 0dbe c903 313e
000002b0: a2b1 8f3c 7e82 fcbd e3bd 91bc 244a 32bd
000002c0: 7289 023e 454e a7bd bf2b 433e 707c 52be
000002d0: 29dd 57be 788c 16be 09e3 2dbd 9d7a 30be
000002e0: c7f1 e1bd 8e4a d0bd c4e5 5ebd 5061 4a3c
000002f0: 9a79 1ebe e433 2e3c bcde 18be 3ff1 11be
00000300: 952e fabd ef4a 13be 8b4d 03be 8cbe 5e3e
00000310: 3533 c2bd 11a6 3abe c9cc eb3b 0fe0 153d
00000320: 542a fa3c 21bb 19be b759 1fbe 2f38 1b3d
00000330: cc93 25bd d133 233e 4e2f eb3d 19d6 4f3d
00000340: 3fa2 00be 35fb e1bd ed71 1a3d 4ff0 ccbd
00000350: 4a67 1ebe 9994 3a3e 68dd 44be 1390 0ebe
00000360: 6a28 59be 08d9 273e 5dc2 4b3e 9b2f 6cba
00000370: f935 3bbe 1a92 92bd da2a 04bb d391 2dbe
00000380: f59c 19be f3fd 583e 3978 92bd bf9f 083d
00000390: 0828 e73d 8aba 1dbe 841b eebd 220c 10be
000003a0: b4e9 c1bd ac3d 423e b437 abbd 6cdd b93c
000003b0: e735 efbc c549 7dbd 0d4c 333e d745 6c3c
000003c0: 503a 0ebe 022c 043e 2d56 193e ac4e 2cbe
000003d0: 126d 3f3d e4d0 303e f6d9 203c 046e eb3b
000003e0: 71f4 ca3d 493d 573e 941f 9ebd 3d3b 4abe
000003f0: 0242 04be 994d 1ebe c69b febd 30c6 953c
0.13755724 -0.06612316 0.14491774 0.10041351 -0.014669543 0.063960485 0.044834666 -0.04561079
0.062904276 0.13581571 -0.051304355 0.12462628 0.08440129 -0.008430512 -0.02771152 0.031939864
0.032548297 0.049012095 0.004493884 -0.12847684 0.036993384 0.0862834 0.022824021 0.10581396
-0.027886461 0.11742758 0.13379915 0.020034498 0.09239027 0.13423789 0.059152078 0.15309022
0.015229152 -0.0029858525 0.014194031 0.071278386 0.09229672 -0.024506 0.112012245 -0.044927936
0.03536084 0.03187073 0.12233166 0.17630558 -0.04922471 0.04505136 0.04678406 -0.039751347
0.017297044 0.13333827 0.26993 -0.17480563 0.10043128 -0.004715038 0.031519514 0.033076618
0.0051186415 0.12329645 -0.046267204 -0.04858672 0.07797293 0.0029595352 0.06187482 0.08016503
0.012886531 -0.04369528 -0.036122974 0.12437991 -0.010274207 -0.017145362 0.019999819 0.07184766
0.0023179185 -0.046481553 0.09703915 -0.068587884 -0.1895551 0.17396413 0.10640876 0.10719193
0.025445828 0.026747795 0.063869685 -0.033174798 0.036789507 0.09762867 0.038031764 0.10144836
0.049371064 0.19284768 0.21185406 -0.028150927 0.050696004 0.13096257 -0.26317638 -0.04821967
-0.062894545 0.13725312 0.06083644 0.058486737 0.101361744 -0.05998048 -0.054721333 0.098246336
0.08175749 0.18756035 0.07375105 -0.05400981 -0.022168731 -0.014688708 0.07926964 -0.025193915
0.08400261 0.22993363 0.19025487 -0.24381585 0.1513308 0.1622868 -0.020227272 -0.0043287845
0.11300931 0.12013286 -0.13782077 0.21197002 0.038255215 0.031399 -0.05508961 0.06551165
0.14821257 -0.1319974 -0.14191756 0.18655792 -0.17675193 0.018707968 -0.07173477 0.029736191
-0.059630677 -0.1883965 -0.17122386 -0.22953321 -0.072928384 0.068242595 -0.11326288 -0.03869099
-0.062120043 -0.13715291 -0.13361226 -0.34861496 -0.19153011 -0.1994414 0.06226792 0.080514774
-0.14621082 -0.12542696 0.13559352 -0.053010654 0.027315358 0.023089178 -0.103352256 0.02085421
-0.19401139 -0.10916244 0.09783402 0.002013017 0.188482 0.074618705 0.14849722 -0.057687826
-0.18453379 0.057514686 -0.13798675 0.172866 0.017540757 -0.12329577 -0.01779074 -0.043527737
0.12747744 -0.081692256 0.19059657 -0.20555282 -0.2108046 -0.14702022 -0.042452846 -0.17234273
-0.110324435 -0.1017047 -0.05441834 0.012352303 -0.15476075 0.010632489 -0.14928716 -0.14252184
-0.12215916 -0.14384054 -0.12822549 0.21752375 -0.09482423 -0.18227412 0.007196043 0.036590632
0.030537762 -0.1501279 -0.15561567 0.037895378 -0.040424153 0.15937735 0.11483632 0.05074129
-0.12561892 -0.11034242 0.037706304 -0.10006773 -0.15469089 0.18220748 -0.19225085 -0.13922147
-0.21206823 0.16391385 0.19898362 -0.00090097793 -0.18282308 -0.07156773 -0.0020167143 -0.16950159
-0.1500128 0.21190624 -0.07151837 0.03335547 0.11286932 -0.1540319 -0.11626342 -0.14067128
-0.094684035 0.18968838 -0.08360234 0.02268859 -0.029200507 -0.06183793 0.1750948 0.014420948
-0.13889432 0.12907413 0.1497428 -0.16826886 0.046734877 0.17267185 0.009817591 0.0071847457
0.09909905 0.21019472 -0.07720867 -0.1974916 -0.12915805 -0.15459289 -0.12432055 0.01828298

q_out.bias f4 [5]
00000000: 7773 abbc 0c1c 1cbd 971b 8f3c ac54 be3d
00000010: 44bd c63c
-0.020929081 -0.038112685 0.01746921 0.09293494 0.02426017
