models/First_Model/q_ind_agent_0.pt (torch, 108573 bytes, 6 tensors)

fc1.weight f4 [128, 71]
0	0xbced4060	-0.02896136
1	0xbe039a4a	-0.12851825
2	0x3d98bef2	0.07458295
3	0xbea3eec5	-0.32018104
4	0x3ebed809	0.37274197
5	0x3dabc898	0.083878696
6	0x3e9db57c	0.30802524
7	0x3db873b4	0.090064436
8	0x3e177282	0.14789775
9	0xbb2e609e	-0.0026607881
10	0x3d7dd3d2	0.061969586
11	0x3cda618c	0.026657842
12	0x3e09d6c3	0.13460831
13	0xbddbbe6d	-0.1072968
14	0x3ddcffc1	0.10790969
15	0x3d58c6e8	0.052924067
16	0x3e013ee4	0.12621647
17	0x3da62d7c	0.08114144
18	0x3e38881f	0.18020676
19	0x3decadcb	0.11556586
20	0xbd2acdd4	-0.0417002
21	0xbd9f31a4	-0.0777314
22	0xbde2fd21	-0.11083437
23	0x3dad9334	0.084753424
24	0xbe080f4e	-0.13287088
25	0xbcd575d0	-0.026057154
26	0xbdda20ce	-0.10650788
27	0xbd9aa4f2	-0.07550992
28	0x3cc56fdf	0.024101196
29	0xbd640331	-0.055667106
30	0x3e69773b	0.22799389
31	0x3e3abb4f	0.18235515
32	0x3e011dff	0.12609099
33	0x3e87f078	0.2655065
34	0xbdd9041e	-0.105964884
35	0xbcca88e5	-0.02472348
36	0x3db9b7ea	0.09068282
37	0xbdb11036	-0.0864567
38	0x3e83cbd4	0.25741446
39	0x3db2af7f	0.087248795
40	0x3e6e5b3d	0.23276992
41	0xbd2cc000	-0.042175293
42	0xbd4167e1	-0.047218207
43	0xbdcec251	-0.10095657
44	0x3cfe2472	0.031023238
45	0x3d262970	0.04056686
46	0xbdc83d6f	-0.097773425
47	0x3da76530	0.08173597
48	0xbe978cf0	-0.29599714
49	0x3d41fbad	0.047359157
50	0x3e2b425b	0.16724531
51	0x3e57b452	0.2106488
52	0x3e006829	0.12539734
53	0x3d7e1f5c	0.062041625
54	0x3d57c156	0.052674614
55	0x3e0818a7	0.13290654
56	0x3d54a698	0.05191669
57	0x3e562e7a	0.20916167
58	0x3e323a83	0.17405133
59	0x3e1157e2	0.14193681
60	0x3d393ec7	0.045225885
61	0x3e419c5a	0.189073
62	0x3e7af9e3	0.24509387
63	0x3e2a8233	0.1665123
64	0xbcce9b52	-0.025220547
65	0x3d41b4c0	0.047291517
66	0x3d59e45e	0.053196304
67	0x3cd4bf32	0.025970075
68	0x3cb94f90	0.022620946
69	0x3e157bdb	0.14598028
70	0x3da228f9	0.07917971
71	0xbd282387	-0.041049507
72	0xbf173dc4	-0.5907862
73	0xbd23e02e	-0.040008716
74	0x3ebdaead	0.3704733
75	0xbe556aba	-0.20841494
76	0xbed94ec9	-0.4244292
77	0xbec04e99	-0.37559965
78	0x3e221bc8	0.1583091
79	0xbda2163c	-0.07914397
80	0xbcb7c411	-0.022432359
81	0xbd1ab531	-0.037770454
82	0xbd25815d	-0.040406574
83	0xbd75cead	-0.060011555
84	0xbdb67fa2	-0.08911063
85	0xbdaa88ee	-0.083268985
86	0xbe2bae27	-0.16765653
87	0x3a8dc727	0.0010816798
88	0xbce75b52	-0.028241787
89	0xbc975e3b	-0.01847755
90	0x3d4ff88d	0.050774146
91	0x3d06444f	0.032779988
92	0x3db2fa55	0.08739153
93	0xbdc6e713	-0.09712043
94	0xbdb4f9a6	-0.08836679
95	0xbdbcda56	-0.09221332
96	0xbdb465f0	-0.088085055
97	0x37d01312	2.4804413e-05
98	0xbdf15ca3	-0.11785247
99	0xbd436f60	-0.047713637
100	0x3d120ae2	0.03565491
101	0xbdc119a7	-0.09428721
102	0xbd6be345	-0.057589788
103	0xbdcb5875	-0.09928981
104	0xbcc11d66	-0.023573589
105	0xbe92a0bb	-0.28638253
106	0xbdf67a50	-0.12035048
107	0xbda065b7	-0.078319006
108	0x3e4b7db2	0.19872168
109	0xbeb53d23	-0.35398206
110	0xbed6f55e	-0.41984075
111	0xbeb5fa48	-0.35542512
112	0x3cbd0c2a	0.02307709
113	0xbc5e4fb5	-0.013568808
114	0x3d4fe472	0.05075497
115	0x3c406ed1	0.011745171
116	0x3e39af64	0.18133312
117	0x3e23f87d	0.1601276
118	0x3e041199	0.12897338
119	0xbe669f15	-0.22521622
120	0xbda6004e	-0.08105527
121	0x3d6dbeef	0.058043417
122	0x3d8aacb1	0.067712195
123	0x3d0e5a86	0.0347543
124	0x3acbe8ae	0.0015557015
125	0xbbf7f187	-0.007566634
126	0xbd2f196a	-0.042748846
127	0xbd598b90	-0.053111613
128	0x3dca5436	0.09879343
129	0x3d9fdf20	0.078062296
130	0x3ce4c627	0.027926518
131	0xbe2d06d5	-0.16897137
132	0x3d05bc7d	0.03265046
133	0x3e7469b1	0.23868443
134	0xbe129c39	-0.14317407
135	0x3d8997dc	0.06718418
136	0x3da632d1	0.08115161
137	0x3d50bb03	0.0509596
138	0xbdc090f6	-0.09402649
139	0xbd172f7e	-0.036910526
140	0xbd7be191	-0.061494414
141	0x3dd5564c	0.104168504
142	0xbd728b26	-0.059214734
143	0x3dd26a25	0.10274152
144	0xbe1b225b	-0.15149824
145	0x3ec0af9a	0.37633973
146	0xbea3c12a	-0.3198331
147	0xbe28d754	-0.16488391
148	0x3eaa5518	0.33268046
149	0xbc86090b	-0.016361734
150	0x3d533d82	0.05157233
151	0xbd1246d2	-0.03571207
152	0x3b86f92a	0.004119058
153	0x3d438ff9	0.047744725
154	0x3e4b7eb2	0.19872549
155	0xbd104282	-0.035219677
156	0xbd2b394e	-0.041802697
157	0xbe07da14	-0.13266784
158	0xbdacca40	-0.084370136
159	0xbc85c948	-0.01633133
160	0xbda9a318	-0.08283061
161	0x3d3e0fb2	0.046401687
162	0x3ec49923	0.38398084
163	0xbdb777bc	-0.089583844
164	0x3ce917cf	0.028453736
165	0x3c62bf6e	0.013839586
166	0x3d857838	0.065170705
167	0x3dc088af	0.0940107
168	0x3d7bf33d	0.061511267
169	0xbbf0cbf4	-0.007348532
170	0x3db3a5d5	0.08771864
171	0xbda8aebf	-0.08236455
172	0xbdde1b5b	-0.108450614
173	0xbd711c5c	-0.058864936
174	0x3db82d4f	0.08993017
175	0xbd795428	-0.060871273
176	0xbe176fc3	-0.14788727
177	0x3ba7dc8e	0.0051227277
178	0xbdce165a	-0.10062857
179	0x3ebd6672	0.36992222
180	0xbe3e8c8a	-0.18608299
181	0x3d90fc66	0.07079391
182	0x3e1f816c	0.15576714
183	0xbc871cc1	-0.016493203
184	0xbd9eb3de	-0.07749151
185	0xbda38a0f	-0.07985317
186	0xbcd71584	-0.026255377
187	0xbd8463d3	-0.064643525
188	0xbd664268	-0.056215674
189	0xbd01fe5e	-0.031736724
190	0x3d617ec0	0.05505252
191	0x3e005e1a	0.12535897
192	0xbc4d77bd	-0.012540755
193	0x3d90a4dc	0.070626944
194	0xbe4faf52	-0.20281723
195	0xbe144948	-0.1448108
196	0xbdc9ea91	-0.09859193
197	0xbe01f29e	-0.12690207
198	0x3d8759f7	0.06608956
199	0xbbf3b326	-0.0074371276
200	0xbd8d919e	-0.0691254
201	0xbc6ec5a7	-0.014573491
202	0xbba617e3	-0.0050687655
203	0xbdd56043	-0.10418751
204	0xbe91b502	-0.2845841
205	0x3e058d70	0.13042235
206	0xbd955184	-0.072909385
207	0xbdcdb3d8	-0.10044068
208	0xbc403399	-0.011731052
209	0xbca25570	-0.01981613
210	0xbdfbfe57	-0.12304371
211	0xbca56349	-0.020188944
212	0x3d893365	0.06699256
213	0xbcfc70e9	-0.030815559
214	0xbed41839	-0.4142473
215	0x3d8696bb	0.06571718
216	0x3e4019b0	0.18759799
217	0xbe046b61	-0.12931587
218	0xbedbbd2f	-0.42917773
219	0xbe2282fc	-0.15870279
220	0x3d4d21e8	0.050081164
221	0x3d55f430	0.05223483
222	0xbd82fea8	-0.06396228
223	0x3d62edb7	0.055402484
224	0x3db9835e	0.090582594
225	0xbd1263f4	-0.035739854
226	0xbc07dc60	-0.008292288
227	0xbcfd902d	-0.030952537
228	0x3d4af976	0.04955431
229	0x3d57655a	0.05258689
230	0x3db888a7	0.09010439
231	0x3b9b3475	0.004736478
232	0x3d816506	0.06318097
233	0xbdd3577e	-0.10319422
234	0x3d593e73	0.05303807
235	0x3da66911	0.081255086
236	0x3cc7efa3	0.02440626
237	0x3c926b3b	0.017873397
238	0x3d83eeb4	0.064420134
239	0xbd558595	-0.052129347
240	0xbdf593dd	-0.11991093
241	0x3de917a2	0.11381461
242	0x3d7f5270	0.062334478
243	0xbac3b17d	-0.0014930215
244	0x3e06cc96	0.13163981
245	0xbb501ecc	-0.0031756638
246	0x3d2e7171	0.042588655
247	0xbe436cbb	-0.19084446
248	0x3d05fa1f	0.032709237
249	0x3d4e861d	0.05042087
250	0x3e21a48b	0.15785424
251	0xbe9928e5	-0.29914013
252	0xbec51799	-0.38494566
253	0xbe71e53c	-0.23622602
254	0xbd7f755f	-0.062367793
255	0xbd1e3ad8	-0.038630337

fc1.bias f4 [128]
0	0x3e78413f	0.2424364
1	0xbc957519	-0.018244313
2	0x3dbd65f4	0.09247962
3	0x3cdfbc76	0.027311545
4	0x3db7ff90	0.089842916
5	0xbb3fe6b1	-0.002928179
6	0xbe1ca807	-0.15298472
7	0xbd1dc3a5	-0.03851666
8	0xbdf12292	-0.11774172
9	0xbdc83298	-0.09775275
10	0xbe00f42a	-0.12593141
11	0xbd5d95de	-0.054098003
12	0xbde0ca01	-0.10976029
13	0xbdccf0a5	-0.10006837
14	0x3d206613	0.039159846
15	0x3d29d862	0.041466124
16	0x3e295b53	0.16538744
17	0x3e448e29	0.19194855
18	0xbe110c36	-0.14164814
19	0xbcde6517	-0.027147813
20	0x3c2a21eb	0.010384063
21	0xbc291c13	-0.010321635
22	0xbd2a413c	-0.04156612
23	0xbd2fb96e	-0.04290145
24	0xbd81a19a	-0.06329651
25	0x3c8f8d93	0.017523563
26	0xbcc7b8c4	-0.024380095
27	0x3d8b3466	0.067971036
28	0x3ced4e09	0.028967874
29	0x3d688d1b	0.056775194
30	0xbc3ecfbd	-0.011646208
31	0x3dc19630	0.09452474
32	0xbdaa4cd7	-0.08315437
33	0x3d9e9c32	0.07744636
34	0xbe0c4b90	-0.137007
35	0xbcfa0f78	-0.030524954
36	0x3da6b6ab	0.0814031
37	0x3d9f40a2	0.077759996
38	0xbe072ed1	-0.13201453
39	0xbda6fd9f	-0.08153843
40	0xbd56672b	-0.052344482
41	0xbd5d46ec	-0.054022714
42	0xbd158360	-0.036502242
43	0x3d06c932	0.03290672
44	0xbdce6b77	-0.10079091
45	0xbc1ed968	-0.009695388
46	0x3dd2f176	0.10299961
47	0xbd853fe5	-0.065063275
48	0xbdf6a2a3	-0.12042739
49	0x3d2d436f	0.042300638
50	0xbd8df058	-0.069306076
51	0x3c475033	0.012165117
52	0xbd670000	-0.056396484
53	0xbe2904ef	-0.16505788
54	0x3e57e78f	0.21084426
55	0xbd9d99b9	-0.07695336
56	0x3da6f2fa	0.08151813
57	0xbd9e55c8	-0.07731205
58	0xbda292e6	-0.07938175
59	0xbd20145d	-0.03908192
60	0xbd78a276	-0.06070181
61	0xbd982251	-0.0742842
62	0x3bce1e17	0.006290208
63	0x3d82f3e2	0.06394173
64	0x3cb6424c	0.02224841
65	0xbd1e9216	-0.038713537
66	0xbdb71a7f	-0.089406006
67	0xbd0dce43	-0.034620535
68	0xbd24e6ab	-0.040259045
69	0xbde88c54	-0.113548905
70	0x3d9fe3dd	0.07807133
71	0xbddf457c	-0.10901925
72	0x3da668a0	0.081254244
73	0xbc99f057	-0.01879136
74	0xbcfdfc43	-0.031004077
75	0xbd498d0a	-0.04920677
76	0xbe380dc5	-0.17974003
77	0x3d8ccfb2	0.06875552
78	0xbcf150be	-0.029457446
79	0x3c8189dd	0.015812809
80	0xbc76732f	-0.01504211
81	0xbd9703b9	-0.07373757
82	0x3c2d7e3e	0.0105891805
83	0x3d541829	0.051780853
84	0xbd19b3de	-0.03752505
85	0xbdcdf08f	-0.100556485
86	0xbc7a1690	-0.015264168
87	0x3dbc760e	0.09202205
88	0xbd44de51	-0.04806358
89	0x3ca2a3c2	0.019853476
90	0xbde3fab2	-0.11131801
91	0x3d2c44c0	0.042057753
92	0x3da15249	0.07877023
93	0xbda3c5c1	-0.07996703
94	0x3d82ee1e	0.063930735
95	0xbce04a6b	-0.027379235
96	0xbe0fe7dc	-0.14053291
97	0xbd1f0b6a	-0.038829245
98	0xbb8b0c4f	-0.0042434107
99	0xbe38fff1	-0.18066384
100	0x3d28c1b4	0.041200355
101	0x3e005353	0.12531786
102	0xbbca921a	-0.0061819674
103	0xbe2f8a9b	-0.17142718
104	0x3d5b8c64	0.053600684
105	0x3e061d30	0.13097072
106	0x3cd424e9	0.025896506
107	0xbb92ab38	-0.0044759773
108	0x37a742e0	1.9939092e-05
109	0xbcf13b89	-0.029447334
110	0x3b99e675	0.004696662
111	0xbe0b2670	-0.13588881
112	0xbd6feee6	-0.05857744
113	0xbe2b2fb9	-0.16717423
114	0x3de770ae	0.11300789
115	0x3bedc802	0.007256509
116	0x3cfa5816	0.03055958
117	0xbdfa77b1	-0.122298606
118	0xbd2506c9	-0.040289674
119	0x3ca0fe43	0.019652491
120	0xbe14e9bd	-0.14542289
121	0xbd497574	-0.049184278
122	0x3d720be6	0.05909338
123	0x3d8f4157	0.069948845
124	0xbde6b921	-0.11265779
125	0xbd8cdadb	-0.06877681
126	0xbcb23dd0	-0.02175799
127	0x3da79e99	0.08184547

fc2.weight f4 [128, 128]
0	0x3e75dc28	0.24009764
1	0xbe47d940	-0.19516468
2	0xbc59b622	-0.013288053
3	0xbc67f7e5	-0.014158224
4	0x3d63fed0	0.05566293
5	0x3b05cc4d	0.0020415962
6	0x3c14bd6a	0.009078363
7	0x3bb12446	0.0054059355
8	0xbddf43ed	-0.10901628
9	0xbe228668	-0.15871584
10	0xbcef3783	-0.029201275
11	0x3dc4ba60	0.09605861
12	0xbdc742b8	-0.097295225
13	0x3d972660	0.07380366
14	0x3d5e53b5	0.054279048
15	0xbdb7f4cb	-0.089822374
16	0x3e4359ce	0.19077227
17	0x3e15e83a	0.14639369
18	0x3bcd21f6	0.006260152
19	0xbc12f30f	-0.0089690825
20	0xbc76102a	-0.015018502
21	0xbb9fb720	-0.004874125
22	0xbddd68f5	-0.108110346
23	0xbdf62993	-0.120196484
24	0x3bf750a6	0.007547456
25	0x3c7b12ad	0.015324277
26	0xbbab0721	-0.0052193557
27	0x3c89637a	0.016771067
28	0x3e093195	0.1339782
29	0xbc4b0ab6	-0.01239269
30	0x3cd5d49c	0.026102357
31	0xbd53d987	-0.051721122
32	0x3e29ed52	0.16594437
33	0x3e21c4e7	0.15797769
34	0x3cd0ae74	0.02547381
35	0x3d4ad6c0	0.049521208
36	0xbca0eb87	-0.019643558
37	0xbdb1f53f	-0.08689355
38	0xbbd948cb	-0.006630992
39	0x3c4cad94	0.012492556
40	0xbe937390	-0.28799105
41	0xbd5a725d	-0.05333172
42	0xbcd32b78	-0.025777563
43	0xbd42c226	-0.047548436
44	0x3e13963f	0.14412783
45	0x3d844298	0.06458014
46	0x3df8a7da	0.1214139
47	0x3e2028b4	0.15640527
48	0x3c528589	0.01284922
49	0xbdc945d3	-0.09827771
50	0xbd9dfe84	-0.07714561
51	0x3dba7d53	0.09105935
52	0xbe874b38	-0.26424575
53	0xbda2791a	-0.079332545
54	0x3e3f1c54	0.1866315
55	0x3d884e12	0.06655516
56	0x3d5bd277	0.05366751
57	0xbd172c2d	-0.036907364
58	0xbd9852f9	-0.07437701
59	0xbd0c2181	-0.03421164
60	0x3d2cf0a2	0.042221673
61	0x3e17db0d	0.14829655
62	0x3d258d3d	0.0404179
63	0xbce8b6b8	-0.02840744
64	0x3c70ec15	0.014704724
65	0xbe08cb70	-0.13358855
66	0xbe8201d0	-0.25392008
67	0x3ddacea1	0.106839426
68	0xbdc593cc	-0.09647331
69	0x3caffe8b	0.02148368
70	0xbdc6e600	-0.09711838
71	0xbe8856ae	-0.2662863
72	0x3e162cf6	0.14665589
73	0x3d088c02	0.033336647
74	0x3d226dc4	0.039655462
75	0xbd3057ba	-0.043052413
76	0xbbbb5042	-0.0057163546
77	0x3df3a4e7	0.11896687
78	0x3df1d576	0.118082926
79	0x3d72843b	0.059208136
80	0x3c221cb5	0.00989454
81	0x3debcd0b	0.11513718
82	0x3e0b4790	0.13601518
83	0x3c8b1a1a	0.01698022
84	0x3d0de3b6	0.03464099
85	0xbc5e91a4	-0.013584528
86	0xbd81083b	-0.06300398
87	0x3c9d93b8	0.019235477
88	0xbda7c04d	-0.08190975
89	0x3daba14d	0.08380375
90	0x3e14f5cd	0.1454689
91	0xbba58df7	-0.005052324
92	0x3d679db5	0.056546886
93	0x3dc53ead	0.09631095
94	0xbaef816f	-0.0018272827
95	0x3d8f6c85	0.0700312
96	0xbd0a7b91	-0.03380925
97	0xbd3ae421	-0.045627717
98	0x3e149d3f	0.1451311
99	0xbc7d03a0	-0.015442759
100	0x3daf0e74	0.085476786
101	0x3d6e903b	0.058243018
102	0xbd6d8b56	-0.05799421
103	0x3db1981c	0.08671591
104	0x3bec73e6	0.0072159646
105	0x3e2b187e	0.16708562
106	0xbb807f9b	-0.0039214618
107	0x3dd0275c	0.10163757
108	0x3da744e0	0.08167434
109	0x3d588ecc	0.052870557
110	0x3e80b7ef	0.2514033
111	0x3d9943c5	0.07483629
112	0x3dd002c4	0.101567775
113	0x3c970ea9	0.018439608
114	0x3e28a454	0.16468936
115	0x3e38e748	0.18056977
116	0xbe386759	-0.18008174
117	0xbd62f1ca	-0.05540637
118	0x3de9b361	0.11411167
119	0xbd5d995f	-0.054101344
120	0xbddf4971	-0.1090268
121	0xbd23652c	-0.039891407
122	0x3c5013b0	0.012700006
123	0x3da35e91	0.079770215
124	0xbd52a92b	-0.051430862
125	0x3db9ae20	0.09066415
126	0xbd174f5a	-0.03694091
127	0xbe00136c	-0.12507409
128	0xbdb9e03b	-0.09075972
129	0x3ead8968	0.33893895
130	0xbe43ddf5	-0.19127639
131	0x3e2f9dab	0.1714999
132	0x3dadcb6a	0.08486064
133	0xbcf97738	-0.030452356
134	0x3cf2b6fa	0.029628266
135	0x3ce2cffc	0.027687065
136	0xbbb34150	-0.0054704323
137	0x3e99c9b4	0.300367
138	0xbd2ab2e9	-0.04167453
139	0x3c8522a5	0.016251871
140	0xbb3df0d1	-0.002898265
141	0x3ce8f902	0.028439049
142	0xbcd730a9	-0.02626832
143	0x3da9fd9f	0.083003275
144	0x3e12fcd8	0.14354265
145	0xbd34bb65	-0.044124026
146	0x3daa8981	0.08327008
147	0xbe24a364	-0.16077954
148	0xbbf76a61	-0.007550523
149	0xbb9abf4e	-0.0047225123
150	0xbd1decdc	-0.038555965
151	0x3e7bcd48	0.24590027
152	0xbdacdf79	-0.084410615
153	0xbd10bc4c	-0.035335824
154	0xbdbcb19b	-0.09213563
155	0xbe19a7b0	-0.15005374
156	0x3aa783e5	0.0012780397
157	0x3e5280aa	0.20556894
158	0xbcde8dfa	-0.02716731
159	0x3e0e662e	0.13906166
160	0xbe2b0926	-0.16702709
161	0xbdd7a0d2	-0.10528721
162	0xbcf71d50	-0.030165344
163	0xbd3c9505	-0.046040554
164	0x3da2938d	0.07938299
165	0x3e8b7e92	0.27245003
166	0xbc4c7a11	-0.012480275
167	0xbd7ea9b9	-0.06217358
168	0xbd296f40	-0.041365862
169	0x3dc636e3	0.096784376
170	0xbd3d6c57	-0.0462459
171	0xbd857c9a	-0.065179065
172	0xbc18362e	-0.009290261
173	0xbd925499	-0.07145042
174	0x3abe1a58	0.0014503701
175	0xbe1f05e2	-0.15529588
176	0xbb035e51	-0.002004523
177	0x3e814a93	0.25252208
178	0x3cef06ab	0.029177984
179	0xbddcefca	-0.10787924
180	0x3ead86d4	0.33891928
181	0x3dc228d0	0.094804406
182	0xbe0c723a	-0.13715449
183	0x3d01eda0	0.031720757
184	0x3db70bd6	0.089378044
185	0x3d85833c	0.065191716
186	0xbd5974f8	-0.053090066
187	0xbd8e1797	-0.06938093
188	0xbe50663a	-0.20351496
189	0xbe42ba18	-0.19016302
190	0xbc13fdd0	-0.009032682
191	0x3d46f81e	0.048576467
192	0x3c0c95c4	0.008580629
193	0x3e6440e0	0.22290373
194	0x3c1c53ec	0.009541493
195	0xbd9b511e	-0.07583831
196	0xbe221eaa	-0.1583201
197	0x3d20c374	0.0392489
198	0x3d8a4073	0.06750574
199	0xbe13158b	-0.14363687
200	0xbe186f17	-0.14886127
201	0xbdeb511b	-0.11490079
202	0xbd8d6cbb	-0.06905504
203	0xbd135170	-0.035966337
204	0xbdc17add	-0.094472624
205	0x3e3cfe6a	0.18456426
206	0x3d5ff06b	0.05467264
207	0xbdd1bf0f	-0.1024152
208	0x3d1195a3	0.035543095
209	0x3c9e02a0	0.019288361
210	0x3cef9e28	0.02925022
211	0xbd270752	-0.040778466
212	0x3e043f1b	0.12914698
213	0xbd78e270	-0.060762823
214	0xbddef7e7	-0.10887127
215	0x3ddac1f4	0.10681525
216	0x3d9b788e	0.07591353
217	0xbd1d89f8	-0.038461655
218	0xbe18d82c	-0.14926213
219	0xbdba255c	-0.09089157
220	0x3d9aa66b	0.07551273
221	0x3d0201ee	0.03174012
222	0xbd406fff	-0.046981808
223	0xbd4c2185	-0.049836654
224	0x3d2a3517	0.041554537
225	0x3dd6f23c	0.10495421
226	0xbe2ed147	-0.1707202
227	0xbdf17b61	-0.11791111
228	0xbd255996	-0.04036864
229	0xbd3fcebc	-0.046828017
230	0xbe382fcb	-0.17986982
231	0xbd548a09	-0.051889453
232	0xbc9047b9	-0.017612325
233	0xbdb1f390	-0.08689034
234	0x3d7b2051	0.061310116
235	0x3e04734b	0.12934606
236	0xbc6e31ca	-0.014538238
237	0xbe2b8d9a	-0.16753235
238	0x3d681eb6	0.056669913
239	0xbb6d025b	-0.0036164734
240	0xbdb1d87a	-0.08683868
241	0xbd800613	-0.062511586
242	0x3b0f784b	0.0021891769
243	0xbdea2752	-0.11433281
244	0x3e6a3ce7	0.22874795
245	0x3e3ce3d0	0.18446279
246	0x3de22cc1	0.110436924
247	0x3e03d623	0.12874655
248	0xbd028923	-0.031869065
249	0x3e02d833	0.12777786
250	0x3e090909	0.13382353
251	0xbd4e54be	-0.050373785
252	0x3d02f783	0.031974327
253	0xbd1a0a13	-0.037607264
254	0xbd817165	-0.063204564
255	0x3e4e248f	0.20131133

fc2.bias f4 [128]
0	0x3e7a92d8	0.24470079
1	0xbdbfc005	-0.09362797
2	0xbddae511	-0.10688222
3	0xbe01d8ac	-0.1268031
4	0x3dbd677c	0.09248254
5	0x3db771ef	0.08957278
6	0xbd2cd8a7	-0.042198803
7	0xbdee3036	-0.11630289
8	0x3caa0d7f	0.020758389
9	0xbb07b3c4	-0.0020706514
10	0xbdab6422	-0.08368708
11	0x3c469705	0.012120967
12	0x3e681a00	0.22666168
13	0x3d92dad7	0.07170647
14	0x3ddb9717	0.107221775
15	0xbc40ad21	-0.011760027
16	0xbd58ffc3	-0.05297829
17	0xbd8359af	-0.0641359
18	0x3da0d113	0.07852378
19	0xbc879cd3	-0.016554272
20	0xbd8df870	-0.06932151
21	0xbd9f8dea	-0.0779074
22	0xbd36702f	-0.04454058
23	0xbda41e1c	-0.080135554
24	0x3d241a4d	0.040064145
25	0xbe302e7a	-0.1720523
26	0x3d917fa4	0.07104424
27	0xbc4741ef	-0.012161716
28	0xbdeca17d	-0.11554239
29	0x3d74c5d0	0.05975896
30	0xbe056575	-0.13026984
31	0x3cf9cb8c	0.030492567
32	0xbe1e4ed4	-0.15459758
33	0x3b85c4bb	0.00408229
34	0xbd1cecd2	-0.038311787
35	0x3d483cea	0.048886217
36	0x3de747ab	0.112929665
37	0xbe124af0	-0.14286399
38	0xbd3cc4ba	-0.04608605
39	0x3c887be5	0.01666064
40	0x3a8973f9	0.0010486833
41	0xbde93d96	-0.113887
42	0xbdfc5d5d	-0.12322495
43	0x3cb47451	0.02202812
44	0x3bbc9d06	0.0057560233
45	0x3d0b0f26	0.033949994
46	0xbdb59a30	-0.088672996
47	0x3e7cc948	0.24686158
48	0x3e0e54e7	0.13899575
49	0xbdb91d4a	-0.090387896
50	0xbcd3472f	-0.025790779
51	0x3c15387f	0.009107708
52	0x3b5b682d	0.0033478842
53	0xbbcdb38b	-0.0062775067
54	0xbe01960d	-0.12654896
55	0xbdfdcf29	-0.12393028
56	0xbd4b2045	-0.04959132
57	0xbe1af185	-0.15131195
58	0x3c989aaa	0.018628437
59	0x3d85b0d1	0.06527866
60	0xbcddfabc	-0.027097099
61	0xbdacd706	-0.0843945
62	0xbdee9c69	-0.116509266
63	0xbcd93696	-0.026515286
64	0x3e6b5cbc	0.22984594
65	0x3c8caeef	0.017173259
66	0xbd8f1a3c	-0.06987426
67	0xbe09715d	-0.13422151
68	0x3e55672c	0.20840138
69	0x3e521c52	0.20518616
70	0xbce468d0	-0.02788201
71	0xbcea052f	-0.028566925
72	0x3d03d5dd	0.032186378
73	0xbcd0cbdd	-0.025487835
74	0xbe017c38	-0.12645042
75	0xbe19dec2	-0.15026382
76	0x3d56dffb	0.0524597
77	0x3d3094a3	0.0431105
78	0xbd9bfcf7	-0.076166086
79	0x3d609658	0.05483088
80	0xbd43e51e	-0.047825925
81	0xbdc28670	-0.09498298
82	0xbce7327a	-0.028222311
83	0xbd1321ca	-0.035920896
84	0xbdbfaec2	-0.09359504
85	0xbd39d29d	-0.045366872
86	0xbd671210	-0.05641371
87	0xbd189778	-0.037253827
88	0x3e75dfb4	0.24011117
89	0xbdb87a6c	-0.09007725
90	0x3d4c8ad7	0.049937095
91	0xbc8c3bc5	-0.017118344
92	0x3e3a10df	0.18170498
93	0xbd6ba253	-0.05752785
94	0xbd83696d	-0.06416593
95	0x3e83cec2	0.2574368
96	0xbbf45376	-0.0074562384
97	0xbd39112d	-0.045182396
98	0x370a2f5b	8.236467e-06
99	0xbdd11229	-0.10208542
100	0xbd9f75a0	-0.07786107
101	0xbdcdb941	-0.100451
102	0x3ca1ae7d	0.019736523
103	0xbdf9a8ad	-0.121903755
104	0xbd9a20c0	-0.07525778
105	0xbd790367	-0.06079426
106	0x3dd040b6	0.10168593
107	0x3db1d613	0.086834095
108	0x3b842821	0.004033104
109	0x3dedb34b	0.11606463
110	0xbdd11d0e	-0.1021062
111	0xbcce74c3	-0.02520216
112	0x3d063db9	0.032773707
113	0x3b6ef87e	0.003646403
114	0xbdfaa798	-0.12238997
115	0xbd3629e7	-0.044473555
116	0xbca39358	-0.01996772
117	0x3e6ff0d6	0.23431715
118	0x3d904845	0.07045034
119	0xbdc92dde	-0.098232016
120	0x3e45b844	0.19308573
121	0xbdec9271	-0.11551369
122	0x3d169a24	0.036768094
123	0x3e3b95b0	0.1831882
124	0xbc2afca6	-0.010436213
125	0xbd711ffa	-0.058868386
126	0xbc0a9470	-0.008458242
127	0x3da191f1	0.07889164

q_out.weight f4 [5, 128]
0	0x3e119440	0.14216709
1	0x3dcac012	0.09899916
2	0x3d9fe556	0.07807414
3	0x3d9fc8fd	0.07802007
4	0x3e5aada4	0.21355301
5	0x3db6d4f4	0.08927336
6	0x3ce5ba71	0.028043004
7	0xbdb1bf17	-0.086790256
8	0x3ba3c6e5	0.0049980753
9	0xbc9ad416	-0.018899959
10	0x3c0c4ba4	0.008562956
11	0xbd0c77d5	-0.03429397
12	0x3dc26ce8	0.094934285
13	0x3e4e646e	0.20155498
14	0x3d961fa6	0.07330255
15	0x3dd6f421	0.10495783
16	0xbd349bc9	-0.04409388
17	0xbcbb5262	-0.022866432
18	0xbe57414e	-0.21021006
19	0xbd65fd5e	-0.056149833
20	0x3da4ca73	0.080464266
21	0xbd935e1a	-0.07195683
22	0x3e170830	0.14749217
23	0x3d16bac6	0.036799215
24	0xbd691e51	-0.056913678
25	0x3df8edb9	0.12154717
26	0x3e5184d4	0.20460826
27	0xbe846dd8	-0.25865054
28	0xbdbde5b1	-0.09272326
29	0x3cd2e5fb	0.025744429
30	0xbd98fc25	-0.07469968
31	0xbce7db7f	-0.028302906
32	0x3dbdda63	0.092701696
33	0x3d58247a	0.05276916
34	0xbbff2681	-0.0077865724
35	0x3ca6c097	0.020355506
36	0x3e3d9124	0.18512398
37	0x3b2554a1	0.0025227445
38	0xbca2a170	-0.01985237
39	0xbd19b659	-0.037527416
40	0x3dbc5d47	0.09197479
41	0x3b4a6656	0.003088375
42	0xbd688bbc	-0.056773886
43	0xbdc4400e	-0.0958253
44	0x3dacf8f1	0.08445919
45	0x3d6b0213	0.057375025
46	0xbd634b6f	-0.05549186
47	0x3df94119	0.121706195
48	0x3e225069	0.15850987
49	0xbccc034e	-0.02490392
50	0xbd377ad7	-0.044794884
51	0x3e03876e	0.12844631
52	0x3d856689	0.06513698
53	0xbcc5e04a	-0.0241548
54	0x3d2e62ec	0.042574808
55	0xbe3bfe98	-0.18358839
56	0x3d8c39f1	0.06846989
57	0x3cfd1320	0.030892909
58	0x3e1eda4c	0.15512961
59	0x3cfdae77	0.03096698
60	0x3cf2e518	0.029650256
61	0x3c0ba894	0.008524079
62	0x3cef4b29	0.029210644
63	0xbb8b73e9	-0.004255761
64	0x3d7ff565	0.062489886
65	0x3dc7ffb8	0.09765571
66	0x3d7c81c3	0.061647188
67	0x3e40347d	0.18770023
68	0x3db7b352	0.089697495
69	0x3e68bf2b	0.22729175
70	0xbd6625aa	-0.056188263
71	0x3d1b3d58	0.0379003
72	0xbd0d1fdc	-0.03445421
73	0x3d43861b	0.047735315
74	0xbc49e6f9	-0.012323135
75	0xbcdb4e43	-0.026770717
76	0xbd47a2c8	-0.048739225
77	0x3e001867	0.12509309
78	0xbd156d71	-0.036481325
79	0xbb3c0c67	-0.0028693916
80	0x3d325c16	0.04354485
81	0xbd225da2	-0.039640076
82	0xbd829cef	-0.06377589
83	0x3d2470cc	0.040146634
84	0x3b65ebf3	0.0035083264
85	0x3c6e2c45	0.014536922
86	0xbb89169b	-0.004183603
87	0xbcf853f5	-0.030313471
88	0x3e1a8f92	0.1509383
89	0x3d29e739	0.041480277
90	0xbc5a5169	-0.013325074
91	0x3bfdbdd6	0.0077435775
92	0x3e2c7b1c	0.16843837
93	0x3df654f6	0.12027924
94	0xbbf632dc	-0.007513387
95	0x3e3ce928	0.18448317
96	0x3bd68ac0	0.006547302
97	0xb91c72c9	-0.0001492008
98	0xbd2289bb	-0.03968213
99	0x3d318013	0.04333503
100	0x3c74aaa1	0.014933259
101	0x3d35a72e	0.044348888
102	0x3d88aa58	0.066731155
103	0x3d3d96fb	0.046286564
104	0xbdd3ef2c	-0.10348353
105	0xbcb5bb30	-0.022183985
106	0x3e31092b	0.17288654
107	0x3e3c0cd8	0.18364275
108	0x3d6a23be	0.057162993
109	0x3e0202d5	0.12696393
110	0x3d24ab64	0.040202513
111	0xbc8c0d4e	-0.017096188
112	0x3cc912c4	0.024545081
113	0xbd3fcf07	-0.046828296
114	0x3dd56951	0.10420478
115	0x3b2ea6c3	0.002664969
116	0xbd939d7a	-0.07207771
117	0x3e30093c	0.17191023
118	0x3d772389	0.060336623
119	0xbdb8fd29	-0.090326615
120	0x3decdb70	0.11565292
121	0x3d21312d	0.03935354
122	0xbd3624a0	-0.044468522
123	0x3e1a9db1	0.15099217
124	0x3df35a37	0.118824415
125	0xbd7db3c4	-0.061939016
126	0x3d12b2d1	0.035815064
127	0x3de7d30f	0.11319553
128	0x3e164be5	0.14677389
129	0xbe2a546f	-0.16633771
130	0xbde3dc9f	-0.111260645
131	0xbe3567ee	-0.17715427
132	0x3e426470	0.18983626
133	0x3e0c0626	0.1367422
134	0x3cb4275c	0.021991424
135	0xbe5e8934	-0.21732026
136	0xbdbae817	-0.09126299
137	0xbd98ec83	-0.07466986
138	0xbbbc7131	-0.005750798
139	0x3d829f19	0.06378002
140	0x3dd6daea	0.10490973
141	0x3d829226	0.06375532
142	0x3dc63e76	0.09679882
143	0xbe2e686d	-0.17032023
144	0xbb3df4ee	-0.00289851
145	0xbc57637d	-0.013146278
146	0xbf070a06	-0.5274967
147	0x3daf004e	0.0854498
148	0xbe36a57b	-0.17836563
149	0x3c3a793e	0.011381445
150	0x3d0f219b	0.034944158
151	0x3cdbb5ae	0.02682003
152	0x3d30fedf	0.043211814
153	0xbe468e9d	-0.1939034
154	0x3e552cd8	0.20817888
155	0xbe60b885	-0.21945389
156	0xbe084e4b	-0.13311116
157	0x3e15bd11	0.14622904
158	0x3c54f8b2	0.012998747
159	0x3d08d4a3	0.03340591
160	0xbe2272ef	-0.15864156
161	0xbdbc4c3c	-0.09194228
162	0xbe1a9303	-0.15095143
163	0xbe36a371	-0.17835785
164	0x3e1ad2a3	0.15119414
165	0xbe21c487	-0.15797625
166	0xbe27747a	-0.16353026
167	0xbe27b35e	-0.16377017
168	0x3e2f8792	0.1714156
169	0xbe0642bf	-0.13111399
170	0xbcdacc48	-0.026708737
171	0x3c8a1e4e	0.016860154
172	0xbe0bfc87	-0.1367055
173	0xbe12802e	-0.14306709
174	0x3d2c5308	0.042071372
175	0x3e71c511	0.23610331
176	0x3e172d52	0.14763382
177	0x3d09170b	0.03346924
178	0x3d26f0b5	0.0407569
179	0xbe24de8b	-0.16100518
180	0xbe29666d	-0.16542979
181	0x3d5220ae	0.051300697
182	0xbdc4e529	-0.09614021
183	0xbe382c1f	-0.17985581
184	0xbd161b5c	-0.036647186
185	0xbdf10987	-0.11769395
186	0x3d025369	0.031817827
187	0x3e7159cf	0.23569416
188	0xbd7e9240	-0.062151194
189	0xbe06fb2b	-0.1318175
190	0xbe09594c	-0.1341297
191	0xbbe38693	-0.0069435327
192	0x3e4ef44c	0.2021038
193	0xbe094b01	-0.13407518
194	0x3d5221eb	0.051301878
195	0xbe1e7d7d	-0.15477557
196	0x3e81617a	0.2526968
197	0x3e8a28de	0.26984304
198	0x3d4c5669	0.049887095
199	0x3d3635af	0.04448479
200	0x3cfb253c	0.030657403
201	0x3ca9bad1	0.020718964
202	0xbe1e6437	-0.15467916
203	0xbdc086b0	-0.094006896
204	0x3d83cc62	0.06435467
205	0x3e139a29	0.14414276
206	0x3c1a1468	0.009404279
207	0xbe1b9951	-0.15195204
208	0xbe0f6267	-0.14002381
209	0x3d6a51d8	0.05720696
210	0xbd8e049f	-0.06934475
211	0xbe27af5b	-0.16375487
212	0x3e16bbdd	0.14720102
213	0x3ccd4bae	0.025060501
214	0x3d991459	0.07474584
215	0xbd8ea12a	-0.06964333
216	0x3e42704b	0.18988149
217	0x3d80a88a	0.06282146
218	0x3c85d9ad	0.016339147
219	0xba00b006	-0.0004909042
220	0x3d1bf188	0.03807214
221	0x3de33f41	0.11096049
222	0xbdcec455	-0.10096041
223	0x3e1569a5	0.14591081
224	0xbe115b41	-0.14194967
225	0xbdc7979b	-0.09745713
226	0x3c2e948e	0.010655535
227	0xbe21a1a3	-0.15784316
228	0x3d823f2e	0.06359707
229	0xbdf21350	-0.1182009
230	0xbe22a732	-0.15884092
231	0xbe5c67b3	-0.21523933
232	0x3d816381	0.06317807
233	0x3c3dce4d	0.0115848305
234	0x3c0b8823	0.008516344
235	0xbd98e1fe	-0.074649796
236	0xbdd44c2c	-0.10366091
237	0x3e4a77c1	0.19772245
238	0xbe5791ea	-0.21051756
239	0x3c99c5bd	0.018771047
240	0x3d9bf1e3	0.076144956
241	0xbdda5b37	-0.10661929
242	0xbe1691d3	-0.14704065
243	0x3d915c8c	0.0709773
244	0x3c9f8952	0.01947466
245	0x3e047c08	0.12937939
246	0x3d7d65d9	0.061864708
247	0xbc1d2b0c	-0.009592783
248	0x3e291505	0.16511925
249	0xbdc66b81	-0.096884735
250	0x3d941c37	0.07231944
251	0x3e112a93	0.14176397
252	0xbe0f9924	-0.14023262
253	0x3ccf4975	0.025303582
254	0xbe17a4a4	-0.14808899
255	0x3d00e290	0.031466067

q_out.bias f4 [5]
0	0x3cfad64d	0.030619765
1	0x3dcc09a3	0.099627756
2	0x3d84dfd9	0.06488008
3	0x3df0a326	0.11749868
4	0x3db56c01	0.08858491
