models/First_Model/q_ind_agent_1.pt (torch, 108573 bytes, 6 tensors)

fc1.weight f4 [128, 71]
00000000: 79ab 95bc f449 9f3d cd24 013e 1a39 cebe
00000010: 7383 143e b209 c0be 7312 f5bd f0cf ecbd
00000020: ff62 f7bd fee2 abbd d6f9 e7bc fbba 15bd
00000030: 0f9f e1bd a0bb b9be 4868 89bc 3dee 93bd
00000040: 52f5 4d3c bb38 17be a8d1 5ebd a3f8 40bd
00000050: ae01 4cbe fc94 42bd 34f3 5abe eb04 e8bd
00000060: 5d7b e3bd 0522 29be 9847 393c 0ab6 d2be
00000070: 0787 0cbe c8e6 72bd 1669 2ebe e6aa 5e3d
00000080: 536a 8ebd af37 82bd 6827 18be 13ee bb3d
00000090: 59ae 04bc 3be5 7fbe 67d9 ce3d ac7b aebe
000000a0: 1d7a 0dbe eb17 133e bc9b dd3d e335 70be
000000b0: 98c2 dabd 1fc5 b8bc bbbc a8bd e0d1 26be
000000c0: 7b1c 51be f664 2cbe eedc c7bc fdb7 45bd
000000d0: 491e ed3d 6101 39bc a7f0 0a3d ef70 c2bc
000000e0: db73 b43d d9dc 24be 0e2e 073d 879f 8fbd
000000f0: 4092 1f3c 4cd1 17bd 040a 2fbe 40e3 cfbd
00000100: ff9a babd 59c3 10be ed96 513d a8ac 423d
00000110: abbc 67bd 9a36 11be 7d31 87bc f972 cfbc
00000120: 291e 07be c50d 06bc 08fc dcbd 4981 143d
00000130: 5811 16bd 10cf cf3c 2946 7e3c 7c5b 1cbc
00000140: 151c 32be 7812 f0bc 28a9 d33d 513a e8bd
00000150: d9b5 b53d 063e 503d f902 57bc 84a2 0abe
00000160: 338d 61bc 88b1 98bd b57b fb3d 27d3 11bd
00000170: 9f78 913d feff 18bd 2a05 8bbd ca57 133c
00000180: 6733 7d3d 53a5 293c b156 cdbd 0d5a 963d
00000190: 89ef ddbd 7d50 8ebd a3ec 9d3d 29c2 69bd
000001a0: 966c cf3d 614a 763d 972f cebd 1518 cebd
000001b0: 1012 b33d 75fc ecbd 8158 c0bd 47cd 5c3c
000001c0: e17c 8f3d 46eb a9bc ed5f cb3d 2b03 8e3d
000001d0: 56b3 dcbd ef23 90bd 244b b8bc 30de 793d
000001e0: 4eb5 e93b ebb0 683d 2e54 e5bc 7f5b f7bc
000001f0: 74c0 303d ded8 f0bd edc6 b7bd 860d b6bd
00000200: ae86 efbd ca10 93bd d4d4 c0bd c731 003c
00000210: 5d01 943d fca9 e5bd 4dac 5b3d 8328 26bd
00000220: 0388 09bd 41d9 a1bd ae3b 2b3c c4f5 9ebd
00000230: 9ccc 303c 571e 603c 914c e8be 41ba 02bd
00000240: c8ee bbba bb1e a6be 1529 b9be dcba 993e
00000250: 47ee aebe 110a a6bc 1d4c 31bd 0a7e 9b3d
00000260: a3d8 413d 0bb6 763e e892 ca3d 5e7b 0bbe
00000270: 1d93 c2bb bc62 b13d 348c b43d e9fc ecbd
00000280: 6341 593d 04f2 bb3d 0b2c 7ebe c048 083e
00000290: 7e99 b03c 07fe 93bd fd6e 96bd 9e6a 123e
000002a0: 9f59 71bc ab42 883e 7561 c4bd 215e ae3c
000002b0: 5c8f 52bd 97b8 cebd 6535 6e3d e8fb 123e
000002c0: d930 21bd 2b8b c5bd fc69 1c3d a0c5 6fbe
000002d0: 4496 79be 330d 673e b8c6 5dbe 64be b3bd
000002e0: 59a0 483c efc9 c4bd 8e55 283d efde 0fbe
000002f0: 25e3 6fbd 0cce 10be 5163 e13d bb28 ea3d
00000300: b828 e3bc 8af6 893d b9b7 5bbd cfa7 a8bd
00000310: 39da 17bd be8e 67be 6ab3 43bd 06d0 123d
00000320: b447 acbb 578c b73d 29db 0a3c 3a1c 133d
00000330: 8f9e 52be e9bd 61bd f8ea fdbc 93e2 01be
00000340: e03c c1bd c622 62bc fc19 abbd f69e b63d
00000350: 3992 42be c553 02bc 14eb c13d a88b 173e
00000360: 5295 bdbe 5e55 493e 6891 abbe 48e3 ed3d
00000370: 1203 a03c 6c15 f7bd 6ce3 74bb 4fa0 47bd
00000380: 7668 513d d883 92bd c52d 3cbd 6b91 0cbe
00000390: ceb9 d13c e368 eebd f484 30be d406 ffbb
000003a0: 334f 0fbe 1a76 e5be 7a2f 2c3d 3bbe 69be
000003b0: 981d d3bc 14de c9bd bead 98bd a06f 82bd
000003c0: b6ff 01bf ddc5 bb3c 9783 96bd 1c09 b4bd
000003d0: 7339 36bd 7f96 9fbd 7274 41bd 99ca 9fbd
000003e0: 63e3 9c3d ebad 48bd 8bb6 ebbe 0e1f 503e
000003f0: db80 90be ed97 f23d 6eb4 353d 4113 c53d
-0.018270241 0.07777777 0.12611695 -0.4027794 0.14503269 -0.37507397 -0.119664095 -0.115630984
-0.12079429 -0.08392905 -0.028317373 -0.03655527 -0.11016666 -0.3627596 -0.016773358 -0.07223175
0.012570696 -0.14767735 -0.054399163 -0.04711212 -0.19922516 -0.047505364 -0.21381837 -0.11329063
-0.11107514 -0.16516884 0.011308573 -0.4115451 -0.13723384 -0.05930212 -0.17032275 0.0543622
-0.069538735 -0.06358277 -0.14858782 0.091762684 -0.008098208 -0.24989788 0.1010006 -0.3407873
-0.13816114 0.14364593 0.108207196 -0.23458056 -0.10681647 -0.022554932 -0.082391225 -0.16290998
-0.2042102 -0.16835389 -0.02439734 -0.048271168 0.11578042 -0.011291833 0.03392091 -0.023735492
0.0881116 -0.16099872 0.033002906 -0.07012849 0.009739459 -0.037064835 -0.17093664 -0.101507664
-0.091115944 -0.14137019 0.051169325 0.04752794 -0.056576412 -0.14180985 -0.01650309 -0.025323378
-0.13195099 -0.008181994 -0.10790259 0.03625611 -0.036637634 0.02536729 0.015519657 -0.009543296
-0.17393525 -0.029305682 0.10334998 -0.11339248 0.08872575 0.0508404 -0.013123267 -0.13538557
-0.013766575 -0.074557364 0.122794546 -0.03560176 0.07103085 -0.03735351 -0.06788094 0.0089930985
0.0618166 0.010354358 -0.10026301 0.073413946 -0.10836703 -0.06948946 0.077111505 -0.05706993
0.10128133 0.060129527 -0.10067671 -0.10063187 0.087436795 -0.1157159 -0.09391881 0.013476676
0.07006241 -0.02074207 0.09930406 0.06934198 -0.10776393 -0.07038104 -0.022496767 0.06100291
0.007132209 0.056809347 -0.027994242 -0.030194996 0.043152288 -0.11760114 -0.08973489 -0.08889298
-0.1169561 -0.07180937 -0.09415594 0.007824368 0.072268225 -0.112140626 0.053631116 -0.04056598
-0.033576977 -0.07902766 0.01045124 -0.0776172 0.01079097 0.013679109 -0.45370916 -0.031915907
-0.001433813 -0.3244532 -0.36164156 0.30025375 -0.34166166 -0.020268472 -0.043285478 0.075923994
0.04732574 0.24092881 0.098913014 -0.1362128 -0.0059379474 0.0866141 0.08815804 -0.11571676
0.053040873 0.0917702 -0.24821489 0.13309002 0.021557566 -0.07226186 -0.07345388 0.14298484
-0.01473084 0.26613364 -0.09588901 0.021285119 -0.05140625 -0.100938015 0.05815639 0.14353907
-0.039353225 -0.09645685 0.038187012 -0.23415232 -0.24373728 0.22563629 -0.21657836 -0.087765485
0.012245261 -0.09608828 0.041097216 -0.14049886 -0.05856623 -0.141411 0.11005271 0.1143355
-0.027729377 0.06736477 -0.05364201 -0.08235132 -0.037073348 -0.22613046 -0.047778524 0.035842918
-0.005257571 0.089623146 0.008475103 0.03591559 -0.20568298 -0.055112753 -0.03099583 -0.12684087
-0.09435439 -0.013802236 -0.083545655 0.08917038 -0.19001092 -0.0079545425 0.09468666 0.14799368
-0.37027985 0.19661471 -0.33509374 0.11615616 0.019532714 -0.12064633 -0.0037367 -0.048736867
0.051125012 -0.071540534 -0.045942087 -0.13727348 0.025601294 -0.11641099 -0.17238218 -0.0077827964
-0.13995056 -0.44816667 0.042037465 -0.22826473 -0.025770947 -0.09856811 -0.07455014 -0.06368947
-0.5078081 0.022921497 -0.073493175 -0.087908 -0.04448838 -0.07792377 -0.04723019 -0.07802314
0.07660558 -0.048993986 -0.46037707 0.20324346 -0.2822331 0.11845384 0.044361524 0.09622813

fc1.bias f4 [128]
00000000: cf22 16bc 7090 3fbc 121c b0bd 9342 1fbe
00000010: 8872 afbd d023 c53d c58b 98bd efb0 473b
00000020: f8e4 a03d 3933 f5bd dec3 b0bd 582d 2ebd
00000030: 6f40 603d 08f2 10be 06b4 95ba 0acc f73d
00000040: d1a6 28be dd24 853d 6de9 3ebd 2e09 af3d
00000050: abb6 e53d e08d c8bd 584e b63d d5f2 9ebd
00000060: a289 f5bb 3ac5 a2bd 2ead eabd 5868 7a3c
00000070: 7299 553d 6d99 103d 4f12 02be 98b5 5ebd
00000080: f244 b0bb 9885 90bb aa63 fabd 6d82 b6bd
00000090: 75ff de3c 62c5 dbbd 7068 0cbe 9098 e43d
000000a0: 46c8 14be 1780 adbd 2342 623d 5a6e 873d
000000b0: 1492 7b3d 08b7 c0bd 9327 b3bd c421 533e
000000c0: c644 be3a d58e 4cbd 3d4a 60bc 32a9 fdbd
000000d0: 8ad9 9fbd e44d 0d3e 5caf 1ebe 414b 9dbc
000000e0: ede5 3abe 135f e53d e1d2 8bbd ac77 fdbd
000000f0: 60ea 4b3d d2b6 30be 3c65 22bd 8963 71bd
00000100: 938f 613b 900b e7bc 9103 8bbd cd75 d7bd
00000110: 4911 0aba d971 bebd 2bea 80bc 2ac3 473d
00000120: 3d0f a5bd 72de 70bd c8dd c33c ce07 a13d
00000130: 831c d63c d783 e8bd da09 1a3d b70b 1cbe
00000140: b043 a3bd 0210 14bd a847 6fbd 4241 3e3c
00000150: da30 cbbc d95c 05be 598d 85bc 8f3e 8bbd
00000160: 8442 ba3b ef38 453d aeae fdbd 9c0f a23d
00000170: 334d b83d ccb3 313d a6d2 8cbd 6054 f43d
00000180: 8742 183e 9108 31bd acb5 e4bd 6f80 5f3b
00000190: db41 763d fd38 f4bc 78a4 dfbd 6e0e 33bd
000001a0: 8b10 7cbd 56ea 1ebc 55b6 c93a fac4 7fbd
000001b0: 05b9 8fbd 66f5 1bbd 1ae3 f23a 240a 82bd
000001c0: ba1c a1bd bae1 673d 3d3e ffbd 6a0c 08be
000001d0: 157d c4bd 2273 e33c b542 07be 23ce 93bc
000001e0: d8f5 71bd 6921 f2bc 3b50 ea3d 22b1 373e
000001f0: 2ec3 d63c 78d8 0dbc 4617 95bd 6b1c 86bd
-0.009163572 -0.011692151 -0.08599104 -0.1555274 -0.08566767 0.09625971 -0.07448534 0.003047045
0.07856172 -0.119726606 -0.08631109 -0.042523712 0.05474895 -0.14154828 -0.0011421449 0.12099464
-0.16469885 0.06501172 -0.04660933 0.08546673 0.11216482 -0.097926855 0.08901662 -0.0776116
-0.0074932138 -0.07947774 -0.11458813 0.015283667 0.05214829 0.03530257 -0.12702297 -0.0543724
-0.0053793127 -0.004410457 -0.12226041 -0.089115955 0.02722142 -0.10731007 -0.13711715 0.111619115
-0.14529523 -0.08471697 0.055238854 0.06612845 0.061418608 -0.094099104 -0.087477826 0.2061835
0.0014516346 -0.049940903 -0.013689575 -0.12385787 -0.07805164 0.13799244 -0.15496582 -0.019200923
-0.18251772 0.111997746 -0.06827331 -0.12376341 0.049784064 -0.1725724 -0.039647326 -0.058932815
0.0034417852 -0.028203756 -0.067877896 -0.105205156 -0.0005266858 -0.092990585 -0.01573666 0.048770107
-0.08059547 -0.05880589 0.023909464 0.07862817 0.026136642 -0.113532715 0.03760705 -0.15238844
-0.07971895 -0.03614808 -0.058417946 0.011612238 -0.024803568 -0.130237 -0.016302751 -0.067990415
0.005684199 0.04815 -0.12386833 0.079131335 0.089990996 0.04338436 -0.068761155 0.11930156
0.14869128 -0.04322106 -0.11167464 0.0034103652 0.0601214 -0.02981233 -0.10920042 -0.043714933
-0.061539214 -0.009699425 0.0015389422 -0.06244371 -0.070177115 -0.038075827 0.0018530816 -0.063495904
-0.07866807 0.056611754 -0.12463043 -0.13285986 -0.0959417 0.02776486 -0.1320904 -0.01804263
-0.059072345 -0.029556947 0.11441084 0.17938665 0.026216116 -0.008657567 -0.0727983 -0.06548389

fc2.weight f4 [128, 128]
00000000: 480f 8a3d 8c9e 42bc 49ba 21bc b395 193d
00000010: f41f d7bd 1217 debd b6bd 36bd b268 453d
00000020: dc9d 153c efb8 8bbc 20b3 0dbc f287 91bd
00000030: 4412 74bd 7bd9 613d a016 a4bd 55be dcbd
00000040: 5ed4 603d 96e3 703d 2dd2 6b3d 6df1 e5bc
00000050: 2831 273c 4b25 97bd aa28 963a 609b 87bd
00000060: 07e1 013d c3a3 693c 5cc1 1fbb a2e3 adbd
00000070: 9e09 d23d 586b 6cbd a11a 2c3c 4e08 7e3d
00000080: 843e 903d 44f7 c7bb 4734 a1bd 26c3 d8bd
00000090: b9a3 d53a e5a5 483d 9e78 81bd 5acf f6bc
000000a0: e2b7 d83d 2311 753c 8bc8 4a3d d3dc 823d
000000b0: be65 053d f969 c0bd b1dd 5ebb c82d a5bd
000000c0: 5806 3d3d e0f0 d1bb 5548 17bd f2c4 823d
000000d0: a578 ec3c 96e9 a7bd 378a 393d da1b 8bbd
000000e0: 50bc 743d 2b86 97bd 08a8 343d 3efa 5bbd
000000f0: 91a1 2a3c cc1b 82bd 889a 873d 7cd7 59bd
00000100: dd45 383c 99b4 113d c7ba 0bb9 999e b9bc
00000110: c6d5 43bd fd18 d8bc 4199 863c 0a1c 8fbd
00000120: 2d33 fb3b bffa 6fbd 2ac1 afbd 412c a6bd
00000130: 60eb 253c 0c06 3bbd f2a2 4abd 7f96 693d
00000140: 3ebd afbd 2fe1 60bd 69a2 5abd 4fd1 d1bc
00000150: 8fc0 bb3b f988 d1bc 89bc 503c 1507 1ebd
00000160: 2c66 d7bd 2a77 2bbd 6638 853d b8c1 473d
00000170: d867 8cbd 1837 bcbc 8cdf a43d 970f 1d3c
00000180: 7d7d 45bd 7212 493c ef98 2dbd 0aa4 e9bd
00000190: 5cf5 21bd 738e 013e 0d77 b13d 73fc 03bd
000001a0: 655b 423d 2d99 d73c 7b9a e3bd ab40 6f3d
000001b0: f987 d3bc fe5d 0cbd ea83 193d ae81 963d
000001c0: 33df cdbd d98e 0cbd 584a 89bd 11b7 5d3d
000001d0: 6142 8d3d 52d7 ec3c af50 e6bc 8d3a 1c3d
000001e0: 0019 94bd 7744 a6bd 7a82 0ebe aaab 3b3d
000001f0: 5947 84bd 8077 b5bc 0e1d e73d 48e8 343d
00000200: 8539 2a3e c21e b0bd 9e2b fc3d 83ad a03d
00000210: 4d26 83bd e9ca 15bb bbb6 053e fb7f d53d
00000220: d6a8 e43c 5d62 a6bd f77d aabc c4c0 ae3d
00000230: 09d8 b8bd 3165 983d ab9a 343e da8e f53c
00000240: 7d2b 64bd 7d96 66be b70b 2dbe 8714 48bd
00000250: 01f7 51bd 90d2 b33c d85b 0d3d 83d8 b13c
00000260: 205d 3a3d b84d b9bd e3ec c7bc ff37 91bd
00000270: 0a15 4bbe c1fc 183e f4ae 4b3d a1d3 153e
00000280: f23f 7dbd dcdb 623d e437 093e 88d4 353c
00000290: cdd6 e33d e4a6 843d 9066 69bc 3638 9fbd
000002a0: 8235 c5bc 5727 e03d 0f59 453c 3da8 0d3e
000002b0: 5c59 97bc ebad 023e 2afb c53c 4a4a 1c3d
000002c0: a4a4 253d a3de 023e 2d25 24be abfb a73e
000002d0: d085 853d d9fb 1dbd 3a8a 61bd 1ad6 593c
000002e0: 209e 543e c592 cf3d 0207 25be 83c4 6f3d
000002f0: b55d 323d 6616 1d3e 211e d7bb db8a 853d
00000300: a77a 82be 0c5e 0a3e 4c96 4abd 20e7 063e
00000310: 11b0 b6bc 6835 bb3d 486d 73be 0238 833c
00000320: 1041 abbc bf08 733d 1101 89bd 6b52 933d
00000330: a83a 8ebd 6b38 8abe 36b5 a8bd 415d 00bd
00000340: 5f58 2f3b 08bf 673d 92bb 373c 575d 453d
00000350: f8c3 b63d b6a9 833d 7be3 903d 1f1b 2e3e
00000360: a9a3 bb3e 5c72 f7bc 6ca7 c03d 130c d73c
00000370: 8588 523e 027d 053d 9cfb 8f3b 41e8 5ebe
00000380: 334c 92bc a1ce 5ebd 5086 48bd 4e20 91bc
00000390: b699 febc 2dc3 473d 501a f53d b711 853d
000003a0: 846d 8d3d c621 79bd a8a5 dbbd 5eb7 b13d
000003b0: 1ced 86be 3cde d2bd 3e5d 103d 852a 463d
000003c0: 31ef 3e3e 79c2 91be b585 69bd 3e78 693c
000003d0: 0c45 c73d a0e5 83ba f8f4 78bd 1318 1ebe
000003e0: 0923 19bc 763c 7d3d fa05 54bd f047 453d
000003f0: 495b d43d caf4 d7bb 65d2 ce3d 0d09 643d
0.06741196 -0.011878621 -0.009871074 0.03749628 -0.105041414 -0.10844244 -0.044614516 0.04819555
0.009131875 -0.017055957 -0.008648664 -0.07106008 -0.059587732 0.055139046 -0.08012128 -0.107784905
0.05489003 0.058810793 0.057573486 -0.028069222 0.010204591 -0.0738016 0.0011456211 -0.06621432
0.031708743 0.014260235 -0.0024376726 -0.08490683 0.102557406 -0.05771956 0.010504396 0.06201964
0.07043174 -0.0061024744 -0.07871299 -0.105840966 0.0016299404 0.048986334 -0.06321834 -0.03012817
0.10581948 0.014957699 0.04950766 0.06389775 0.032567732 -0.09395213 -0.003400665 -0.08065373
0.046148628 -0.0064068884 -0.036934216 0.063852206 0.028866122 -0.0819885 0.045297828 -0.06792422
0.0597499 -0.073986374 0.04410556 -0.053705446 0.010414497 -0.06352958 0.06621271 -0.053184018
0.011247125 0.035572622 -0.00013325653 -0.022658633 -0.047811292 -0.026379103 0.016430499 -0.0698777
0.0076660127 -0.05858874 -0.08581765 -0.081139095 0.010126919 -0.045660064 -0.049471803 0.05702829
-0.08581017 -0.05490225 -0.053377543 -0.025612501 0.005729742 -0.025578009 0.012740263 -0.038580973
-0.105175346 -0.04186169 0.06504898 0.04876873 -0.06855744 -0.02297549 0.08050451 0.009586236
-0.048215378 0.012272464 -0.042382177 -0.11408241 -0.039540634 0.12651996 0.08665285 -0.032223176
0.047450442 0.026318157 -0.11113449 0.05841128 -0.025821673 -0.034269325 0.03747932 0.07348953
-0.100523375 -0.034315918 -0.06703633 0.054129664 0.068974264 0.028911266 -0.028114645 0.038141776
-0.07231331 -0.081185274 -0.1391696 0.04581801 -0.06458921 -0.022151709 0.112848386 0.044166833
0.16623504 -0.085996166 0.12313007 0.07845595 -0.0640379 -0.002285654 0.13057987 0.10424801
0.027912538 -0.0812423 -0.020812018 0.08532861 -0.090255804 0.07441176 0.17637126 0.029975343
-0.055705536 -0.22518344 -0.16899 -0.0488477 -0.051260952 0.02195099 0.034511417 0.021709686
0.045498967 -0.09048027 -0.024404949 -0.070907585 -0.19832245 0.14940168 0.049727395 0.14631511
-0.06182856 0.055385455 0.13400227 0.011098035 0.111249544 0.06477144 -0.014245644 -0.07774393
-0.024073366 0.109450035 0.012045159 0.13833709 -0.018475227 0.12761657 0.024167616 0.038156785
0.040440217 0.12780242 -0.16029806 0.32809195 0.06519663 -0.03857026 -0.055063464 0.013295675
0.20763445 0.10135416 -0.16115955 0.058537018 0.043546397 0.15340576 -0.006564871 0.06520625
-0.254842 0.13512439 -0.04945974 0.13174105 -0.022300752 0.09141046 -0.23772156 0.016017918
-0.020905048 0.059334513 -0.066896565 0.07193454 -0.069447815 -0.26996168 -0.08237688 -0.031338934
0.0026755554 0.056578666 0.011214154 0.04818472 0.08924097 0.06428854 0.070746385 0.17002533
0.366483 -0.030205898 0.09406933 0.026250875 0.2055989 0.03258992 0.004394008 -0.21768285
-0.0178586 -0.054396275 -0.048956215 -0.0177156 -0.031079154 0.04877012 0.11967909 0.064975195
0.06905654 -0.060823224 -0.10724956 0.08677553 -0.26352775 -0.10296294 0.035245173 0.048380394
0.18645932 -0.28468683 -0.05701228 0.014249859 0.097299665 -0.001006294 -0.060780495 -0.15438871
-0.009346732 0.06182524 -0.051763512 0.048164308 0.10368974 -0.0065904604 0.10098723 0.055672694

fc2.bias f4 [128]
00000000: 366c 5abd b7cb 0bbe 59e0 12be 71f9 c93d
00000010: 25dd c73d 0f76 e03d c79b 753e 8f77 05be
00000020: 9589 b2bd 1757 19be 116d 99bd 2cd3 36bd
00000030: 2d3e 92bd 23c0 fcbd 9f27 88bd 32b5 723c
00000040: 68bc 65bd 5782 293c 0594 04be 18f3 263e
00000050: bd57 573d ce27 c5bc 7103 9cbd 8b61 bbbd
00000060: 7a41 d2bc 6152 013d 3ddb 13be f466 dcbd
00000070: b700 d5bd 6825 62bd 6e9d ccbd caaa 5abd
00000080: 0182 5cbb 4159 65bd 9c5b 96bd 2ecc 293d
00000090: b2ea b53d a063 5cbd 28c3 ab3a e5c9 c0bd
000000a0: ab12 2cbd cf51 7ebd 0f2a aebd 1efa 4a3e
000000b0: 7737 e43c f1d7 a6bd 008f 0b3e 98f6 1abd
000000c0: bc0e ec3c b022 463e 4aa9 4bbd 25a4 463d
000000d0: 0d35 71bd 8b8a adbd d158 4b3c 8040 c1bd
000000e0: ef93 793c a687 bdbd b0c8 a0bd 1d78 553d
000000f0: 5076 c13d c0f7 a13d 22da 3fbd d84f 81bc
00000100: 61aa 983d f32e 19bd 71e5 d3bd 41bc 6bbd
00000110: 1f86 063e 2a36 27bd ba8c 183e 8769 c03d
00000120: af2d 36bd fbfc 1cbd 3922 babd d06f a5bb
00000130: 934c 50bd 6629 9ebd 1249 96bd 6c38 f4bc
00000140: a93f 8b3d d278 013e 4a91 a3bd dd9c bd3d
00000150: 0943 b3bd a070 ffbd 938c dbbd 55f0 c33d
00000160: 9bed a0bd 3d11 a0bc 8ed5 18bd 4d0b eebd
00000170: e4d0 04be a843 c1bc c69a dcbd 2e50 fdbc
00000180: ac9f 10bd 656c 2e3e d9c3 b7bd 26f0 ecbc
00000190: a2af 0c3c ebbe 3c3e 95cb 16be 289e 4b3b
000001a0: 6e0e 8cbd 382b c4bd 3638 bd3d 1041 84bd
000001b0: 3272 1d3d 7caa 50bd 9125 e5bd c590 233e
000001c0: 644c 013e cc7d 88bd bcb3 8a3c 55e8 ffbc
000001d0: de4a 83bc 714f d4bd 196e 10be 58d1 c2bd
000001e0: 9f09 d3bd 2f48 5dbd 60b6 8fbd 77fd 233c
000001f0: 15b6 32bd d190 f5bd eb72 73bc fd32 8bbc
-0.053325854 -0.1365193 -0.14343394 0.0986203 0.09758977 0.10960018 0.23985206 -0.13033889
-0.08717648 -0.14974628 -0.07491506 -0.044634983 -0.07140765 -0.12341335 -0.06648182 0.014813708
-0.05608788 0.010346017 -0.1294709 0.1630367 0.052573908 -0.024066832 -0.07617844 -0.09149464
-0.025665987 0.031572703 -0.14439102 -0.10761824 -0.10400527 -0.055211455 -0.09990965 -0.053385533
-0.0033646824 -0.055993322 -0.07341692 0.041454487 0.08882655 -0.053805947 0.0013104426 -0.09413508
-0.04200999 -0.062089738 -0.08504116 0.19821975 0.027858479 -0.08146656 0.13628769 -0.037832826
0.02881562 0.1934917 -0.049721994 0.048496384 -0.058888484 -0.084736906 0.012411312 -0.094361305
0.015233024 -0.092543885 -0.07850778 0.052116502 0.094463944 0.07908583 -0.046838887 -0.015785143
0.07454372 -0.03739829 -0.10346497 -0.05755258 0.131371 -0.04082314 0.14897433 0.09395128
-0.04447716 -0.0383272 -0.09088559 -0.0050487295 -0.050854277 -0.0772274 -0.07338156 -0.02981206
0.067992516 0.12643746 -0.07986696 0.09258435 -0.0875302 -0.124726534 -0.10720172 0.09567324
-0.0785782 -0.01953947 -0.037313037 -0.11623249 -0.1297031 -0.023591831 -0.10771708 -0.030922022
-0.035308525 0.17033537 -0.08972902 -0.028923105 0.008586796 0.18432204 -0.14726098 0.003106961
-0.0683869 -0.09578556 0.09239237 -0.06457722 0.038438983 -0.050943837 -0.11188806 0.15973194
0.12626797 -0.06664619 0.016931407 -0.031238714 -0.01602691 -0.10366715 -0.14104499 -0.095125854
-0.103045695 -0.054023918 -0.07017207 0.010009161 -0.04363068 -0.11990512 -0.014858942 -0.016992087

q_out.weight f4 [5, 128]
00000000: a257 d23d 21b0 383d a833 43bc cf87 513e
00000010: ce26 403e 8d99 f33d e257 273e 9d2b b23d
00000020: 4821 43be 8170 a33c 02ec 003d ec81 833d
00000030: 4794 4e3e add8 4b3e a287 803d dede dd3a
00000040: a780 963c d2bb 02bd 3250 08bd a094 083e
00000050: c6ed cd3b 7214 9b3d 930d ac3d 30e9 cf3d
00000060: e9c1 853c 6c3b d13d bfa3 ccbc 7d1a 5b3d
00000070: c827 b03d 3c1e 5e3d 6940 0e3d c78b 1a3b
00000080: 8c9b fb3c 5b43 32bd 5b33 82ba 6846 643d
00000090: 7be0 053e efda d43b c9ce 88bd 39b7 ae3d
000000a0: 45e0 8e3d 6d55 4ebd 5092 b13d 05ce ff3d
000000b0: b824 a23c 702d 7fbd 0521 273e ac53 383c
000000c0: ebf2 52bc c8e3 4d3e 3fd5 203e 2061 65bd
000000d0: 58c8 a3bd 089e b13d 7b58 c43d 3bce 0bbc
000000e0: 1b13 223c 2abe b43d 0aed aabd 0ba7 62bd
000000f0: b2eb 823b 70ca 1f3e d0e9 39be cc83 643b
00000100: 7bb5 923d d5f9 a4bc 44a9 8c3c 135e f73d
00000110: dfa5 d83d 5469 afbc dfa7 333e b5e0 9d3d
00000120: 36d6 91bd 0edd 963d fead 95bc 5551 1d3d
00000130: aa10 8439 fb5d 4fbd 1d77 f23c 7213 083e
00000140: 353f 86bd 1dd0 cb3d d521 733d 214b 113e
00000150: 9d52 0cbe 0bd0 08be df16 2c3c b58b bf3d
00000160: cd1e b0bd 3d0c 8a3d 0e89 a63d 6b30 cb3b
00000170: 66b2 62bd 6d64 b9bd 0d60 963d 18da 283d
00000180: 449e 5ebd ad4a 583e 1590 30bd 4228 db3d
00000190: e46d 2cbc 0b63 3b3e f107 0fbe 5cb0 553d
000001a0: 77c7 4ebd 2983 03bd 3c5c 793d b066 ce3d
000001b0: 3974 753d 06f2 f13d 40ae dbbd c2ae 7cbe
000001c0: 6d77 253d 01fc 3f3a 477b b03c 6326 ef3d
000001d0: 1cb3 d1bb 9fcb 2abd 842d 2ebd 32b3 253c
000001e0: 44bf 34bb e574 20bd f193 7bbd 51ee e13d
000001f0: 293c 873d c53e cd3b d4e3 f23c c157 7cbd
00000200: 2251 943c 0b3b d1bd ec7d 3bbd a003 2c3e
00000210: df65 423e 26de 4a3e ae0b 293e 13e1 603d
00000220: 577d 4f3d 817e 67be 12b7 0a3b 0c66 02bd
00000230: 1391 44be e0b2 a13b 6c61 cdbd 5ab2 04be
00000240: 0f46 1fbe 8488 46bd 1832 debd 88cc fc3d
00000250: 10d5 11be 9244 4e3d b277 29be 5580 05be
00000260: 1f63 dabd 1a62 04be b006 6ebd 8348 e03d
00000270: 6c1b 6c3c a93e 56be cff4 40be 3c5e 493d
00000280: 11f1 3bbe baff 9c3d 87af 2fbe 1c62 80be
00000290: bc63 bd3d ab13 843d d1df d2bd b72c 1bbe
000002a0: b4c9 8bbd 6b9d acbd 5e06 14be 484d 3b3e
000002b0: a613 55be ffe7 1b3d 83f4 0f3d 7a2d 433c
000002c0: 3a0c b8bd e3f6 a83d 4462 0a3d 1281 27be
000002d0: a78d aabd 20a8 aabc df7f 0d3c b7aa 0cbe
000002e0: 33f5 03be af16 003b 6d2c dfbd 1859 be3b
000002f0: 2b0c 993d fb21 073e 9b91 66be 92c9 7e3d
00000300: 75d1 81bd a750 933d 3606 f1bd c162 31be
00000310: d0b7 ed3d 720e a1bd 860d 453e 85e7 893d
00000320: 622d a0bd 2d4b 7cbd faaf c0bd 2409 563d
00000330: b924 9fbd 07c0 34bd 573a efbd 9135 0cbe
00000340: 23e8 a33b 3986 373e 45a9 fcbd c919 a73d
00000350: 85dc db3b 0766 abbd 335f 23be 3b25 fe3d
00000360: a5cc 963c c63e bcbd df24 5d3d d5b8 aabc
00000370: 78ef fabb ad0f 0d3a 8e30 72bb 8c33 eabd
00000380: 33ee ddbd 2d23 773e 1229 e7bd 02c6 40be
00000390: a82c f83d f00b 1e3e bba3 4cbc 46f2 ce3d
000003a0: 3748 bcbd 08c6 0ebd f6cc 123e 54d7 28be
000003b0: 3f01 7dbc 3e02 c3bd ad5f 8d3c bc8d 88be
000003c0: 7df8 743e 43c7 eabd 3bee 083d cbb1 23be
000003d0: 4bfd 00be 49af 26be ab62 f13c a397 9b3d
000003e0: 9803 0abe 1518 30be 5cda 8d3d 2c6f cebd
000003f0: 0d02 26be 3097 c0bd 4841 a63d 72a6 debd
0.10270621 0.045089845 -0.011914171 0.20461963 0.18764803 0.11894522 0.16342118 0.08699725
-0.19055665 0.019951107 0.031475075 0.06421265 0.20173751 0.19906874 0.0627587 0.0016927382
0.018371893 -0.0319174 -0.033279605 0.13337946 0.0062844483 0.07572259 0.084010266 0.10151899
0.016327815 0.10216412 -0.024980424 0.053492058 0.08601338 0.054228052 0.034729395 0.002358185
0.030713819 -0.043521266 -0.0009933518 0.055731207 0.13073914 0.0064958255 -0.06680066 0.08531041
0.0697637 -0.050374437 0.08670485 0.12490467 0.0197929 -0.062299192 0.1632119 0.011250418
-0.012875299 0.20106423 0.15706347 -0.05600083 -0.07997197 0.0867272 0.09587189 -0.008533056
0.00989225 0.088253334 -0.08345993 -0.055335086 0.003995382 0.15604568 -0.18155599 0.0034868596
0.07163521 -0.02013866 0.017170556 0.1207849 0.105785124 -0.021412529 0.17544506 0.07708875
-0.071209356 0.073663816 -0.018271443 0.038407642 0.00025189418 -0.050626736 0.029597813 0.13288668
-0.065550245 0.09951804 0.059358437 0.14188816 -0.1370339 -0.13360612 0.0105035 0.09352819
-0.08599625 0.067406155 0.0813161 0.00620084 -0.055345915 -0.09052358 0.07342539 0.041223615
-0.054350153 0.21122237 -0.043106157 0.10701038 -0.010524247 0.182995 -0.13967873 0.052170143
-0.050483193 -0.032107506 0.060878977 0.1007818 0.05992529 0.118137404 -0.10726595 -0.2467604
0.040397096 0.0007323623 0.021543158 0.116772436 -0.0063995253 -0.041698094 -0.042523876 0.010113524
-0.0027579824 -0.03917398 -0.061420385 0.11031783 0.066032715 0.006263586 0.029649653 -0.061607126
0.018105093 -0.1021634 -0.045774385 0.16798258 0.18984173 0.19811305 0.16508362 0.054902148
0.050656643 -0.22606851 0.0021166247 -0.0318356 -0.19195966 0.0049346536 -0.100283474 -0.1295866
-0.15554069 -0.048470035 -0.108493984 0.12343699 -0.14241433 0.050358362 -0.16549566 -0.13037236
-0.10663437 -0.12928048 -0.058111846 0.109513305 0.014410835 -0.2092234 -0.18843387 0.049162135
-0.18353678 0.076659635 -0.17156802 -0.25074852 0.092475384 0.06449064 -0.10296596 -0.15153776
-0.06825581 -0.084284626 -0.14455554 0.18291199 -0.20808277 0.038063046 0.035145294 0.011912698
-0.08986707 0.08250215 0.03378512 -0.1635783 -0.08327799 -0.020832121 0.008636444 -0.13736998
-0.12886505 0.001954477 -0.108971454 0.0058089606 0.07473024 0.13196556 -0.22516482 0.06220395
-0.06338779 0.071931176 -0.11768763 -0.17322828 0.11607325 -0.07864083 0.1924344 0.06733612
-0.07821156 -0.06159513 -0.09408565 0.05225481 -0.07770676 -0.044128444 -0.11681049 -0.13692309
0.005002038 0.17922296 -0.12336973 0.08159215 0.0067096376 -0.083690695 -0.15954284 0.12409445
0.018408129 -0.091916606 0.05399024 -0.020840088 -0.0076579414 0.0005381059 -0.003695521 -0.11435613
-0.108364485 0.24134512 -0.112871304 -0.18825534 0.121178925 0.15434241 -0.012490208 0.10104804
-0.091934614 -0.034856826 0.14335999 -0.16488391 -0.015442192 -0.09521912 0.017257536 -0.26670635
0.23922916 -0.114637874 0.03343032 -0.15985791 -0.12596624 -0.16277803 0.029465994 0.07597282
-0.13477933 -0.17196687 0.06926414 -0.10079798 -0.1621172 -0.09403837 0.0811792 -0.10871591

q_out.bias f4 [5]
00000000: ab42 8fbd 4935 0bbd ebf9 91bc f338 b13c
00000010: 4fe1 80bd
-0.06995138 -0.033986364 -0.017819365 0.0216336 -0.06292974
