models/First_Model/q_te_agent_1.pt (torch, 108561 bytes, 6 tensors)

fc1.weight f4 [128, 71]
00000000: 2daa b23d f280 05be e4c4 cc3c ab08 74bc
00000010: a684 2c3d 95ac 4bbd 83ef 433e 50f0 013d
00000020: b806 b13d b466 40bd 2236 d4bd d13b 643d
00000030: e75e 293e 365f 6f3c 1ab5 01bd 2f22 a33d
00000040: 8a0b f9bd c012 303c ee8c bc3d 3df1 263d
00000050: 91ef 80bd d3f9 97bd 5fa6 c83d 015c 6dbd
00000060: 581f ccbd 861e 1fbd 09dd f6bc 1f8c c3bd
00000070: 697f 94b9 bfe6 fcbd 0b48 c4bd 878f 0abd
00000080: 6666 a63c 1d9b 533e ac29 14be 9ebd 81bd
00000090: ebc7 803d c80d bbbd cd8e ad3c b720 14be
000000a0: 7114 e93d ca82 c63d 952a c73d d73d 0cbd
000000b0: c1b5 bcbd 6ad5 eabd 7850 463d 7b45 803d
000000c0: b1b3 553d c202 f53d 528f a53d dbae b83c
000000d0: 5c25 7b3e 79ca 583e dc9e c93d b7c6 983d
000000e0: ccac 5cbb 485e 14be 1302 843c 2b5f 8ebc
000000f0: dd4e c43d 149d 143e c2ec 6ebd bf35 c7bd
00000100: f2aa 01bd e7be 1e3d b61a 61bd 70a0 513e
00000110: f2b6 933d d581 983d 8b25 84bd 5848 28be
00000120: 842e 153d 54a1 4d3e fbd2 723c e070 23be
00000130: 4cfe ef3d 57d1 88bd e544 063d 9083 f53d
00000140: 0d8e a2bd a682 033e 7add ba3c 9f75 4a3e
00000150: ccc8 a13d 2664 e33d c678 1fbe 9733 a0bd
00000160: c1dd b5bd fb6a b53d 53ea 863d f481 98bd
00000170: 2612 7cbd 8910 02be 1378 96bd 6ff1 3e3e
00000180: f9c7 2ebc 9c8b 92bd d7d1 0abd 6c2d 723d
00000190: 7e4f 6d3d 84f3 eb3c 79e2 103c 6bb7 cdba
000001a0: eb04 e63c 7670 b5bd 9eaf d23d 75d9 fabc
000001b0: 58d0 aabb d1e0 943d c872 f23c 7586 d7bd
000001c0: 0b52 0a3e b41f 54bc 6973 15be b0af 02be
000001d0: b90f 143e f54b bebd 64fa 53bd 23d5 06be
000001e0: 5d3d 713e ac65 7d3d dc68 42bd 8a90 6ebd
000001f0: 371b 693e 6156 373d 10cb 9dbd ed14 3d3e
00000200: 2daa 5d3d 97d6 0cbe b253 053e b6b7 2c3c
00000210: c53c a1bd a33d 59bd 19cb 353d 514c 02be
00000220: 5425 f1bd a21b 93bd 41d3 aa3d 18ea 8e3c
00000230: 01f3 fe3c be73 c6bc 9d79 19be 431b e93c
00000240: 7ea8 cb3d 77b3 9bbd ab96 f8ba d7d2 31bd
00000250: f11e e0bc 9048 b1bd d321 1a3e b696 a23b
00000260: efd7 c83d 87ae 493e 7452 043e a655 013d
00000270: a95a ecbc 5eb1 dabc 79c4 b6bd 674f 163e
00000280: d44f 7e3d f63e 803c a304 003e 76d7 8a3c
00000290: c58d 463e 1227 c43d 8e5e ed3c 2abe a63d
000002a0: b404 39bd 0959 0f3d 48e8 09be b6f7 243d
000002b0: ee3e 80bd a9d4 8e3d 9f8e 81bb f556 13be
000002c0: 9e70 c13d 6854 0cbd f9fe d0bc 527d f4bc
000002d0: c423 c9bd 7795 5c3e 8762 903d c211 583d
000002e0: b8b5 ed3c 57c1 f8bb 40b7 57bc 9511 3c3e
000002f0: 2f15 29bd 6254 5cbe 1c51 633e 6985 213e
00000300: f368 1c3e 12e0 a43d dcf4 36bd 6c43 4d3e
00000310: d54c bb3b 4a82 353c 92a3 213e 9f7c 483e
00000320: ff53 763d f1a4 8d3e 7f65 ce3d c9b9 adbd
00000330: 2aa9 513e f9d1 0fbd 14c7 f03d f4c2 0d3c
00000340: d818 873e ef99 363e afe2 e03d 20b5 973d
00000350: 0b1f 483d 19ef 6dbd 18f5 fbbb d2a3 1bbe
00000360: 9b39 63bd 7770 6b3d 7b67 b03d dc12 12bd
00000370: d74f 33bd 3279 aa3b 4d12 9cbc 1a4c 803e
00000380: 15b0 ea3c b447 493d bd9e e0bd d40b eebc
00000390: de44 033d df3e 913d bb4d 8d3c c2f3 bdbd
000003a0: 5f8e f03c f64b dfbd a31b 8abd b5a9 b03d
000003b0: dd22 74bd a94e 0a3c c7e7 61bb a68a 183e
000003c0: 6c75 693b ab62 9abd 7a9a 4a3c 4954 82bd
000003d0: d9cf ee3d 0efc 073e 61a5 d43d 0242 9a3c
000003e0: 9fbd d93d cfc9 09bd 2967 4d3d 0dfb 91bd
000003f0: 77a8 a2bc a1dd e73d 9cb9 613e 4e38 ffbb
0.08723865 -0.1303747 0.024996229 -0.014894645 0.04211869 -0.049725134 0.19134335 0.03172332
0.086438596 -0.046972945 -0.103618875 0.055721108 0.16540109 0.014610102 -0.031666853 0.079655044
-0.12160404 0.010746658 0.09206568 0.040757407 -0.06295694 -0.07420697 0.09797358 -0.05794907
-0.09966916 -0.03884747 -0.030134695 -0.0954821 -0.00028323688 -0.12348699 -0.095840536 -0.033828285
0.0203125 0.2066464 -0.14469022 -0.06334995 0.06288131 -0.09133488 0.021186257 -0.14465605
0.11380852 0.09692915 0.09724919 -0.034238663 -0.09214354 -0.11466487 0.048416585 0.06263252
0.05217332 0.11963417 0.08083977 0.022544315 0.2452597 0.21170987 0.09844753 0.07459777
-0.003367233 -0.1448909 0.01611427 -0.017379364 0.095853545 0.14513046 -0.05833126 -0.09727048
-0.031657167 0.038756277 -0.054957114 0.20471358 0.072126284 0.074466385 -0.06452473 -0.16433847
0.036421314 0.20081073 0.0148208095 -0.15961027 0.11718425 -0.066805534 0.032780547 0.11987984
-0.0793725 0.12842807 0.022810686 0.19771431 0.07899627 0.11103086 -0.15573415 -0.0782234
-0.08880187 0.088582955 0.065876625 -0.074466616 -0.061540745 -0.1270162 -0.07347121 0.18646787
-0.010667794 -0.071555346 -0.033891525 0.05912535 0.057937138 0.02880264 0.008843058 -0.0015694922
0.028078517 -0.08859341 0.102874026 -0.03062127 -0.005212825 0.07269443 0.029595748 -0.105236925
0.1350786 -0.012947012 -0.14594807 -0.12762332 0.14459123 -0.092918314 -0.051752463 -0.13167243
0.23558564 0.06186454 -0.047463283 -0.058243312 0.22764288 0.04476011 -0.07704747 0.18465014
0.05411737 -0.13753735 0.13020208 0.010541847 -0.07872919 -0.053037297 0.044383142 -0.12724425
-0.11774698 -0.07183005 0.08341075 0.017445609 0.031121733 -0.024225112 -0.14987798 0.028455382
0.09944247 -0.076025896 -0.0018965801 -0.043413963 -0.027358504 -0.08656418 0.15051965 0.004961814
0.09806811 0.19695483 0.12922078 0.03157582 -0.028851824 -0.026695903 -0.08924193 0.14678727
0.06208785 0.015655022 0.12501769 0.016948443 0.19390018 0.095777646 0.028975751 0.0814174
-0.0451705 0.03499702 -0.13467515 0.040275298 -0.06262003 0.069741555 -0.0039537693 -0.1438864
0.09445308 -0.034260184 -0.025512205 -0.029844914 -0.09821275 0.21541391 0.070500426 0.05275131
0.029017314 -0.0075914073 -0.013166249 0.18366082 -0.041279968 -0.21516564 0.2219891 0.15773548
0.1527441 0.080505505 -0.04466711 0.2004525 0.005715946 0.011078427 0.15785053 0.19578789
0.0601387 0.27664903 0.100779526 -0.08482701 0.20474687 -0.035112355 0.11756721 0.0086524375
0.26386142 0.17832159 0.109807365 0.07407594 0.04885773 -0.05808935 -0.0076891296 -0.15199211
-0.05547486 0.0574803 0.08613487 -0.035662517 -0.043777313 0.005202436 -0.019051695 0.2505806
0.028648416 0.049140647 -0.10967777 -0.029058374 0.0320481 0.0709207 0.017248979 -0.09275009
0.029364763 -0.1090316 -0.067435525 0.08626119 -0.05960356 0.008441606 -0.0034470425 0.1489664
0.0035622967 -0.07538351 0.012365932 -0.06363732 0.116607375 0.13279745 0.10383106 0.018830303
0.106318705 -0.033639725 0.05014721 -0.07127962 -0.01985572 0.11321569 0.2204346 -0.0077886945

fc1.bias f4 [128]
00000000: c3f2 4bbd 3ea5 31bd 687b f73a 900d 8fbd
00000010: a5a5 4c3d 64f4 8cbd e556 78bd 389a e6bc
00000020: 11dc 9dbd 6cd4 a6bc 1c8b 923d e6a2 c33d
00000030: 2ff7 a5bd 6fef d8bb 1c24 373c 0473 b53d
00000040: e0dd 6abc c0ba e83d d08a 763c ff54 bfbd
00000050: aa5f 663d f582 9ebc 10fa 88bc 5087 54bd
00000060: bcd5 0abc 387b 84bd 6cb6 21bd f2f1 89bc
00000070: ff59 e8bc 6ac1 783c c4c2 ebbd 4d3c e4bd
00000080: 7709 543d db4f 123d 11a9 07bd 574c 993d
00000090: c8be 73bd 5d67 d33d 0aee cd3d f1d7 56bd
000000a0: 449d efbc 8a49 053e 208f ca3d fb48 2a3d
000000b0: e52c 4d3d 8903 cbbd d672 f13d f335 013b
000000c0: 4f64 77bd f59d 4bbd 621b 033e 7cd4 883d
000000d0: 79bd 8abd b51e cc3c 49f6 41bc 4b68 2a3d
000000e0: d64f cfbd b5b1 0b3e 45b4 afbc 2416 593d
000000f0: 59e1 863d 7d1d 54bd 8bca 05be 8dc0 263e
00000100: 9c62 26bd c955 3ebd 3c6d b93d 315b fc3d
00000110: 45e1 27bd c989 773d 3fad c6bd 1ea3 f1bd
00000120: 38fa 84bc 6084 2a3c 8067 8c3c 98ef c33d
00000130: 1c49 debd b136 2bbd ae35 323d cedc 75ba
00000140: c59d 003d 4bf6 b3bd 9cbc b43d 4e9c e8bc
00000150: c4f6 06bb 58d9 d73b 9406 34bd 7c62 16be
00000160: c26d 8d3d 4b9c 9d3d 167b 223e 52f7 9cbd
00000170: aa0d b8bd 4c4e d8bc 44a0 083d 3872 8e3d
00000180: dc0f 923d 327d 35bd f2a1 b13d de86 aebd
00000190: 3706 f0bb 6b63 103d 7108 fa3d 420b 363d
000001a0: 351c 87bd 2a15 543c f256 21bc 756c 23be
000001b0: f745 6d3d c941 a8bd 3343 e53d 71ce 773b
000001c0: 1fd4 bdbd 9460 d6bd 1cdf 3cbb 5180 7f3d
000001d0: 59b9 d23b e2f1 0dbe a92a 09be f030 1e3d
000001e0: 9b2c ccbd b89d 14be 034f 5cbc 5e99 d4bd
000001f0: a0f5 3d3d d4db 143d 30b9 8cbc dbc6 eebd
-0.049792062 -0.043370478 0.0018881382 -0.06985009 0.04996266 -0.06882551 -0.060629744 -0.02814971
-0.0770799 -0.020364963 0.07155439 0.09552555 -0.08103787 -0.0066203396 0.011178043 0.08859828
-0.014335126 0.11363745 0.015047744 -0.093423836 0.056243576 -0.019349555 -0.016720802 -0.051886857
-0.00847381 -0.064688146 -0.03948061 -0.016839001 -0.028363226 0.015182832 -0.11511758 -0.11144314
0.05176684 0.035720687 -0.03312022 0.07485264 -0.059508115 0.10322449 0.10055168 -0.05245203
-0.029249795 0.13016334 0.0989058 0.041573506 0.050091643 -0.09912784 0.11789481 0.0019715994
-0.060398396 -0.049711186 0.12803414 0.06681153 -0.0677442 0.024916986 -0.011838504 0.041603368
-0.10122649 0.13642009 -0.021448264 0.05299963 0.065859504 -0.051785935 -0.13065545 0.1628439
-0.040621385 -0.04646853 0.09054038 0.12322081 -0.04098632 0.060434137 -0.09701013 -0.1179869
-0.016232595 0.010407537 0.017139196 0.09567183 -0.10853788 -0.041800205 0.043508224 -0.0009378911
0.03140046 -0.08787211 0.08825037 -0.028394844 -0.002059386 0.0065871887 -0.043951586 -0.14686006
0.069057 0.07695826 0.15867266 -0.0766436 -0.08986981 -0.026404522 0.033355966 0.06955379
0.07131931 -0.04430885 0.08673467 -0.085218176 -0.0073249596 0.035251062 0.12208641 0.04444433
-0.06597177 0.012944499 -0.0098473895 -0.15959342 0.05792805 -0.082156725 0.11194458 0.0037812258
-0.092689745 -0.104676396 -0.0028819507 0.06237823 0.0064307866 -0.13861802 -0.1339518 0.03862089
-0.09969445 -0.1451329 -0.013446572 -0.10380815 0.046376824 0.036342457 -0.017178148 -0.116590224

fc2.weight f4 [128, 128]
00000000: d197 9dbb af50 9d3d 2403 66bd 0084 9d3d
00000010: 531d 04be 19dc 693d c445 98bc 78b9 54be
00000020: 88bd ac3d 2885 aabb 63d8 14be df2b abbc
00000030: 1b5f f5bd 4185 91bc a04c b1bd 2261 ab3d
00000040: ad36 4fbd 6e4b 9d3d 3b83 1c3d e4e9 bc3b
00000050: 5734 97bc aa67 123d 38f3 573d 877f 973d
00000060: c217 23bd a34f a8bd 14be 133e a39a 533c
00000070: 11cc eabc 9838 0f3e 052e 013e 5d53 9fbd
00000080: 450d 4bbc 9200 bebb 6706 e83d 78de bf3c
00000090: 9ce7 563d be43 a53d 842b 2e3d 8b0a 90bc
000000a0: 8cdf 133d 7103 14bd 364a fe3c d7fb fa3c
000000b0: f94e 15bc 9b05 683d 20c4 4abe a555 e03c
000000c0: 5143 bd3d fe98 8f3d 95d9 88bc 6301 653d
000000d0: 9b3f 9a3d e485 c23c b329 01be 26a2 b03d
000000e0: 0b59 283e a5b8 2dbc 23cd 0c3e 8964 9fbd
000000f0: 120c 7bbd 2325 2b3d 9944 c6bc 5f20 8a3d
00000100: ad7c f2bc 105d a0bc 208f 3d3d a465 983a
00000110: f861 d33d 67ab bfbd 73f3 a4bb 84e5 eb3b
00000120: 7f84 a33d 9daf f3bd af95 363d 60e7 87bd
00000130: 71dc 97bd 0819 e7bd 15a6 dbbd d837 443d
00000140: 9204 d13c 2911 29bd 7d71 8abc 89c9 5d3d
00000150: dc53 d9ba ec99 43bc 2fea cc3d 0aab edbd
00000160: f9c5 223d cc26 85bd 072b 7bbd 0dc4 17be
00000170: 2f77 17bc 56bb af3d a09c aebc c84a 853d
00000180: 62b5 df3a 2e2c db3c 8459 b73d 3ee2 ce3d
00000190: 8e9e c43d 5466 e23b 5445 61bd d7ed aebb
000001a0: ccda 25bd 6c15 bcbd cc91 1fbd 927a bbbc
000001b0: 982a 46bd bae9 85bc 8b2f 12be 504a 603c
000001c0: f9f7 f13d 8517 52be 8b21 f43c dd4d 46bc
000001d0: 7274 983b f0ec 083d 76c2 2a3a 9b3a e3bd
000001e0: 6541 fbbc 96f0 09be f5ba a73c 9a7e aa3c
000001f0: cb9c 02bd dce3 26bc 154b a33c 72ef 41be
00000200: fde8 5d3d 61f8 6e3d 96c6 863d 4f26 b23d
00000210: d53d 263d 9c90 7b3d 8d5d 6a3c e85a 183d
00000220: 4575 b13e ae3e 073d 88f9 823d 8a01 e1bd
00000230: 9e56 eebd e68c 933c b8b0 5e3e 9516 2bbd
00000240: 26b7 b73c ab49 343d cf35 41bd d9b3 3fbd
00000250: 25b4 63bd 11f4 d6bc d118 aa3d eab3 4ebe
00000260: 6f2d e13d 5710 ba3d e0b2 2d3e bc08 973d
00000270: 3792 223d c409 d73b 84f9 9b3d 90dd acbc
00000280: dc10 a73d b2df dd3c 4ab8 b2bc 8d9c fe3d
00000290: 80a8 df3d 85a8 3e3d 1188 903d 0f88 a23c
000002a0: debb 8e3d d369 803d 20c8 2cbc f72b 61bd
000002b0: f0eb 42bd da1f 103e 2f20 1d3e a22a b13d
000002c0: e24b 73bc 8355 d5bb a9b3 573e fc6c 91bd
000002d0: 8601 bdbd 00fa cf3d 551a 43bc 31bb 8e3c
000002e0: a7c5 8f3d 1201 283c fef4 d53b 63d2 bd3c
000002f0: 89c0 dc3c a183 b1bd ad7e 283d 05a2 383d
00000300: 9116 d3bc 61ae cf3c 6f5d f8bc 3e42 993d
00000310: 66a7 ccbd c0d7 24bd 208c 9fbc 2bf5 dabd
00000320: 7f32 89bd 9539 47bc 292b d3ba ce72 c239
00000330: c543 bfbc 18ca aabd b96c 51bd 76dc 163e
00000340: ec41 693c 0e82 693d ba2a 283d e22a a93d
00000350: 4de1 e5bd 4ae1 fdbc fccb 1e3e b146 64bd
00000360: fdac 053d 0be9 803d a09c 0a3d 13a0 10bd
00000370: bfc5 913d 6915 873d bc03 643d 2861 b3bd
00000380: 39ee d33d b077 f1be 06f6 903d c4db 4dbc
00000390: 5ee9 eebc 2052 173d 641f 563d 027e 6b3d
000003a0: 4a17 6fbd 71dc 413d d2f3 ba3d 441a 00bc
000003b0: b089 08bd b748 3cbd b8b4 a63d 678e f33d
000003c0: 8952 3cbd 7693 01bd 2317 ca3d 9ffb 58bd
000003d0: ffa3 133e 0c95 4a3d 1b49 78bd 969d 9a3c
000003e0: dbcd 5f3c 809f 883d 9a04 8abc 3001 e0bc
000003f0: 9405 5dbc d0ac 9bbd c24c d3bc b0bb e0bd
-0.0048093577 0.07681405 -0.05615534 0.076911926 -0.12901811 0.057094667 -0.018587954 -0.20773876
0.08434588 -0.0052038617 -0.1453567 -0.020894943 -0.119810306 -0.017763736 -0.08657193 0.08368136
-0.050589252 0.07680403 0.03821109 0.0057651866 -0.018457575 0.035743393 0.052722186 0.07397371
-0.03981758 -0.082183145 0.14427978 0.012915286 -0.02866176 0.13986433 0.12615211 -0.07779572
-0.0123933 -0.005798408 0.11329346 0.023421511 0.052466974 0.080695614 0.04252197 -0.017583152
0.036101863 -0.036136094 0.031041246 0.030637665 -0.009113067 0.05664597 -0.19801378 0.027384588
0.09241355 0.07011603 -0.016705314 0.055909526 0.07531663 0.023745485 -0.12613563 0.08624677
0.16440217 -0.010603105 0.13750128 -0.077828474 -0.061290808 0.041783463 -0.024202632 0.067444555
-0.029600466 -0.019575626 0.046279073 0.0011626971 0.103214204 -0.09358864 -0.005033904 0.0071989913
0.07984256 -0.1189873 0.044576343 -0.06635928 -0.07415093 -0.11284071 -0.10725037 0.04790482
0.025514875 -0.04127613 -0.016899819 0.054147277 -0.0016580778 -0.011938553 0.100056045 -0.11604889
0.039739583 -0.065015405 -0.06132033 -0.14820881 -0.009244724 0.08580653 -0.021314919 0.06508404
0.0017067606 0.026754465 0.089526206 0.10101746 0.096005544 0.006909171 -0.054997757 -0.0053384113
-0.040491864 -0.091837734 -0.038957402 -0.022885595 -0.048380464 -0.016346801 -0.14275949 0.0136895925
0.11814875 -0.20516784 0.02980115 -0.012103525 0.0046525532 0.033429086 0.0006513962 -0.110951625
-0.030670831 -0.13470683 0.02047489 0.020812321 -0.03188781 -0.010186162 0.019933263 -0.18938997
0.054177273 0.05834234 0.06580846 0.08698713 0.04058631 0.061417207 0.014304531 0.03719607
0.34659782 0.03301876 0.063952506 -0.10986622 -0.11637615 0.018011522 0.217471 -0.041769583
0.0224262 0.044015568 -0.047170456 -0.046802375 -0.05559172 -0.026239427 0.083055146 -0.2018582
0.10994994 0.09085148 0.16962767 0.07374713 0.039690223 0.0065624435 0.07615951 -0.021101743
0.081575125 0.027084205 -0.021816391 0.124322034 0.10920811 0.04654743 0.070572026 0.019840268
0.069694266 0.06270184 -0.01054576 -0.05497357 -0.04758829 0.1407465 0.15344308 0.0865071
-0.014849635 -0.006510438 0.21064629 -0.07100865 -0.09228806 0.101551056 -0.0119081335 0.017423244
0.07020121 0.010254161 0.0065294495 0.02317161 0.026947277 -0.08667684 0.041136432 0.04507639
-0.025767596 0.025351705 -0.03031799 0.07483338 -0.09992866 -0.040244818 -0.019475996 -0.10691293
-0.066990845 -0.012159725 -0.0016110885 0.000370881 -0.023347745 -0.083393276 -0.051129077 0.14732537
0.014236908 0.057008795 0.041056372 0.08260132 -0.11224613 -0.030991215 0.15507501 -0.05573148
0.032635678 0.062944494 0.033840775 -0.03530891 0.07117795 0.065958805 0.055667624 -0.087587655
0.10348172 -0.47161627 0.07078175 -0.012564603 -0.029164013 0.036943555 0.05227603 0.057493217
-0.05837182 0.04732937 0.09128536 -0.007818762 -0.033334434 -0.045967784 0.08139938 0.118923955
-0.04597715 -0.03163477 0.09867694 -0.05297434 0.14418028 0.04945855 -0.060616594 0.018873971
0.01365992 0.06671047 -0.016847897 -0.027344316 -0.013490099 -0.07601321 -0.025793437 -0.109732985

fc2.bias f4 [128]
00000000: 350a 52bd ec75 603c 4be5 fb3d dee4 b43d
00000010: 169f c0bd 2fa8 a5bc 67b0 713d 42a4 26bd
00000020: 3d7e d6bd 1454 88bd 31e0 81bd d604 27bd
00000030: 5cf6 9ebd 9be6 79bd fcde 843d 9b0f e4bc
00000040: a20d 7cbd 7327 8a3d 221f ebbc 6acf 873c
00000050: 50ef 34bd bb73 653d 0271 163d 8a10 eebb
00000060: 20a9 d93d 8caf 18bd 7900 dc3c f09f 84bc
00000070: 77c9 0cbd 281c 533c d928 bdbc 9afd a2bd
00000080: 3c6b 52bd 437a a0bb 64d5 763d 0ccb 923c
00000090: 0aba 72bd 5f8b 5e3c 5278 78bd 3a99 4fbd
000000a0: 16e4 8d3c f586 3b3d df3a 953d d6fd c63d
000000b0: f32c cdbd f708 4d3d 0bef 89bc 23bd 643d
000000c0: eb39 e1bd 496f b33d 1445 593d 1d65 51bd
000000d0: c1c5 cebd be73 44bd b60e 6abd c3ad c03d
000000e0: fa93 d23b 338f 733d 93b5 dc3d c680 b7bc
000000f0: d592 a0bd 9dbb c43d 0f0c d5bd 42dc f23d
00000100: a418 10bd 9869 93bd b120 a23d 0dce 58bd
00000110: 815f 733c fe2e e0bc 1e3a b4bd 6ff7 c7bd
00000120: adc1 bfbd fdb5 393d 9ff9 873d e44e aa3d
00000130: 51df b5bd e326 29bb 7968 7c3c 5c64 6b3c
00000140: fc80 0f3d 4a76 463d 5777 65bd 0f1f cfbc
00000150: e40e 4bbb 2521 e0bd d093 a2bc 40cb a33c
00000160: aeb9 cfbd abe5 12be 278f 19bc ae51 593d
00000170: a442 5fbd c138 283c 21f4 1dbd a296 d13b
00000180: ea3d b0ba f6fd fdbb e5dd aabd d6c8 f73d
00000190: 9cde 3fbd 7e59 193d 5e20 edbc d025 02be
000001a0: 3b4b 30bd 2953 cfbd 28ff c93c 2413 bdbd
000001b0: 1b6d f23c e5c6 98bd 70d0 a63d d093 95bd
000001c0: d260 e4bc 2f53 8f3b 99dd 7a3d 90a5 70bd
000001d0: 64bd d1bd 8dae b23a d3e4 f03c a3e9 9dbc
000001e0: 9b80 533d 3a4e b6bc 758d 823d 4373 17be
000001f0: 2de9 a33d 365d 26bd 964c 32bd 8183 c2bd
-0.051279265 0.01369999 0.122995935 0.088327155 -0.09405343 -0.020221798 0.05900612 -0.040683992
-0.10473297 -0.06656662 -0.06341589 -0.040776096 -0.07761833 -0.06101094 0.064878434 -0.027839473
-0.06153644 0.067458056 -0.028701369 0.016578395 -0.04417354 0.056018572 0.036728866 -0.007265155
0.10627961 -0.03727679 0.026855694 -0.016189545 -0.03437182 0.012885131 -0.023090767 -0.07958527
-0.051371798 -0.004897387 0.0602621 0.017919086 -0.059259452 0.013583033 -0.06066162 -0.050683238
0.017320674 0.045783002 0.072866194 0.09716384 -0.10018339 0.050057378 -0.016837617 0.055844437
-0.10997375 0.0876146 0.053044394 -0.05112182 -0.10096312 -0.047961943 -0.057142936 0.094081424
0.0064263316 0.059462737 0.1077682 -0.022400271 -0.07840506 0.09606097 -0.104026906 0.11858417
-0.03517975 -0.07197875 0.07916392 -0.05293088 0.014854313 -0.027366158 -0.088001475 -0.09763991
-0.093631126 0.045339573 0.06639408 0.083158284 -0.08880485 -0.0025810532 0.015405768 0.014367189
0.03503512 0.048452653 -0.056022014 -0.025283365 -0.0030984217 -0.10943822 -0.019845873 0.019994378
-0.101428375 -0.14345424 -0.009372509 0.05305641 -0.054506913 0.010267437 -0.038562898 0.0063961307
-0.0013446186 -0.007751222 -0.08343104 0.12098853 -0.046843156 0.037438862 -0.028946098 -0.12709737
-0.043040495 -0.101232834 0.0246578 -0.092321664 0.029593041 -0.07459811 0.08145225 -0.073035836
-0.027878199 0.00437393 0.06124649 -0.058751643 -0.102412015 0.0013632342 0.029405987 -0.019276446
0.05163632 -0.022254098 0.06374637 -0.14790063 0.08003459 -0.040616237 -0.04353007 -0.09497739

q_out.weight f4 [5, 128]
00000000: 3016 98bd e435 81bd a0e9 cebd f1c5 2fbe
00000010: 97bd f13c 4eb8 6a3c 4370 a4bd 257b 1cbc
00000020: 0fd1 be3a f95c 603d f151 073d d1f8 4c3d
00000030: 958e d2bc 3c88 0b3d a160 b3bd 5cf0 4b3d
00000040: 0eab 013c cbbb 77bd 34ca ffbb 6535 bcbd
00000050: f0fe 473c b960 a4bd 1ab8 253d 45e5 99bd
00000060: 234e a3bd b64a 1a3c 2403 c7bd 4d32 543c
00000070: f6d3 8b3d 6841 73bd 85c7 75bc 636f f0bd
00000080: cddf 03bd 78bd ee3d 4dd4 d0bc 995f 92bd
00000090: 9c23 b2ba 8137 a0bd 07b4 4fbd 9ad4 8cbd
000000a0: 5f57 e5bd 8659 79bd 1e3d 9abd 7d48 cbbc
000000b0: 3873 5dbd 832b 503d b1b8 903c 62e8 2c3c
000000c0: b4ea e33c 7b60 02bc 13f1 d83c cbb6 953d
000000d0: c944 273d 447c 9c3c 7b10 bb3c f467 3fbd
000000e0: ff0a 8fbd f67f 373c 5009 97bd b99c 68bd
000000f0: 25e2 1ebd 9a66 a9bd d522 2f3d dddb 78bd
00000100: 1615 94bb 46c6 4ebd 608e b5bd 1077 2bbd
00000110: 4f59 97bd f3ad 0e3d e6f0 e6bc 3717 63bb
00000120: 2f15 1fbd 011f 79bd 757c 8d3d 6626 95bb
00000130: 21b4 9d3d bf28 57bd e465 843d 02e2 5ebd
00000140: 4039 343d 3cf7 9bbd 6613 03bd aae6 0a3d
00000150: 393e bebd 81ac 043d e621 88bd c7d8 c23c
00000160: e8fd acbc 1984 b83c 5b52 f2bd 614a 39bc
00000170: b633 b23d 0521 c33c 391b 7a3d b6e0 503d
00000180: b83a 8abd c2cc 72bc 30a5 2f3d de81 e7bd
00000190: e9fc aa39 10f0 cebc 3a33 b8bd af0f 15be
000001a0: 9d9b 9c3c 8a40 9b3d e63b 1abb 43d2 733c
000001b0: 5e36 a3bd 3dc3 27bd 1b76 a0bd 1c06 29bd
000001c0: 88dc 17bd b61e e9bc c56d 95bd d49b 833c
000001d0: 36ce 423d 16a8 1fbd 248a f7bd 7513 a6bd
000001e0: 5a33 c4bd f7f8 053d 5538 01bd 93ad 9e3b
000001f0: a9b2 103d 806d 653d e76a 7c3b b1c0 013d
00000200: 5a4e afbd c5af b3bd 863e 05be 041a 8dbd
00000210: 4276 4f3b 63a4 c5bd d97f 9f3c 1a5a 95bc
00000220: a464 7dbb a335 ffbc 6399 c73c bb73 6fbd
00000230: c9f0 dbbc c8c5 a43d 8909 bbbc 0b83 0f3d
00000240: e342 4a3d 5e94 0fbe 58b8 0c3d 51c5 d4bd
00000250: 67db 2e3d 0dea 01be 148e fa39 ff09 8a3c
00000260: 7317 11be 6e04 d93c 17d2 b5bd 3f2a a7bb
00000270: d3c9 1fbe 400a 9dbd 9a6e 2f3c 77b8 2bbc
00000280: 7895 a1bd 769e f53c 987f 44be 7201 67bd
00000290: 29f1 96bb e7b2 e7bd 6d9d c43c 914e b0bc
000002a0: cff9 64bd f565 d8bd 3760 763c 2e85 f2bd
000002b0: 7d34 cebc c2e0 d2bc 3aad 17be 6bd0 85bc
000002c0: b0d3 143d e20f 5f3a ef69 11bd 7d46 103c
000002d0: 2553 81bd 08d3 abbd 6f9a a1bc 7382 10be
000002e0: 7255 6ebd 3d5d 453d 2428 d5bd 9ee6 1ebd
000002f0: f14e 92bd db69 b8bd dc41 9cbd 9e21 32be
00000300: 0437 aabb dfc7 383c e922 4b3c ef9f 82bb
00000310: 48ba 8d3d 1185 84bd 287c d1bc 0aed a4bd
00000320: 0ae1 d6bc 5fcd 01be d42e 9d3a 556f a6bd
00000330: 25a3 a4bd 0214 f53c 2cd5 9bbd 7396 d1bc
00000340: 7f07 debc 15b4 d63c 4163 70bd 5f53 3abd
00000350: 1252 483b 4e1b 153c 63f1 34bd 1168 ccbc
00000360: 6819 c7bc 13ba 7dbd ada9 9fbd 119e 72bd
00000370: 9caf 01be 5ebb b5bd b009 5f3d 6983 a4bd
00000380: 23fc 16bc 91a1 11bc 3383 6ebb cc31 b3bd
00000390: 6fa1 13bd 1235 17bd 4276 73bd c98f 6bbc
000003a0: a255 f7bc f87a 4cbd d5bb bd3c 0bdf 3abd
000003b0: 7806 a2bd 5142 f4bd 534c 97bd e572 12bd
000003c0: db62 b1bd 2977 b7bc a926 a5bd 5626 46bc
000003d0: 67d9 583d ac8e a0bd b566 e2bd 5b66 eabd
000003e0: 31c7 dcbd e6b0 a4bd 2b33 193b d375 a2bc
000003f0: 64bc 143e b100 75be 5f2a b0bc 7b65 d13d
-0.07426107 -0.06309107 -0.10103154 -0.17165352 0.029509349 0.014326168 -0.08029225 -0.009550844
0.0014558154 0.054776166 0.03303713 0.050041977 -0.025702754 0.03406547 -0.08758665 0.04978977
0.007914318 -0.060481828 -0.007806087 -0.09189872 0.012206778 -0.08026261 0.040458776 -0.07514433
-0.07973888 0.009417227 -0.09717396 0.012951446 0.06827538 -0.059388548 -0.015001182 -0.11739995
-0.032195855 0.11657232 -0.025491858 -0.0714714 -0.0013590935 -0.078230865 -0.050708797 -0.06876488
-0.11198305 -0.06087639 -0.075311884 -0.024814839 -0.05406496 0.050822746 0.017666193 0.010553451
0.027821876 -0.007957573 0.02648214 0.073102556 0.040837083 0.019102223 0.022835007 -0.046729997
-0.06984519 0.011199942 -0.07374823 -0.056790087 -0.038789887 -0.08271523 0.042757828 -0.060756553
-0.004519115 -0.050482057 -0.088650465 -0.041861594 -0.07390081 0.03483386 -0.028191041 -0.0034651288
-0.03883856 -0.060820583 0.06908504 -0.0045516966 0.077003725 -0.052529093 0.064647466 -0.054414757
0.04399991 -0.076155156 -0.03200092 0.033911385 -0.09289212 0.032391075 -0.066470906 0.023785008
-0.021117166 0.022523927 -0.11832114 -0.011309237 0.08701269 0.023819456 0.061061118 0.05099555
-0.06749481 -0.014819326 0.042882144 -0.11304067 0.0003261336 -0.025260955 -0.08994146 -0.14556764
0.019117171 0.07580669 -0.0023534237 0.014881673 -0.07969354 -0.040957678 -0.07835027 -0.041265592
-0.03707555 -0.028457027 -0.072963275 0.016065516 0.04755994 -0.03897866 -0.12086895 -0.0810918
-0.09580107 0.032708135 -0.031547863 0.004842469 0.035326634 0.05601263 0.0038515867 0.031677905
-0.08559866 -0.0877376 -0.13012132 -0.06889728 0.003165618 -0.09650495 0.019470142 -0.01823144
-0.0038664723 -0.031153506 0.024365133 -0.05845998 -0.026848214 0.08045536 -0.022831695 0.03503708
0.049380194 -0.14021441 0.03435549 -0.103891976 0.042689707 -0.1268694 0.00047789572 0.01685047
-0.14169101 0.02649137 -0.08877962 -0.0051014717 -0.15604334 -0.07667971 0.010707522 -0.010480992
-0.07889837 0.029982787 -0.19189298 -0.056397863 -0.0046063852 -0.1131342 0.024000848 -0.021521838
-0.0559023 -0.10566322 0.015037588 -0.11841808 -0.025171513 -0.025741939 -0.14812174 -0.016334733
0.036334693 0.00085091416 -0.035501417 0.008805868 -0.06314687 -0.083898604 -0.01972696 -0.14112262
-0.058186956 0.048184622 -0.10408047 -0.038794152 -0.07143963 -0.09004565 -0.07629749 -0.17395636
-0.0051945467 0.011278122 0.01239846 -0.0039863507 0.06920296 -0.06470693 -0.025571898 -0.08053024
-0.026230354 -0.12675999 0.0011992105 -0.08126704 -0.0803893 0.029916767 -0.07609019 -0.025584435
-0.027103184 0.026208917 -0.058688406 -0.045489665 0.0030566496 0.009100748 -0.044175517 -0.024951966
-0.024304107 -0.061945032 -0.07796035 -0.059232775 -0.12664646 -0.08873628 0.054452598 -0.08032877
-0.0092153875 -0.008888618 -0.0036394119 -0.087497324 -0.036042627 -0.036915846 -0.05943895 -0.014377543
-0.0301922 -0.04992196 0.023160854 -0.045622867 -0.0791139 -0.11926711 -0.073876046 -0.035754103
-0.08661433 -0.022395687 -0.080640145 -0.012094101 0.052941706 -0.078397125 -0.11054746 -0.11445304
-0.1078018 -0.08041553 0.0023376446 -0.019831574 0.1452499 -0.23926045 -0.02150458 0.10224434

q_out.bias f4 [5]
00000000: b371 1b3c 38c7 72bd d8f9 1b3d 1f44 233c
00000010: f28b c73b
0.009487557 -0.05927202 0.038080066 0.009964972 0.006089681
