models/First_Model/q_te_agent_2.pt (torch, 108561 bytes, 6 tensors)

fc1.weight f4 [128, 71]
-0.00812871 -0.10110018 0.05686284 -0.02542702 -0.027388576 0.002401262 -0.08660248 -0.1066334
-0.102103345 -0.04286 0.00925426 -0.089274526 0.10276606 -0.058853567 -0.07358714 0.052059382
-0.06744868 -0.069345415 0.05737852 -0.0700387 -0.05368455 0.071706966 0.10622127 0.10774949
-0.040743373 -0.06484731 -0.084633894 -0.04068848 -0.018824505 -0.034957297 -0.07745105 -0.052836534
0.06401717 -0.06126793 0.041464996 0.026893158 -0.03867043 0.021722501 -0.059339408 0.021613028
-0.11280042 0.037085302 -0.060959883 0.048126113 -0.10018941 0.07798922 0.019898515 0.016936332
-0.008373688 -0.021336075 -0.042054906 -0.094307885 -0.02593868 0.103384905 -0.022312086 -0.058914956
0.030531213 0.076877974 -0.041929603 0.086347245 0.007804717 0.045778893 0.107152976 0.10801143
-0.0679708 -0.06315234 -0.0060317894 -0.10453665 -0.032243986 -0.040745128 -0.017516593 -0.016732758
-0.09772675 -0.12571284 -0.03231084 0.06066612 0.14129198 -0.11877415 -0.087748624 0.06014232
0.01512137 0.1299363 0.20537719 0.15948685 0.058810115 -0.018699048 -0.004442954 -0.12708005
0.041160442 -0.02400799 -0.013181791 0.014551801 -0.021493996 0.15994914 -0.021326667 0.19792704
0.026666282 0.10131446 0.08113129 -0.047878116 -0.087081425 -0.015429127 0.0018621128 0.14790504
0.056249946 0.061658073 0.016390946 -0.030128129 -0.057921134 -0.07319938 -0.030160718 -0.08664579
0.114490226 0.15401576 0.13369705 -0.11025637 0.13163635 0.12704158 0.13147604 -0.07181742
-0.07323391 0.14941673 0.035725754 0.039140463 0.031978816 0.17368613 0.11449003 0.013417557
0.031447437 -0.040167376 0.011011264 0.09631263 0.1379364 -0.11275192 -0.15446505 -0.16078167
-0.07630047 0.14002705 -0.037960976 0.12092514 0.030064043 0.0731527 -0.08840437 -0.0030734919
-0.1448381 -0.13442867 0.0050781094 0.108198054 0.06828195 -0.016836777 0.09846552 0.08133714
0.19091305 0.04426554 -0.023494387 -0.11627724 0.06203277 0.0590452 0.019080162 -0.030017205
0.1873796 0.09466988 -0.13689737 -0.050118178 -0.055333532 -0.037691705 0.11699593 0.16232412
-0.036151763 -0.05585995 -0.019436963 0.055784937 -0.049299818 0.2240221 0.092400715 0.15941545
-0.12874876 -0.18014628 -0.021898557 0.07347372 0.11974427 0.0054499195 0.12381399 0.17412595
0.09098074 0.007352817 -0.061804518 0.01523719 0.024554009 0.1239989 -0.02515382 0.045709867
-0.13096751 -0.035226192 0.09423188 -0.0622906 0.12293922 -0.06462175 0.10264386 -0.04943516
0.00058691116 -0.037692614 -0.04061568 0.008658638 -0.13455679 -0.10678544 -0.058098707 0.041956097
0.1057556 0.05138695 0.17621699 -0.11748147 -0.04334612 0.066463806 -0.06293728 -0.024722999
-0.040677633 0.088029794 -0.024376841 0.068027355 0.07913726 -0.10716753 0.08834399 0.055756196
0.020826334 0.15977919 -0.07830095 -0.0016288996 -0.006260015 0.051739845 0.027024528 0.1024975
0.05859289 -0.029725272 -0.16325308 0.054774605 0.020793002 0.03652156 0.12843779 -0.026215024
-0.07632561 -0.10364537 -0.0020925067 0.015386094 -0.056752857 -0.055344585 0.02605528 0.009674547
0.10804527 0.05675478 -0.032437198 0.057081226 -0.032024164 -0.050041378 0.10342331 0.019611206
00000000: 482e 05bc 9c0d cfbd 02e9 683d 534c d0bc
00000010: 025e e0bc 7e5e 1d3b a45c b1bd 9d62 dabd
00000020: 8f1b d1bd f88d 2fbd 2e9f 173c 90d5 b6bd
00000030: 0377 d23d 7010 71bd dbb4 96bd 383c 553d
00000040: 8922 8abd f804 8ebd bd05 6b3d 7370 8fbd
00000050: 55e4 5bbd 1adb 923d 8a8a d93d c4ab dc3d
00000060: 86e2 26bd abce 84bd 8954 adbd f7a8 26bd
00000070: d935 9abc 622f 0fbd a89e 9ebd 1f6b 58bd
00000080: 6f1b 833d 15f4 7abd 33d7 293d 0a4f dc3c
00000090: e364 1ebd 63f3 b13c e10d 73bd ce0d b13c
000000a0: e803 e7bd c2e6 173d 12b1 79bd e31f 453d
000000b0: 1b30 cdbd d0b8 9f3d 3602 a33c 10be 8a3c
000000c0: cb31 09bc fec8 aebc c441 2cbd 7e24 c1bd
000000d0: 5b7d d4bc 77bb d33d d6c7 b6bc cf50 71bd
000000e0: 981c fa3c 3372 9d3d 60be 2bbd d3d6 b03d
000000f0: b6be ff3b a682 3b3d 0573 db3d 1935 dd3d
00000100: 4634 8bbd 0456 81bd 51a6 c5bb 5017 d6bd
00000110: 4512 04bd 5de4 26bd f57e 8fbc 2313 89bc
00000120: f624 c8bd deba 00be 5f58 04bd 0a7d 783d
00000130: d8ae 103e dd3f f3bd 8db5 b3bd cb57 763d
00000140: 9fbf 773c 050e 053e 664e 523e 8550 233e
00000150: e0e2 703d bf2e 99bc 3396 91bb 4621 02be
00000160: da97 283d 67ac c4bc 70f8 57bc ad6a 6e3c
00000170: 2d14 b0bc b5c9 233e 43b5 aebc 63ad 4a3e
00000180: 3f73 da3c f57d cf3d 2928 a63d d81b 44bd
00000190: bf57 b2bd 73ca 7cbc 2312 f43a 6b74 173e
000001a0: 5866 663d 2d8d 7c3d 4e46 863c 44cf f6bc
000001b0: b63e 6dbd 8ee9 95bd 9c13 f7bc 5973 b1bd
000001c0: da79 ea3d 4fb6 1d3e e1e7 083e 17ce e1bd
000001d0: aecb 063e 3017 023e a8a1 063e 0315 93bd
000001e0: a9fb 95bd b300 193e 2b55 123d c051 203d
000001f0: 38fc 023d c7da 313e c079 ea3d 50d5 5b3c
00000200: 07cf 003d 8c86 24bd 9768 343c 8e3f c53d
00000210: 333f 0d3e 7bea e6bd 162c 1ebe f3a3 24be
00000220: 6c43 9cbd 4063 0f3e f87c 1bbd 9aa7 f73d
00000230: de48 f63c 15d1 953d 5a0d b5bd a36c 49bb
00000240: 7050 14be aba7 09be 4566 a63b f196 dd3d
00000250: 68d7 8b3d 48ed 89bc 4aa8 c93d 1694 a63d
00000260: b67e 433e c84f 353d 4d77 c0bc c322 eebd
00000270: 1316 7e3d 61d9 713d 004e 9c3c a4e6 f5bc
00000280: 70e0 3f3e 48e2 c13d d32e 0cbe b848 4dbd
00000290: 6aa5 62bd 9e62 1abd 909b ef3d 4b38 263e
000002a0: df13 14bd 67cd 64bd 443a 9fbc bf7e 643d
000002b0: 9bee 49bd 0d66 653e 963c bd3d ce3d 233e
000002c0: b7d6 03be 4478 38be 9a64 b3bc 6479 963d
000002d0: 7c3c f53d 3d95 b23b 3092 fd3d 134e 323e
000002e0: 1c54 ba3d e6ef f03b bc26 7dbd 68a5 793c
000002f0: 7d25 c93c 23f3 fd3d 620f cebc 453a 3b3d
00000300: 591c 06be 5749 10bd a5fc c03d 6e24 7fbd
00000310: 8fc7 fb3d 6858 84bd f236 d23d 867c 4abd
00000320: f1da 193a 9263 1abd a15c 26bd f6dc 0d3c
00000330: 41c9 09be 53b2 dabd e9f8 6dbd 28da 2b3d
00000340: 6496 d83d 1f7b 523d 3a72 343e 209a f0bd
00000350: b38b 31bd 2d1e 883d 43e5 80bd e387 cabc
00000360: 979d 26bd f748 b43d f1b1 c7bc ed51 8b3d
00000370: b712 a23d a67a dbbd b2ed b43d 9c60 643d
00000380: fd9b aa3c 289d 233e 405c a0bd cd80 d5ba
00000390: d020 cdbb 29ed 533d 8b62 dd3c 36ea d13d
000003a0: 19ff 6f3d 6a82 f3bc d12b 27be 565b 603d
000003b0: 1656 aa3c a297 153d 3285 033e e4c0 d6bc
000003c0: 9a50 9cbd 0644 d4bd 7022 09bb f515 7c3c
000003d0: af75 68bd 01b1 62bd e271 d53c fe81 1e3c
000003e0: d746 dd3d b377 683d dedc 04bd 01ce 693d
000003f0: c52b 03bd 30f8 4cbd 9acf d33d aea7 a03c

fc1.bias f4 [128]
0.013950479 0.0131531665 -0.09136085 0.0226063 -0.020008305 0.028190244 0.0453173 -0.015622114
-0.07133727 0.13108616 -0.12907973 0.11222206 0.050203256 0.01340234 -0.13388175 0.061780475
-0.10474884 0.0034157864 0.08428898 0.16284093 -0.07169007 -0.09244079 -0.12346124 0.018533481
-0.13903157 -0.122795455 -0.09017086 0.077841915 0.043136228 0.17458273 0.054760385 0.022490641
-0.04770346 -0.07228687 -0.089880966 0.058879044 0.053654727 0.009036048 0.014791231 -0.06107166
-0.106190994 0.09197111 0.1100176 -0.028686743 0.049239833 0.080550425 -0.05939771 -0.08059282
-0.066444315 0.03705111 0.011258626 0.0035012125 -0.14065354 -0.16705123 0.034761507 -0.003835172
0.047992192 0.040322747 0.027292121 -0.014188396 -0.12829939 0.034711093 -0.019044332 -0.024560688
0.03337977 0.032635592 0.09042502 -0.020336546 -0.050449915 -0.1284216 -0.13180976 0.022683067
-0.032164887 -0.011459264 -0.12633975 -0.055398528 -0.16464812 -0.16513267 0.0036185307 0.1057669
0.021575192 -0.057295896 -0.018179648 0.068254955 0.023946686 -0.08584989 -0.090820335 0.097212486
-0.020716617 -0.03224684 -0.04705971 0.080785826 0.038149133 -0.00926876 0.00077674224 -0.06455453
0.03816185 0.058772933 0.0006298128 -0.055877637 0.13858213 0.05539677 0.11795834 0.057477362
0.0866987 -0.014079308 0.03330658 -0.05572558 0.031961776 0.03234996 0.08977396 -0.049383752
-0.13920605 0.033039097 0.07579462 0.109944776 0.11218289 -0.032798875 -0.06397792 -0.18553369
-0.043593507 0.101714335 0.17456874 -0.1361763 -0.00040155376 0.013103268 -0.13559522 0.013456506
00000000: 8d90 643c 6180 573c 661b bbbd d930 b93c
00000010: 75e8 a3bc 3aef e63c a29e 393d e5f3 7fbc
00000020: 4619 92bd 733b 063e 7a2d 04be aed4 e53d
00000030: eea1 4d3d 7d95 5b3c 4c18 09be 860d 7d3d
00000040: 8f86 d6bd 63db 5f3b b39f ac3d c6bf 263e
00000050: 3ed2 92bd 9951 bdbd 3fd9 fcbd 87d3 973c
00000060: 4b5e 0ebe 2f7c fbbd 80ab b8bd 956b 9f3d
00000070: 9daf 303d d1c5 323e 6d4c 603d 4b3e b83c
00000080: b464 43bd 230b 94bd 8313 b8bd 272b 713d
00000090: 0fc5 5b3d ef0b 143c eb56 723c 4726 7abd
000000a0: aa7a d9bd 595b bc3d e850 e13d 7600 ebbc
000000b0: b5af 493d 9ff7 a43d 034b 73bd d90d a5bd
000000c0: f513 88bd e8c2 173d 1a76 383c 9974 653b
000000d0: 7b07 10be 7a0f 2bbe 1562 0e3d 8257 7bbb
000000e0: 7693 443d 7729 253d ba93 df3c 7276 68bc
000000f0: ea60 03be 382d 0e3d dc02 9cbc 7f33 c9bc
00000100: 3ab9 083d e6ac 053d c130 b93d d498 a6bc
00000110: 92a4 4ebd f480 03be 23f9 06be d7d1 b93c
00000120: 54bf 03bd a3bf 3bbc 355f 01be 91e9 62bd
00000130: 8499 28be 8a18 29be df24 6d3b 519c d83d
00000140: 75be b03c 1aaf 6abd 7ced 94bc 41c9 8b3d
00000150: d72b c43c 11d2 afbd 0300 babd 5717 c73d
00000160: e5b5 a9bc 4315 04bd afc1 40bd 0a73 a53d
00000170: 4442 1c3d ffdb 17bc 4a9e 4b3a 2a35 84bd
00000180: 9a4f 1c3d e3bb 703d 061a 253a f3df 64bd
00000190: 79e8 0d3e b9e7 623d 2494 f13d 626d 6b3d
000001a0: 178f b13d e6ac 66bc 7b6c 083d 8140 64bd
000001b0: 5aea 023d 6481 043d 69db b73d 9e46 4abd
000001c0: 088c 0ebe 0154 073d 363a 9b3d ba2a e13d
000001d0: 25c0 e53d 1d58 06bd db06 83bd 8bfc 3dbe
000001e0: 1b8f 32bd 9b4f d03d 26c2 323e cd71 0bbe
000001f0: a287 d2b9 17af 563c 79d9 0abe ad78 5c3c

fc2.weight f4 [128, 128]
0.036265824 0.017618041 0.014277943 0.021297 0.06222667 0.04336176 0.05007869 -0.0050064554
0.010756558 -0.026522513 -0.103168204 0.08846296 0.061136167 -0.06886529 -0.040924843 -0.01148895
-0.09074919 0.016111212 -0.07956236 -0.00021841843 0.08289266 -0.06398538 0.09959349 0.03191388
0.070581526 0.0622797 -0.100956306 0.030094543 -0.061792795 -0.06271631 -0.057763442 0.018090693
-0.043264315 0.04457428 0.023926118 0.057318266 0.1517931 -0.011423133 0.0016118579 -0.005599197
0.0092511065 0.13176346 -0.07067461 0.057867873 -0.048464045 -0.051432595 0.044063658 0.07615526
-0.020503633 0.08903915 0.009078562 -0.10428588 0.0069765695 0.07932882 0.07887598 -0.00974931
-0.007300201 -0.037680686 0.009566519 -0.08633194 -0.06897605 -0.082797825 -0.017756319 0.065317795
-0.1155916 0.040368643 0.015455055 -0.05125151 -0.09309046 0.015776694 0.048717853 0.041049495
-0.028975297 0.06088182 0.06916411 -0.084697254 -0.039204106 0.08886726 -0.004080915 0.024343126
-0.02494096 0.0610853 -0.074154936 0.026659079 -0.07030732 -0.007064628 -0.037572272 -0.029405134
-0.0017161332 0.08540678 0.06858586 -0.02887046 0.0042603402 -0.050743133 0.049734235 0.067250386
-0.025362855 0.049555276 0.090478316 0.10457038 -0.048649117 -0.011908851 0.12012512 -0.047432106
-0.017817978 -0.07188943 -0.106558144 -0.039219 0.07758475 -0.014784742 0.018683195 -0.117525294
-0.024260888 -0.07049126 -0.04481727 0.015154395 -0.0016303562 -0.07284761 -0.008390498 -0.098998226
-0.060853735 0.023491226 -0.016079001 -0.08888759 0.09012166 0.049768582 -0.021509934 -0.11191064
-0.07038446 -0.031028986 -0.05383209 0.030924842 -0.010740492 0.019611282 0.05961906 -0.08381311
-0.12128493 0.02759706 0.009294802 -0.02868501 0.03969509 0.040736802 -0.0322612 0.03811995
0.045813628 0.041463885 -0.04913446 0.029771153 0.035782445 0.03900166 -0.011723058 0.02344629
-0.04811404 -0.017460879 -0.10707425 0.010504966 -0.02326476 -0.036793984 -0.1314499 0.0023018296
-0.015235617 0.07048235 0.003992634 0.041617673 -0.038271975 -0.06415713 -0.024158223 -0.022666436
0.008113732 -0.18384919 -0.0151136285 0.016791897 0.012419653 0.00053323293 -0.069703676 -0.010403821
0.018347336 0.030008778 -0.0045539327 -0.08947639 0.061982304 -0.086659245 0.042971373 0.018882688
0.055649046 -0.0069128554 0.004212276 -0.09684464 0.0072539495 -0.055755116 -0.0110573275 -0.19392782
-0.053968765 -0.0033490525 0.06423189 -0.1269574 0.09005545 0.02334857 -0.10755644 0.0592475
-0.06446989 -0.104022406 0.048630137 -0.07025652 -0.08636797 0.026155949 0.04006282 -0.07287272
-0.101391904 -0.022633737 -0.10180008 0.03810559 -0.023126414 0.015895728 -0.0017184092 -0.023368511
-0.00450966 -0.0015934098 -0.0019379936 0.018832395 -0.047762085 0.07402443 -0.11127332 0.055358786
-0.010240843 0.06804182 -0.1225913 -0.1169221 0.055461865 -0.11390654 0.018534617 -0.019458484
-0.0022329928 -0.14435573 0.06687845 -0.12646292 -0.15334554 -0.027459126 -0.119365856 0.0044557983
0.037220273 -0.0123504 -0.051304873 0.0013879071 -0.0023673752 -0.060118612 0.032849938 -0.056029778
-0.012674153 0.03841743 -0.12215598 -0.08399958 -0.15149294 0.0074995374 -0.07279814 0.007915367
00000000: 798b 143d b653 903c 09ee 693c 0c77 ae3c
00000010: 65e1 7e3d 1a9c 313d 501f 4d3d 310d a4bb
00000020: 463c 303c be45 d9bc da49 d3bd 122c b53d
00000030: eb69 7a3d 3f09 8dbd cfa0 27bd 263c 3cbc
00000040: b6da b9bd a9fb 833c 97f1 a2bd 4007 65b9
00000050: a0c3 a93d c40a 83bd acf7 cb3d 21b8 023d
00000060: 0c8d 903d 0019 7f3d 2ec2 cebd d588 f63c
00000070: 711a 7dbd 6971 80bd 5c99 6cbd ef32 943c
00000080: ec35 31bd 8593 363d b500 c43c 8fc6 6a3d
00000090: a76f 1b3e 1828 3bbc fa44 d33a 7879 b7bb
000000a0: f491 173c 00ed 063e dabd 90bd dd06 6d3d
000000b0: 3c82 46bd fcaa 52bd 187c 343d 4af7 9b3d
000000c0: 3cf7 a7bc 285a b63d 40be 143c d693 d5bd
000000d0: b59b e43b 2677 a23d bb89 a13d 92bb 1fbc
000000e0: 8636 efbb 1057 1abd e4bc 1c3c cdce b0bd
000000f0: 5143 8dbd e891 a9bd b375 91bc 56c5 853d
00000100: 4abb ecbd 9759 253d 3337 7d3c 1aed 51bd
00000110: 36a6 bebd 203e 813c 5f8c 473d 8423 283d
00000120: 9a5d edbc 375f 793d eaa5 8d3d c175 adbd
00000130: 7c94 20bd 0a00 b63d 32b9 85bb 3c6b c73c
00000140: fc50 ccbc 9434 7a3d 8bde 97bd 2464 da3c
00000150: 49fd 8fbd 657e e7bb 62e5 19bd 09e3 f0bc
00000160: e0ef e0ba c0e9 ae3d be76 8c3d be81 ecbc
00000170: 539a 8b3b 08d8 4fbd 20b6 4b3d 92ba 893d
00000180: c3c5 cfbc 79fa 4a3d b24c b93d ff28 d63d
00000190: 4c44 47bd 571d 43bc 2904 f63d 2b48 42bd
000001a0: 02f7 91bc c43a 93bd 283b dabd 1aa4 20bd
000001b0: c1e4 9e3d b43b 72bc 800d 993c 1ab1 f0bd
000001c0: c5be c6bc b95d 90bd 5092 37bd 244a 783c
000001d0: adb1 d5ba 2131 95bd 4d78 09bc 95bf cabd
000001e0: c441 79bd ac70 c03c 1cb8 83bc b20a b6bd
000001f0: b491 b83d 24da 4b3d 9a35 b0bc 6831 e5bd
00000200: ba25 90bd 8030 febc 0a7f 5cbd 1856 fd3c
00000210: e3f8 2fbc d7a7 a03c 1e33 743d 35a6 abbd
00000220: 3c64 f8bd 3b13 e23c 3a49 183c d3fc eabc
00000230: 5297 223d a2db 263d 5224 04bd aa23 1c3d
00000240: 12a7 3b3d 09d6 293d 3741 49bd a2e2 f33c
00000250: 9d90 123d 34c0 1f3d 1212 40bc 6f12 c03c
00000260: 3a13 45bd 1e0a 8fbc bf49 dbbd 051d 2c3c
00000270: bd95 bebc 4ab5 16bd cd9a 06be 4bda 163b
00000280: cf9e 79bc 0d59 903d a4d4 823b 4b77 2a3d
00000290: 13c3 1cbd d064 83bd 77e7 c5bc f6ae b9bc
000002a0: 75ef 043c f642 3cbe 279f 77bc 298f 893c
000002b0: cd7b 4b3c a8c8 0b3a cdc0 8ebd ca74 2abc
000002c0: 274d 963c f8d4 f53c 2839 95bb 663f b7bd
000002d0: 28e1 7d3d 677a b1bd c002 303d deaf 9a3c
000002e0: 41f0 633d 3c85 e2bb 2207 8a3b 7c56 c6bd
000002f0: 8ab2 ed3b 7a5f 64bd cb29 35bc 0495 46be
00000300: 5a0e 5dbd c77b 5bbb 028c 833d 1f01 02be
00000310: fe6e b83d 8045 bf3c 8d46 dcbd 82ad 723d
00000320: ca08 84bd b309 d5bd 6530 473d a6e2 8fbd
00000330: b1e1 b0bd 0045 d63c e918 243d 4b3e 95bd
00000340: 8fa6 cfbd 636a b9bc 8f7c d0bd 9b14 1c3d
00000350: 9b73 bdbc c237 823c 3f3c e1ba 526f bfbc
00000360: c5c5 93bb f6d9 d0ba 4604 feba 6546 9a3c
00000370: 2da2 43bd 1f9a 973d 44e3 e3bd e5bf 623d
00000380: 35c9 27bc 8259 8b3d 2611 fbbd db74 efbd
00000390: fb2b 633d d547 e9bd e9d5 973c 6667 9fbc
000003a0: 6757 12bb fdd1 13be 92f7 883d 7f7f 01be
000003b0: 9d06 1dbe f6f1 e0bc 1676 f4bd f201 923b
000003c0: 4974 183d 5559 4abc 0f25 52bd 6fea b53a
000003d0: f725 1bbb ef3e 76bd a88d 063d 7b7f 65bd
000003e0: 40a7 4fbc 985b 1d3d ea2c fabd f907 acbd
000003f0: f720 1bbe aebe f53b 3117 95bd 75af 013c

fc2.bias f4 [128]
-0.07655801 -0.06281131 -0.098752335 0.056214295 0.04327849 -0.06515493 -0.07858137 -0.05472156
-0.04643359 -0.023294207 -0.11245199 -0.015224387 0.15334907 0.094112635 0.010292652 -0.020996647
-0.074620016 -0.00213397 -0.07426473 0.045936253 0.09567117 -0.069045685 -0.022691442 -0.041815363
-0.07219385 -0.03598781 -0.0021498906 0.080174394 0.06350069 -0.07048249 -0.04063593 -0.10867537
-0.05509652 0.055344425 0.084243536 0.054048736 0.09778303 -0.04923565 0.08279793 0.03642632
-0.03942216 -0.051819496 -0.05136867 -0.061173435 -0.003167016 0.04830591 -0.028195849 -0.104510196
-0.05711886 -0.007265143 0.003986016 0.028797857 0.061070275 -0.019306011 -0.043888316 0.112859495
-0.065386064 -0.056742158 -0.11659635 -0.03659739 -0.052253302 0.014062377 -0.04414343 0.04039338
0.08797959 0.010728246 -0.028065786 -0.07899335 0.08384364 0.046661817 0.03845946 0.18567342
-0.006729612 -0.016593952 -0.09164296 0.059342638 0.0014908232 0.039218973 0.063877225 0.03630727
-0.06800875 0.09215488 -0.13490936 -0.06033473 -0.04275192 -0.0011708137 0.087739736 -0.022206422
0.06679553 0.022074295 -0.008450055 0.0157075 -0.08770621 0.04744805 0.07278876 -0.027070722
-0.12934262 -0.09525617 0.032653928 -0.12037247 -0.038900495 0.010112077 0.023298247 -0.062332403
-0.0009422607 0.04953706 -0.008423489 -0.11141568 -0.027041066 -0.06613987 0.017809166 -0.049867902
-0.061867196 -0.025634939 -0.08114321 0.06562314 0.10420326 -0.08760137 -0.033630118 -0.0399262
-0.055000167 0.08473009 0.018614832 0.038962845 -0.017618943 -0.08016209 0.013273698 -0.03068958
00000000: 72ca 9cbd 37a3 80bd aa3e cabd f640 663d
00000010: c944 313d f36f 85bd 45ef a0bd b723 60bd
00000020: 2631 3ebd 7ed3 bebc 3b4d e6bd b56f 79bc
00000030: 8a07 1d3e 20be c03d 83a2 283c 2901 acbc
00000040: 61d2 98bd 13da 0bbb 1b18 98bd a727 3c3d
00000050: 3fef c33d d367 8dbd 67e3 b9bc 9646 2bbd
00000060: 5fda 93bd f467 13bd 2ee5 0cbb 7932 a43d
00000070: a60c 823d 2059 90bd dc71 26bd 3191 debd
00000080: e3ac 61bd d6b0 623d e087 ac3d 3562 5d3d
00000090: 7842 c83d 52ab 49bd f691 a93d c433 153d
000000a0: 2179 21bd ae40 54bd f467 52bd ff90 7abd
000000b0: b68d 4fbb 6bdc 453d fbfa e6bc 7109 d6bd
000000c0: 77f5 69bd 7010 eebb 209d 823b 7ce9 eb3c
000000d0: d324 7a3d a427 9ebc 3cc4 33bd e122 e73d
000000e0: 21e9 85bd 776a 68bd 11ca eebd 25e7 15bd
000000f0: 8f07 56bd e265 663c becf 34bd 8773 253d
00000100: a52e b43d 86c5 2f3c 38ea e5bc 44c7 a1bd
00000110: 37b6 ab3d 7620 3f3d ab87 1d3d 2c21 3e3e
00000120: 1484 dcbb 0af0 87bc 4eaf bbbd 4411 733d
00000130: ba67 c33a 13a4 203d 10d2 823d efb6 143d
00000140: 2c48 8bbd b3bb bc3d ae25 0abe 8d21 77bd
00000150: a31c 2fbd fd75 99ba e4b0 b33d 3eea b5bc
00000160: 18cc 883d 27d5 b43c 1972 0abc 04ad 803c
00000170: 509f b3bd e358 423d 4612 953d 6bc3 ddbc
00000180: 6472 04be ab15 c3bd 20c0 053d d785 f6bd
00000190: 2056 1fbd 20ad 253c f7db be3c 4350 7fbd
000001a0: 0c02 77ba 5fe7 4a3d ac02 0abc e72d e4bd
000001b0: 3a85 ddbc 5774 87bd 87e4 913c 4942 4cbd
000001c0: 7568 7dbd 5d00 d2bc 692e a6bd 6d65 863d
000001d0: 8568 d53d 5968 b3bd bcbf 09bd a889 23bd
000001e0: db47 61bd f886 ad3d 227e 983c 8197 1f3d
000001f0: 9a55 90bc 062c a4bd ed79 593c b768 fbbc

q_out.weight f4 [5, 128]
-0.010968453 0.019062452 0.039137796 -0.021259148 -0.097489744 -0.08659991 -0.03826177 0.03903839
-0.11348147 -0.009328135 -0.04421128 -0.039038394 -0.12376044 -0.016790178 -0.02314916 -0.044067666
-0.04252419 0.09268596 -0.026758749 -0.05317277 0.06885093 -0.013332642 -0.063210726 0.015942322
0.0029189861 -0.022767412 -0.027556848 -0.066307046 -0.016314121 -0.005964344 -0.03906035 0.04420236
-0.02710707 -0.062266465 -0.094117254 -0.016016876 -0.11096537 0.00999925 0.04664258 -0.14742066
-0.0690135 -0.004912209 -0.013760841 -0.028473292 -0.06747924 -0.12043974 -0.022570997 -0.05799029
0.040338587 0.07235572 -0.065174736 -0.07838749 -0.03167537 -0.11787463 -0.019497838 -0.10434802
0.010327937 0.028114669 0.0878224 0.07706218 0.11792278 -0.027478734 0.0040367767 -0.09161491
-0.029816693 -0.0494973 -0.19922714 0.043328036 -0.07365872 -0.058470223 0.018389849 -0.12658602
-0.109307386 0.03370824 0.046037402 0.08565998 -0.064747185 -0.08157116 0.05346381 -0.057231642
-0.033037186 -0.06578583 0.03306221 -0.01894691 -0.12150886 -0.0785863 -0.094377786 -0.064184524
0.008862697 -0.09437529 0.06946917 -0.042788666 -0.07871476 0.1849401 -0.16638981 -0.051478308
0.004865674 -0.05768342 -0.08916332 0.05916858 -0.04176 0.015699632 -0.09143005 -0.05544866
0.009238445 -0.120213516 0.0017836296 -0.0095130075 -0.048651516 -0.019169703 0.04065753 -0.08360588
0.04034233 0.059152924 -0.001798745 -0.13159128 -0.06535981 -0.03440809 -0.04188623 -0.06560208
-0.041903656 -0.056672867 -0.07623359 -0.036498334 -0.09411633 0.041344382 -0.038249213 -0.026183054
-0.025750225 0.01001602 0.011984892 -0.08380912 -0.04881931 0.048792616 -0.016936509 0.016241198
-0.14523406 0.06330528 0.044121526 -0.013212464 0.31152058 -0.02950031 -0.07054777 0.0059489235
0.008357394 -0.06749812 -0.008501228 -0.029147454 -0.20342375 -0.10474481 -0.027388442 0.032365445
-0.042944662 -0.041035436 -0.007147475 -0.117116325 -0.082842536 0.0075353277 -0.12200879 -0.0023790898
-0.032726232 -0.13294512 -0.077345006 -0.036550954 0.0019175047 -0.035641614 -0.19302262 0.010700133
-0.081122614 -0.0064265826 -0.078157246 -0.051270247 -0.13357538 0.02580618 0.017278343 0.051947583
0.01182391 -0.15689327 -0.07994098 -0.035599556 -0.06199897 0.022934936 -0.059027042 -0.053942338
-0.008021747 -0.04501759 -0.0841006 0.02101728 -0.09742601 -0.0013980004 -0.11818987 0.0009914042
0.14118885 -0.03717072 -0.15895464 0.0029020747 0.01586624 -0.033767555 -0.048794843 0.08638335
0.017378155 -0.013144902 0.050804116 -0.19262938 -0.07085821 -0.004003405 -0.111523256 -0.043700922
-0.014828921 -0.09847093 0.014386168 -0.15833509 -0.11094922 -0.029936109 -0.019121174 -0.11406214
-0.2290166 -0.024908507 0.025943449 0.0024342728 0.061833955 -0.11261284 -0.16477452 -0.0005715864
-0.04535693 -0.06754429 -0.01418649 -0.0006312069 -0.06575786 -0.060975738 0.04117611 -0.008004071
-0.027665418 0.024022097 -0.11956438 0.05230188 -0.015488755 -0.029515121 -0.03574627 -0.11805526
-0.14756688 0.03540467 -0.050782457 -0.05172057 -0.042455353 -0.047314674 -0.0032384729 -0.1466764
-0.021547422 -0.052465815 -0.04610043 -0.047711167 -0.059847593 0.016816393 -0.121442474 -0.085432045
00000000: 07b5 33bc dc28 9c3c f44e 203d aa27 aebc
00000010: b4a8 c7bd 4b5b b1bd 60b8 1cbd b8e6 1f3d
00000020: f968 e8bd 09d5 18bc e316 35bd b9e6 1fbd
00000030: 1d76 fdbd 8e8b 89bc 4fa3 bdbc 4c80 34bd
00000040: d82d 2ebd 23d2 bd3d 2a35 dbbc b1cb 59bd
00000050: b701 8d3d 2771 5abc a074 81bd 7999 823c
00000060: 764c 3f3b b982 babc e6be e1bc fdcb 87bd
00000070: 31a5 85bc 8b70 c3bb bffd 1fbd 890d 353d
00000080: a50f debc 1f0b 7fbd 8cc0 c0bd d335 83bc
00000090: d041 e3bd e5d3 233c 4a0c 3f3d 71f5 16be
000000a0: f356 8dbd 99f6 a0bb 2775 61bc d240 e9bc
000000b0: 8e32 8abd 1ca9 f6bd d0e6 b8bc 3a87 6dbd
000000c0: 133a 253d 3c2f 943d 557a 85bd 9f89 a0bd
000000d0: 08be 01bd 4168 f1bd eeb9 9fbc 6ab4 d5bd
000000e0: 8236 293c bc50 e63c 3bdc b33d c7d2 9d3d
000000f0: 8081 f13d 151b e1bc f046 843b 99a0 bbbd
00000100: 2342 f4bc aebd 4abd 3302 4cbe bd78 313d
00000110: 62da 96bd 797e 6fbd 4fa6 963c c49f 01be
00000120: 8ddc dfbd a711 0a3d b791 3c3d 806e af3d
00000130: 2c9a 84bd c80e a7bd defc 5a3d ba6b 6abd
00000140: 0052 07bd b9ba 86bd 3d6c 073d 8d36 9bbc
00000150: a3d9 f8bd dbf1 a0bd 2449 c1bd 2d73 83bd
00000160: d834 113c d547 c1bd da45 8e3d 2b43 2fbd
00000170: 3435 a1bd f060 3d3e 1762 2abe ebda 52bd
00000180: 3b70 9f3b 7345 6cbd 429b b6bd c15a 723d
00000190: 890c 2bbd 849c 803c ae3f bbbd 221e 63bd
000001a0: d95c 173c 8132 f6bd aec8 e93a 72dc 1bbc
000001b0: d046 47bd c809 9dbc 8388 263d 8f39 abbd
000001c0: 003e 253d 564a 723d dec3 ebba ddbf 06be
000001d0: 5ddb 85bd 7fef 0cbd e590 2bbd 625a 86bd
000001e0: 2ba3 2bbd cf21 68bd 5b20 9cbd 477f 15bd
000001f0: 10c0 c0bd ba58 293d 35ab 1cbd d87d d6bc
00000200: 23f2 d2bc 3c1a 243c 485c 443c 1ea4 abbd
00000210: c2f6 47bd c4da 473d 6fbe 8abc 430c 853c
00000220: 3db8 14be 33a6 813d c6b8 343d 1779 58bc
00000230: a07f 9f3e a2aa f1bc 597b 90bd 30ef c23b
00000240: 73ed 083c 743c 8abd bc48 0bbc a4c6 eebc
00000250: 514e 50be 7284 d6bd ba5d e0bc a191 043d
00000260: bee6 2fbd c614 28bd 5e35 eabb afda efbd
00000270: 59a9 a9bd e9ea f63b bfdf f9bd 81ea 1bbb
00000280: f10b 06bd c422 08be 0f67 9ebd 74b6 15bd
00000290: c854 fb3a f1fc 11bd b9a7 45be 9c4f 2f3c
000002a0: 9d23 a6bd 1596 d2bb e810 a0bd c000 52bd
000002b0: fcc7 08be 7b67 d33c 508b 8d3c fdc6 543d
000002c0: 13b9 413c a1a8 20be 19b8 a3bd d7d0 11bd
000002d0: a2f2 7dbd 0ce2 bb3c 57c6 71bd a4f2 5cbd
000002e0: a56d 03bc 5d64 38bd ef3c acbd 6e2c ac3c
000002f0: 4a87 c7bd 1c3d b7ba 880d f2bd 01f2 813a
00000300: cf93 103e 5340 18bd 01c5 22be bc30 3e3b
00000310: ebf9 813c d94f 0abd 1add 47bd c1e9 b03d
00000320: a25c 8e3c b75d 57bc fa17 503d a340 45be
00000330: 1c1e 91bd ff2e 83bb 4e66 e4bd bdff 32bd
00000340: 01f5 72bc 20ab c9bd f6b3 6b3c 9822 22be
00000350: 5839 e3bd 923c f5bc 02a4 9cbc 6999 e9bd
00000360: 5483 6abe ed0c ccbc 5b87 d43c 5288 1f3b
00000370: 9a45 7d3d 90a1 e6bd a7ba 28be 84d6 15ba
00000380: 30c8 39bd a954 8abd 746e 68bc 9477 25ba
00000390: 0fac 86bd b2c1 79bd 48a8 283d 8223 03bc
000003a0: 96a2 e2bc fdc9 c43c 2bde f4bd 7f3a 563d
000003b0: 8cc4 7dbc b2c9 f1bc ae6a 12bd f5c6 f1bd
000003c0: c61b 17be 7d04 113d 4401 50bd f3d8 53bd
000003d0: aae5 2dbd 08cd 41bd 8f3c 54bb 5732 16be
000003e0: 3884 b0bc 65e6 56bd ced3 3cbd c96c 43bd
000003f0: c022 75bd 88c2 893c d5b6 f8bd fff6 aebd

q_out.bias f4 [5]
0.027831007 0.00078828103 -0.06024893 -0.08545865 -0.008732454
00000000: dafd e33c a5a4 4e3a 95c7 76bd f204 afbd
00000010: 9112 0fbc
