models/First_Model/q_te_agent_3.pt (torch, 108561 bytes, 6 tensors)

fc1.weight f4 [128, 71]
0	0xbd8efd04	-0.06981853
1	0xbd01bf71	-0.031676713
2	0x3e6a5db4	0.22887307
3	0xbd86d4ab	-0.06583532
4	0x3dc6b8da	0.097032264
5	0x3d90ab87	0.07063966
6	0x3d507ca9	0.050900135
7	0x3d9ecc16	0.0775377
8	0x3d08d42a	0.03340546
9	0x3db9a94e	0.090654954
10	0x3e48c0b0	0.19604754
11	0x3df2c076	0.11853115
12	0x3d9ce954	0.07661691
13	0xbd165794	-0.036704615
14	0xbd112fbc	-0.035445914
15	0x3d21408b	0.039368194
16	0x3e00e2d7	0.12586533
17	0x3df19d62	0.117975965
18	0x3dd24046	0.102661654
19	0x3e96ae39	0.29429796
20	0xbd85352a	-0.06504281
21	0xbd2b252d	-0.0417835
22	0x3cbd0d59	0.023077654
23	0x3e19ad06	0.1500741
24	0x3e11e75b	0.14248411
25	0x3e58a3b4	0.21156198
26	0x3e15332b	0.145703
27	0xbe0106bf	-0.1260023
28	0xbc468a34	-0.012117911
29	0xbd947006	-0.07247929
30	0x3db5a40c	0.0886918
31	0x3e6c2a8b	0.23063104
32	0x3d570168	0.052491575
33	0x3dcefba5	0.10106591
34	0xbd7bf2ab	-0.061510723
35	0xbd5d7f72	-0.05407662
36	0x3e187d8e	0.14891645
37	0xbdd49adf	-0.10381102
38	0x3ca0dbd2	0.019636068
39	0x3d63b604	0.055593506
40	0xbd54957b	-0.05190037
41	0x3e033c26	0.12815914
42	0x3e352117	0.17688404
43	0xbad3c66f	-0.001615716
44	0xbbc3c2c3	-0.005974145
45	0x3d42d35c	0.04756485
46	0x3e23fb93	0.16013937
47	0x3e06e31e	0.13172576
48	0xbe19516c	-0.14972466
49	0xbc839306	-0.016061317
50	0xbd346e40	-0.044050455
51	0x3d97712b	0.07394632
52	0x3d9139ac	0.07091078
53	0x3d77bb6c	0.060481474
54	0x3e1f6fba	0.15569964
55	0xbd67bb00	-0.05657482
56	0xbd8e42bd	-0.06946323
57	0xbbf34bc7	-0.007424805
58	0xbbf13e95	-0.0073621967
59	0x3cc73cca	0.024320979
60	0x3e5340d0	0.20630193
61	0xbd688929	-0.05677143
62	0xbdb98cb7	-0.09060042
63	0xbbe0d065	-0.00686078
64	0xbdc4990c	-0.09599504
65	0x3d6284e7	0.055302527
66	0x3e4634db	0.193561
67	0x3c8ae3a1	0.016954245
68	0x3dd14b72	0.10219468
69	0xbdd2c49e	-0.10291408
70	0x3e32c451	0.17457701
71	0xbd198537	-0.03748056
72	0xbdac6137	-0.0841698
73	0x3ce270bc	0.027641647
74	0x3df3d0c5	0.11905054
75	0x3c8af7a5	0.01696379
76	0x3d5af103	0.053452503
77	0xbe1a5ce1	-0.15074493
78	0x3d0117c1	0.031516794
79	0x3e4d321f	0.20038651
80	0xbd92e3b2	-0.07172336
81	0x3e5c8580	0.21535301
82	0x3e8e5632	0.27800137
83	0x3e38e2e0	0.18055296
84	0xbd1ee191	-0.038789336
85	0xbd84f74d	-0.064924814
86	0xbe075827	-0.13217221
87	0x3cca371f	0.024684487
88	0x3e12b8ea	0.14328352
89	0xbd73e1ac	-0.05954139
90	0xbdbe0593	-0.09278407
91	0x3d29deea	0.041472353
92	0x3d6dc5af	0.058049854
93	0xbd4dda25	-0.050256867
94	0xbe14da8e	-0.14536497
95	0x3cb5bcae	0.022184696
96	0xbc32c80a	-0.010911951
97	0xbb97a5a4	-0.0046279
98	0x3c06fec6	0.008239454
99	0x3da96a16	0.082721874
100	0x3d8a405a	0.06750555
101	0x395b5fcc	0.00020921155
102	0x3d015cef	0.03158277
103	0x3d9f26f7	0.07771104
104	0x3e1a4eb5	0.15069087
105	0xbd723e33	-0.05914135
106	0xbcbb6fc9	-0.022880452
107	0xbd27734b	-0.040881436
108	0x3d76ad0e	0.06022363
109	0xbdab4a4a	-0.08363779
110	0x3e39f215	0.18158753
111	0xbd2312d8	-0.039812893
112	0x3e437896	0.19088969
113	0x3d2e9004	0.042617813
114	0xbcb75e7e	-0.022383925
115	0x3d352790	0.044227183
116	0x3dbbd3d8	0.09171265
117	0x3e516fbf	0.20452784
118	0x3cb172f9	0.021661269
119	0x3d7c4e62	0.06159819
120	0x3e058291	0.13038088
121	0xbd58e223	-0.052950036
122	0x3cfcc935	0.030857662
123	0x3e1a0bd1	0.1504357
124	0x3d8fdbb2	0.070243254
125	0xbc5a6c36	-0.013331464
126	0xbda167fb	-0.07881161
127	0x3d1433b5	0.036182124
128	0x3c007164	0.007839534
129	0x3d24ad19	0.04020414
130	0x3e1fbd4a	0.15599552
131	0x3e3a03a4	0.18165451
132	0x3c7fb776	0.015607705
133	0x3d38fcb1	0.04516286
134	0x3b658df8	0.0035027247
135	0x3ca53380	0.020166159
136	0xbc68f18f	-0.014217748
137	0x3df98cb0	0.12185037
138	0x3e4bf60d	0.1991808
139	0x3df593e5	0.11991099
140	0xbdccb694	-0.099957615
141	0x3d2d0806	0.04224398
142	0x3d5c3b8a	0.05376772
143	0xbe110630	-0.14162517
144	0x3d0c4fc7	0.03425577
145	0xbd9de29d	-0.07709239
146	0x3d0fab3c	0.03507541
147	0xbc432bd5	-0.011912306
148	0xbd74ecd9	-0.059796188
149	0x3ddcb163	0.10776021
150	0x3e12383e	0.14279267
151	0x3db7212d	0.08941875
152	0x3e6b0040	0.22949314
153	0x3d6294d2	0.055317707
154	0x3e511d4e	0.20421335
155	0xbdd8eb97	-0.1059181
156	0xbe124d53	-0.1428731
157	0xbdf4e0f1	-0.11956967
158	0xbdc70c9d	-0.09719203
159	0xbcb637d5	-0.02224342
160	0xbe0c6f32	-0.13714293
161	0x3c147f12	0.009063499
162	0xbd6c5b36	-0.057704173
163	0x3d9b2a2e	0.075764045
164	0x3e1c3dfa	0.15258017
165	0xbcbf653e	-0.023363706
166	0x3cc76ef3	0.024344897
167	0x3e11b3d0	0.1422875
168	0x3c086969	0.008325913
169	0xbdb2affd	-0.08724973
170	0x3d308bce	0.04310208
171	0x3cf73c70	0.030180186
172	0x3ccdbc8d	0.025114322
173	0xbd41d7f9	-0.04732511
174	0x3d33ee3e	0.043928377
175	0x3e185837	0.14877401
176	0xbc43d150	-0.011951759
177	0xbdd1b606	-0.10239796
178	0x3c9b9196	0.01899032
179	0xbe326844	-0.17422587
180	0x3c177856	0.009244999
181	0x3dcc69a1	0.099810846
182	0x3d8e77b9	0.06956429
183	0x3e0a1fc6	0.13488683
184	0x3ca6e3d7	0.020372314
185	0x3dcd8855	0.10035769
186	0xbd5ba144	-0.05362059
187	0x3e6fbc96	0.23411784
188	0x3d3e829b	0.046511274
189	0xba16af05	-0.0005748126
190	0x3d04a4b5	0.03238364
191	0xbce76404	-0.028245933
192	0xbd82c3c8	-0.063849986
193	0xbd91110a	-0.07083328
194	0x3c3ff569	0.011716225
195	0x3e3d7490	0.18501496
196	0x3d6206d5	0.055182297
197	0x398f0254	0.0002727682
198	0x3dbad4a6	0.09122591
199	0xbd6653ee	-0.056232385
200	0x3cb2545b	0.02176874
201	0x3e3bca6e	0.1833894
202	0x3cb970ae	0.022636738
203	0x3dd370c7	0.10324245
204	0xbd651c52	-0.05593521
205	0xbdb991c7	-0.09061008
206	0x3d0a027e	0.033693783
207	0x3b6688d1	0.0035176764
208	0x3d88c6d9	0.06678552
209	0x3e2cca9c	0.16874164
210	0xbcaf68f1	-0.021412345
211	0xbd981495	-0.07425801
212	0x3d22ce2b	0.0397474
213	0x3c99ad62	0.018759433
214	0xbe0eee64	-0.13958126
215	0x3da0a9f7	0.07844918
216	0xbe12936a	-0.14314047
217	0x3ca30b16	0.019902747
218	0x3ca3fc35	0.020017723
219	0x3dde38fa	0.10850711
220	0x3ddcdabe	0.10783909
221	0x3e3e1356	0.18562064
222	0xbd358ff4	-0.044326738
223	0x3e6eb78a	0.23312202
224	0x3ea2ba06	0.3178255
225	0x3e419652	0.18904999
226	0xbb3c2e54	-0.0028714137
227	0xbe8b56eb	-0.2721475
228	0x3d227027	0.039657738
229	0x3d12f4da	0.03587804
230	0x3d875b38	0.066091955
231	0x3da81d5d	0.082087256
232	0x3dc4807b	0.09594818
233	0x3c4544f6	0.012040367
234	0xbda47b59	-0.08031339
235	0x3e41339e	0.18867347
236	0x3db53809	0.088485785
237	0x3e4137e5	0.18868978
238	0x3ebe850e	0.37210888
239	0x3e098846	0.1343089
240	0xbdc1c894	-0.09462085
241	0x3d7629bf	0.060098406
242	0xbe312e93	-0.17302923
243	0x3dd39497	0.10331076
244	0x3de7f987	0.113268904
245	0x3d8f32f2	0.06992139
246	0x3dbb4414	0.09143844
247	0xbd8af1bd	-0.06784389
248	0xbdaa0e18	-0.083034694
249	0x3de1d77c	0.110274285
250	0xbe045f56	-0.12926993
251	0x3e5dbe5f	0.21654652
252	0x3c1f9eec	0.00974248
253	0x3e03fc4b	0.12889211
254	0x3e41c038	0.18920982
255	0x3da1ddfd	0.07903669

fc1.bias f4 [128]
0	0x3e19531d	0.14973111
1	0x3ba9232a	0.0051616626
2	0x3dbbeca1	0.09175993
3	0xbb97ea81	-0.0046361093
4	0xbde17c87	-0.1101008
5	0x3d71c290	0.05902344
6	0xbc39d846	-0.0113430675
7	0xbbb1b621	-0.005423323
8	0xbd977ce2	-0.073968664
9	0x3d379a3d	0.044824827
10	0xbd1ddde9	-0.03854171
11	0xbdf5fc19	-0.120109744
12	0x3d278302	0.040896423
13	0xbdbcd4e3	-0.092202924
14	0xbdfefeff	-0.124509804
15	0xbd39a305	-0.045321483
16	0xbd03c03a	-0.032165743
17	0x3d9838e6	0.074327275
18	0x3d1ab465	0.037769694
19	0xbcbaa05a	-0.02278154
20	0x3dd09507	0.10184675
21	0xbd3a300d	-0.04545598
22	0x3e1fbdb9	0.15599717
23	0xbdd3f11c	-0.10348722
24	0x3d621f08	0.055205375
25	0x3d6f8eda	0.058485843
26	0x3d295814	0.041343763
27	0x3cd12822	0.025531832
28	0xbbae6d52	-0.0053230906
29	0x3d8d71b4	0.06906453
30	0x3e10af77	0.14129435
31	0xbe3548c6	-0.17703542
32	0xbd2a9b6a	-0.04165212
33	0xbdebd5a9	-0.11515362
34	0x3d849c27	0.06475096
35	0x3dae9802	0.08525087
36	0xbdb68c2a	-0.08913453
37	0x3d5cf2c7	0.053942468
38	0x3d9014e0	0.070352316
39	0xbdadf823	-0.08494594
40	0x3c15114b	0.009098361
41	0x3e04e0a9	0.12976326
42	0xbce1f758	-0.027583763
43	0xbd8af305	-0.067846335
44	0xbdcd2130	-0.10016096
45	0x3dbaac16	0.09114854
46	0x3d5d4861	0.054024104
47	0x3c8dbe59	0.017302679
48	0xbdf7dc13	-0.12102523
49	0xbdc3f052	-0.09567322
50	0xbd4507a5	-0.048102994
51	0x3bb2cc6a	0.005456497
52	0x3d9a2995	0.075274624
53	0x3c35ef1f	0.011104374
54	0xbd922b6d	-0.07137189
55	0xbd87d89f	-0.06633114
56	0xbb7d579b	-0.0038656953
57	0xbcbd818e	-0.023133066
58	0xbd003bd7	-0.031307068
59	0xbe035faf	-0.12829469
60	0xbd3b8f01	-0.045790676
61	0xbdce75f0	-0.100810885
62	0xb93c7119	-0.0001797121
63	0x3d6e1770	0.05812782
64	0xbd5a7aeb	-0.05333988
65	0x3d929125	0.0715659
66	0x3d812fc4	0.06307939
67	0x3dd519be	0.104053006
68	0x3d46e568	0.048558623
69	0xbd9a06b3	-0.07520809
70	0xbd8f7ce1	-0.07006241
71	0xbcdcdd7b	-0.026961079
72	0x3c8842ea	0.01663347
73	0xbdfb9b88	-0.122855246
74	0x3dc4fca4	0.096185
75	0x3e096d6e	0.1342065
76	0x3d9bfafb	0.0761623
77	0xbd3a218a	-0.04544214
78	0xbc6ca21c	-0.014442947
79	0x3e08297e	0.13297078
80	0xbd1283e2	-0.035770305
81	0x3dc0eec8	0.09420544
82	0x3dd989c1	0.106219776
83	0x3d98b157	0.074557
84	0x3d0dbbe5	0.03460302
85	0xbd34df6a	-0.044158377
86	0x3d3cef84	0.046126857
87	0xbcb46a22	-0.022023264
88	0xbdeea98b	-0.116534315
89	0x3ccc6b7e	0.0249536
90	0xbd30ac63	-0.04313315
91	0xbc6fb8b5	-0.01463144
92	0x3d587947	0.052850034
93	0x3d3be416	0.045871817
94	0xbdaf7ac8	-0.085683405
95	0x3dace165	0.08441428
96	0xbd7a03b1	-0.061038677
97	0xbd8909d8	-0.06691331
98	0x3dfee576	0.1244611
99	0xbc052151	-0.008125619
100	0xbe066170	-0.13123107
101	0x3e0b7b36	0.1362122
102	0x3df32121	0.11871553
103	0x3cf93ed1	0.030425461
104	0x3c9c7cec	0.019102536
105	0xbd895049	-0.06704766
106	0x3d3f0b4b	0.04664163
107	0x3dd8ce97	0.10586279
108	0xbdc7f654	-0.0976378
109	0x3e05a68e	0.13051817
110	0xbdd216b3	-0.10258236
111	0xbe219048	-0.15777695
112	0xbe0c20fb	-0.13684456
113	0x3db8ffa8	0.090331376
114	0x3d863939	0.06553883
115	0xbd8519ec	-0.06499085
116	0xbe0dc364	-0.13844067
117	0xbc084468	-0.008317091
118	0xbd293b37	-0.041316237
119	0xbd6d4549	-0.057927404
120	0xbd8d3903	-0.0689564
121	0x3da84b90	0.082175374
122	0x3daebe49	0.08532388
123	0x3de37ad8	0.11107415
124	0xbbe07905	-0.006850364
125	0x3d730ad3	0.059336495
126	0xbcece3c4	-0.0289172
127	0xbd92e4d5	-0.071725525

fc2.weight f4 [128, 128]
0	0x3ce9d604	0.028544433
1	0xbd3f61be	-0.046724074
2	0xbab54eb5	-0.0013832661
3	0x3bfd99a4	0.0077392627
4	0xbb97da4a	-0.0046341764
5	0x3b607795	0.0034250964
6	0x3d25ae16	0.040449224
7	0x3db4d4ae	0.08829628
8	0x3d297eba	0.04138062
9	0xbd7e8cdf	-0.062146064
10	0x3d2a290d	0.041543055
11	0xbb9c0942	-0.004761846
12	0x3e2e93d3	0.17048578
13	0xbd999ce6	-0.07500629
14	0x3da0e6fd	0.078565575
15	0x3ca70b7b	0.020391217
16	0x3d380553	0.044926953
17	0xbdc069f0	-0.09395206
18	0x3d7ad8af	0.0612418
19	0xbd1e334b	-0.038623136
20	0x3d9c15e2	0.07621361
21	0xbd955e53	-0.072933815
22	0xbc85a40d	-0.016313577
23	0xbd8b2062	-0.06793286
24	0x3dd23f62	0.102659956
25	0x3d04a703	0.032385837
26	0x3d193289	0.03740171
27	0xbd6b29f2	-0.05741305
28	0x3d3bd720	0.045859456
29	0x3d9a34dd	0.07529614
30	0x3d4a7901	0.049431805
31	0xbda4e0eb	-0.08050712
32	0x3cd83386	0.026391756
33	0xbde9ebf0	-0.11421955
34	0x3da35fe6	0.079772756
35	0xbc03ea2c	-0.008051436
36	0xbda42ed3	-0.080167435
37	0x3c4a0b32	0.012331771
38	0x3ddc6807	0.10762029
39	0x3d36544f	0.044513997
40	0xbc6f2c13	-0.01459791
41	0x3e4f84bf	0.20265482
42	0xbc3ff334	-0.011715699
43	0xbc1b0ac7	-0.009463019
44	0x3cd0832e	0.025453176
45	0x3d12c56f	0.03583282
46	0xbce352b7	-0.027749402
47	0x3d8520df	0.0650041
48	0xbd061311	-0.032733027
49	0x3da0ee6c	0.07857975
50	0xbca45ab3	-0.02006278
51	0xbdad51a4	-0.08462837
52	0xbb5b3f65	-0.0033454534
53	0x3da4f870	0.08055198
54	0x3d97e235	0.074161924
55	0x3d5370a9	0.051621113
56	0xbc8380d4	-0.016052641
57	0x3d10effe	0.035385124
58	0x3cd9df31	0.026595684
59	0xbc19789b	-0.0093671335
60	0x3b4727ea	0.003038878
61	0xbcafb07d	-0.02144646
62	0xbd9b8acb	-0.07594832
63	0x3ccf1457	0.025278253
64	0xbcf5f1fa	-0.03002261
65	0xbd4bd37b	-0.04976223
66	0x3e3adbab	0.18247859
67	0xbd04a5e6	-0.032384776
68	0x3d1e2686	0.038610958
69	0x3db50f74	0.08840838
70	0x3d43e04c	0.047821328
71	0x3ca50fe5	0.02014918
72	0x3cb38b3d	0.02191698
73	0x3d37b7e5	0.04485311
74	0xbbd150fe	-0.006387829
75	0x3dc09b01	0.09404565
76	0xbce435b0	-0.027857631
77	0xbcf0da99	-0.02940111
78	0x3da420a0	0.08014035
79	0x3c9abbd0	0.018888384
80	0x3d0cc6cd	0.03436928
81	0x3ce5ada3	0.028036898
82	0x3caae27a	0.020859946
83	0x3c9ada09	0.018902795
84	0x3ce412ae	0.027840938
85	0x3d802dd8	0.06258744
86	0x3e234a50	0.15946317
87	0x3da65ca8	0.081231415
88	0x3da3380d	0.07969675
89	0x3dbb91f9	0.091587014
90	0xbd05b09e	-0.03263914
91	0x3cd53805	0.026027689
92	0x3e10aac8	0.14127648
93	0xbca59a28	-0.020215109
94	0xbdadf13f	-0.0849328
95	0xbd10d083	-0.035355102
96	0xbd8ed893	-0.06974902
97	0xbdc2eedf	-0.09518217
98	0x3de72490	0.112862706
99	0xbc9431ea	-0.018090207
100	0x3d9057ac	0.07047972
101	0x3d10112b	0.035172623
102	0xb9e26f0b	-0.00043188813
103	0x3ae8d52b	0.0017763724
104	0x3ba091f8	0.0049002133
105	0x3d27577d	0.04085492
106	0xbc9c7b6f	-0.019101826
107	0xbc37d70e	-0.011220707
108	0xbda6c254	-0.08142534
109	0x3d9ccd37	0.07656329
110	0x3d580b98	0.05274543
111	0x3e072df4	0.13201123
112	0xbd3a272c	-0.045447513
113	0x3d1ec19e	0.038758866
114	0x3dc13346	0.09433608
115	0xbd9ea199	-0.07745666
116	0x3d5cf4ab	0.05394427
117	0x3b7bc82d	0.0038418875
118	0x3dc553e0	0.096351385
119	0xbde3c9af	-0.111224525
120	0x3d2fdb76	0.042933904
121	0xbda74977	-0.08168309
122	0x3d759c8c	0.059963748
123	0x3dc058e5	0.09391955
124	0x3e100869	0.14065708
125	0x3cfd665b	0.030932596
126	0x3c54a0d0	0.012977794
127	0x3e2190a0	0.15777826
128	0x3d5261fa	0.05136297
129	0x3d8e0840	0.06935167
130	0xbcbe75a5	-0.023249457
131	0x3d5203e3	0.051273238
132	0x3e036e5f	0.12835072
133	0xbcef39a3	-0.029202288
134	0xbcd330cf	-0.02578011
135	0x3d26c596	0.040715776
136	0xbd027126	-0.031846188
137	0x3d0ccb2a	0.03437344
138	0xbdc5bc46	-0.09655051
139	0x3d28e93f	0.041238066
140	0x3ddacbea	0.10683425
141	0x39ab8066	0.00032711326
142	0x3bab5c46	0.0052295057
143	0xbd3e0476	-0.046390973
144	0xb9a82227	-0.00032068903
145	0xbd1a44f1	-0.037663404
146	0xbd0a3ba0	-0.03374827
147	0xbd9ea88e	-0.07746993
148	0xbd7482f4	-0.0596952
149	0x3d792e72	0.06083531
150	0x3c87362a	0.01650532
151	0xbcf5c8f4	-0.030003048
152	0x3d2d92ef	0.042376455
153	0x3d0210c6	0.031754278
154	0x3e21c527	0.15797864
155	0xbd980060	-0.074219465
156	0x3e82be92	0.2553602
157	0x3d19fd57	0.03759512
158	0xbbf6ede6	-0.007535684
159	0xbd5ae1da	-0.053438045
160	0xb9d0667a	-0.00039749203
161	0x3cc7989b	0.02436476
162	0x3c45e0d1	0.012077526
163	0x3df89f44	0.121397525
164	0x3d3bb9bb	0.045831423
165	0x3cc7be18	0.024382636
166	0x3d3d1cc4	0.04617001
167	0xbd15c60a	-0.036565818
168	0x3d8cc2fc	0.06873128
169	0x3e5e46f8	0.2170676
170	0x3daa31fe	0.083103165
171	0xbdbb48b2	-0.09144725
172	0xbcd14d11	-0.025549443
173	0x3d4b05eb	0.04956619
174	0xbdb1ab66	-0.0867527
175	0xbc4a745f	-0.012356847
176	0xbd52bc5c	-0.051449165
177	0x3b856751	0.004071154
178	0x3ddf956f	0.10917174
179	0x3d1c87ab	0.03821532
180	0xbdbbd71b	-0.091718875
181	0x3d878824	0.06617764
182	0xbb9654d1	-0.0045877476
183	0xbd91978c	-0.071089834
184	0x3d0b930a	0.034075774
185	0x3d24ac3c	0.040203318
186	0x3d861b5a	0.06548186
187	0x3c91cbb2	0.017797325
188	0xbda92861	-0.08259655
189	0x3c9b82fd	0.018983359
190	0x3d7ab9a9	0.061212216
191	0xbcb7b31e	-0.022424277
192	0x3d9d7ae8	0.07689458
193	0x3ce06001	0.027389528
194	0x3e4ed422	0.2019811
195	0x3df2c245	0.1185346
196	0x3ca1e0be	0.019760486
197	0x3dc5f2b6	0.09665434
198	0x3d1c2d2b	0.038129013
199	0x3d49e786	0.049293064
200	0x3ddd1893	0.10795703
201	0x3cfb75f8	0.0306959
202	0x3d2450a9	0.040115986
203	0x3dec1c84	0.115288764
204	0x3d072a53	0.032999348
205	0x3d2f58ad	0.042809177
206	0xbd0109f9	-0.03150365
207	0x3d7e7cc7	0.062130716
208	0x3cf723c2	0.030168418
209	0xbcd5d96b	-0.02610465
210	0xbd9455f2	-0.07242955
211	0xbda82f90	-0.08212197
212	0x3cee8454	0.029115833
213	0x3d3e3d9d	0.046445478
214	0xbdae2dd1	-0.085048325
215	0xbc97cb7a	-0.018529642
216	0x3cc47e9b	0.023986151
217	0xbdabee2a	-0.083950356
218	0xbd6539bd	-0.055963267
219	0x3de9492a	0.11390908
220	0x3dc27e92	0.094967976
221	0x3cb1fcd1	0.021726998
222	0xbd3a1f98	-0.045440286
223	0xbc4ebdbe	-0.01261848
224	0x3db6d0df	0.08926558
225	0x3da5d29a	0.0809681
226	0x3e129228	0.14313567
227	0x3ddca865	0.10774306
228	0x3d190b55	0.037364323
229	0x3d274cfb	0.0408449
230	0x3df412a5	0.11917619
231	0xbd64d956	-0.05587133
232	0xbd53cbf6	-0.051708184
233	0xbd8485a7	-0.06470805
234	0x3c778693	0.015107769
235	0x3dfb759c	0.122782916
236	0x3d584ef2	0.052809663
237	0x3d888e42	0.066677585
238	0xbd95d6b7	-0.07316344
239	0xbcabb067	-0.020958139
240	0x3bbc2cf6	0.0057426644
241	0xbb6d17a0	-0.0036177412
242	0x3e1d3441	0.15351965
243	0x3d05a3ef	0.032627042
244	0xbd9c8ae7	-0.07643681
245	0xbbc55e0a	-0.006023173
246	0xbd81137e	-0.06302546
247	0x3e2d7c58	0.16941965
248	0x3d3a0ba1	0.045421246
249	0x3d87c7c6	0.06629901
250	0xbc6761ad	-0.014122409
251	0x3db3d99b	0.08781739
252	0xbcf7156d	-0.030161584
253	0xbcd55fc8	-0.026046649
254	0x3cc03f96	0.02346782
255	0xbe4a938c	-0.19782847

fc2.bias f4 [128]
0	0x3d0eb043	0.034836065
1	0xbbd0324c	-0.006353652
2	0xbdbd1a8a	-0.092335775
3	0x3d6a343c	0.05717872
4	0x3d062ade	0.032755725
5	0x3c87d132	0.016579244
6	0x3daa6d41	0.0832162
7	0x3cb80f04	0.022468098
8	0xbdf77f93	-0.1208488
9	0x3d34cd86	0.044141315
10	0xbd480e38	-0.048841685
11	0xbdb9358e	-0.09043418
12	0xbdf219b2	-0.11821307
13	0xbcb0550d	-0.02152493
14	0x3db4e70d	0.08833132
15	0x3d9ecef9	0.07754321
16	0xbd65f367	-0.05614033
17	0xbe0333cc	-0.12812728
18	0xbd5dda3d	-0.054163206
19	0x3d18b739	0.03728411
20	0x3d60e2aa	0.054903664
21	0xbd286ac9	-0.041117463
22	0xbde576e7	-0.112043194
23	0x3d6e7828	0.05822006
24	0xbd8cf1cc	-0.068820566
25	0xbda9507f	-0.082673065
26	0x3e26a9ef	0.16275762
27	0xbc4dc0d5	-0.012558182
28	0x3d1ce9a4	0.038308755
29	0x39dff2b9	0.00042714717
30	0x3dbb12f9	0.09134478
31	0xbc8774bb	-0.016535154
32	0xbda2c8bd	-0.07948444
33	0xbdca6610	-0.09882748
34	0x3da44512	0.080209866
35	0x3d6e8f18	0.058241934
36	0xbcfe29b4	-0.031025745
37	0xbd6683f9	-0.056278203
38	0xbb909743	-0.004412563
39	0xbdd538da	-0.10411234
40	0xbd832447	-0.06403404
41	0xbc046a59	-0.008081996
42	0xbd22d8bd	-0.03975748
43	0xbda50e36	-0.08059351
44	0x3e0afc55	0.1357282
45	0xbbf8dd6d	-0.0075947554
46	0xbc1706f4	-0.009217966
47	0x3d2112dd	0.03932463
48	0x3c337d00	0.010955095
49	0x3d613bd0	0.054988682
50	0x3d697bdc	0.057002887
51	0xbdae3b92	-0.08507456
52	0xbd256414	-0.040378645
53	0x3bab9e72	0.005237394
54	0xbd010cb9	-0.031506274
55	0x3c50621e	0.012718705
56	0x3e01cc7e	0.12675664
57	0x3cfa50dd	0.030556137
58	0xbc8c0273	-0.017091012
59	0x3cf8db7b	0.030378094
60	0xbda3b6d3	-0.07993855
61	0x3a02b37d	0.0004985852
62	0xbd8b1f49	-0.067930765
63	0x3c45cb89	0.012072452
64	0x3d2590d8	0.040421337
65	0xbcfef9d9	-0.031124996
66	0xbd81c5d2	-0.06336559
67	0xbd72708f	-0.059189375
68	0xbdf71f3c	-0.12066504
69	0x3c8f82af	0.01751837
70	0x3cc36b96	0.023855012
71	0xbd77ed6c	-0.060529158
72	0xbd116fa1	-0.03550685
73	0xbd16bbcf	-0.036800202
74	0x3cf350af	0.029701559
75	0xbbbe5e67	-0.0058095935
76	0xbd03ab57	-0.032145824
77	0x3b93b32b	0.0045074425
78	0xbd0f186e	-0.034935407
79	0xbd678ee0	-0.05653274
80	0xbdd0c0dd	-0.10193036
81	0x3d02b6be	0.031912558
82	0xbd24d431	-0.040241424
83	0xbd86ae18	-0.065761745
84	0xbcc73242	-0.024315957
85	0xbda461b7	-0.0802645
86	0xbcb25c23	-0.02177245
87	0xbd08e7e6	-0.03342428
88	0x3d14a2ac	0.03628795
89	0x3d972bbb	0.07381388
90	0x3bdc9078	0.006731089
91	0x3c08daff	0.008352994
92	0x3da4cfdc	0.080474585
93	0xbdead636	-0.11466639
94	0x3cfd2d60	0.030905426
95	0x3dbda922	0.09260775
96	0x3d9d47f7	0.07679742
97	0x3d2f27d6	0.0427626
98	0x3dc457ea	0.09587081
99	0xbd83046f	-0.0639733
100	0xbc67dfbb	-0.014152463
101	0x3d58b3c7	0.052905824
102	0x3dc5e4e9	0.09662802
103	0xbca35b04	-0.01994086
104	0xbb637d20	-0.0034712031
105	0xbcb37865	-0.021907995
106	0x3dd0d087	0.101960234
107	0x3c88866a	0.016665656
108	0xbc993035	-0.018699745
109	0x3b9a4859	0.0047083315
110	0xbd5964d1	-0.05307466
111	0xbae10f7d	-0.0017170754
112	0xbdff5a9b	-0.124684535
113	0x3d7c8271	0.061647836
114	0x3d38cf97	0.045119848
115	0xbbf9756f	-0.007612876
116	0x3ddc4e1c	0.10757086
117	0xbd851cc1	-0.06499625
118	0xbcdb9a11	-0.026806863
119	0xbc9c2dc7	-0.019064797
120	0xbd915a84	-0.070973426
121	0xbce21a03	-0.027600294
122	0x3da20116	0.079103634
123	0xbdb028ac	-0.086015075
124	0xbd8f1c30	-0.06987798
125	0xbd30230a	-0.043002166
126	0x3cc91c08	0.0245495
127	0xbc637d60	-0.013884872

q_out.weight f4 [5, 128]
0	0xbd7f2410	-0.06229025
1	0xbdbf4af5	-0.09340469
2	0x3d8a3f18	0.067503154
3	0xbd8195f8	-0.063274324
4	0xbd195e64	-0.037443534
5	0xbd2dc920	-0.042428136
6	0xbd8dbb96	-0.06920545
7	0x3cb09361	0.02155465
8	0x3ccf6edd	0.025321418
9	0xbd78c8e8	-0.060738474
10	0xbccee133	-0.025253868
11	0xbd0d2d3b	-0.034466963
12	0xbd0a986d	-0.03383677
13	0xbd5fcdc8	-0.054639608
14	0xbd02307e	-0.031784527
15	0xbdd4cb66	-0.10390358
16	0x3c5e7d16	0.0135796275
17	0x3d1c2039	0.038116667
18	0x3c7fafbf	0.015605866
19	0x3cbb0ad8	0.02283232
20	0xbdb79775	-0.08964435
21	0x3bd093d5	0.006365279
22	0xbd8220f5	-0.06353942
23	0xbcf8e45f	-0.030382333
24	0xbcfc0b4d	-0.030767107
25	0x3d384edf	0.044997092
26	0xbd0041d7	-0.03131279
27	0xbd41246b	-0.04715387
28	0x3d9b7c53	0.07592072
29	0xbd6c7f42	-0.05773855
30	0xbd4ae0c2	-0.049530752
31	0xbd21c009	-0.03948978
32	0x3d4dfca1	0.050289754
33	0xbc658616	-0.014009019
34	0xbbb31c80	-0.005466044
35	0x3ccb873d	0.02484476
36	0xbb8a244d	-0.004215753
37	0xbd071906	-0.03298285
38	0x3c922687	0.017840637
39	0x3d622427	0.05521026
40	0xbd08d595	-0.033406813
41	0xbd56cbb3	-0.052440356
42	0xbce2032a	-0.0275894
43	0x3d0bdeec	0.03414814
44	0xbddcbebc	-0.10778567
45	0xbcec3f15	-0.028838674
46	0xbe1afed5	-0.15136273
47	0xbddcb3f0	-0.10776508
48	0x3ce9025b	0.028443506
49	0xbd3bf791	-0.045890395
50	0xbd8c8d43	-0.06862881
51	0x3c35c3c3	0.0110940365
52	0x3d5d2090	0.053986132
53	0xbdd75b05	-0.105154075
54	0x3d973241	0.07382632
55	0xbc83b297	-0.01607637
56	0xbd0bce15	-0.034132082
57	0xbda0d953	-0.07853951
58	0xbdce403c	-0.100708455
59	0xbd5b49d3	-0.0535372
60	0xbd5e43b4	-0.054263785
61	0xbb24bf9e	-0.0025138627
62	0xbd7ddba6	-0.06197705
63	0xbdc4b069	-0.0960396
64	0x3d96d578	0.07364935
65	0x3d4c76fc	0.04991816
66	0xbd720649	-0.059088025
67	0xba4b50a6	-0.0007755853
68	0xbc21a652	-0.009866314
69	0xbd862b1e	-0.06551193
70	0xbd8870ec	-0.06662163
71	0xbd257c1e	-0.04040157
72	0xbd147b09	-0.036250148
73	0xbd9622d5	-0.073308624
74	0xbda21b77	-0.07915395
75	0xbd5ed7b7	-0.05440494
76	0xbd4441b0	-0.047914207
77	0x3d143dd2	0.03619177
78	0x3db16245	0.086613216
79	0x3c2bd7c7	0.010488457
80	0xbd8a7abc	-0.06761691
81	0xbdd1f116	-0.102510616
82	0xbc73d82e	-0.014883084
83	0xbd41e2dc	-0.04733549
84	0xbd16026d	-0.036623407
85	0x3bcb02b6	0.0061953915
86	0x3b8b5011	0.004251488
87	0xbd6d24e9	-0.05789653
88	0xbd3bc88b	-0.04584555
89	0xbc855a4a	-0.016278405
90	0x3d406041	0.046966795
91	0x3d6e8e89	0.0582414
92	0xbc926e7c	-0.017874949
93	0x3da450af	0.08023202
94	0xbc092d0a	-0.008372555
95	0xbd5e4225	-0.0542623
96	0xbdf0799d	-0.11741946
97	0xbd822b2b	-0.0635589
98	0xbdd1943a	-0.1023335
99	0x3d1e5c02	0.038661964
100	0xbb857674	-0.0040729586
101	0x3d31ff39	0.04345629
102	0xbc9ee66f	-0.019396989
103	0x3d0a66ba	0.033789374
104	0xbd1e7245	-0.038683195
105	0xbd8090b7	-0.06277602
106	0xbe03c299	-0.12867202
107	0xbdac8c4c	-0.08425197
108	0xbd38b69a	-0.045096017
109	0xbd44aa63	-0.048014056
110	0xbd41505d	-0.04719578
111	0xbd1a55ae	-0.037679367
112	0x3d765fe6	0.06015005
113	0xbd3a48cb	-0.045479577
114	0x3cef768b	0.02923133
115	0xbd25a3f9	-0.04043958
116	0xbdc57f6d	-0.09643445
117	0x3d36023d	0.04443573
118	0x3dbe9236	0.09305231
119	0xbe139b2a	-0.14414659
120	0x3d2e6776	0.042579137
121	0x3c43b551	0.011945085
122	0xbdcbf365	-0.09958533
123	0x3d377970	0.044793546
124	0xbd7a2286	-0.06106808
125	0x3b6903af	0.0035555174
126	0xbd1341cf	-0.03595143
127	0xbd6b0feb	-0.057388227
128	0xbe07d412	-0.13264492
129	0x3c584e2a	0.0132022295
130	0x3cfcab15	0.030843297
131	0xbe396d4f	-0.18108104
132	0xbdf13d72	-0.11779298
133	0x3dcc48a2	0.09974791
134	0x3cd80912	0.026371513
135	0x3d2f9b5d	0.042872775
136	0xbd8a4e70	-0.06753242
137	0xbdf9c95f	-0.121966116
138	0xbdf74e9a	-0.12075539
139	0x3d79df55	0.061004
140	0xbcd560c0	-0.02604711
141	0xbe7c0299	-0.24610366
142	0xbd2d34b6	-0.042286597
143	0xbdc50000	-0.096191406
144	0x3d6a1a8d	0.057154227
145	0xbdc51579	-0.09623236
146	0x3d2adfb1	0.041717235
147	0xbe11adbd	-0.14226432
148	0xbbe2c8dc	-0.006920917
149	0x3caa8924	0.020817347
150	0xbceeb59c	-0.029139332
151	0xbe072855	-0.13198979
152	0x3d040d46	0.03223922
153	0x3d1a4804	0.037666336
154	0xbe111fd1	-0.14172293
155	0xbd4840bc	-0.04888986
156	0xbe817f0d	-0.25292245
157	0xbbdc0468	-0.0067143925
158	0xbe30c698	-0.17263258
159	0xbd8aaf86	-0.0677176
160	0xbc13193c	-0.008978184
161	0x3ce64cbb	0.02811276
162	0xbd15304b	-0.03642301
163	0xbd1f4949	-0.03888825
164	0xbdd7adf7	-0.10531228
165	0x3b7492a1	0.0037318843
166	0xbe00f39c	-0.1259293
167	0xbdc5a8dd	-0.09651349
168	0xbdac2389	-0.08405215
169	0xbdc2833e	-0.09497689
170	0xbd762689	-0.060095344
171	0xbdcf3ee7	-0.101194195
172	0xbdab3556	-0.083597824
173	0xbd6c05ed	-0.05762284
174	0x3e45436f	0.19264005
175	0x3ea5d524	0.32389176
176	0xbdbd6e85	-0.092495956
177	0xbdea8519	-0.114511676
178	0x3d677969	0.05651227
179	0xbd1d4a45	-0.038400907
180	0xbd25609e	-0.040375344
181	0xbe008489	-0.12550558
182	0x3d1f189c	0.03884183
183	0x3c6ab066	0.014324283
184	0xbdb7512f	-0.089510314
185	0xbdebc511	-0.11512197
186	0xbdd476a0	-0.103741884
187	0xbaa322fa	-0.0012446337
188	0xbbd3896b	-0.0064555905
189	0xbe6d57be	-0.23178002
190	0xbc1def6b	-0.009639601
191	0xbd1c9721	-0.038230065
192	0xbdd0a8f6	-0.10188477
193	0xbd5d1b86	-0.053981327
194	0xbd52bf8e	-0.051452212
195	0xbdd48c26	-0.10378294
196	0x3c4a8783	0.01236141
197	0xbd897cf7	-0.06713288
198	0xbca9d39c	-0.020730786
199	0xbe17ea2c	-0.14835423
200	0xbd836f88	-0.06417757
201	0x3d28cf64	0.041213408
202	0xbdc444ea	-0.09583457
203	0xbd887c1f	-0.06664299
204	0xbdb985d3	-0.09058728
205	0xbe1a4292	-0.15064457
206	0xbd19b6a6	-0.037527703
207	0xbd7649e3	-0.060129058
208	0xbd9e11af	-0.07718217
209	0xbd033e18	-0.03204164
210	0xbc3cac41	-0.011515678
211	0x3b369ae2	0.0027863313
212	0xbd259bed	-0.040431906
213	0xbcb3fa09	-0.021969812
214	0x3b46ba9a	0.0030323626
215	0x3bc9f601	0.006163359
216	0xbce992c6	-0.02851237
217	0xbdce9bc4	-0.10088304
218	0x3ceeade4	0.029135652
219	0xbd8bf63d	-0.068340756
220	0xbd9e6e02	-0.07735826
221	0x3cbd347c	0.023096316
222	0x3ce5bfb4	0.028045513
223	0xbd2d0338	-0.042239398
224	0xbcc8b636	-0.024500947
225	0xbdc6c7f5	-0.097061075
226	0xbda785ff	-0.081798546
227	0xbdb224ce	-0.08698426
228	0xbc403bb9	-0.011732989
229	0xbeb9b362	-0.3626967
230	0xbe20b7b3	-0.15695076
231	0x3d071c34	0.03298588
232	0xbd8f3fda	-0.069946006
233	0x3db571d2	0.088596
234	0x3c1c95dd	0.009557215
235	0xbd08349b	-0.033253293
236	0x3c7e2ac8	0.0155131295
237	0xbe06dc1c	-0.13169903
238	0xbd0667fe	-0.03281402
239	0xbe088770	-0.13332915
240	0xbdbf3c9b	-0.093377315
241	0x3e404417	0.18775974
242	0xbc59aa70	-0.013285264
243	0xbdeeb6c4	-0.116559535
244	0xbd871add	-0.06596921
245	0x3cb34f0b	0.021888277
246	0x3cc1ed38	0.023672685
247	0xbd12880c	-0.035774276
248	0xbdb523bf	-0.08844709
249	0xbc027011	-0.007961289
250	0xbd8248da	-0.063615516
251	0xbdb8fa07	-0.09032064
252	0x3d05402c	0.032531902
253	0x3ca825a6	0.020525765
254	0xb96b0c84	-0.00022416009
255	0xbddba063	-0.10723951

q_out.bias f4 [5]
0	0xbc9f61fe	-0.019455906
1	0xbd28a503	-0.041172992
2	0xbdd2ed13	-0.102991246
3	0xbcaeb3f3	-0.02132604
4	0xbde130e6	-0.10995655
