models/First_Model/q_te_agent_0.pt (torch, 108561 bytes, 6 tensors)

fc1.weight f4 [128, 71]
000000 4a 63 6b 3d 13 df 65 bd 04 a8 1b 3d ff 0d 72 3d
       0.057467736 -0.056120943 0.03800203 0.05909538
000010 c9 87 05 be c2 0d 5d bd f4 e6 a2 3b ec 81 a4 bc
       -0.13040079 -0.0539682 0.0049713794 -0.020081483
000020 e8 1b 9b bd e0 0e 0b bc 8f 25 8b 3d 5f 54 e0 3d
       -0.07573682 -0.008487433 0.06794273 0.109535925
000030 ef af 99 3d 1d 3a 02 bd a3 67 a8 bc 05 e6 dc bc
       0.0750426 -0.031793702 -0.02055723 -0.02696515
000040 f3 c8 c5 3d a7 ae 04 3e b2 09 0b 3e b2 b0 19 3d
       0.09657469 0.1295725 0.13577917 0.037522025
000050 27 48 2b 3d 5a 7e d0 bc 1b 1d 44 bd 39 ad 4b bd
       0.041816857 -0.025450874 -0.04787932 -0.049725745
000060 ad 7b 58 bd 48 ae 26 3e a5 7c cd 3d 9b e8 64 bd
       -0.05285232 0.1627742 0.1003354 -0.055885892
000070 32 d2 b8 3d d4 9b 2b be 71 04 16 bc 82 ff 4f bd
       0.090244666 -0.16758662 -0.009156332 -0.05078078
000080 ff e3 1e 3e 9d a0 18 3e d8 42 db bd a6 d6 a1 bd
       0.15516661 0.14905019 -0.10706109 -0.07902269
000090 e9 97 d0 bd 01 c8 4c bd 95 05 b8 bd 4c 41 ce 3d
       -0.101852246 -0.049995426 -0.0898544 0.10071048
0000a0 e9 ca 5f 3d 71 3b 27 3d 95 3f 05 3d 1d d9 28 3d
       0.05463687 0.040828172 0.03253134 0.04122268
0000b0 93 e1 ac bd 74 3e 55 3d f1 70 c4 3c 38 82 73 3d
       -0.08441462 0.052061513 0.023979636 0.05945036
0000c0 5a ff 47 bc 38 27 f5 bc 24 75 94 bd 95 10 ec 3d
       -0.012206877 -0.029925928 -0.07248905 0.115266
0000d0 1e 41 32 3e c9 c4 1f 3e 88 c9 a5 bc b9 da 0c 3d
       0.17407653 0.15602411 -0.0202377 0.034388278
0000e0 ee 2f d9 ba c9 2e bb 3d b3 dd 9a bd 40 d8 a2 3c
       -0.001657007 0.09139783 -0.07561817 0.019878507
0000f0 88 b1 3f 3e 15 c5 19 bb 6d 27 52 be 1a 36 39 be
       0.18720067 -0.0023463417 -0.20522852 -0.18087044
000100 58 1b 52 bc 6e 25 2d bd 0f 2f c3 3c a1 32 6a 3d
       -0.012823902 -0.042272024 0.02382615 0.05717719
000110 3e 8e a2 3d 05 68 9d bd e4 32 9e bd ca 4a f4 bc
       0.07937287 -0.07685856 -0.0772455 -0.029820818
000120 3e 20 8c 3d b9 cd 91 3d e4 c5 4a 3e 81 41 27 3c
       0.06842087 0.071193166 0.19802052 0.010208488
000130 99 25 01 3e 9b 88 78 3e 93 28 3b 3e 80 37 17 3c
       0.12611999 0.24270861 0.18277197 0.009229541
000140 f8 2a 1d 3e 29 b2 14 3e bf 39 d5 3d 86 3a 7f 3e
       0.15348423 0.14521088 0.10411405 0.24924669
000150 2e cd d3 bd f8 01 3e 3d 42 8b f4 3d a5 2d 83 3e
       -0.10341869 0.046388596 0.11940624 0.25620762
000160 45 e4 47 3e 7b df 55 3e a7 68 2c 3e 63 7f 5d bd
       0.19520672 0.20886032 0.16836797 -0.054076564
000170 fc 99 c7 bd 2f b8 c1 bc a3 0f 86 3e ea 7b 58 3e
       -0.09746167 -0.023647396 0.26183805 0.2114102
000180 7b 09 57 3e cd 66 49 3e f5 ad d7 bb b1 9e 45 3e
       0.2099971 0.19668122 -0.0065820166 0.19298817
000190 92 11 c9 3d 8e 0e 73 3e 23 b9 7b 3e 88 87 54 3e
       0.098178044 0.23736021 0.24582343 0.20754826
0001a0 3f 3c 87 3e f9 2e d7 3c 65 f2 9d 3d 54 76 96 3d
       0.26413152 0.026267515 0.07712249 0.07346788
0001b0 1e ad 63 3c 86 b1 1a 3e 94 22 58 3e 36 ba 62 3d
       0.013896255 0.15106782 0.2110694 0.055353366
0001c0 fb f7 a7 3e 82 30 e3 3d a2 1a 30 3d 18 48 52 3e
       0.32806382 0.110932365 0.04299415 0.20535314
0001d0 9f 9e 9a 3d a9 b8 0a 3e d2 11 04 3e c5 a1 33 3d
       0.07549786 0.13547005 0.12897423 0.043855447
0001e0 04 93 bd bc 05 db 9f 3b b3 7b 7b 3e 86 cc 99 3d
       -0.023141392 0.004878404 0.24558906 0.07509713
0001f0 58 ee 87 3e f2 59 18 3e 56 8b b7 3d 23 7a b0 3d
       0.2654903 0.14878061 0.08962123 0.08617046
000200 e4 04 a6 bc b3 f8 e8 3d 64 d1 2b 3e bb e2 8d 3e
       -0.020266004 0.113755606 0.16779095 0.27712044
000210 5c cd 28 3d a4 b3 9c 3c 2e 31 6c 3d 91 74 15 bb
       0.04121147 0.019128628 0.05766409 -0.0022805075
000220 f5 ac 67 3e 1f 6a 38 3e 5e d0 0e 3e 09 be 46 3d
       0.22624572 0.18009232 0.13946673 0.048521075
000230 3e 1d ba 3c d5 d1 4d 3e 9a 07 cb 3d 3f 6e 81 bd
       0.022719022 0.20099576 0.09913559 -0.06319856
000240 43 89 4f 3d 22 0d 12 3e 77 dc 46 3e 13 78 66 3d
       0.050668012 0.14262822 0.19420038 0.056266855
000250 cf 52 43 3d 34 a8 57 3e 36 f3 e9 3d 14 9f 9b 3d
       0.047686394 0.21060258 0.11423342 0.07598701
000260 9e 44 24 3e c6 61 7e 3e ae 82 0d 3e fe b2 b7 bd
       0.160418 0.24841985 0.13819382 -0.08969687
000270 38 f2 4f bd 50 a0 18 3d 54 4a 11 3e a3 74 27 3e
       -0.050768107 0.03726226 0.1418851 0.16353087
000280 03 8f 8a 3d 59 b4 25 3e b6 63 8b bd 69 73 35 3d
       0.067655586 0.16182078 -0.06806128 0.044299517
000290 25 a7 04 bc 7f f7 f1 3d 61 67 b3 3d df 34 95 3d
       -0.008096491 0.11814784 0.08759952 0.07285475
0002a0 42 eb 7c 3e 82 9e f0 bd 77 3c d9 3d 7e b8 08 bd
       0.24699119 -0.11748983 0.10607236 -0.03337907
0002b0 6c 57 85 3e f2 d8 e5 3d e3 e0 f8 3d 21 f0 41 3e
       0.2604326 0.1122302 0.12152269 0.18939258
0002c0 f7 47 f1 3c fa db f4 bc 1a b8 ce 3d 87 d9 df 3d
       0.02945326 -0.02989005 0.10093708 0.10930162
0002d0 38 7a e1 3d 4a 52 99 3d aa a7 50 3e 4f a4 9b 3e
       0.110096395 0.074863985 0.20376459 0.30398795
0002e0 58 60 c3 bb f6 d0 80 3d 30 d1 f6 3d b2 75 bf bc
       -0.005962413 0.06289856 0.12051618 -0.023371551
0002f0 78 c9 28 3e e3 e9 6e 3e a8 af 10 be 48 54 8d 3d
       0.16483104 0.23331408 -0.14129508 0.06900841
000300 34 44 0b bc f8 30 7d 3e 7a 9f 3c 3e 11 85 13 3e
       -0.008500148 0.24725711 0.1842021 0.1440623
000310 f4 3b 13 3e 27 a5 7e bd eb ee 67 bd b6 4f fc 3d
       0.14378339 -0.06216922 -0.056624334 0.12319891
000320 99 63 6d 3e 49 64 35 3e 15 dc 4e 3e 7d 2c 5b 3e
       0.23182525 0.17714037 0.20201142 0.2140369
000330 ae ea 39 3d 46 67 27 3d 9e 28 a0 3d 06 d4 82 3e
       0.045389824 0.040869974 0.07820247 0.25552386
000340 af 1a 73 3e ab d8 83 3d e6 6d df 3d d0 85 e8 3d
       0.23740648 0.064378105 0.10909633 0.11353648
000350 3c bc 12 bc d6 42 57 bd ea 86 bd bd c3 22 4d bd
       -0.008956011 -0.052553974 -0.092542484 -0.05008198
000360 73 1a d4 bd 27 1e 76 bc 72 df 98 bd c6 f4 e6 3d
       -0.10356607 -0.015021837 -0.07464494 0.112771556
000370 f0 d9 3b 3d cd 2b 85 3d 8e f1 bf bd ce 58 d1 bd
       0.04586214 0.06502495 -0.09372245 -0.10222016
000380 f2 6b 4a 3d bc 8a 3f 3d 75 bd c0 bd 49 6e e3 3d
       0.04941935 0.046763167 -0.09411136 0.111050196
000390 22 0a b7 3d e5 7a 13 be 2d b2 e0 bd d4 db 22 3c
       0.089374796 -0.1440235 -0.10971484 0.009940106
0003a0 03 66 a9 3d 52 7f 81 bb da 66 8b 3c a7 55 d5 bd
       0.0827141 -0.0039519453 0.017016817 -0.104167275
0003b0 cb d3 d9 bd 3e 04 bf 3d 9d 9f 98 bd 62 9a 1a 3d
       -0.106360994 0.09326981 -0.07452319 0.037744887
0003c0 dc aa c4 3d 40 8b 2a bd aa ac 17 bd a3 62 42 3b
       0.09602901 -0.041636705 -0.0370299 0.0029660843
0003d0 e3 6d d5 bc 4e 38 35 bc 97 a2 ad bd 37 b0 da bd
       -0.026053375 -0.011060787 -0.08478277 -0.106781416
0003e0 df e2 59 bd 9f 2f 2b bd 03 d0 b1 3c 04 e2 ac 3d
       -0.053194877 -0.041793462 0.021705633 0.084415466
0003f0 06 c0 a3 bd b9 91 d2 bd cf 29 61 bc 7a dc be 3d
       -0.0799561 -0.10281701 -0.013742878 0.09319396

fc1.bias f4 [128]
000000 98 82 b1 bd 37 c5 88 3e f3 0c 8c 3e fc 68 5b 3d
       -0.08667487 0.26712963 0.2735363 0.053566918
000010 d2 0e 31 3d c3 5c 8d 3e 64 1a a0 3e 12 d5 16 3e
       0.043227024 0.27609834 0.31270134 0.14729717
000020 f3 7a 1f 3e a7 62 94 3e 0b 1b 0f 3e bb db 9a 3d
       0.15574245 0.28981516 0.1397516 0.075614415
000030 dc fe f2 3d bb 55 8c 3e 95 26 7b 3b 44 f7 5c 3e
       0.11865017 0.27409157 0.0038322557 0.215787
000040 e9 ae 00 3e b5 88 b6 3d 8d 42 0f 3e 89 d1 77 3e
       0.12566723 0.089127935 0.13990231 0.24201025
000050 cd 01 93 3c 92 dd b9 bd 6d c1 7c 3e c3 59 97 3e
       0.017945195 -0.09075464 0.24683161 0.2956067
000060 02 c7 21 3e 17 40 57 3d 08 82 86 3e ba 30 7f 3e
       0.15798572 0.052551355 0.2627108 0.24920931
000070 4b 07 b2 3d 47 98 82 3e da d4 43 3e c5 95 97 3e
       0.08692797 0.25506803 0.19124165 0.29606453
000080 61 61 8d 3e aa ec 88 3e b7 3d 5e 3e 0b a7 a9 3d
       0.27613357 0.2674306 0.2170323 0.08283814
000090 7a 16 8c 3e df 70 1c 3e 47 89 e9 bd f3 b0 63 3e
       0.27360898 0.15277432 -0.11403137 0.2223547
0000a0 e5 28 21 3e fa 6d 70 3e 8b 57 61 bd 83 68 a9 3d
       0.15738256 0.23479453 -0.055015128 0.08271887
0000b0 4a 51 3e 3e 78 4a 94 3c ec ff 7d 3e a3 9e d2 3d
       0.18585697 0.018101916 0.24804658 0.10284164
0000c0 80 09 42 3e f0 07 06 3e 4c b4 39 3e f8 00 7d 3e
       0.18948936 0.13088965 0.18135184 0.24707401
0000d0 43 94 2f 3e 30 f3 a8 3d 97 c6 18 bd ba 13 31 3e
       0.17146401 0.08249509 -0.037298765 0.17292681
0000e0 64 45 8e 3e 96 52 91 3e 03 a3 57 3e 56 e5 10 be
       0.27787316 0.2838332 0.21058278 -0.14149985
0000f0 ca e5 9a 3d 46 52 f4 38 38 05 29 3e 25 c5 35 3e
       0.0756336 0.00011650151 0.16505897 0.17750986
000100 4a d6 8b 3e c5 30 2a 3e 95 c2 79 3e 19 34 4b 3e
       0.27311927 0.16620167 0.24390633 0.19844092
000110 d3 bc 7d 3e 06 19 2c 3e f4 45 98 3e d0 52 53 3e
       0.24779062 0.1680642 0.2974087 0.20637059
000120 bc be 69 3e 8d 69 a6 3d d0 15 0a 3e e3 6d 0a be
       0.22826666 0.08125601 0.13484883 -0.13518481
000130 b8 27 38 3e fb 75 da bc 96 03 86 3e 85 b1 ef 3d
       0.17983902 -0.026667586 0.2617461 0.11703781
000140 44 fb 81 3e e1 ab 1e 3e 97 44 2c 3d d8 96 d6 3d
       0.25387013 0.15495254 0.0420576 0.1047799
000150 be 24 8b 3e bb ae 5e 3e b4 bc 2f 3e 36 9d b1 3d
       0.2717647 0.21746342 0.17161828 0.08672564
000160 2f de ca 3d c0 25 e0 3d 52 0f bb 3d 02 03 99 3e
       0.099056594 0.109447 0.091337815 0.29885107
000170 a5 6f 89 3e 23 97 0f 3e 52 4d 5e bd 9a 31 53 3e
       0.2684299 0.14022498 -0.054272957 0.2062439
000180 63 26 97 3d 72 94 0d 3e 76 67 80 3e 75 0f d3 3d
       0.073803686 0.13826159 0.25078934 0.103056826
000190 a5 9d 8b 3e 20 5f 4d 3e 53 9e a4 3d e0 b2 60 3e
       0.2726871 0.20055819 0.080380104 0.21943235
0001a0 52 d3 13 3e bb ff b8 3d 92 5c 4b bd 00 da 2c 3e
       0.14436081 0.09033152 -0.04964883 0.16880035
0001b0 50 05 50 3e c2 70 e0 3d 33 bd 89 3e b6 ca 28 3d
       0.20314527 0.10959007 0.2690216 0.041208945
0001c0 58 bb 8e 3e 73 22 75 3d ae dc 57 3e 44 b4 8d 3e
       0.27877307 0.059847306 0.21080276 0.27676594
0001d0 9b bc fa 3d 25 93 82 3e e7 92 5d 3e 27 99 a9 bd
       0.12243005 0.25502887 0.2163807 -0.082811646
0001e0 92 cf 8f 3e 8b 60 60 bd 8f da 23 3d 9e 5f 61 3e
       0.2808805 -0.05477957 0.040003356 0.22009131
0001f0 f6 77 99 3e e2 40 89 3e 2f 7a 12 be 37 29 5f 3e
       0.29974335 0.26807314 -0.14304422 0.21793066

fc2.weight f4 [128, 128]
000000 1c ff 96 bd f0 d4 87 bd 75 0f ad bd e7 68 cd 3c
       -0.07372877 -0.066324115 -0.08450214 0.025074435
000010 8f 39 a1 bb 95 73 ac bd ee e6 ee 3b 01 ea 03 3b
       -0.0049201916 -0.08420483 0.0072907126 0.002012849
000020 21 09 1d 3d 37 82 0a 3c 6f 60 83 bd 6b 95 c5 bd
       0.038338784 0.008453897 -0.064148776 -0.0964764
000030 bb c9 9c bd 9c 1b c4 bb dc a4 99 bd 1d 27 86 3c
       -0.076556645 -0.0059847366 -0.075021476 0.016376073
000040 50 b4 39 3d c5 c0 cb 3c 23 c0 96 bd 6a 8e 31 bd
       0.045337975 0.024872193 -0.07360866 -0.043348707
000050 12 61 be 3b c8 ff 64 3d 38 ae 0b 3d d6 0b 75 bd
       0.0058099115 0.055907995 0.034101695 -0.05982574
000060 79 1e 71 bd b1 5b 98 bd fc f5 90 bd d9 2c 9d bd
       -0.05886695 -0.07439364 -0.07078168 -0.0767457
000070 86 08 81 bd b9 37 93 3c 65 b4 98 3b 4f 12 c8 bc
       -0.06300454 0.017970907 0.0046601766 -0.024422793
000080 e3 fa 21 3d 78 cd 53 bd 11 a0 11 3d 30 85 57 3d
       0.039545905 -0.051709622 0.03555304 0.052617252
000090 49 23 07 3d ef fc 05 bd 16 75 b4 3d f9 c6 24 3d
       0.032992635 -0.03271192 0.08811395 0.040228818
0000a0 dc 11 ea 3c 36 85 53 3d 97 fa a0 bd 10 5b 8f 3d
       0.02857297 0.05164071 -0.07860296 0.06999791
0000b0 55 f3 af bd 3e 7e 97 3d 74 4d 80 3d 7b bd b2 bd
       -0.08591334 0.07397126 0.06264773 -0.08727547
0000c0 87 fe aa bd 40 4f ff bc 06 0a 9a bd e9 5c 2d 3b
       -0.083493285 -0.031165719 -0.07521443 0.0026453084
0000d0 ae 80 a1 3d 04 99 85 bd 84 eb 2e bd 17 39 bf bc
       0.07885872 -0.06523326 -0.042705074 -0.023342652
0000e0 d6 b5 9a bd 8c a8 10 bd 3e e9 65 3d d1 9f 8a bd
       -0.07554214 -0.03531699 0.05613064 -0.06768764
0000f0 ac 34 3a 3c 4d d8 ae 3c 98 71 84 bb 63 98 50 3d
       0.011365097 0.021343375 -0.0040418617 0.050926577
000100 c1 e8 83 3d 38 4d 73 3d 88 2a 75 bd ea 8e 8f 3d
       0.06440879 0.059399813 -0.059855014 0.070096806
000110 fd 0b fa bc 50 74 88 3d cb 21 a5 bd 29 5f 8e 3c
       -0.030523295 0.0666281 -0.08063086 0.01737936
000120 d0 e7 91 3b ce 3a 31 bd 47 c1 4b 3d 5c e1 fe bc
       0.004452683 -0.04326897 0.04974487 -0.03111332
000130 9b 19 a6 3c c6 2f 92 bd fd 5d 4b 3d e7 7d 87 bc
       0.020275882 -0.07138018 0.04965018 -0.016539527
000140 5e 98 4f 3d 46 df 1f 3d 46 ad 9b bd 70 40 ea 3b
       0.050682418 0.03903129 -0.07601409 0.007148795
000150 fd 5b 66 3d be a3 93 bd c7 4a 58 3d fb c3 85 3c
       0.05624007 -0.07208966 0.05280569 0.016328802
000160 f9 6a 19 3d 7b d0 90 bc c7 04 8a 3c c7 1c 63 3d
       0.037455533 -0.017677536 0.016847981 0.055447366
000170 fa 49 db bb fb 8f 23 bd a0 b8 06 bd e3 f8 e5 3c
       -0.0066921683 -0.039932232 -0.032890916 0.02807278
000180 ed 55 e5 3c a5 9c 54 3d 11 97 26 3c e5 69 20 bd
       0.027995074 0.0519072 0.010167853 -0.03916349
000190 a1 ee a1 3c 3d 7d 69 bd 7b 3d 93 3d c5 8c 28 bd
       0.019767107 -0.057004202 0.07189461 -0.041149873
0001a0 dd 25 48 3d 8d e6 06 bb 3d 4e 8f bd b8 a9 2c bd
       0.048864234 -0.0020584196 -0.06997345 -0.042154044
0001b0 5c d8 91 3d 60 eb 31 bd c4 b0 8e 3d 9b ec 3f 3b
       0.071213454 -0.04343736 0.06967309 0.0029285315
0001c0 f7 05 ad bc cc 6b 82 bd 2f 23 c4 bd cc ad b6 bc
       -0.021121008 -0.06368217 -0.09577023 -0.02229967
0001d0 e8 b5 cf 3b c2 b8 52 bd 42 0a 16 bd a7 74 06 bd
       0.0063388236 -0.05144573 -0.036630876 -0.032826092
0001e0 3d 3a 44 3d 67 02 19 bc f5 ca ce 3c a9 e3 e0 3c
       0.047907103 -0.009338952 0.025243262 0.027452307
0001f0 b7 b8 90 3d 26 12 c9 3c a7 a2 5b bc 8a 3b 06 bc
       0.070664816 0.024544787 -0.013405479 -0.008192906
000200 dd 58 51 bd 78 73 00 3e b7 ab fc 3d f2 a9 9b 3d
       -0.051110137 0.12544048 0.123374395 0.07600774
000210 39 15 08 3d f9 13 4b 3d 51 13 2d 3e b3 61 dc 3d
       0.033223365 0.049579594 0.169019 0.10760822
000220 df 39 4c 3e 62 73 1b 3e dc 04 38 3e a3 ae b0 3d
       0.19943951 0.15180734 0.17970604 0.08627059
000230 08 d7 06 3e 5c 58 37 3e fd 66 e2 3d bc c3 82 3d
       0.13167965 0.179048 0.110548 0.063849896
000240 0e c3 45 3d d3 e5 1c 3e 54 21 21 3e 74 2d 5d 3e
       0.04828172 0.15322046 0.1573537 0.2159937
000250 d2 88 4e bd eb 37 31 39 99 35 a8 3d 57 63 1a 3e
       -0.05042345 0.00016900866 0.08213348 0.15076958
000260 be ba 41 3e c0 04 29 3d 03 aa 39 3e 02 3f db 3c
       0.18918893 0.041264296 0.1813126 0.026763443
000270 68 5c d2 3d 09 ec 2f 3d 00 cd 28 3e e0 54 5a 3e
       0.10271531 0.04294971 0.16484451 0.2132144
000280 8d 12 c5 3d 16 aa 78 3d 2d 46 15 3e 67 0b 0a 3e
       0.09622679 0.06070908 0.14577551 0.13480912
000290 ce 1c 52 3d b0 d8 5c 3e 7c 73 49 bd 62 69 c1 3d
       0.051297 0.21567035 -0.0491824 0.09443928
0002a0 c2 9f 11 3e 12 83 94 3d 22 80 50 bd 26 1b cb 3d
       0.14221099 0.07251562 -0.050903447 0.099172875
0002b0 38 7c e0 3d c6 c3 f2 3d 35 13 37 3e 2a c7 34 3d
       0.10961193 0.11853747 0.1787842 0.04413525
0002c0 5b 61 84 3c 11 9b 51 3e 7e 6a 2d 3e 9c 92 3f 3e
       0.016159704 0.2046931 0.16935155 0.18708271
0002d0 e5 1d 94 3d 0e 01 e3 3d a6 e6 a0 bb b0 b9 d0 3d
       0.072322644 0.110841855 -0.004910308 0.10191667
0002e0 11 07 18 3e cb 0f bc 3d 0e da 9a 3d c4 ba 17 3e
       0.14846446 0.091827 0.07561122 0.14817339
0002f0 5c 3e 40 3e 85 79 c8 3c c3 00 55 3e 8f ad 6b 3e
       0.18773788 0.024472008 0.20801072 0.23015426
000300 d2 2a 68 3d 22 4a c8 3d d8 dd 99 3d cb 0a 51 3e
       0.05668146 0.09779765 0.075130165 0.20414273
000310 fe 2e 99 3d 3f f1 15 3e 22 d5 14 3e 6c 9e 2e 3d
       0.07479666 0.1464281 0.14534429 0.04263155
000320 2e 46 57 3d 89 a9 92 3d c3 35 ea 3d 4d 5d 77 3d
       0.052557163 0.071612425 0.114360355 0.060391713
000330 9b 54 d0 3d 47 09 e2 bc 07 fe 14 3e d7 47 08 3e
       0.10172387 -0.027592314 0.14550029 0.13308655
000340 2f 33 3c 3e a4 32 ff 3d b2 64 99 3d 1e f7 cb 3d
       0.183789 0.12460831 0.07489909 0.09959243
000350 1c 6f 50 3e 8f a7 14 3e eb 29 83 3e 23 3b 19 3e
       0.20354885 0.14517044 0.25617918 0.14963965
000360 96 10 39 3e 24 35 18 3e f9 4e 3d 3d 22 18 65 3e
       0.18072733 0.14864022 0.046217892 0.22372487
000370 c7 0b 24 3e 77 fb 1c 3e 95 30 01 3b 0f a2 16 3e
       0.16020118 0.15330301 0.0019712795 0.14710258
000380 b9 b9 9e 3d 41 d4 52 3e 96 e4 15 3e 67 85 5b 3e
       0.077502675 0.20588781 0.1463798 0.21437608
000390 88 d2 79 3d cc 77 29 3e 5b ed 71 3d ec 9d 00 3e
       0.060991794 0.16549605 0.05906425 0.12560242
0003a0 15 5c 02 3e c4 24 17 3e b1 b1 0b 3e 3c 29 34 3e
       0.12730439 0.14760119 0.13642003 0.17593855
0003b0 29 60 73 3e 08 8a 0c 3e 58 9e 5c 3e 7a 92 96 bd
       0.23767151 0.1372453 0.21544778 -0.07352157
0003c0 1e 47 76 3e 62 3d 42 3e 21 99 2a 3e c8 5d 5e 3e
       0.24050567 0.18968728 0.16659977 0.21715462
0003d0 a2 87 af 3c e8 9e d8 3d e0 9f 51 3e 03 25 9a 3d
       0.02142698 0.10577184 0.20471144 0.07526591
0003e0 bd 6f 60 3d 6f 09 90 bc 3e 27 c5 3d 87 4d 44 3d
       0.054794062 -0.017582623 0.096266255 0.0479255
0003f0 be 9c 91 3d 58 5a 54 3e ab 0d 51 3d 34 09 3d 3e
       0.07109974 0.20737588 0.051038425 0.18460542

fc2.bias f4 [128]
000000 9a a9 75 3d 3b 1d 79 3e 3d ca fd 3c 0f 04 d7 ba
       0.059976198 0.24327557 0.030980224 -0.0016404408
000010 79 ef 11 3e b5 ca 15 3e 6c 02 d8 3d c8 40 74 3e
       0.14251508 0.14628108 0.10547337 0.23852837
000020 55 dd 93 bd f5 9f 2d bd 77 58 05 3e b4 4f 8b 3d
       -0.0721995 -0.042388875 0.13022028 0.068023115
000030 e5 70 05 3e a4 cf 76 3e 91 5a 5d bd 53 d5 c5 3b
       0.13031347 0.24102646 -0.05404145 0.006037393
000040 68 78 0b 3e c3 e7 55 3e 34 1d 68 bc f9 8f 1c 3d
       0.1362015 0.20889191 -0.014167119 0.03822324
000050 51 07 a4 bd 0c d0 f0 3d 3f b8 e5 3d 9c 90 10 3d
       -0.08009208 0.11758432 0.11216783 0.03529416
000060 18 14 bb 3d ff 95 44 3e 68 0f 40 bd 8c e4 81 bd
       0.09134692 0.19197844 -0.046889693 -0.0634242
000070 22 00 fc 3c f7 0c 7f 3e 19 c7 73 3d b3 65 1f 3e
       0.030761782 0.2490729 0.059516046 0.15566139
000080 7d ce 92 3c 2b 84 bc bd 54 f7 6f 3e 5f 89 fd 3d
       0.017920727 -0.092048965 0.23434192 0.12379717
000090 4e 62 1f 3e c4 ef cb 3d 91 08 b6 ba 83 4d e2 3d
       0.15564844 0.09957841 -0.0013888051 0.110499404
0000a0 2d 6c 57 3c ce 0f 85 bd f0 37 9e bc 06 bd a0 bd
       0.01314835 -0.06497155 -0.019313782 -0.07848553
0000b0 22 25 2b bd cd fa 13 3e 2d f9 43 3e ec db 72 bd
       -0.04178346 0.14451142 0.19138022 -0.059291765
0000c0 07 57 ad bd b4 85 d5 bb a8 1f 88 bc fd 50 55 3e
       -0.08463865 -0.006516183 -0.016616657 0.20831676
0000d0 4b 02 4b bd 0d 5e 81 3e 48 b9 35 bd 91 65 7b 3e
       -0.049562734 0.25267068 -0.04436615 0.24550463
0000e0 7b 52 61 3e d9 2d 4e 3e 4b 5c 59 3e 03 6e 7d 3e
       0.2200412 0.20134677 0.21226613 0.24748997
0000f0 95 9e f5 bc 55 eb 1f 3d 0f 82 4d bc 96 d3 74 3e
       -0.029982844 0.03904279 -0.012543215 0.23908839
000100 e6 74 30 bd bf 3b 97 3d 70 01 45 3d 79 14 58 bd
       -0.043080233 0.073844425 0.048097074 -0.0527539
000110 40 c8 b0 bd 17 cd 07 3e 7e 5f a1 bc ee 8e 6a 3e
       -0.08631945 0.1326183 -0.019698855 0.22906086
000120 e0 b5 53 3e 77 ac 14 3e e2 8f 5e 3e e5 20 d8 3d
       0.20674849 0.14518915 0.21734574 0.10553149
000130 59 c3 79 3d 3f fd 25 3d 9a 69 b9 bc f6 15 05 3e
       0.060977314 0.040524717 -0.022633363 0.12996659
000140 93 a7 0b 3e c2 f8 34 bd 61 f7 10 3e fa ad 54 3d
       0.13638143 -0.044182546 0.14156868 0.05192373
000150 b5 a6 8b 3d 0c 71 ed 3d 41 85 8c 3d 3b de de bb
       0.06818906 0.115938276 0.06861354 -0.0068013943
000160 ff 73 2b 3e f5 7d 17 bd 37 ae 43 bd 4a 82 63 3e
       0.16743468 -0.036985356 -0.047773566 0.2221767
000170 bf 8d c4 bd 38 3c 6b 3d 66 00 35 3e a5 09 94 3d
       -0.095973484 0.057430476 0.17675933 0.07228402
000180 51 54 37 3e 18 7c 43 3e 08 b6 62 bd 60 49 d3 3d
       0.17903258 0.19090307 -0.05534938 0.103167295
000190 32 10 f1 3d e0 1e c7 bc 90 0c 82 3e 8b b2 9e bb
       0.11770667 -0.024306715 0.2540021 -0.0048430613
0001a0 df c3 10 bd c2 25 5f 3d 79 b9 c0 bd ab a0 37 bd
       -0.035343047 0.054479368 -0.09410376 -0.04483096
0001b0 83 5a 74 3e 56 2b 05 3d 0a 2e 24 3d 13 bc e5 bb
       0.23862652 0.03251203 0.04008297 -0.0070109456
0001c0 58 29 93 bc cb 9b 8f 3d 36 cc 09 bc e1 b8 4b bd
       -0.01796405 0.07012137 -0.008410504 -0.04973686
0001d0 b3 d9 cd 3d dc 19 b0 3c a4 2d 87 3d 0f a9 61 3e
       0.100512885 0.021496706 0.06600502 0.22037147
0001e0 0b 13 4b 3e 88 b3 6d 3e f4 40 50 3e f7 c9 45 3e
       0.19831483 0.23213017 0.20337278 0.19315325
0001f0 89 2b 85 3e 10 78 3b bd 2c 14 87 3e f2 07 c9 3b
       0.26009777 -0.045768797 0.26382577 0.0061349804

q_out.weight f4 [5, 128]
000000 37 fe f8 bb 95 06 3e bd 40 93 27 bd dc a1 d1 bb
       -0.007598664 -0.046392996 -0.040911913 -0.006397469
000010 af 6a dc bd c4 b8 b8 bd 4b e8 d5 bd 3f 29 0c be
       -0.10762536 -0.09019616 -0.10444697 -0.13687609
000020 ad e5 e8 3b 81 43 68 bd 59 95 20 be 3e c8 06 3d
       0.0071074576 -0.056705 -0.15681972 0.03290581
000030 54 53 43 be b4 a8 1c be d3 92 26 3c a3 aa 32 3d
       -0.19074756 -0.1529873 0.010166842 0.043619763
000040 ed 62 34 be 3e 3c 3e be fd 0f ab 3b 26 2e 33 3d
       -0.17615862 -0.18577668 0.005220412 0.043745182
000050 5d e7 6e 3d 7b 8c 2f be 98 ef 2f be 2b 53 b2 bc
       0.058326114 -0.17143433 -0.17181242 -0.021768173
000060 4a 08 18 be e1 c3 15 be 7c f3 1e bd ff 80 ad 3c
       -0.14846912 -0.14625503 -0.038806424 0.021179674
000070 f4 05 04 3d f1 fd bb bd f1 8c 13 3c e3 01 32 be
       0.03223224 -0.09179295 0.009005771 -0.17383532
000080 9a 11 7f 3d 26 4e 85 3d f1 2a 47 be df 5f ce bd
       0.062272646 0.06509046 -0.19449975 -0.1007688
000090 a6 f2 39 be 08 4e a2 bd 66 b7 a8 3c 14 30 3c be
       -0.1815897 -0.079250395 0.020595264 -0.18377715
0000a0 e2 4b 51 3d ed d0 6f ba ed 5d 93 bd fa af 1d bd
       0.051097758 -0.0009148259 -0.07195649 -0.038497902
0000b0 00 07 53 3d 18 33 19 be 25 1b 0f be 02 31 9a bd
       0.051520348 -0.14960897 -0.13975199 -0.07528879
0000c0 e0 4f b0 bc 81 ca 1b bd 85 27 10 bd 9a 8a 39 be
       -0.021522462 -0.03803492 -0.03519394 -0.18119279
0000d0 9b 94 69 3d 0e 11 f3 bd 8c 93 22 3c 93 47 29 be
       0.057026487 -0.11868487 0.009922873 -0.1653121
0000e0 a6 04 b8 bd c5 87 09 be 2d 73 04 be a8 bd 2d be
       -0.089852616 -0.13430698 -0.12934561 -0.1696688
0000f0 aa e3 c9 3b c6 65 a5 3b 09 b4 84 3a 24 aa 1c be
       0.006161173 0.0050475327 0.0010124455 -0.15299278
000100 82 bd b2 3d 47 a3 12 3d 83 00 b6 3b 3c ca 94 3d
       0.08727552 0.035800245 0.00555426 0.07265136
000110 85 01 8f bd bf 04 44 be 97 df 83 bd 3e 6e 0a be
       -0.06982712 -0.19142435 -0.06439131 -0.13518617
000120 ca 45 3e be 61 67 7c bd aa b8 3e be 1b 01 03 be
       -0.1858131 -0.061622027 -0.18625131 -0.1279339
000130 07 4f 7f 3d 1e 6e 92 bd 02 3f 0d bc 50 e4 02 be
       0.062331226 -0.071499094 -0.008620979 -0.12782407
000140 e6 e0 f1 bd 38 21 83 3d 1d d6 29 be 8d 93 25 3d
       -0.11810474 0.0640282 -0.16585584 0.04042392
000150 21 79 fa 3c 41 10 26 be f0 a6 00 be 40 85 ff bb
       0.030575337 -0.16217138 -0.12563682 -0.007797867
000160 64 d0 2c be 87 ab 40 bb b8 fa 9c 3d dc b0 32 be
       -0.1687637 -0.0029399113 0.07665008 -0.17450279
000170 65 80 22 3d 75 8b 5e bc 84 64 00 be 92 64 8c bd
       0.039673228 -0.013583054 -0.12538344 -0.0685512
000180 96 d6 87 bd f1 38 00 be 9a a4 22 bd cb 07 06 be
       -0.06632726 -0.12521721 -0.039707758 -0.1308891
000190 d8 3b 9a bd f5 7f 30 3b 0b 52 3a be b5 8e 1b bb
       -0.075309455 0.0026931737 -0.1819536 -0.0023736183
0001a0 82 01 66 bd 83 ea 4a 3d 89 bc 9b 3d 0b 5e 2d bc
       -0.05615378 0.049540054 0.076043196 -0.010581504
0001b0 fa 54 f9 bd 52 ac 82 bd 6c 98 a5 bc 75 ab c9 3c
       -0.12174411 -0.06380524 -0.020214282 0.02461789
0001c0 5a 0d 47 bd ab 95 7d 3d 80 20 8f 3d f5 69 01 ba
       -0.048596717 0.061910313 0.06988621 -0.00049367483
0001d0 f1 64 1d be 09 4a 2d 3d c5 8a 5d 3d e2 d8 72 bd
       -0.15370537 0.042306934 0.05408742 -0.059288867
0001e0 9f c7 ee bd bb de 1f be a5 a2 bb bd e8 b5 02 be
       -0.116591685 -0.15612309 -0.09161881 -0.12764704
0001f0 73 5c 01 be 68 c8 00 3d 86 3a cc bd a4 c0 a2 3d
       -0.12632923 0.031441122 -0.099721 0.079468995
000200 cf b5 b4 3d bb fc 32 be 77 4b 71 bd 43 7c 66 3d
       0.0882374 -0.17479222 -0.05890986 0.05627085
000210 3d 48 0b be a1 de 79 bd a0 de 4f be cf 2c 4f be
       -0.13601775 -0.06100333 -0.20299768 -0.20231937
000220 da d7 80 3d 03 36 03 3d 54 07 b4 bd bf be 96 3d
       0.062911704 0.03203393 -0.0879046 0.07360601
000230 d6 44 49 bd 4b 23 2f be a7 7a 92 3d f4 34 81 3b
       -0.049137913 -0.17103307 0.071523 0.00394308
000240 ed 54 55 be e6 a2 9e bd 2a 97 5a 3d 4e fa 57 3c
       -0.20833178 -0.07745914 0.053366818 0.013182236
000250 c0 9d 90 bd bf ca 14 be 88 bd 0c be 69 31 b7 bd
       -0.070613384 -0.14530466 -0.13744175 -0.08944971
000260 2d 61 09 be e6 9f 1c be 6c 0b b1 bd 56 bf 07 3c
       -0.13415976 -0.15295371 -0.08644757 0.008285364
000270 84 10 92 3d 18 96 21 be 44 65 cd bb 9f 9c c2 bd
       0.07132056 -0.15779912 -0.0062681753 -0.09502529
000280 e7 e8 07 3d 48 f0 96 3d 4d 78 3f be cf cd 34 bd
       0.033181097 0.07370049 -0.18698235 -0.044141587
000290 d0 38 6a bd 14 97 ea bd b4 65 e2 bc 26 22 d3 bd
       -0.057183087 -0.11454597 -0.027636386 -0.10309248
0002a0 99 ce c1 bd 06 ea 68 3d b8 fd 9c bd 52 20 51 bd
       -0.094632335 0.056863807 -0.076655805 -0.051056214
0002b0 bf 89 cd 3c a5 b5 b8 bd 6c a0 85 bd 4d c1 a9 bc
       0.025090097 -0.09019021 -0.06524739 -0.020722056
0002c0 4d 97 61 3d 74 db 96 bd 9b 3d 5b 3d 6e 1c 4c be
       0.055075932 -0.07366076 0.05352555 -0.1993272
0002d0 d9 e4 88 bd 4c 06 3c be 5b f5 30 bd 40 c0 37 be
       -0.06684274 -0.18361777 -0.04320274 -0.17944431
0002e0 20 55 49 be 7d 6f 0d be a1 0b 4a be aa ae 3b be
       -0.19661379 -0.1381206 -0.19730999 -0.18328348
0002f0 61 c1 9e bd c6 3d 6e 3d 6d 3b bd bd d7 13 1d be
       -0.07751728 0.05816438 -0.0923985 -0.153396
000300 0b 0b 75 3d 3c c7 a6 bb 8f ec d8 bd e6 7b fc bc
       0.059824985 -0.0050896686 -0.10591995 -0.030820798
000310 58 b6 35 3d 7b 6d 22 be 62 26 3b 3d bc 39 eb bd
       0.04436335 -0.15862076 0.0456909 -0.11485621
000320 39 8c 25 be e9 56 aa bd e2 f8 43 be 06 e5 3e be
       -0.16166772 -0.08317358 -0.1913791 -0.18642053
000330 ae 20 94 3d fd b2 e0 3c 06 8f 50 bc 7e 18 b9 bd
       0.07232796 0.027429098 -0.012729412 -0.09037875
000340 20 e8 1c be 72 7c 6a bd 97 49 44 be f0 c6 cd bd
       -0.15322924 -0.057247587 -0.19168697 -0.1004771
000350 32 be 85 3c 20 f5 d1 bd 08 5f 25 be ca 7a 97 3d
       0.016326044 -0.10251832 -0.16149533 0.07396467
000360 a2 e0 5e bd 4d 20 a9 bd 88 ce 93 3d a5 e1 ff bd
       -0.054413445 -0.08258114 0.07217127 -0.1249421
000370 79 63 d0 3c 20 4c b1 39 82 df 03 be 99 4d 16 be
       0.025438057 0.00033816788 -0.1287823 -0.14678039
000380 07 f8 82 bd eb 21 a1 bd c4 63 81 bd d7 c0 e5 bd
       -0.06394964 -0.078677975 -0.06317857 -0.11218422
000390 b4 7f eb bd 64 0e 1e bd 5a fa 4a be 6b d2 ab bc
       -0.11498967 -0.038587943 -0.19822064 -0.020974359
0003a0 8f dd 86 bd 28 1a 55 bc ee 34 af bc 6d 95 23 bd
       -0.06585228 -0.013006724 -0.021387544 -0.039937425
0003b0 c6 75 28 be 3a a5 37 bd ab 1b d2 bc 67 40 0a 3d
       -0.16451177 -0.044835307 -0.025647959 0.033752825
0003c0 ea 17 38 3d bd d8 1e bc b0 1b 19 bd f3 e1 46 3d
       0.04494468 -0.009695229 -0.03737992 0.048555326
0003d0 9d 73 91 bd 66 00 9f 3d 8d 04 2a bd 64 d9 06 be
       -0.071021296 0.07763748 -0.041508246 -0.13168865
0003e0 20 91 fa bd fc 8d 9f bd 36 74 24 be c1 ed a2 bd
       -0.12234712 -0.07790753 -0.16059956 -0.07955504
0003f0 da bb 7c bd 57 54 a6 bd 68 05 57 be 73 ca a2 3d
       -0.061702587 -0.08121555 -0.20998156 0.079487704

q_out.bias f4 [5]
000000 bc 3e 04 be 20 03 95 bd 5a 56 af bd b5 c3 b0 bd
       -0.12914556 -0.07275987 -0.08561392 -0.08631078
000010 6c d7 88 bd
       -0.066817135
