models/400step_5000iter_HER_PER/q_ind_agent_0.pt (torch, 108061 bytes, 6 tensors)

fc1.weight f4 [128, 71]
000000 a2 f5 93 3d 27 79 14 3e ba 1f 19 bd 3f bf e1 3d
       0.07224585 0.14499341 -0.037383772 0.110228054
000010 b8 87 13 3e 83 1f dc bc 06 b2 52 3e 14 25 79 3d
       0.14407241 -0.026870495 0.20575723 0.060826376
000020 f8 7d 83 3c 1c be 52 3e a9 35 18 3e f3 02 58 3e
       0.016051278 0.20580333 0.1486422 0.21094875
000030 91 50 61 3c 95 51 e6 3d 3f cc 01 3d be 69 90 bc
       0.013752119 0.11246029 0.031688925 -0.017628547
000040 95 b0 39 3d ce 9b c3 3d 2a 07 79 3d 71 7a 63 3e
       0.045334417 0.09551202 0.060797848 0.22214676
000050 7c 9c c0 3e 12 df 4a be 9a 80 d0 bc 56 87 00 3e
       0.37619388 -0.19811657 -0.025451947 0.12551627
000060 66 d1 bf 3d bf 90 85 bc 7b 07 2a 3c 25 34 9f bd
       0.093661115 -0.016304372 0.01037776 -0.07773618
000070 0d 4f be bd f5 86 b7 3d ac 45 1a 3e 80 3e 90 3d
       -0.092924215 0.08961288 0.1506564 0.07043171
000080 31 58 35 3e 14 c4 78 3e 97 f6 c8 bb 78 db 61 bd
       0.17709424 0.24293548 -0.0061329114 -0.055140942
000090 53 9e 52 3a 24 a0 14 3e 92 2f 45 3e 13 54 dd bc
       0.00080344564 0.14514214 0.19256428 -0.027017629
0000a0 9f 89 39 3e 89 0f 31 3e 81 19 f6 bd e0 ab 7e bb
       0.18118905 0.17291082 -0.12016583 -0.003885977
0000b0 ea 37 7f 3e 76 7b f7 3d f8 b4 f3 3d 17 3e 9d 3c
       0.24923673 0.12084095 0.118997514 0.019194646
0000c0 d4 b1 60 3d 83 0f a0 3d e7 b4 00 be 5e c5 7b 3e
       0.05485709 0.078154586 -0.12569009 0.24587008
0000d0 86 a4 d7 3c a3 e9 7e 3e bd 5f f8 3d 97 fd 07 bd
       0.026323568 0.24893813 0.12127636 -0.033200826
0000e0 8a 01 11 3e 58 9b 34 3e fb ed df 3d 5d 3c 4b 3e
       0.14160743 0.17637384 0.10934063 0.19847246
0000f0 c6 15 82 3e 49 55 3a 3e d2 be 14 3e 66 77 ac 3d
       0.25407237 0.18196596 0.14525917 0.08421211
000100 fa ee 2e 3d c2 2a 2e 3e d4 7d 2c 3e 87 b2 6d 3d
       0.042708375 0.17008498 0.16844875 0.058031585
000110 96 31 f6 3c 62 be 83 3d bd 8a fd bd 45 b1 e6 3d
       0.030052941 0.06432797 -0.12379978 0.1126428
000120 a3 5a 14 be 62 8b df 3c 97 a6 03 3e cf 0e 91 3d
       -0.144877 0.027288143 0.12856518 0.07082903
000130 1b a9 20 3e 08 fe 9e 3d 6b 7f 44 3e ff cc e8 bd
       0.15689509 0.07763296 0.19189231 -0.11367225
000140 d1 1c 5e 3e 63 23 bd 3d 0e da 44 3d 87 af cb 3d
       0.2169068 0.09235265 0.048059516 0.099455886
000150 29 ce 1f 3d 60 02 8b bd a5 98 91 bc 0e 0e 91 3d
       0.03901497 -0.06787562 -0.017772982 0.07082759
000160 3a 7a 8f 3d c9 d0 40 3e 0d 71 50 3e 1e ec b5 3e
       0.07005735 0.18829645 0.20355625 0.35531706
000170 94 9d 65 be c7 7d 78 3c ed d5 5b 3e a6 7e 79 3d
       -0.22423393 0.015166706 0.21468325 0.060911797
000180 09 5a 30 3e 78 f4 23 3e e9 bf 1f 3d 82 36 30 bd
       0.17221846 0.16011226 0.03900138 -0.043020733
000190 94 97 81 bd 5c fa 51 3e 62 5c 4a 3e 3f da 10 3e
       -0.06327739 0.20505661 0.19761804 0.14145754
0001a0 af 97 29 3e 9d 40 21 3e b8 24 e7 bb a8 d9 2a 3d
       0.16561769 0.15747304 -0.0070539378 0.04171148
0001b0 d4 de a6 3c 22 88 88 3c 93 ce f5 ba 43 29 88 3d
       0.020369925 0.016666476 -0.001875358 0.06648495
0001c0 1d ea 1c 3c 89 0b 92 bd 09 e9 96 bc 25 ad 39 3d
       0.009577301 -0.071311064 -0.018421667 0.04533114
0001d0 7b d5 6a 3e 1e e5 fa 3d 68 d4 56 3e e2 ec 6d 3d
       0.22932999 0.12250732 0.20979464 0.058087237
0001e0 c8 e3 c0 3d 84 94 49 3c eb d1 c0 3d 37 9f f1 3c
       0.09418446 0.012303475 0.09415039 0.029494865
0001f0 f9 21 2b 3e 06 38 9b 3c f1 f6 03 3d da 24 84 3d
       0.16712178 0.018947612 0.032217924 0.064523414
000200 6d 29 06 3e 83 22 ed 3c 0c 6e 7e 3d 6d b6 5c 3d
       0.1310174 0.02894712 0.062116668 0.053884912
000210 0c 61 e4 3d 43 69 87 3e c8 a6 eb 3d 1d bd b9 3c
       0.11151323 0.26447496 0.115064204 0.022673184
000220 6d 00 72 3e e3 cb d0 3d fc 2f 6f 3c 20 ca 7f 3d
       0.23632975 0.10195138 0.014598843 0.06244862
000230 86 e2 1f bc 4f f3 06 bd d0 c6 37 3e eb 5c ad 3d
       -0.009758597 -0.03294688 0.17946935 0.08464988
000240 76 87 ae 3d 40 52 4c 3d 9f 39 4f 3e 4b 43 64 3e
       0.08521931 0.049883127 0.20236824 0.22291295
000250 28 65 9c 3d c7 3c 3d 3e ff e2 3d 3d 1a d6 bf 3d
       0.076364815 0.18480216 0.04635906 0.093670085
000260 0a 46 9c 3c 10 9f 49 3e c4 fc b3 3c c2 13 35 3d
       0.019076366 0.19689584 0.021971114 0.044208296
000270 2f eb 03 bd 1c e9 be bd 4a 99 ef 3d 97 bc 72 3e
       -0.03220671 -0.09321806 0.116991594 0.23704754
000280 a8 52 25 3e 82 ed f7 3d 01 85 93 3e 61 97 87 be
       0.16144812 0.12105848 0.2881241 -0.2648268
000290 22 7c 8e 3d e1 4e 73 3e 1a 80 1d 3e 38 0a 32 3b
       0.0695727 0.23760559 0.15380898 0.0027166735
0002a0 3a 8e ce 3d 53 96 b6 3d 55 ef 7e bc e2 8a bb 3a
       0.10085721 0.08915391 -0.015559991 0.0014308358
0002b0 96 bf 57 3e 8c ce 62 3d 05 27 99 3c 3e 2b 41 3e
       0.21069178 0.05537276 0.018695364 0.18864152
0002c0 e2 98 a1 3c f9 77 88 bd 3a 0c 7c 3d 72 91 68 3e
       0.01972622 -0.06663508 0.061535098 0.22711733
0002d0 1a bb 29 3b 31 65 70 3d 51 59 f7 3d 0f 67 a4 3c
       0.0025898875 0.058690254 0.12077583 0.020068673
0002e0 47 e4 8b be b3 0c 32 3d 82 d7 3c 3e dd 6e c6 3d
       -0.273226 0.043469142 0.18441585 0.09689114
0002f0 98 04 7c 3e 1d 64 01 3d 2c 20 de 3d be b8 16 3e
       0.24611127 0.031589616 0.1084598 0.14718911
000300 6e a0 80 3c ce a9 1b 3e e4 9c 37 3e ec a5 b5 3d
       0.015701499 0.15201494 0.17930943 0.08869538
000310 5b 57 64 3e 67 ae 43 3e dc 92 46 3e 12 85 aa bb
       0.22298948 0.19109498 0.1939196 -0.0052038515
000320 42 03 cd 3d ff 1e 17 3e 7a bf ee 3d 2f cb 6c 3e
       0.10010387 0.14757918 0.11657615 0.23124383
000330 2b ed 78 3e 11 ef 10 3e 43 5d 5d bd 92 40 5a 3d
       0.24309222 0.14153697 -0.05404402 0.053284235
000340 a2 cd 7a 3e 61 18 5d 3e 56 94 16 3e 94 12 b2 3d
       0.24492505 0.21591331 0.14705023 0.0869495
000350 07 79 29 bd 9a 08 f9 bb 51 a6 f0 b9 06 e7 ed 3d
       -0.041375186 -0.0075999023 -0.00045900283 0.1161633
000360 0f 39 c3 3e 07 9b bc be 1d ab 10 be e7 d7 ea be
       0.3812947 -0.36837026 -0.14127775 -0.45867845
000370 2f 50 ab be 24 a1 cb 3d 11 36 5c 3d 93 9a 71 3d
       -0.33459613 0.099428445 0.0537625 0.058985304
000380 50 73 57 bc ea 1e 05 3e 6a 0e 04 3e 81 76 6e 3d
       -0.013150051 0.13000074 0.12896124 0.058218483
000390 4a ef 3f 3d d8 c7 ab 3d 1e 07 e0 bd 94 c9 b4 bd
       0.046859063 0.083877265 -0.109388575 -0.088275105
0003a0 30 d1 8f bd 72 7b bd 3e 37 b8 a8 3d 7d f9 e6 3d
       -0.07022321 0.37008244 0.08238261 0.11278055
0003b0 16 b7 89 3d fd 23 b5 bd 9e b1 c7 bd e4 e5 86 bc
       0.06724374 -0.08844755 -0.09750675 -0.016467042
0003c0 8e 50 9f 3d bb 3e 17 3e 62 df 10 3e a6 96 d6 bb
       0.077790365 0.14770024 0.14147714 -0.0065487204
0003d0 67 ca 73 bd ff b0 2c bd 1f 56 02 bc 75 0f 7a bd
       -0.059519198 -0.042160984 -0.007955103 -0.061049897
0003e0 74 32 93 3d 13 bd 47 3e f9 be 24 bd 82 d0 98 be
       0.071873575 0.1950572 -0.04022119 -0.2984658
0003f0 cd f7 88 3d ad ae 03 bf 27 9e c3 3e 1c b3 1a be
       0.06687889 -0.5143841 0.38206598 -0.15107387

fc1.bias f4 [128]
000000 d4 6e 7e 3e 49 95 83 3e d2 13 83 3d 30 ca 73 bd
       0.24846965 0.25699833 0.06400265 -0.059518993
000010 cd 61 a9 3d 62 e7 c3 bd c9 20 aa 3d 07 13 0d 3d
       0.08270607 -0.09565617 0.083070345 0.034441974
000020 b2 d0 d2 3d 83 51 ab 3d f8 be 42 3d 08 7a 55 3e
       0.10293712 0.083651565 0.047545403 0.20847332
000030 a3 f1 68 3d 94 98 ea bb fe 6e 00 3e c6 80 3a 3e
       0.056871068 -0.007159302 0.1254234 0.18213186
000040 7d ef 5a 3e 45 57 b5 3c f2 53 94 bd 8e e0 66 3e
       0.2138042 0.02213634 -0.07242574 0.22546598
000050 4f 69 bf 3d 7c 8d ec 3d 0b be 55 3d 3c 21 a8 3d
       0.09346258 0.115504235 0.052183192 0.08209464
000060 80 0d 44 3d 93 31 d7 3d 31 04 50 3d 6c 28 b0 3d
       0.047864437 0.105075024 0.050785247 0.0860146
000070 29 89 dd 3d d2 e3 4a 3d c4 14 61 3e 59 16 57 3e
       0.10817177 0.049533673 0.21980578 0.21004619
000080 4e b8 49 3e 59 cb 13 3e e2 7d 41 3e 21 be 3a bd
       0.19699213 0.1443304 0.18895677 -0.045591477
000090 09 3c ec 3d 2f 49 b9 3d 7f 7f 68 bd 8c 8c 81 3e
       0.11534888 0.09047162 -0.056762215 0.2530254
0000a0 78 c8 05 3e 86 f5 9d bc 80 b3 15 3d 80 ce a5 bd
       0.13064754 -0.019282114 0.036548138 -0.080960274
0000b0 e5 89 98 3e 59 e2 32 3e 0b 32 b0 bd 69 de 77 3d
       0.29792705 0.17469157 -0.08603295 0.06051484
0000c0 b4 a0 29 3d 8a 34 85 3d 0a 8b 40 3e 0f 01 32 3e
       0.041413024 0.06504162 0.18803039 0.17383216
0000d0 73 2f 94 3d e3 f9 28 3e be 60 e7 bd a3 55 12 be
       0.07235613 0.16501574 -0.11297749 -0.1429048
0000e0 c0 ce 3f 3e 9a 39 73 3e 9a 65 32 3e 3e 39 bd 3d
       0.18731213 0.23752442 0.1742157 0.09239434
0000f0 7a a2 56 bd 1d 48 29 bb ff a5 cc 3d c5 46 bd 3d
       -0.052401043 -0.0025830336 0.09992599 0.09242014
000100 fe fa 60 3d 3f 06 57 3e ea 90 8b 3e ba 41 3c 3e
       0.054926865 0.20998476 0.27258998 0.18384448
000110 6c 49 88 3e ea 25 3c 3e 44 6b fa 3d 7a 24 7f 3e
       0.26618516 0.18373838 0.122274905 0.24916258
000120 1f 2a d9 3d 98 dd 16 3e 45 31 43 3e dd 52 71 3e
       0.10603737 0.14732969 0.19061764 0.23566766
000130 9d a5 29 3d 8d 12 61 3d 04 cd ed 3d d4 3a e2 bd
       0.041417707 0.054949332 0.11611369 -0.11046377
000140 8b 60 9a 3c 1d 04 86 3e e4 79 5f 3d 4d 5f 62 3c
       0.018844863 0.26175013 0.054559603 0.013816667
000150 0e a9 0d bc e5 f4 6e 3e 6b 5f 3b 3e 85 79 6d 3e
       -0.008646263 0.23335607 0.18298118 0.23190887
000160 4b d8 48 3e 59 b4 e3 bd ea f7 eb bd 8a 66 80 3e
       0.19613759 -0.11118383 -0.11521895 0.2507823
000170 c9 11 79 3e c6 c9 bb 3d e9 29 84 3b f3 33 91 3c
       0.24323191 0.091693446 0.0040333164 0.017724967
000180 25 0e d4 3d 74 03 6b 3e c5 08 be 3d 4e e3 51 3e
       0.1035426 0.22950536 0.092790164 0.20496866
000190 ab 2a ce 3d 3b 2d a2 bd 1e d0 1a be 09 2b c9 bd
       0.10066732 -0.07918783 -0.15118453 -0.098226614
0001a0 6f 3e d6 3c 7a 6f b1 3d 63 e8 ce 3d 4e bd 68 3d
       0.026152818 0.086638406 0.10102918 0.05682116
0001b0 f5 be 34 3e 1f 30 1c 3e b4 0d 91 3e 55 f2 44 3e
       0.1765097 0.15252732 0.28330767 0.19233067
0001c0 3e 0a 78 3e 66 34 fa 3d 2c 50 05 3e 94 1b c4 bd
       0.24222657 0.122170255 0.13018864 -0.095755726
0001d0 f7 d2 36 3d 1b 20 1e 3e 05 ad 23 3e e1 13 86 3e
       0.044634786 0.15441935 0.1598397 0.2618704
0001e0 37 66 71 3e 25 a6 81 3e a9 04 25 3e 64 b2 86 3d
       0.23574148 0.2532207 0.16115059 0.06576994
0001f0 34 bf 0f 3d 2c c3 cb 3d 78 94 33 3e fc 5b 0e bc
       0.035094455 0.099493355 0.17537105 -0.008688923

fc2.weight f4 [128, 128]
000000 63 71 26 3d aa d3 29 3e 7b 37 05 3e 1f 93 0b 3e
       0.040635478 0.1658465 0.13009445 0.13630341
000010 e0 fb 19 3e 5f 7b a0 bd 82 0b 26 3e ce f4 9b 3d
       0.15037489 -0.07836031 0.16215327 0.07615052
000020 ca dc da 3d 1e ac 47 3e 5b ea f4 3d 3d f4 5e 3d
       0.106866434 0.19499251 0.11958762 0.054432143
000030 aa 00 f2 3d bb f6 1d 3e 65 c8 7f 3e 22 f2 5d 3e
       0.11816533 0.15426151 0.24978788 0.21674398
000040 b2 0f 9d 3d 08 42 00 3e 73 34 d4 3c ab 02 92 3e
       0.07669009 0.12525189 0.025903916 0.2851766
000050 f8 b7 a9 3e 6e a7 14 3d 02 60 e6 3d 40 2f 79 3e
       0.3314817 0.036292486 0.11248781 0.2433443
000060 6a 3d 24 be cd 9b 25 3d 22 b9 53 3e a5 94 da 3d
       -0.16039053 0.040431786 0.20676091 0.10672883
000070 3b 10 15 3e 4a c3 d8 3d 95 8f 2a 3e 06 05 33 3e
       0.14556973 0.105841234 0.16656335 0.17482385
000080 cc 38 cf 3d 5b e8 9d 3d bc 90 4d 3e 0b a1 90 bc
       0.10118255 0.07710334 0.20074743 -0.017654916
000090 28 6b ca 3c 82 35 03 3e e9 26 73 3e 1f 99 6d 3e
       0.0247093 0.1281338 0.23745312 0.23202942
0000a0 b0 09 8b 3d de 7f 4d 3d 4a 77 3f 3e 9f af 02 3e
       0.06788957 0.05017077 0.18697849 0.12762307
0000b0 d5 35 92 3e 20 f9 62 3e 0e d1 8e be 8e 8b 94 3d
       0.28556696 0.22165346 -0.2789387 0.072531804
0000c0 0c e1 41 3e 15 8a 77 3e 54 0a db 3d 71 2e fe 3d
       0.18933505 0.24173768 0.10695329 0.12411202
0000d0 46 a7 6d 3e 33 61 2f 3e 26 09 1f bc 43 f7 bc bd
       0.23208341 0.17126922 -0.009706771 -0.09226849
0000e0 21 5d 00 3e d7 f3 11 3e b2 b4 cd 3d 47 ee f9 3d
       0.12535526 0.14253174 0.100442305 0.12203651
0000f0 24 7f c7 3a a5 f4 dc 3d a1 d6 ec 3d 23 41 ad 3e
       0.0015220386 0.1078885 0.11564375 0.33838758
000100 a4 13 9f bc 9f d0 51 3e 09 cb 9d 3d 03 09 2d 3e
       -0.019418545 0.20489739 0.077047415 0.16897969
000110 5a e5 9b 3e 14 60 1a 3e 18 50 9a 3d 6e f4 14 3d
       0.3044842 0.15075713 0.07534808 0.03636592
000120 dd 51 99 3e 30 b3 9b 3e 39 4e 38 3d 5e 55 4b 3e
       0.2994527 0.30410147 0.044996474 0.19856784
000130 f9 18 d8 3d 88 d0 a3 3b 25 5b a8 3d 6d 24 a8 be
       0.10551638 0.004999224 0.082205094 -0.3284029
000140 7e c8 a2 bd 09 23 99 3e 7f 21 a5 3d 4e ee 79 bc
       -0.07948397 0.29909542 0.080630295 -0.01525457
000150 86 f5 54 3d 45 4d 36 3e 32 fe 43 3e 59 7c 63 3d
       0.051991962 0.17802913 0.19139937 0.05553851
000160 e3 a2 d6 3e 72 bc 67 be 44 5b c8 3d 38 9d 0b 3e
       0.41921148 -0.2263048 0.097830325 0.13634193
000170 f7 c8 58 3e ba 66 bc 3e dc 08 50 3d ce 47 07 3d
       0.21170412 0.36797124 0.0507897 0.033027463
000180 ce c8 11 3e a4 b8 4e 3d 1d ef 5d 3e d7 ff 8c 3e
       0.14236757 0.050469056 0.21673246 0.2753894
000190 20 cc 4e 3e a8 d5 60 3e cc f2 2d be 3b 59 36 3d
       0.20195055 0.21956503 -0.16987151 0.04451869
0001a0 cf f6 c2 3d 01 a0 62 3e 7b fe 41 3e 2a bb a6 3d
       0.09519731 0.22131349 0.18944733 0.081411675
0001b0 4e 25 fa 3d fd 23 0e 3e 75 20 71 3e 29 e1 26 3e
       0.122141466 0.13880916 0.23547538 0.1629683
0001c0 3f 34 73 3e 87 8d ee 3d ff 89 66 3d 90 33 6b bd
       0.23750399 0.11648088 0.056283947 -0.05742222
0001d0 03 33 67 3e 5c 48 23 3d a8 85 b8 3e aa 3a 54 3e
       0.22578053 0.03986393 0.36039472 0.20725504
0001e0 2f 0f ed 3d 6d 9e 74 3e 65 d6 02 3c 57 d1 a5 3d
       0.11575162 0.2388856 0.007985686 0.08096569
0001f0 fc c9 23 3b 21 63 2b 3e db 28 a2 3d bf 50 9c bd
       0.0024992218 0.16737033 0.07917949 -0.076325886
000200 79 1d e0 bc c1 1d 81 bd 7c f7 86 3d ed d3 8e 3c
       -0.027357804 -0.06304503 0.06590173 0.017435038
000210 fc cc 9c 3d 89 9f 36 bd ec 36 47 3d b2 5c 1e 3b
       0.07656285 -0.04458574 0.048636362 0.0024164137
000220 c2 97 b4 bd 19 83 d3 ba 81 65 ad bd c8 77 6e 3d
       -0.08818008 -0.0016137093 -0.08466626 0.0582197
000230 1e 2c 8a bc 0e 52 a4 3c f7 61 b4 bd 0a 0a 1b 3d
       -0.01686674 0.020058658 -0.08807748 0.03785137
000240 47 64 3c bd ca ba b6 3d 37 df 91 3d 4e e6 54 bd
       -0.04599407 0.08922346 0.07122653 -0.05197745
000250 2e 11 28 bd 44 d8 74 bd 69 9d 50 3d 76 de 32 bd
       -0.04103201 -0.05977656 0.050931368 -0.043669187
000260 3e c0 95 3d 22 fe 1f 3c df 19 cf bc 16 a8 56 3d
       0.07312058 0.00976518 -0.025280891 0.052406393
000270 50 2d be 3d 0a 6f ae 3a e4 b7 6e 3d 2a 26 67 bc
       0.092859864 0.0013308239 0.05828084 -0.01410822
000280 05 8a f6 3c ff c0 84 3c a5 04 f6 3c a1 70 8f bd
       0.03009511 0.016205309 0.030031512 -0.07003904
000290 1d de 36 3d f6 bb b0 bd dc cb 00 3d ab b9 08 bd
       0.044645417 -0.08629601 0.031444415 -0.03338019
0002a0 ab 03 8a bd 08 19 a0 3d 00 f7 31 bd 0c 71 c6 bc
       -0.06738981 0.07817274 -0.04344845 -0.024223827
0002b0 a9 97 30 bc e1 2e 14 3d 67 5b 41 bd 25 e3 27 bd
       -0.010778346 0.03617752 -0.04720631 -0.040988106
0002c0 ea 79 88 3c 26 0c a4 bd 77 9e 29 bd 56 97 94 3d
       0.016659696 -0.0801013 -0.04141089 0.072554275
0002d0 b3 23 3b 3c 19 5b aa bd 3b 0b 78 3d 1b e0 88 bb
       0.011422086 -0.08318157 0.060557585 -0.004177106
0002e0 3d da f9 bc 53 5b 3d 3d 70 70 93 3d 88 02 74 bd
       -0.030499572 0.04622967 0.0719918 -0.059572726
0002f0 46 cc a9 3d 2b e9 92 bb 88 f4 eb 3b 33 a7 81 bc
       0.08290915 -0.004483362 0.0072007813 -0.015826797
000300 4a fd 29 3d a8 ab 75 bd 0c a9 94 bd 60 90 42 bd
       0.04150132 -0.059978157 -0.07258806 -0.047500968
000310 ae 8d 6c 3d e9 7d b2 3a fd fb 09 bc d6 b8 1b bc
       0.057752304 0.0013617846 -0.008421895 -0.009504518
000320 ab c9 76 bd c1 a3 50 3c d1 8c 58 bd 51 fa a6 3d
       -0.06025092 0.0127343545 -0.052868668 0.08153213
000330 45 ed 25 bd 40 34 c3 3c 2f c9 4d 3d a9 82 24 3d
       -0.04050948 0.023828626 0.05024069 0.04016367
000340 7f 43 d0 bb 33 56 9f bc ac 02 0c 3c 04 8b 42 3d
       -0.0063557024 -0.019450283 0.008545559 0.047495857
000350 8e 07 ed bc 03 fe 6e bc f3 db 3d bc 7d 7f 74 bd
       -0.028934266 -0.014586928 -0.0115880845 -0.059691895
000360 64 23 a2 3b 4c ea c2 bc 91 da 9e 3d 9f 40 7b bd
       0.0049480665 -0.023793362 0.07756532 -0.061340924
000370 80 9b ba bd fe 70 a5 bd c2 5f b3 bb 08 7b 84 bd
       -0.091116905 -0.08078192 -0.0054740617 -0.06468779
000380 39 74 0c 3b 36 a6 32 bc b7 88 3a 3d 12 e7 94 bd
       0.0021431579 -0.010903886 0.045540538 -0.07270636
000390 b1 25 23 bd fa d5 9e bd 6a f3 2c 3d 1a b0 0a 3c
       -0.039830867 -0.077556565 0.042224325 0.008464837
0003a0 af 9d 7e bd 30 bb 62 bd 92 43 cf 3c 63 b3 bf bc
       -0.062162098 -0.055354297 0.025300775 -0.023400968
0003b0 48 14 13 bc 3f 7c 84 3b 16 8d 2f bd ed 98 af bd
       -0.008977003 0.0040431316 -0.04285916 -0.0857409
0003c0 5e b5 62 3d 5a 82 39 bd eb 6b ad bc 74 1e 9f bd
       0.055348746 -0.04529033 -0.021169623 -0.0776948
0003d0 6e d4 84 bd 68 dc ca bc d1 a0 a1 bc 02 db 3d bd
       -0.0648583 -0.024763301 -0.019730004 -0.04635144
0003e0 05 ad e7 bc 2c 43 8e 3d b8 1c 65 3d ac 81 30 3d
       -0.028280744 0.06946406 0.05593559 0.043092415
0003f0 75 b9 cd 3c fb 52 be bc 29 c0 ad bd 86 0f 26 3c
       0.025112847 -0.023232928 -0.08483917 0.010135537

fc2.bias f4 [128]
000000 5f b9 71 3e 4b 35 46 3d 05 65 94 bd e2 b4 38 3d
       0.2360587 0.048390668 -0.072458304 0.04509438
000010 7d b2 74 3e 51 4f 86 3d 25 13 5a 3c b1 4b 4c 3e
       0.23896213 0.06558097 0.0133102285 0.19950749
000020 f3 27 25 3e 0a d8 62 3e cb ac 4f 3c f2 3f 4a 3e
       0.1612852 0.22152725 0.012675474 0.19750956
000030 b2 e2 06 3d 1e 8b b1 3d 18 c9 73 bd c6 8c 1c 3d
       0.032931037 0.086691126 -0.05951795 0.03822019
000040 3b b6 86 3d 79 89 65 3e 92 06 2a 3e 26 a3 9e 3d
       0.065777265 0.22415723 0.16604069 0.07745962
000050 80 23 91 bd 4b 11 39 bd 22 06 8d bb 5c a8 a8 3b
       -0.07086849 -0.045182507 -0.0043037096 0.005147023
000060 f7 54 9c 3d d9 ea c3 bd a6 d7 c2 3d 11 dc 86 3d
       0.07633393 -0.09566278 0.09513788 0.06584943
000070 81 e1 9e 3d e9 f7 20 3d ac bb 91 bc 69 92 5c 3c
       0.07757855 0.039298926 -0.017789684 0.013462641
000080 2f ac 0b bc 01 ea 45 3e b7 38 62 3e d4 05 6c 3d
       -0.0085249385 0.19327547 0.22091947 0.057622746
000090 cd e0 84 bd d9 a0 70 bd ea 53 1b 3d c6 6f 9f bd
       -0.0648819 -0.058747146 0.037921824 -0.07784991
0000a0 6d 31 de 3d a2 94 75 3c a6 fc c4 3c 56 12 3c 3e
       0.10849271 0.01498905 0.024046253 0.1836637
0000b0 e5 65 7c bd a6 02 66 3d cc c7 3b 3d 66 33 d9 3c
       -0.06162061 0.05615487 0.045844838 0.026513766
0000c0 d6 b3 47 3e 4a 9e 63 3c da 72 4c 3e ce 9b 92 3d
       0.19502196 0.0138927195 0.19965687 0.07158624
0000d0 9e 7b b9 bd 64 c3 40 bc aa 52 1c bd a9 82 b5 bc
       -0.09056781 -0.011765335 -0.038164772 -0.02215703
0000e0 16 06 1b 3d 8e c8 13 bc 2e 6b 18 bc 6a b5 37 3e
       0.0378476 -0.009019984 -0.009302897 0.17940298
0000f0 84 85 5c 3e 6d 12 83 3d b7 72 25 3e 28 3e 70 bd
       0.21535307 0.06399999 0.16157041 -0.058653027
000100 12 f0 81 bc c8 21 67 bd 23 ac 14 3a 35 f5 0c 3e
       -0.015861545 -0.0564287 0.00056714023 0.13765414
000110 38 a0 a5 3d e4 d4 ea 3c c8 7d 9d bd 53 ca 10 3e
       0.080872 0.028665967 -0.076900065 0.1413968
000120 31 f0 96 3d 98 35 62 3e 16 7a 09 3e 31 73 3e 3d
       0.073700316 0.22090757 0.13425478 0.046496574
000130 99 26 70 3e ca bd 24 3e 3d 1f 1f bd 00 ec ba 3d
       0.23452224 0.16088024 -0.03884815 0.09127045
000140 8e 08 95 bd c0 50 41 3d 96 e6 4f bd 3f 5b 13 3e
       -0.07277022 0.04719615 -0.050757013 0.14390276
000150 45 00 8a 3c f5 0b e4 3d 59 ea a7 bc 08 a2 85 bd
       0.016845832 0.11135093 -0.020497488 -0.06525046
000160 0e 8e 6b bd ce f9 a4 3d 99 37 b1 3c b7 e1 58 bd
       -0.05750852 0.08055459 0.021632956 -0.052949633
000170 1a e0 8b bd 35 54 24 3e d0 33 90 3c f8 9b 07 3e
       -0.06829853 0.16047747 0.017602831 0.13243091
000180 e3 b6 36 3e 21 df 98 3c 98 7a ab 3d 58 53 46 3e
       0.17843203 0.018661084 0.08372992 0.1936773
000190 a6 c1 4c 3a 5d d3 b4 3d 7e 02 39 3e 80 7b c9 3d
       0.0007810838 0.08829377 0.18067357 0.09838009
0001a0 da fc cb 3d d8 5e 5e 3e 8f 51 b7 3d f5 9b 3c 3e
       0.09960337 0.21715868 0.08951103 0.18418868
0001b0 51 75 1d 3e 5e b1 21 bc 3a e5 4f 3d f1 23 52 3d
       0.15376784 -0.009868948 0.050755717 0.051303808
0001c0 e1 a2 43 3d 79 a8 d5 3d 11 61 a4 3d d3 d8 89 3d
       0.047762755 0.10432524 0.080263264 0.06730809
0001d0 eb 05 aa 3d e6 d5 8d bd 89 d1 d0 bb 3c 27 6a 3d
       0.0830191 -0.069255635 -0.006372635 0.057166323
0001e0 77 56 00 3e 2d 47 77 bd e1 c3 90 bd 69 83 81 bd
       0.12532984 -0.060370613 -0.07068611 -0.063238926
0001f0 9b 89 31 3c ab 4b ae 3d 5d 28 dc 3d 37 d1 88 39
       0.01083603 0.08510526 0.10749886 0.0002609582

q_out.weight f4 [4, 128]
000000 6b 4d 48 3e 53 d9 64 bd d3 4b d0 bc e8 2c 46 3d
       0.19560783 -0.05587132 -0.02542678 0.04838267
000010 1a 1c e8 3d 70 02 06 3d 96 20 8d 3e 24 8a fa 3d
       0.11333485 0.03271717 0.27563924 0.122333795
000020 96 76 02 3e 13 59 18 3e 2a 91 55 bd 95 6c 24 3e
       0.1274055 0.14877729 -0.052140392 0.16057046
000030 35 68 a2 3d 4c 2b cb 3d 8b e2 a8 bd f8 0d 9d 3d
       0.07930032 0.099203676 -0.08246335 0.0766868
000040 91 bf 86 3c 07 6b de 3d 53 5c d1 3d 87 64 8f bd
       0.016448768 0.108602576 0.102226876 -0.07001596
000050 87 ef fd bd 92 af 8e bc 6d fd cf 3c 6d fa 66 3d
       -0.12399202 -0.017417703 0.025389398 0.05639117
000060 7d 6a e7 bc d4 7f 3d be 3a 7f e3 3d ef 1c 33 bd
       -0.02824902 -0.18505794 0.11108251 -0.043728765
000070 d5 01 a0 bd d3 56 93 3c 17 c2 d5 3b a1 f6 81 bd
       -0.078128494 0.017985737 0.0065233815 -0.06345869
000080 e9 d9 04 bd 88 66 2c 3e df 9d 19 3e 40 c2 26 3e
       -0.032434378 0.16835988 0.1500163 0.16285038
000090 fe a4 aa 3c c5 4a 23 3d 96 fa 9b bd ce bd a3 3d
       0.020830628 0.039866228 -0.07616155 0.07995187
0000a0 46 2d fe 3d 35 a9 4e be 5d b2 02 3d fc a2 5d 3d
       0.12410979 -0.20181735 0.03190838 0.054110512
0000b0 6a 28 f4 3c b2 06 17 3e f2 19 9d bd dc 1f b7 bd
       0.029804427 0.14748648 -0.07670964 -0.089416236
0000c0 87 bd 3a 3e 7b 20 94 3d 0f eb 39 3e 36 98 12 3d
       0.18236361 0.07232758 0.18156074 0.03578969
0000d0 a5 d3 2e bc 10 66 51 3d c5 53 2f 3d e0 f6 53 be
       -0.010670577 0.051122725 0.0428045 -0.20699644
0000e0 f3 5b 4d 3e 57 d5 a1 bc ed 60 88 bd cf bf 53 3e
       0.20054607 -0.019755049 -0.06659112 0.20678638
0000f0 c5 f0 ce 3d 1b b9 7b bd 5d 73 07 3e c0 c4 be 3c
       0.10104517 -0.061455827 0.13227601 0.023287177
000100 b1 8e b0 3d 22 bc f7 bd 8c 59 83 3c 42 47 17 3e
       0.08620966 -0.1209643 0.01603391 0.14773276
000110 73 b8 73 bd 28 a4 00 bd 4b 87 0c 3b 93 28 7c 3d
       -0.059502076 -0.03140655 0.0021442946 0.061562132
000120 87 2a 53 3c 87 34 3c 3e 31 0a da 3c 29 1f 8c bd
       0.012888557 0.18379413 0.026616188 -0.06841881
000130 eb e4 fd 3d c3 4f be 3d 05 37 12 be a7 68 24 3e
       0.12397178 0.09292557 -0.14278801 0.16055547
000140 6d b3 aa bd 9d 28 33 3e ed 59 a7 3d e7 d3 1f 3e
       -0.08335004 0.17495961 0.08171449 0.15608178
000150 b5 6b 86 bb 3f cc 42 3e f1 b8 1c 3d 07 e1 02 3d
       -0.004102195 0.19023226 0.03826231 0.031952884
000160 90 01 4b bc 80 d8 40 3e 31 41 0c bd f3 3c 90 bd
       -0.012390509 0.18832588 -0.03424186 -0.07042875
000170 b8 d8 f6 ba d5 49 79 3d 3f 7c c7 3c 41 e6 c9 3c
       -0.0018832898 0.060861427 0.024351237 0.024645926
000180 7a d2 40 3e 19 b1 5c bd b3 ec 18 be dc b0 6b 3e
       0.1883029 -0.05387983 -0.14934044 0.23016685
000190 d3 0d 2e 3d 48 e5 33 3e 6b 21 3f 3e ad f6 3c 3e
       0.042493653 0.17567933 0.18665092 0.18453474
0001a0 4e c4 23 3e 68 22 a1 3d 87 13 47 3e 8c 09 48 3e
       0.15992853 0.078678906 0.19441043 0.19534892
0001b0 c7 a1 dd 3d 12 f8 a8 3d 25 6e 13 3e 43 49 55 bd
       0.10821872 0.08250441 0.14397486 -0.05207182
0001c0 57 63 af bd 45 13 55 3e aa 50 dc 3d 2c ad 20 3d
       -0.085638694 0.20808132 0.10757573 0.03922765
0001d0 d4 a1 4c 3e d8 b5 0a bc 00 87 a9 bd 6e 31 a7 3d
       0.19983608 -0.0084662065 -0.08277702 0.08163725
0001e0 19 ee d4 3d 5b 0f ab bd 17 7a 08 3e f2 cd 80 3c
       0.10396976 -0.08352538 0.13327824 0.015723202
0001f0 54 86 64 3d e0 f9 52 3e 38 cf 4b 3e 8b 91 a1 3d
       0.055792168 0.20603132 0.19903266 0.07889088
000200 a9 31 14 3e 13 f6 d8 3d cc 31 89 3d 87 1f 6a 3e
       0.14472069 0.1059381 0.06698951 0.22863589
000210 62 b4 2e 3e 16 8b f6 3c c5 aa 05 bc 99 d5 39 3e
       0.17060998 0.030095618 -0.00815839 0.18147887
000220 7e b7 36 3e 71 ba 3c 3e f9 51 7e 3d 46 07 3e 3e
       0.17843434 0.18430497 0.062089894 0.18557462
000230 20 eb 22 bd 96 91 c4 3d 75 b2 9a bd 34 bc 08 bd
       -0.039775014 0.09598081 -0.07553569 -0.03338261
000240 1c 28 4e bd 29 8b 21 3e a5 91 5c 3e 1d 0c 91 bd
       -0.05033122 0.15775742 0.21539934 -0.070823886
000250 bf 1e cb bd a0 d0 22 bd c0 29 14 3d f4 70 a0 3d
       -0.09917974 -0.03974974 0.03617263 0.07834044
000260 f2 1a 13 bd 19 e7 ea bd 0b ce b4 3d 81 23 0c bd
       -0.03591437 -0.1146986 0.08828362 -0.034213547
000270 f0 80 02 bd 18 f5 be bc dd 50 a0 3d ff 6b 96 bd
       -0.031861246 -0.02331023 0.078279234 -0.07344817
000280 8c 57 92 bc af b8 1c 3e 2d ee 00 3e 45 7b 58 3e
       -0.017864011 0.15304826 0.12590857 0.21140774
000290 62 83 e3 bc d7 39 4e 3d 67 6f 20 3c 9a 23 9f ba
       -0.02777261 0.05034813 0.009792185 -0.0012141347
0002a0 fc 4f 3e 3e bd 72 09 be 6d 5c d9 bc 85 8a 98 3d
       0.18585199 -0.13422675 -0.02653333 0.074482955
0002b0 f0 2b 73 3d 3f 6e 3d 3d 01 4e de bc 01 6d 04 3d
       0.059368074 0.046247717 -0.027136805 0.032330517
0002c0 60 2d 0a 3e 39 17 34 bd 42 15 2f 3e 95 19 30 3c
       0.13493872 -0.04396746 0.17097953 0.010748287
0002d0 cb 52 24 3c 63 b9 b1 bd 9b 5d 06 bc bb 53 5f 3c
       0.010029505 -0.08677938 -0.008201028 0.013630803
0002e0 1b 1a 75 3e 6f ce a4 3c 55 a7 ed 3b a8 76 05 3e
       0.2393574 0.020117966 0.0072526135 0.13033545
0002f0 c2 0c 12 3e 64 e4 6a 3d 60 34 93 3d 92 ff 83 bc
       0.14262679 0.057346717 0.07187724 -0.016113076
000300 86 12 82 bd 7c 96 e2 bc 11 e4 86 bd d3 73 5e 3d
       -0.06351189 -0.027659647 -0.06586469 0.054309677
000310 13 21 1e bd 87 7a b2 bd 82 e4 50 bd 15 cf 19 3e
       -0.03860576 -0.087147765 -0.050999172 0.15020402
000320 1b 96 f4 3c 14 bf 01 3e ce b5 c6 3d fd 9d a4 bd
       0.029856732 0.12670547 0.09702645 -0.080379464
000330 9f 8d 56 3e 5b 37 d0 3d c1 90 27 bd 9f 17 0b 3e
       0.20952462 0.10166808 -0.040909532 0.1358323
000340 e8 a1 24 bd de 91 27 3e 4c 3e 40 3d 72 fc fe 3d
       -0.04019347 0.16364238 0.04693441 0.12450494
000350 ac 7b aa 3d dd 4f 27 3e 21 8f cd bc 4f 8d 98 bc
       0.0832437 0.16339059 -0.025092663 -0.018622069
000360 dd 73 68 bd 0b 6a 32 3e c0 66 c0 3c 14 09 a6 3d
       -0.05675112 0.17423265 0.023486495 0.081072
000370 dc ab f6 3c c1 e6 2c 3e 22 a1 69 3d e7 9a 37 3e
       0.030111246 0.168849 0.057038434 0.17930184
000380 2c 8a 2a 3e dc 69 6a 3d d0 37 b5 3d 5e 40 a8 3d
       0.16654271 0.05722986 0.08848536 0.08215402
000390 f5 2a 1f 3e 8e 69 23 3e 79 e3 fb 3c 41 aa 5e 3d
       0.1554373 0.15958235 0.030748116 0.054361586
0003a0 c0 80 6e 3d c8 8e 49 3e 44 b7 31 3e b0 ea d5 3d
       0.058228254 0.19683373 0.17355067 0.10445154
0003b0 d0 ee 06 3e ba ca 9a bc 84 a5 c3 3d 45 a4 13 3b
       0.13177037 -0.018895496 0.09553054 0.0022528332
0003c0 68 af 82 bd 5f 1c 7e 3e db 8e 1d 3e 13 34 c4 bb
       -0.06381112 0.2481551 0.15386526 -0.005987653
0003d0 72 7d 21 3e 4a a1 98 3d f0 5d 3f bd 98 35 0c bc
       0.1577051 0.074526384 -0.046720445 -0.0085577
0003e0 d0 47 40 3e 4b ca c6 3c e2 b5 13 3e c3 4b 8e bd
       0.18777394 0.024266383 0.14424852 -0.06948044
0003f0 ad 57 83 3d 14 2f 06 3e 95 86 82 3d 83 ab 1a bd
       0.06413207 0.13103896 0.06373326 -0.037761223

q_out.bias f4 [4]
000000 4e 3f d6 3d 26 e6 23 3e b3 52 f9 3d 68 97 22 3e
       0.10461293 0.16005763 0.12173977 0.1587807
