models/400step_5000iter_HER_PER/q_ind_agent_1.pt (torch, 108061 bytes, 6 tensors)

fc1.weight f4 [128, 71]
000000 62 2f 97 3a a4 65 fc bc 70 e2 f0 bd f2 83 d5 bd
       0.0011534507 -0.030810185 -0.117619395 -0.10425557
000010 83 fd 3c bc a5 32 fa 3c 13 d5 2f 3d 74 7f ac bd
       -0.011535051 0.030541727 0.042927813 -0.08422747
000020 8d 67 a0 3b 72 67 b6 bb b7 74 c7 3d de 3d 56 bd
       0.0048951567 -0.005566531 0.097390585 -0.052305095
000030 17 4e 60 bc ea de 56 bd 5b 92 b0 bd ba 31 73 3d
       -0.013690493 -0.05245868 -0.08621665 0.059373595
000040 cc d5 04 be 9a 17 53 bd 0b 57 c6 3d 5e 91 aa bd
       -0.12972182 -0.05153618 0.09684571 -0.08328508
000050 0a a4 d7 bc ea 5c b2 bd f9 0b 1d 3c 28 0d b2 bd
       -0.026323337 -0.08709128 0.009585374 -0.086939156
000060 90 08 08 3e fb 60 ea bc cd 70 30 bc 8b 69 c5 bd
       0.13284516 -0.028610697 -0.010769081 -0.09639271
000070 12 a3 9b 3d 24 22 bd 3d 29 9d e7 bd 26 78 84 bd
       0.075994626 0.092350274 -0.11309273 -0.06468229
000080 d1 b7 d9 3d 72 c4 5b bc 02 fb 48 3d f5 ed 84 3b
       0.10630763 -0.013413535 0.049067505 0.004056687
000090 7e 40 95 bd b6 36 28 bd 10 61 c3 bd 31 0e e9 bb
       -0.072876915 -0.0410678 -0.095399976 -0.0071122875
0000a0 40 4d b0 3d 09 71 f2 3d 17 65 1c 3d 3a ce 2d bd
       0.08608484 0.11837966 0.038182344 -0.042433
0000b0 f1 25 3a 3c 49 58 65 bc 0e 15 94 3d e6 a8 e5 bd
       0.011361585 -0.0139981 0.07230578 -0.112138554
0000c0 91 63 c8 bd 1c f7 cd bc c7 a3 e7 3d 62 d5 23 bd
       -0.09784616 -0.025142245 0.11310535 -0.03999842
0000d0 57 55 84 bd 2e 56 e9 3d ac 8d 92 bd 72 4f 9a b9
       -0.0646159 0.113933906 -0.07155928 -0.0002943236
0000e0 0a 44 9e bd 52 e2 e8 bd db 94 b7 3c 24 a5 97 bc
       -0.07727821 -0.11371292 0.022409847 -0.018511362
0000f0 23 41 67 3d 5f 7e 9b 3d c6 8d b9 bd f3 a0 76 bd
       0.056458604 0.07592463 -0.09060244 -0.060212087
000100 62 40 ec bd 43 86 1f 3d b1 f0 92 bd ac 91 a8 3d
       -0.115357175 0.0389464 -0.071748145 0.0823091
000110 cf 3b d0 3d b4 f4 30 bd 58 4c a8 3d 61 49 11 3e
       0.101676576 -0.043202117 0.082176864 0.14188148
000120 74 8f 0c bd a0 14 a6 bd 01 58 b8 bd 0b 8d 98 3b
       -0.034316495 -0.08109403 -0.090011604 0.0046554855
000130 d9 08 2d be 5f 7e 2f 3e 72 9b 5f 3d 71 f9 5c 3d
       -0.16897906 0.1713805 0.054591604 0.053948823
000140 df 50 c8 bd 77 0a 88 3d 4b f0 74 3e a1 94 86 bc
       -0.0978105 0.06642621 0.2391979 -0.016428294
000150 1e fb d8 bd b8 dd 7d bd 03 33 c0 bd 38 79 36 bd
       -0.10594772 -0.061979026 -0.0938473 -0.044549197
000160 27 60 19 3c 42 38 ab 3d c0 e6 df bd 99 ff 5d be
       0.009361303 0.0836034 -0.10932684 -0.21679534
000170 29 5c 99 3d 8d 8b 49 3b 47 c2 70 3d 24 86 ad 3d
       0.07488281 0.0030753345 0.058779027 0.08472851
000180 83 4d b2 3d b5 c4 04 3e bf 5c 18 be 99 15 15 be
       0.087061904 0.12965663 -0.1487913 -0.1455902
000190 6e 1f 93 bc e3 fd 18 be ca 38 06 3e 4a df 77 3e
       -0.017959323 -0.149406 0.13107601 0.24206272
0001a0 b6 8c a2 3d 5d 9f 40 be 6a e4 fa bd 86 ea 66 be
       0.07936995 -0.18810792 -0.12250598 -0.22550401
0001b0 59 9c f1 ba ba 27 82 3d 8d 2e 3b 3d 61 87 4e 3e
       -0.0018433436 0.063552335 0.04569869 0.2016883
0001c0 e4 6f dc be 22 4a 31 3c df d7 06 be 34 52 13 3d
       -0.43054116 0.010820897 -0.13168286 0.035967067
0001d0 92 f4 d5 3b 36 9a 34 3e ed 76 08 3e 1f a6 d4 bd
       0.006529399 0.17636952 0.13326617 -0.103832476
0001e0 b3 6b 22 be fe ea 0a be c0 d3 c9 3c 04 8f 16 3e
       -0.15861396 -0.13566205 0.024637103 0.14702994
0001f0 20 b0 90 3d a6 23 5c 3d b2 16 4b bd 26 a9 3b be
       0.07064843 0.053744934 -0.04958219 -0.18326244
000200 99 40 1b 3e 31 28 c7 3c 70 66 66 bd bf e1 21 3e
       0.15161361 0.024311157 -0.056250036 0.15808772
000210 d4 5a 94 bc 4c c1 db bd 68 9e eb 3c d7 1c c5 bd
       -0.018109716 -0.10730228 0.028762057 -0.096246414
000220 41 92 ea bd af a4 ed bc fd b8 47 3e 94 d4 5a 3e
       -0.11453677 -0.029009191 0.19504161 0.21370155
000230 0b 64 e7 bd 17 45 9d 3d 63 d1 ed bd 20 14 b3 bb
       -0.112983786 0.076791935 -0.11612203 -0.0054650456
000240 6a d8 d3 3d 0d eb 25 bc 31 aa 69 3d 3e 0d 33 3e
       0.10344012 -0.010126841 0.057047073 0.1748552
000250 cd 1c f3 3d 9b 33 04 3e 46 92 5e be a3 2f 67 3e
       0.11870728 0.12910311 -0.21735486 0.22576766
000260 63 37 fe 3a 02 16 03 be 54 f0 71 3d b9 24 51 3d
       0.0019395169 -0.12801364 0.059067085 0.051060412
000270 60 16 e7 bd 57 26 82 bd 04 28 52 3e 6c e8 d0 3d
       -0.112835646 -0.06354969 0.20523077 0.10200581
000280 2d 47 ee 3b d5 78 de 3d ab 13 9b 3e 5f 42 7d 3a
       0.0072716684 0.10862891 0.30288443 0.0009661074
000290 23 a8 20 3e c5 b5 3d 3d 40 cf 28 3e 0b 9b a9 3d
       0.15689139 0.046315927 0.1648531 0.08281525
0002a0 cd ae e6 3c 33 5d 12 3e 2a a6 97 bd 30 08 d8 3d
       0.028159523 0.14293365 -0.0740474 0.10548437
0002b0 11 dc bb 3d c9 d3 10 3e 68 8b f6 3d e7 fb 47 3e
       0.09172834 0.1414329 0.120383084 0.19529687
0002c0 1b ea 5a bd 37 3a e9 3d e6 40 83 bd 30 08 f9 3d
       -0.053445917 0.11388057 -0.06408863 0.12159765
0002d0 7d 7d ac 3d a8 5b 8a 3d 05 46 b8 3c 2c 4b d9 3c
       0.084223725 0.06755763 0.022494325 0.026525103
0002e0 e3 9d fa bb fe 26 cf bd 0d 06 10 3d 4c 83 c1 3c
       -0.007648216 -0.10114859 0.03516202 0.023622178
0002f0 ae 20 1f 3e 4d cf 32 3d fe 18 c3 3d 8c 76 f0 3d
       0.1553981 0.04365473 0.09526251 0.11741361
000300 c4 62 d0 3c 2a 17 21 3e 28 6a 3d 3e 56 05 9b b9
       0.02543772 0.15731493 0.18497527 -0.0002956788
000310 67 e0 39 3d bd 27 99 bd e8 5e 57 bc ae c3 12 3e
       0.045380022 -0.074782826 -0.013145186 0.14332458
000320 00 b7 26 3d 0b 0b 94 3d 78 05 31 3e 14 3f 33 3e
       0.040701866 0.07228669 0.17287242 0.17504531
000330 b7 4a f3 3d aa 35 bc bd 37 b1 0e bd 3b 2d 10 3e
       0.11879485 -0.09189923 -0.034836974 0.14079754
000340 90 57 eb 3c 55 b1 43 3e f2 54 1a 3c eb 71 42 3d
       0.028728276 0.19110616 0.009419667 0.047471922
000350 04 ed b7 bd 4c 3f 5b bc c5 82 c4 bd cf 49 e6 3d
       -0.08980754 -0.01338179 -0.09595255 0.112445466
000360 1c c0 06 bd f4 65 b2 3d 1c 9b 81 bd bd 84 74 bd
       -0.032898054 0.08710852 -0.06328413 -0.0596969
000370 84 ec e3 bd 12 ec bd b9 ae 58 d3 bd 67 eb 9c 3d
       -0.11129096 -0.00036224775 -0.10319649 0.07662087
000380 96 80 84 bd 7c bd 78 3b 64 7d a9 3c 0f 95 a3 bd
       -0.06469838 0.0037954738 0.020689674 -0.07987415
000390 b8 1d bd 3c 62 f6 a7 bd ef 2f 34 3d f7 c8 74 bd
       0.02308546 -0.08201291 0.043991026 -0.059761968
0003a0 c9 56 7d bd d5 8e c6 bd ee e7 97 3d 8a f7 f2 3d
       -0.061850343 -0.09695212 0.07417284 0.118636206
0003b0 a9 f6 40 bd 2f e4 a2 3c 22 68 b7 bd b1 0d c3 3d
       -0.047110233 0.019884197 -0.08955409 0.09524096
0003c0 70 5a e9 bc 8e 8d 8f 3d 2e c0 ae bc 0d b4 bc bd
       -0.028485507 0.07009421 -0.021331873 -0.092140295
0003d0 f3 bf b8 3c 30 a2 43 bd dc a0 6a bd 65 d6 c6 bd
       0.022552466 -0.047762096 -0.057282314 -0.09708861
0003e0 0e 7d 26 bd f8 e7 c3 bb c1 e8 b2 bd 95 33 e9 3d
       -0.040646605 -0.0059785806 -0.087358005 0.113867916
0003f0 1e b2 ac 3d 08 4b 6b bd 78 7e dd bc db b1 a3 bc
       0.08432411 -0.057444602 -0.027037844 -0.019982269

fc1.bias f4 [128]
000000 ec 40 e9 bc a2 07 77 bd 7c b2 4f 3d d8 df ce bd
       -0.02847334 -0.060310014 0.050707325 -0.101012886
000010 02 42 7a bd b0 d4 9f 3d 7e 6a 92 3d 48 f4 49 3e
       -0.061098106 0.07804239 0.07149218 0.19722092
000020 c9 83 5e bc 6c e9 92 bd a2 f8 85 3d 8c 6c 16 3e
       -0.013581225 -0.07173428 0.065415636 0.14689845
000030 94 16 4d 3e 01 3d a9 bd d6 e6 41 3e e1 ad da 3d
       0.20028144 -0.08263589 0.18935713 0.10677696
000040 16 a9 6f 3e 26 37 44 3e 7c 7f e2 3d 9b 98 8b bd
       0.23404345 0.19161662 0.11059472 -0.068162166
000050 06 46 9f 3d 64 b6 2e 3e 78 c1 a7 3c fd 42 6c 3d
       0.07777028 0.17061764 0.020477995 0.057681073
000060 20 5a 60 3e 75 0d 07 3d b5 b1 5c 3e d9 2f 54 3e
       0.2190938 0.032971818 0.21552165 0.20721377
000070 3c 54 ef 3c 29 0a 99 bc e5 c1 3d 3e 2f b0 12 3e
       0.02921497 -0.018681603 0.18530996 0.14325021
000080 4a 30 86 3e 5e 59 1e 3d b9 78 cb 3d e1 f9 af bd
       0.26208717 0.038659446 0.099351354 -0.085925825
000090 37 0c de 3d 71 bd 06 3e 39 23 27 3e c9 1b 80 3e
       0.108421735 0.13158204 0.1632203 0.25021198
0000a0 d6 7e 2d 3e ca 53 71 3e 89 83 3b 3e e6 4d df 3c
       0.16942915 0.23567119 0.18311895 0.027258825
0000b0 cc df 9f bd 72 98 37 3d a1 54 e3 3d 5b bb 85 3e
       -0.07806358 0.044823118 0.11100126 0.26119503
0000c0 f7 25 82 3e ec 92 73 3e 4c fa 81 3e 1e 46 a1 3d
       0.2541959 0.23786515 0.25386274 0.07874702
0000d0 04 fd 06 bc dc 0e 0f 3e ee 7b 54 3e 82 f0 96 bd
       -0.008239035 0.13970512 0.207504 -0.07370092
0000e0 09 13 2b 3e 23 df 2c 3d a4 e9 8f 3d 80 29 b4 3b
       0.1670648 0.042204987 0.07026985 0.0054981112
0000f0 2e 4e 0d 3e 33 84 e9 3b 97 c6 c8 3d 7d 5d 51 3d
       0.13799354 0.007126355 0.09803503 0.051114548
000100 6b 86 08 3d ac b8 27 3e 66 79 0d 3e 98 49 81 3e
       0.033331316 0.1637904 0.13815841 0.2525146
000110 32 e2 8d 3d 96 a6 5f 3e b1 14 32 3e b8 05 1c 3c
       0.06927909 0.21840891 0.17390706 0.009522848
000120 7e 91 12 3e a3 69 48 3d c2 37 0b bd bf 11 32 3e
       0.14313313 0.048928868 -0.03398872 0.17389582
000130 90 0f 5f 3e 73 64 1d 3e 24 f1 72 3e ca cf 12 3d
       0.2178328 0.1537035 0.237248 0.035842694
000140 00 1b d3 bb d2 32 2d 3d 70 dc 4a 3d a5 6a 4b bd
       -0.0064424276 0.042284794 0.04952663 -0.04966225
000150 dc 06 9a 3c 44 87 3f 3e 10 20 fd 3c fd 89 f3 3d
       0.018802099 0.18703943 0.030899078 0.118915536
000160 36 46 0f 3e a8 19 0b 3d 68 fd 37 3d d0 36 33 bd
       0.13991627 0.033960015 0.0449194 -0.043753445
000170 9c ab 7a 3e 7e 8d b0 3d d3 1c 0c 3e 42 22 23 bc
       0.24479526 0.086207375 0.1368287 -0.009956898
000180 3e 98 a1 3d 9d c1 55 3e 73 2d ad bd 79 fc 0f 3e
       0.07890366 0.20874639 -0.084559344 0.14061154
000190 87 c8 f1 3d 8c b7 28 3e 6b a3 5e 3d f1 d1 9b 3d
       0.11805826 0.16476268 0.054355066 0.076084025
0001a0 ce e1 f8 3d 39 45 67 3e 31 9e 60 3e ba ea 69 3e
       0.12152444 0.22585 0.21935345 0.22843447
0001b0 73 87 35 3e ac 2b 4c 3d 0c c4 06 3e 47 82 ed 3d
       0.17727451 0.049846336 0.13160723 0.11597114
0001c0 2a cc 2d 3d 9d 13 14 3e 0f ac 5a 3d ca 17 de 3c
       0.042431034 0.14460607 0.053386744 0.027110953
0001d0 1d b7 03 3e c2 80 87 3e 56 14 a3 3d 7e 77 1a 3d
       0.12862821 0.26465422 0.07962863 0.037711613
0001e0 71 0b 58 3e 74 a1 ab bd a9 68 4c 3e 65 e5 ce 3d
       0.21098115 -0.08380404 0.199618 0.10102347
0001f0 9e ab 9b 3d 5f bb 58 3e d2 11 71 3e 84 5d 4d bd
       0.07601093 0.21165226 0.23541954 -0.05013801

fc2.weight f4 [128, 128]
000000 41 1d 8c 3d cb b8 e7 3d a1 73 4d 3e ee a7 2a bd
       0.06841517 0.11314543 0.2006364 -0.041664056
000010 b0 94 65 3e 10 36 36 3e 53 5a c9 3d b5 02 3a 3e
       0.22420001 0.1779406 0.09831681 0.18165095
000020 7b 91 5b 3c d3 94 8f bb 77 4e f6 3d fd 80 a7 3d
       0.013401384 -0.004381755 0.12026685 0.081788994
000030 7a 79 0c 3e a5 f0 85 3d 2e 29 77 3e 0a 3f d8 3c
       0.13718215 0.0654004 0.24136803 0.026397247
000040 19 d7 ee 3d ba 44 27 3e 59 27 86 3d 8d c1 90 3e
       0.1166212 0.16334811 0.06550474 0.28272668
000050 0f 76 3d 3e 1b d8 00 3e 78 84 1c 3d 77 89 89 3d
       0.18502067 0.12582438 0.03821227 0.067156725
000060 8d ff 09 3e 6f 25 26 be 1a cf 91 3e f2 84 bd 3d
       0.13476391 -0.16225217 0.28478318 0.09253873
000070 44 25 85 3c 1e 04 6b be e1 7e 30 3e 28 c7 43 3e
       0.016253121 -0.2295079 0.172359 0.19118941
000080 32 46 45 3e 87 86 5a 3e a3 c6 11 3e 9d 9e de bd
       0.19265059 0.2134038 0.1423593 -0.10870097
000090 93 95 84 3d 65 6d 93 3e 33 8d 1c 3e c4 d7 cf 3d
       0.064738415 0.287944 0.15288238 0.10148576
0000a0 2a 17 97 3e 07 53 04 3c 2a e6 1f 3d 15 97 1e 3e
       0.2950986 0.008076436 0.03903786 0.1548732
0000b0 ad 64 40 3e d6 2e b1 3e 6d ca 8c 3e 5f b8 78 3d
       0.18788405 0.34606045 0.2749819 0.060722705
0000c0 21 ed e4 3d 25 6a 66 3d a8 43 11 3e 08 5a 37 3e
       0.11178041 0.05625357 0.14185965 0.17905438
0000d0 7b 23 33 3d 5b b4 8b 3e a5 36 70 3e 32 3d 23 bc
       0.04373501 0.27286038 0.23458345 -0.009963321
0000e0 6e fd 25 3e 4e cd 2e 3e 32 5b 3d 3d 78 8a b6 3d
       0.16209957 0.17070505 0.04622955 0.089131296
0000f0 da bc 49 3e e1 07 33 3e 37 f5 7c 3e 0c e3 8b 3e
       0.19700947 0.17483474 0.24702917 0.2732166
000100 fe d8 ef 3d b9 9f 32 3e 0c 91 2a 3e 6a ac 41 3e
       0.1171131 0.17443742 0.16656893 0.18913427
000110 ea 21 1c 3e 1f c0 ff 3d d2 d4 22 3e 67 59 15 bc
       0.15247312 0.12487816 0.15901497 -0.009115553
000120 a2 98 4c 3e 2b 1a cd 3b f5 0c ed bd 6c 3f 81 3e
       0.199801 0.006259223 -0.11574737 0.252437
000130 ba 3f 8e 3d 03 a3 fc 3d 40 f7 33 3e 3c a8 28 3e
       0.069457486 0.123357795 0.17574787 0.16470426
000140 40 e7 c2 3d d4 aa 33 3e f5 73 a4 3c be bd 85 3d
       0.09516764 0.17545635 0.020074824 0.06530331
000150 26 68 23 3e 40 1c 34 3e 45 66 29 bb 87 cf e3 3d
       0.15957698 0.17588902 -0.002584831 0.11123567
000160 76 b7 06 3e ec 69 8f 3c 02 7d 41 3e dc 24 1a 3e
       0.13155922 0.017506562 0.18895343 0.15053123
000170 44 15 5c 3c 39 73 7c 3e 15 68 90 3e 40 ae 15 3e
       0.0134328045 0.24653329 0.28204408 0.14617252
000180 0e 65 e6 3d db 77 18 3e d0 7a c7 3d dc 27 15 3e
       0.112497434 0.14889471 0.097402215 0.14565986
000190 07 5b 1c 3e b0 ac 76 3d e2 cd 35 3e 88 dc 17 3d
       0.15269099 0.06022328 0.1775432 0.03707555
0001a0 c0 51 22 3e fa 1f 68 3e 0e 05 1d 3e 9d 15 92 3d
       0.15851498 0.22668448 0.1533396 0.07133029
0001b0 e8 4d 89 3e 86 7f 14 3d 8c 79 fd 3d 82 b8 b0 3d
       0.2681725 0.03625443 0.12376699 0.08628942
0001c0 2c 1f 30 3e 98 70 d3 3d d6 72 3d be 61 bb b6 bb
       0.17199391 0.1032421 -0.18500838 -0.0055765365
0001d0 17 a9 e9 3d eb b9 a1 3e 01 2e c1 3d 31 18 a1 3e
       0.114092045 0.31587157 0.09432603 0.3146377
0001e0 97 0a 40 3e b3 41 ed 3d 61 2e 27 3e 2f 4f 91 3e
       0.1875404 0.11584797 0.16326286 0.28380725
0001f0 bf f9 3b 3e 04 b5 57 3d 08 08 10 3e 12 d1 ca 3d
       0.1835699 0.052662864 0.14065564 0.09903158
000200 2d d7 6a 3b ee 18 9b 3c e9 70 f9 3d d6 fb a2 3d
       0.0035833821 0.018932786 0.12179739 0.0795819
000210 c2 45 ce 3d 45 7f 7e 3d ad 71 c2 3d dc c9 02 3e
       0.10071899 0.062133092 0.09494338 0.12772316
000220 a0 83 2e 3d 7f 9c b2 3d f9 5d c5 3d fe ea 26 3e
       0.042605996 0.087212555 0.096370645 0.1630058
000230 7a 9e 04 3e 63 f7 a9 3d 0e 0b 92 3e 01 4a fb 3b
       0.12951079 0.082991384 0.2852406 0.007668734
000240 05 23 ea 3c 03 ca 6d 3d dd b2 d7 3d 64 1d 11 3e
       0.028581152 0.05805398 0.10532162 0.14171368
000250 25 f1 69 3e 3e 84 dd 3c 90 2c f1 3d b4 aa 27 3e
       0.22845896 0.027040597 0.11776078 0.16373712
000260 dc a5 32 3e 00 e0 e6 bd e8 e0 8a 3e d4 2e 28 3e
       0.17446083 -0.11273193 0.27124715 0.16424114
000270 65 aa ad 3b 4f 05 b8 bd 29 59 fb 3d aa a1 40 3e
       0.0052998536 -0.089853875 0.12272865 0.1881167
000280 32 2d 11 3e e4 81 d8 3d e1 3d 0d 3e 57 16 6b be
       0.14177397 0.1057165 0.13793136 -0.2295774
000290 84 44 d3 3c 53 50 57 3e 48 f8 c2 3d 88 86 4c 3e
       0.025789507 0.21026735 0.09520012 0.19973195
0002a0 b3 95 17 3e 11 1f 1d 3e 85 58 d4 3d ad 67 82 3c
       0.148032 0.15343882 0.10368446 0.015918577
0002b0 a8 a4 8d 3c 9c 22 5c 3e 89 80 45 3e 8b c8 67 3d
       0.017290428 0.21497577 0.19287314 0.056587737
0002c0 f4 36 a4 3d 3a 24 d7 3d 19 51 4b 3d 8d fb b5 3c
       0.08018294 0.105049565 0.049637888 0.022214675
0002d0 bb fb 60 3d 14 23 20 3e ca 0b 54 3e 94 7c a6 3d
       0.05492757 0.15638381 0.20707622 0.0812923
0002e0 1f ae e9 3d c9 2b 8e 3d a0 c0 dc 3d 7c c7 47 3e
       0.11410164 0.06941945 0.10778928 0.19509691
0002f0 ed cf 39 3e 5b 25 0c 3e 86 fb 8d 3e c2 13 1a 3e
       0.18145724 0.13686125 0.2773096 0.150466
000300 e7 68 2f 3e 6b 1b aa 3c 6b cf 2f 3d 11 ca 7f 3d
       0.17129861 0.020765027 0.04292242 0.062448565
000310 b2 68 c7 3d d1 ad 93 3d e2 78 16 3e 8b cd 3e be
       0.09736766 0.07210887 0.1469455 -0.18633096
000320 bc 2f 34 3e 17 78 1e 3e 6f aa 24 be 31 b8 0a 3e
       0.17596334 0.15475498 -0.1608064 0.13546826
000330 e3 38 96 3d b4 e0 d6 3d 78 86 5e 3e 7b 5d 48 3e
       0.07335069 0.104920775 0.21730983 0.1956691
000340 08 1d 5d 3d 2c 1c 00 3e b4 e0 be 3d f5 92 0b 3e
       0.053982764 0.12510747 0.093202025 0.13630278
000350 ae a0 02 3e a9 6d 60 3e 37 bd ca 3c b9 38 c6 3c
       0.12756607 0.21916832 0.024748428 0.02419697
000360 2a a1 79 3d 8c 59 ad 3c a6 cd 27 3d 28 10 06 3e
       0.060944714 0.021160863 0.040967606 0.130921
000370 57 d2 fb 3d 30 b4 1c 3e c5 28 4f 3e 05 72 ab 3d
       0.122959785 0.15303111 0.20230396 0.08371357
000380 d8 56 b1 3d cf e0 34 3e 08 fe 15 3d 6f b2 84 3e
       0.08659142 0.17663883 0.036619216 0.25917384
000390 83 43 00 3e 70 73 24 3d fd e9 40 3e 6b 3f 0a 3e
       0.12525754 0.040149152 0.1883926 0.13500755
0003a0 be 48 65 3d 39 63 22 3e a4 4b 99 3c 72 70 d4 3d
       0.055977575 0.15858163 0.018712826 0.1037301
0003b0 cc f6 3e 3e 7b 70 a6 3d 8d 39 5c 3e de 2d b9 3d
       0.18648833 0.08126923 0.21506329 0.090419516
0003c0 04 04 4e 3e 27 b2 ee 3d 2f 94 5e be 6d 63 bd bb
       0.2011872 0.116550736 -0.21736215 -0.0057796747
0003d0 f9 f5 a6 3c ff a4 88 3e 5f 9d 0c 3c 09 e0 10 3e
       0.02038096 0.26688382 0.008582442 0.14147963
0003e0 d1 3f 15 3e 9d 20 8b 3e 49 29 d0 3d a1 ff 52 3e
       0.14575125 0.2717332 0.101641245 0.20605327
0003f0 a0 2e 31 3e 29 fb 34 3d 08 27 0b 3e 23 97 54 bc
       0.17302942 0.044184837 0.13589108 -0.012975487

fc2.bias f4 [128]
000000 5b 21 12 3e 33 0c 23 3e 96 cb 3a 3e 7d 2d 80 bc
       0.14270537 0.15922622 0.18241724 -0.01564669
000010 e9 9b 8d 3d c1 73 28 3e b9 32 13 3e 43 5d af bd
       0.06914503 0.16450407 0.14374818 -0.0856271
000020 52 c7 93 3d c5 fb 06 3e 75 5a 84 3d b3 5f 64 3d
       0.07215752 0.1318198 0.06462566 0.05575533
000030 06 1b 99 bd 68 ca 1f 3e a8 db c2 3d d6 96 46 3d
       -0.074758574 0.15604556 0.09514552 0.048483692
000040 38 b7 a9 bd 75 64 60 3d 37 1f 7b 3d bd 43 ff bc
       -0.08286899 0.054783303 0.061309066 -0.03116023
000050 22 f4 56 bd ec e7 11 3c b6 30 42 bd 5c 65 6e 3d
       -0.052478917 0.008905392 -0.047409736 0.058202133
000060 33 87 07 3e 7d 5d f6 3a 76 64 36 3d 43 0b dd 3d
       0.13235168 0.0018796172 0.0445294 0.107931636
000070 9d 1c 8c 3d 88 04 a4 3d f2 d8 ac bd 5b 65 4d 3e
       0.06841395 0.08008677 -0.084398165 0.20058195
000080 e1 54 54 bd 34 b0 8d 3d 4d b3 48 3e 78 6c 07 3e
       -0.05183876 0.06918374 0.19599648 0.13224971
000090 ab 62 33 3d 47 e8 be bd 7e 3d 9d 3b 1f 4c 3e 3d
       0.04379527 -0.09321647 0.00479859 0.046459313
0000a0 ca 33 ca 3b 06 86 aa bd 19 83 c4 bd c7 de 38 3e
       0.0061707245 -0.08326344 -0.095953174 0.18053733
0000b0 d5 75 62 bc 17 a0 ea 3d c3 d3 43 3c 50 9a 1d 3e
       -0.013822039 0.11456316 0.011952343 0.15390897
0000c0 ca 45 65 3d d1 06 15 3e e3 e2 06 3e f7 ad 0b bd
       0.05597476 0.14553382 0.13172488 -0.034101453
0000d0 e6 12 58 3c 30 a1 09 3d 88 f9 a6 bd 21 24 70 bd
       0.0131880995 0.033600986 -0.08153063 -0.058628205
0000e0 7d 7b a5 bd 25 31 b5 3a 46 d4 d6 3d c0 32 e7 3d
       -0.08080194 0.001382385 0.10489707 0.11288977
0000f0 56 4b f0 3d 74 2c 45 3e 4e ee 42 3d a1 52 98 3c
       0.11733119 0.19255239 0.047590546 0.018594088
000100 29 04 28 3d c6 c4 32 3d f0 69 2d bd 2e c4 fc 3c
       0.041019592 0.04364469 -0.042337358 0.030855265
000110 af 3c 22 3e 2e 5b 2f 3e 98 e1 10 3d 71 b4 82 bd
       0.15843461 0.17124626 0.035371393 -0.06382073
000120 58 0b 4c 3d 31 33 51 3c 4b 0a 0b 3e d9 5f 81 bd
       0.049815506 0.012768553 0.13578145 -0.063171096
000130 32 2e bf 3a 94 48 3e 3d cd 58 a8 3d 38 a5 37 3d
       0.0014585911 0.046455935 0.082200624 0.0448353
000140 67 66 ca bd fd 43 43 3d 60 02 2d 3e 1b 61 f1 3c
       -0.09882813 0.04767226 0.16895437 0.029465249
000150 78 1e eb 3c 02 f3 2e 3d 44 a6 3b 3e 82 0e 16 3d
       0.028701052 0.04271222 0.18325144 0.03663493
000160 80 5c 3b 3d 15 17 8b bc 00 d1 97 3d 8a e7 83 3d
       0.04574251 -0.01697878 0.074129105 0.06440647
000170 0d 02 d5 3d de 32 1e bd ff 3d ae 3d 9c 1b 9e 3c
       0.10400782 -0.03862273 0.085079186 0.019300275
000180 3b 59 bc 3d 41 0e 03 3d 39 6f bb bd f5 b1 51 bd
       0.09196707 0.031996015 -0.091520734 -0.051195104
000190 ff eb 09 bb 14 15 9a bc b3 d7 14 bd 27 5f b1 3d
       -0.0021045206 -0.018808879 -0.03633852 0.08660727
0001a0 53 e5 d0 bc b9 36 95 3d 6c 40 92 bc de 98 92 bd
       -0.025499975 0.07285828 -0.017852984 -0.07158063
0001b0 cb cf 69 3d e9 8b a5 bc 30 a9 fa 3c 71 0e ec bc
       0.057082932 -0.020208316 0.030598253 -0.02881548
0001c0 f5 ce fb bc d6 3d 61 3d 8e 71 a2 bd 78 63 10 3e
       -0.030738333 0.054990612 -0.07931815 0.14100444
0001d0 ef f3 6d bc 5a 95 4f 3d 8a 58 97 bd 38 27 b5 3d
       -0.01452349 0.050679542 -0.07389934 0.08845371
0001e0 a9 0d fc bb 02 aa b8 3d 3d b3 3b 3e 40 86 36 3e
       -0.007692058 0.090168014 0.18330093 0.1782465
0001f0 92 d4 cf bc 44 6e 5f 3e 13 07 31 3e eb 7b c0 bb
       -0.025369916 0.21819407 0.17287855 -0.005874147

q_out.weight f4 [4, 128]
000000 d5 53 09 3e ca 9b 15 3e a4 23 1b 3e 46 9f e8 3b
       0.13410886 0.1461021 0.15150315 0.007099065
000010 d1 5e 18 3e c1 f1 f1 3d c8 eb 36 3d 6e f0 7d 3d
       0.1487992 0.11813689 0.044658452 0.06199687
000020 a6 c5 82 bc f9 80 f4 3d 9b c4 ef 3d a5 68 3f 3e
       -0.015963387 0.11938662 0.117074214 0.18692262
000030 18 8e e1 bc 4b ed 35 3d 99 43 0e 3e 1e c6 91 3c
       -0.027533576 0.044415753 0.13892974 0.017794665
000040 59 ba a1 3c b6 85 3e 3e 46 91 18 3e e4 ae a5 bd
       0.019742178 0.18605694 0.14899167 -0.08089998
000050 6f 99 0c bd 6d 99 b1 3c 14 c3 45 3d ee e6 5f bd
       -0.034326013 0.021679604 0.048281744 -0.05466359
000060 86 68 52 3e 3d df 94 bc f5 ed 1f bc 74 c2 34 3e
       0.20547685 -0.018172855 -0.009761323 0.17652303
000070 ab f5 2b 3e 8e 4d 93 bd 34 33 df 3b 3e b0 35 3e
       0.16792934 -0.07192527 0.006811524 0.17743012
000080 09 87 13 bd 8f d3 d9 bc 83 f1 e5 3d 51 2c f3 3d
       -0.03601745 -0.026590137 0.11227705 0.11873687
000090 9d f1 09 3e 1d 46 8f 3b a3 04 66 be a1 8d 52 3e
       0.13471074 0.004372372 -0.22462706 0.2056184
0000a0 35 8e 62 bd b4 ce 60 bb 5c 62 da bc 6a 91 0e 3e
       -0.0553114 -0.0034302892 -0.02665823 0.13922659
0000b0 65 9e a5 3c 43 e9 24 3e 0c 0f 23 3e 33 31 d4 3d
       0.02021713 0.16104607 0.15923709 0.103609465
0000c0 32 79 f2 3d cb 27 42 3e 00 a7 40 3e 6f c8 65 bd
       0.118395224 0.18960492 0.18813705 -0.05609935
0000d0 37 f8 9f 3d ce 44 2c 3d 9b 81 23 bd d1 ae 85 bd
       0.07811015 0.042057805 -0.039918523 -0.06527484
0000e0 9b 56 ff bc af c8 a0 ba 75 45 d6 3d e4 af 41 3e
       -0.031169226 -0.001226684 0.104624666 0.18914753
0000f0 10 e4 f1 3d 83 09 5e 3e 91 80 f4 3d 19 fd 84 bc
       0.118110776 0.21683316 0.119385846 -0.016233968
000100 46 57 f3 3d ea 3f dd 3d 9f ab c6 3d cd 96 58 bd
       0.118818805 0.10803206 0.09700703 -0.05287819
000110 3d 7e 25 3e c3 68 5c 3e 9d f7 a0 bd 96 08 1e 3d
       0.16161437 0.21524338 -0.078597285 0.038582407
000120 47 96 0f 3e 37 67 92 bd 16 75 3f 3e 04 0e e2 bc
       0.1402217 -0.07148593 0.18697008 -0.027594574
000130 55 72 81 bd ac e2 0f 3e b4 bf 40 3e 51 24 2c 3e
       -0.06320635 0.14051312 0.18823129 0.16810729
000140 e7 d7 ba bc c1 50 3f 3e d8 a9 14 3d 38 f4 bc bd
       -0.022808028 0.18683149 0.036294788 -0.092262685
000150 c5 b9 c5 3c ca 04 d8 3d 17 81 af 3d 58 62 62 bd
       0.024136433 0.105477884 0.08569544 -0.05526957
000160 4a 10 d7 3d 6d 80 52 bd 4f 09 c9 3d aa f0 e8 3d
       0.10501154 -0.051392008 0.098162286 0.11374028
000170 bb 65 98 3d 8e d0 a0 3b bd ad 16 3e f9 a2 aa 3d
       0.074412785 0.004907674 0.14714713 0.08331866
000180 28 0e 43 3e 88 c8 02 3e 47 98 c0 bd d7 5c 8b 3d
       0.19048369 0.12771809 -0.094040446 0.06804817
000190 b3 aa 23 be d0 fa 4a bd 35 dc c1 bb 8b c0 1e 3e
       -0.15983085 -0.0495556 -0.0059161433 0.15503137
0001a0 85 d3 8a 3d 18 75 c3 3d 4a 95 d9 3c 66 95 89 3e
       0.067786254 0.09543818 0.026560444 0.26871794
0001b0 9b 44 66 bd 5e 49 96 bc 7f 76 4b 3d 3d 10 9c 3d
       -0.05621777 -0.018345531 0.049673554 0.07620285
0001c0 c9 31 4e 3d d2 02 66 3d 8f 9c 71 bd d1 ab d4 3d
       0.050340448 0.056155033 -0.058987197 0.10384334
0001d0 14 40 72 3d a3 0a f4 3d 1d 64 78 3d 44 5a 37 3e
       0.05914314 0.11916091 0.06064235 0.17905527
0001e0 5e 1a b4 bd dd c2 19 3e 82 6e 17 3e 05 77 47 3e
       -0.08794092 0.1501574 0.14788249 0.19478996
0001f0 6e 9f a6 bd 1b e3 34 3e 49 3f 13 3e 95 a3 3c bd
       -0.081358775 0.17664759 0.1437961 -0.04605444
000200 8e 2a 26 3e 61 87 83 3d 71 d1 ba 3d 81 8c 38 3c
       0.16227171 0.06422306 0.09121979 0.0112639675
000210 7f 25 10 3e c9 ee 3c 3e 4b 18 31 3e da e3 bf bc
       0.14076804 0.18450464 0.17294423 -0.023424078
000220 99 0b 97 bd 18 d4 b6 3d 3c 5a ff 3d 1a f0 70 3d
       -0.07375259 0.089271724 0.12468383 0.05882273
000230 be 08 5c 3d f2 ab 1e 3e cb 2c 42 3e 2a c6 2c bc
       0.053719275 0.1549528 0.189624 -0.010545293
000240 5b 49 08 3d a5 7b 2e 3e 55 da d5 3d 0a 09 3d bd
       0.033273082 0.17039354 0.10442034 -0.0461512
000250 cf d3 dc bc 40 5a 12 bd da 3d 52 3d 1d 59 9b bd
       -0.026956467 -0.0357306 0.051328517 -0.075853564
000260 45 dc cf 3d a1 c8 d5 bc 9e 4a 18 bc c2 e3 4c 3d
       0.10149435 -0.026096644 -0.009295134 0.050021894
000270 20 f5 f5 3d 59 d9 93 bd e0 3a 0e bd 88 b0 50 3e
       0.120096445 -0.0721919 -0.034724116 0.20379841
000280 30 de d2 3d ac b4 80 bc 8e c3 f0 3d 7c af 2e 3e
       0.10296285 -0.015711151 0.11756049 0.1705913
000290 3a 9e ad 3d c4 cf 87 3d b8 17 a1 bd 18 84 88 3d
       0.08477445 0.06631425 -0.07865852 0.0666582
0002a0 60 cc f7 3c e3 6f d4 bc ce 5a 80 bd d3 e8 42 3e
       0.03024882 -0.025932258 -0.062673196 0.19034128
0002b0 1c 38 1c bd 95 28 28 3e d0 be 6f 3e d9 09 30 3e
       -0.038139448 0.16421731 0.23412633 0.17191257
0002c0 16 03 18 3e 09 35 70 3e 7f c1 3d 3e 62 5e 29 3e
       0.14844927 0.23457731 0.18530844 0.1653991
0002d0 a1 5a 1c 3c 35 32 7c 3e 7e 40 05 bd 54 50 d1 bc
       0.009543092 0.24628527 -0.032532208 -0.025550999
0002e0 98 28 65 3d 71 d6 52 bd 1d f1 de 3d 14 77 f4 3d
       0.055946916 -0.05147404 0.108858325 0.11936775
0002f0 0e 6d 24 3d 1d 2e a4 3d 76 32 4d 3e 58 da 6c bd
       0.040143065 0.08016608 0.2003878 -0.057825416
000300 1b f9 49 3e 22 66 34 3d 2c b5 5a bc 25 1e 0b 3e
       0.19723932 0.044042714 -0.013348859 0.13585718
000310 1b 81 2e 3e 92 13 01 3e 86 4e 81 bc 05 a4 86 3d
       0.17041437 0.12605122 -0.015784513 0.06574253
000320 5f 3a 31 3e de 1c f6 3b 29 9c ce 3d 1f 29 2c 3d
       0.17307423 0.0075107655 0.10088379 0.042031404
000330 19 bf 6f bd 19 0f d1 3d ad cb 3e 3e 8f e5 32 3e
       -0.058531854 0.10207958 0.18632384 0.17470382
000340 2d 1d 3c bd 22 66 ef 3d be be 20 3e 46 d2 5f bd
       -0.04592626 0.11689402 0.15697762 -0.05464389
000350 e4 ea 1c 3e fe 8b 32 3e f9 a8 49 3e 5d 50 a7 3d
       0.15323979 0.17436215 0.19693364 0.08169625
000360 d1 4f c1 3d d5 9d a4 39 e0 34 a2 bd d5 53 10 3e
       0.09439052 0.00031398112 -0.07920241 0.1409448
000370 12 a0 3a 3e fe 29 81 bd a8 2d 57 3d 2b 22 a3 bc
       0.18225124 -0.063068375 0.052533776 -0.019913753
000380 3a 06 75 3d 5c a8 26 3e f6 a5 96 3d 43 33 82 bd
       0.05982039 0.16275162 0.07355873 -0.06357434
000390 19 09 83 3d 36 73 b1 3c 7f a2 4d 3d c0 96 50 3e
       0.063982196 0.021661382 0.050203796 0.20370007
0003a0 81 50 b3 bd ad 6a 2e 3e df 18 fe bb d3 38 62 bd
       -0.08755589 0.17032881 -0.0077544297 -0.055229973
0003b0 64 fb 42 bd 7a 5c 79 3d 18 f6 43 3e 85 85 82 bd
       -0.047603026 0.06087921 0.19136846 -0.06373123
0003c0 c3 63 91 bd be 8c f1 3d 55 74 e8 bc 1f ea 58 3e
       -0.07099106 0.117944226 -0.028375784 0.2118306
0003d0 c7 ea 9b 3d 90 de 1b 3e 70 d4 b6 3c 23 ce 1c 3e
       0.076131396 0.1522162 0.022318095 0.1531301
0003e0 56 90 90 bd f0 e8 13 3e df 5f 9f 3d 8d 2e 8d 3d
       -0.0705878 0.14444327 0.07781958 0.068936445
0003f0 37 c1 ee 3c 99 c9 4b 3e f2 2a 1f 3e 59 c9 90 bd
       0.029144866 0.19901122 0.15543726 -0.07069654

q_out.bias f4 [4]
000000 79 b7 58 3d 71 de de 3d a7 d4 25 3e 1b 23 16 3e
       0.05290935 0.10882271 0.16194402 0.14661829
