models/400step_5000iter_HER_PER/q_te_agent_1.pt (torch, 108049 bytes, 6 tensors)

fc1.weight f4 [128, 71]
00000000: c025 9dbd 2821 c43d 09ae 4ebd 143b fc3d
00000010: 8fee 363e ac23 9c3c 5734 3a3e b2c9 3c3e
00000020: f7f7 a83d 6411 723e 615b ea3c 27a2 643e
00000030: 0eb2 c43d d477 afbd 028e 663d be41 de3b
00000040: a1b4 763e eba3 463e 3b1d 143e b602 543e
00000050: b855 eb3b 32ea ef3c 5b5a ae3d 3131 b33d
00000060: 9502 883d 422e 943d 6323 3f3e 1459 cebd
00000070: fb57 23bd 0327 793d aeb7 af3d fee3 253e
00000080: 704d fe3d 87af fc3d d619 05be aa4a 2bbd
00000090: 37cf 5dbe 50d8 713e 700b e93d 8042 323e
000000a0: 85a5 083e df60 193e 6c5f 893a 5313 1bbd
000000b0: 303e 263e 4889 3a3d f316 433e 3cba b53d
000000c0: 9c1d 053d e463 c0bd 51f4 a83d 561c 803e
000000d0: 964f 183e 7976 d43d 95b5 de3d 2c8d 913d
000000e0: 9b0d 85bd 6bff 683d 5b20 fb3d c2ce b93c
000000f0: 2f97 f23d cab5 573e 1017 f43b 2cad d13d
00000100: 58c0 9ebd 2984 743e db16 053d de43 2c3e
00000110: 4bea 463e fef7 3dbc ee98 ffbc b6e4 c0bb
00000120: 1094 3d3d 1ff5 d63d e9ef 5a3e 853c 413e
00000130: ab1f 853e 8bb7 143e 246b 523e e43e b0bd
00000140: 89e6 b53d 6ce2 e13d 811a cb3d 1a10 553e
00000150: 67cc 893d d89d b83c 04fb 8a3d f428 883e
00000160: 6d7c ec3d 2d38 463e 0b46 e23d 0f82 293e
00000170: ec9f 543c d0f0 6e3d a5d3 5a3e 290c 303e
00000180: d72f 0b3e 5a8b bd3d 7a8a dbbc 6fca b73c
00000190: f8fa 9e3d 87ef f13d ef71 7e3e 8eac 543e
000001a0: cb29 7a3e a5a2 aabd eb59 0abd 95dd 12be
000001b0: 1c83 bc3d 0393 753e 445a cf3d 8f9f 4a3e
000001c0: d398 283e 5fc1 683c 8307 c33d 4d58 083e
000001d0: f62f cd3d 9f6e 233e dca0 7f3e 35b7 8f3d
000001e0: 10dd ab3d c3e9 963d e7d4 823e 5955 7e3e
000001f0: 621c c63d b6dd b33d 7563 013e 5302 1c3e
00000200: 52f6 2fbd aecf ef3d a181 233e a542 483e
00000210: 1a13 7c3d 9bb5 d63d d12d cd3c 5b10 c6bc
00000220: 3413 7f3e b72b 5b3e fd19 393e 2a6d 983e
00000230: 2cb8 c43d af87 723d 2f15 92bc 957b a3bd
00000240: bd81 01bd 36ae ea3a 4aa2 bebd e75c 353d
00000250: 6e81 8abd eb64 9a3d 4ac2 90bd 6aae edbd
00000260: 8320 c63d de55 f13d fd25 92bd c094 a53d
00000270: 5b0d 1cbd fd76 f8bc c184 5fbd 0d07 3d3d
00000280: 8341 a9bd f2e2 873c 550a e4bd a412 f13d
00000290: d83a a1bd a4ad 97bd 83b6 433d b0b3 e9bd
000002a0: 3cc1 1a3d c3db 3fbd c28f a1bd 82d2 cabd
000002b0: 15ea c1bd be13 b63d 5ccf 7cbc 5e17 9fbd
000002c0: 8772 a6bd 0dcb 913d 09d9 653d fb57 873d
000002d0: 1a7b f9bc bb90 b4bc 15e7 b8bd 8430 d93d
000002e0: 35a5 4e3d 3640 d13c eeed 52bd 30e7 1f3b
000002f0: 27d8 46bc b580 3cbd 6a8d c4bd 919d 4d3c
00000300: 70cb 853c c677 df3d d86e 74bc 44d5 71bd
00000310: 572f 65bc efa1 9cbd bcd1 74bd fb35 43bd
00000320: 70ae 4ebd bf8b d4bd e76e 1ebd c172 a7bd
00000330: 65de 94bd 47bd e6bd b53a 2dbd 09a3 93bd
00000340: 6d28 e0bd 4efa 5fbd a2fb 1cbc a648 613d
00000350: fec3 8dbc 98bf aabd b4db 053d 4f8f 9abd
00000360: 4489 863e 78ec 433e 3d80 613e e324 5f3e
00000370: b7f7 ab3d 07c9 9a3d cd20 8e3e 8b75 513d
00000380: 52d2 4c3e 0cbf 843e 7b3e cc3d 786b b8bd
00000390: 5546 633c 3dea d73d be85 5e3e 8d63 643d
000003a0: 58e9 5f3e dc25 733d 43e9 0bbe 285f 103e
000003b0: 46a2 6f3e 3450 583e 697d 7c3d b50f 513e
000003c0: e2ac 30bd 706a acbc a48c 203c 833c 863e
000003d0: 6f39 863e f4db 203e e445 953d 6722 b53d
000003e0: 767c 003d c623 90bd a2d8 813e 56f5 323e
000003f0: 2dee 963d 7707 073e a035 b43d 9a6c c73c
-0.07673216 0.095766366 -0.05045894 0.12315956 0.1786444 0.019059978 0.18184029 0.18436316
0.082504205 0.23639446 0.028608026 0.22327481 0.09604274 -0.08567777 0.056287773 0.0067827394
0.24092342 0.19398467 0.14464276 0.20704159 0.0071818493 0.029286478 0.08513328 0.08749617
0.066411175 0.072353855 0.18665843 -0.10075584 -0.039878827 0.06082822 0.08579956 0.16200253
0.12417114 0.12338167 -0.12998137 -0.041819252 -0.21661077 0.23617673 0.11379135 0.1740818
0.1334439 0.1497836 0.0010480708 -0.037860226 0.1623466 0.045541078 0.19051723 0.08873412
0.03249894 -0.093940526 0.08249725 0.2502162 0.1487411 0.10374159 0.10874478 0.071070045
-0.06496736 0.05688421 0.12262031 0.022681598 0.11845242 0.21065441 0.0074490383 0.10238108
-0.077515304 0.2387854 0.0324925 0.16822764 0.19425313 -0.0115947705 -0.031200852 -0.0058866395
0.04628378 0.10495972 0.21380581 0.18870743 0.26000723 0.14523141 0.20548683 -0.086057454
0.08881862 0.11029515 0.099171646 0.20806924 0.0672844 0.022536203 0.06786159 0.26593745
0.1154717 0.19357367 0.11048516 0.1655352 0.0129775815 0.058335125 0.21369798 0.17192139
0.13592468 0.09255095 -0.02679943 0.022435395 0.07762712 0.11813264 0.2484815 0.2076895
0.24430005 -0.08331803 -0.03377716 -0.1434234 0.09204695 0.23981862 0.10124639 0.1978743
0.16464548 0.0142062595 0.09522917 0.13314934 0.100189134 0.15960167 0.24963707 0.07017366
0.08391774 0.07368805 0.25553057 0.24837245 0.09673382 0.087825224 0.12635596 0.15235262
-0.04295952 0.11709534 0.15967418 0.19556673 0.061541654 0.10483857 0.025046261 -0.02417772
0.24909669 0.21403395 0.1807632 0.29770786 0.096054405 0.05921143 -0.017832367 -0.07982556
-0.03161787 0.0017904702 -0.09308298 0.04427805 -0.06762968 0.0753878 -0.07068308 -0.116055325
0.0967417 0.11783956 -0.07136152 0.080850124 -0.038098674 -0.030330176 -0.054569963 0.046149302
-0.082644485 0.016587708 -0.11134783 0.117711335 -0.07872552 -0.07406166 0.04778148 -0.11411226
0.03778194 -0.04684044 -0.07888748 -0.099034324 -0.09468476 0.08890484 -0.015430298 -0.07768129
-0.08127313 0.07118807 0.056115184 0.06608578 -0.030454207 -0.02204167 -0.090284504 0.10604957
0.050450522 0.025543313 -0.05149644 0.0024399273 -0.012136496 -0.046021182 -0.09597285 0.012549774
0.016332358 0.10911517 -0.014919005 -0.059041277 -0.0139883375 -0.07648074 -0.05977033 -0.0476589
-0.050459325 -0.10378217 -0.038679983 -0.081761844 -0.07268981 -0.112665705 -0.042292316 -0.07208831
-0.109452106 -0.05468207 -0.009581478 0.055000924 -0.01730537 -0.08337325 0.03268023 -0.07546865
0.262766 0.19133174 0.22021575 0.21791415 0.08396857 0.07557874 0.277594 0.05113749
0.20002106 0.25927007 0.09972855 -0.09004873 0.013871749 0.10542724 0.21730706 0.055759
0.21866357 0.059362277 -0.13663201 0.14098799 0.23401746 0.21124345 0.061643038 0.20416148
-0.043133624 -0.021046847 0.009799156 0.26218042 0.26215693 0.15708905 0.07288721 0.08844452
0.031368695 -0.07038073 0.2536059 0.174764 0.07369647 0.13186441 0.08799291 0.024343777

fc1.bias f4 [128]
00000000: 0c22 993d fa99 8f3e 830c fa3c c5c1 5e3e
00000010: 646c a03d 59af e2bd 749f a33d b959 aa3d
00000020: 5137 943e c730 ad3d cdc0 3f3e 2cea 1b3e
00000030: d3e3 0d3e 7b56 293e 01ae 803e a617 103e
00000040: bc72 a93e c0d6 b23d e149 443e 3788 c73d
00000050: d54f 303e ca30 7d3e 6833 f43d f45d 953e
00000060: abc6 abbd c26c 873e ae73 003e 7c63 c53d
00000070: 49e5 ea3d 2478 853e 651c 943e a538 6b3e
00000080: 13fe 8b3d 808e 843e 1d8b e9bd 0717 45bd
00000090: 2179 c33d f55b b93d 9d71 833e b9a0 2c3e
000000a0: a773 6d3e f558 8a3e 6fd8 a73d 851f 6c3e
000000b0: 8db1 8e3e 98b8 873e 4c59 8b3e cc04 283e
000000c0: 8027 843e d1d9 e13d 4bfa 213e a5b2 f23d
000000d0: b3f3 873e aa4a 2a3e 4ba1 823e 85b3 413d
000000e0: 3281 543d 004b a33d 7143 0f3d 3249 273e
000000f0: eb03 8e3e 34a4 f63c 5559 ca3d 3a34 be3d
00000100: f0c0 083e e023 b73d 9297 973e d660 243e
00000110: 92be 243e 21e8 2a3e 1ecc bb3d 1a78 3e3e
00000120: 92c2 8c3e 32cd 5b3e a1c4 7d3e 67e7 753e
00000130: ef88 bc3d d393 a03d 0e47 713e c0ae 603e
00000140: e824 aabd 43f4 6c3e 3330 013e 8441 463e
00000150: 7338 353e 34ba 873e bc52 713e 0abf 4b3e
00000160: a669 b53d fb14 323e ddee 8e3e 8fc6 073e
00000170: 273b 583e a4a8 963e c4c3 d03d 77f9 903d
00000180: dd13 c43d e669 cb3d 6668 cb3d 96ec 303e
00000190: b306 963e b7aa 653e 773a fe3d 590c f53d
000001a0: 73f3 963e d0c9 523e 121b 113e b607 e43d
000001b0: 2401 8e3e b916 6e3e 0445 a73d 312a 8a3e
000001c0: 0d0a 2a3e 867d 883e bc7d 753e 1861 273b
000001d0: 777c 353e 9171 623e 54d4 893e 776c 613e
000001e0: 7b07 843e 3793 6c3e 5ba7 8d3e fb9f 8d3d
000001f0: 44d2 573e 77be ec3c 77ae ae3d ecba 243e
0.07477197 0.28047162 0.030523544 0.21753605 0.07833174 -0.11068601 0.07989398 0.083178945
0.28948453 0.08456569 0.18725891 0.15226048 0.1385644 0.16536896 0.25132754 0.14071521
0.33095348 0.087323666 0.19168808 0.09742778 0.17217954 0.24725643 0.119238675 0.29173243
-0.08387502 0.26450163 0.12544128 0.09638116 0.11469514 0.26068223 0.28927913 0.22970827
0.0683557 0.2588997 -0.11403487 -0.048117664 0.09544588 0.090507425 0.25672618 0.16858186
0.23188649 0.27020994 0.08195578 0.23058899 0.27869835 0.2650802 0.27216566 0.1640808
0.25811386 0.11027873 0.15818135 0.1185048 0.26553115 0.16630045 0.25513682 0.047290344
0.051881023 0.079732895 0.034976427 0.16336516 0.27737364 0.030107595 0.0988032 0.09287305
0.1335485 0.089423895 0.29607826 0.16052565 0.16088322 0.16690113 0.09169792 0.18600503
0.27492195 0.21464995 0.24782039 0.24014054 0.092058055 0.07840695 0.23562261 0.21941662
-0.083078206 0.23140053 0.12616043 0.1936093 0.17697315 0.2650925 0.23566717 0.19897094
0.088580415 0.17390816 0.27916613 0.13259338 0.21116315 0.29425538 0.10193589 0.07078832
0.09574101 0.09932308 0.09932022 0.1727775 0.29301986 0.22428404 0.12413495 0.11965246
0.29482612 0.20584798 0.14170483 0.11134283 0.27735245 0.23250856 0.081674606 0.26985314
0.16605397 0.26658267 0.23973745 0.002554005 0.17723261 0.22113635 0.26919806 0.22014032
0.25786957 0.23103033 0.27666745 0.069152795 0.21076304 0.028899414 0.0852937 0.1608693

fc2.weight f4 [128, 128]
00000000: 57bb 3d3d 20e5 763d c982 b6bb 73de 7b3d
00000010: d537 513e d73b 903d ca41 d43d 63bd 893d
00000020: 52a0 5d3e 4af2 cc3d 8bec 6d3d 31fe 833c
00000030: df0e cd3c 898e f83d 028f 5d3e f919 f83d
00000040: a7b7 8b3e 8f14 873e 08d1 253e c85c e93d
00000050: b2be 3d3d 7708 d23c c6bc c93c b887 373e
00000060: faae 243d 915d aa3d e4d3 b43d 7f27 fc3d
00000070: 1701 a73c 9ca7 a43d 1274 fb3c 5e3c 533d
00000080: 431f d83d dc2c 693c 717a 453d 1c72 1cbd
00000090: 0d29 de3d 9fde 1b3d 5041 143e ef91 103e
000000a0: 1346 713d 89a7 63bc abb0 4b3e 2439 0b3e
000000b0: c1c7 953d 092c 8c3d 3d48 483a 3f33 223e
000000c0: 971f 543e 6d08 00bd 204d 9ebc a4da 8bbc
000000d0: bedd 06bd 459e 003e eda5 153e c10a d43c
000000e0: 3b1f a8bd b6b3 033e ff58 15be 386a 043d
000000f0: afb7 243e d48b 31bd 2673 d23d 8a48 fa3b
00000100: 3bae 983d 4b1b d83d 007c 183e 3f28 463e
00000110: 81b3 863b a3f6 853e 6600 003e a39c 123e
00000120: ff15 cf3d bb94 57bc 6878 113e b2a4 1f3d
00000130: c2c4 083e b90c 8e3e b633 113d 4232 663e
00000140: 1cd6 ddbc d232 7b3d eeae 333d 868c ed3d
00000150: 1534 443d befb f93c 5516 1c3d f33a b63d
00000160: bdbf 4c3d f2fd 6a3d b4d7 003e da47 c33d
00000170: 9863 843e e74d 843c 3ff0 fb3d 80ad a83d
00000180: b4d9 d93d 412c e23c 84b5 c93d 87cf 493e
00000190: 5791 2a3e 356b 763e 9661 c63d 01b7 8f3d
000001a0: 304d 213d 8b27 8b3d fd55 033e eae5 7d3d
000001b0: b2de 0c3e e37e ab3d 05c0 293e b0c3 213e
000001c0: e6f5 ef3d 21d7 bd3d 9a2b 2dbd f938 7b3e
000001d0: 4ac8 103d 7a66 c33d b7f0 fc3d 7b30 b63d
000001e0: 19e2 143e 558a f43d 1d4d 323e 13d7 cd3d
000001f0: d416 133e e487 9a3d ba90 c73d c326 bb3d
00000200: 84cd a23d 964a 423d ec99 afbd 0d34 9a3d
00000210: f77f 8c3e 0909 c63c 76e7 623e c9c9 c03c
00000220: fcf9 523e 1967 373e 7893 f53d 1a55 3d3e
00000230: 67ac e53d 85a1 a33c cf7a ca3d efa7 d53c
00000240: 4aaa 953e 847b 393e bb9f 083e e15f 053e
00000250: 8750 713d 6c08 103e 43a1 013d db53 bf3d
00000260: c387 d3bc eafa 003e c701 f83d 872a 823e
00000270: aebc 403e d67a 473e 7191 513e f808 ed3d
00000280: 56ba 433e ebfe 833d 933f af3c 1741 653d
00000290: 60b1 943d 8a90 9d3d bf6d 023d 4f58 823d
000002a0: a6b1 233e f100 9f3d a03d ee3d 5cd5 023d
000002b0: 8314 593e 4b13 0d3e 8983 803d b072 133e
000002c0: 4a2a 803e 2464 443d cc36 9b3c e3e9 df3d
000002d0: 3fdd cf3c 19a0 113e 58d1 283e bf84 853d
000002e0: 71a1 a8bc 1a89 163e 4c21 27be 4cdb 043e
000002f0: 85e8 6f3e bb2e ad3d 6c8b 003e 6394 083e
00000300: 0717 393e 01be 363e a46c 603e 4edc 6c3e
00000310: 45c4 243e 98a8 a53e f880 2c3e 6d3d 213e
00000320: 1382 4a3e ea6d 1b3e 9a6d 393e 5c7a 1d3e
00000330: ab42 313e 5706 6e3e 913f 213d 61ec 6a3e
00000340: 6a90 23bd a764 0d3e 12bc 213e 9d7f 8b3d
00000350: 5711 e53d 10d4 853d dc7f 113e a6aa 033e
00000360: 7af1 ca3c b313 fc3d d5e1 b43d ed49 493e
00000370: 1411 4d3e f81a c53d e1a9 7c3e 7570 923d
00000380: ad1f 043e ba3a 2c3e 64e5 243e fb50 273e
00000390: 5d85 403e ea26 643e 2744 283e cd45 943d
000003a0: 77f0 ca3d fb15 453e 961b 013e 9f68 573e
000003b0: d689 5b3e 92b9 db3d 2c81 463e 38b8 593e
000003c0: 9f92 313e 5f80 4c3d af09 b93d 0d74 a33e
000003d0: 0276 353e 6769 863d 3b00 cc3d 3643 1f3e
000003e0: 6736 b83d 8ae3 093e 275d 0e3e e49b 683e
000003f0: bc13 473e 602c d53c 3508 ec3d 8f95 983c
0.04632124 0.060277104 -0.00556979 0.06149144 0.20431454 0.070426635 0.10364111 0.06725576
0.21643189 0.100071505 0.058086913 0.016112419 0.025031505 0.121365614 0.21636584 0.12114329
0.27288553 0.26382872 0.1619302 0.1139465 0.04632444 0.025638802 0.024626147 0.17922866
0.040205933 0.083186276 0.088294774 0.12312221 0.020386262 0.080397815 0.030694995 0.051571243
0.10552838 0.014231887 0.048212472 -0.03819476 0.108476736 0.038054105 0.1447804 0.14118169
0.05890472 -0.013894924 0.19891612 0.13596016 0.07313491 0.068443365 0.0007640159 0.15839861
0.20715176 -0.031258035 -0.019323885 -0.01707203 -0.032926314 0.12560375 0.14614077 0.025884034
-0.08209082 0.12861523 -0.1458473 0.03232786 0.16085695 -0.04334624 0.10275869 0.007638042
0.07455107 0.10552081 0.14891052 0.1935129 0.004110754 0.2616473 0.12500152 0.14317565
0.10111617 -0.013158019 0.14206088 0.038975425 0.13356307 0.27744082 0.035449706 0.2248011
-0.027079634 0.061327763 0.043867998 0.11599068 0.04790123 0.030515548 0.038107235 0.088979624
0.049987543 0.057371087 0.12582284 0.09535189 0.25857234 0.016150428 0.12301683 0.082362175
0.10637227 0.027608993 0.098490745 0.19708072 0.16657005 0.24064334 0.09686582 0.07017327
0.039380252 0.067946516 0.1282577 0.06198684 0.13756827 0.08373811 0.16577156 0.15797305
0.11716823 0.09269548 -0.04227791 0.24533452 0.03534726 0.0954103 0.123506 0.08895966
0.14539374 0.11940447 0.17412229 0.10050788 0.14364177 0.0754545 0.09744401 0.091382526
0.07949355 0.047434412 -0.0857428 0.07529459 0.2744138 0.02417423 0.22158608 0.023533719
0.20603174 0.17910422 0.11991018 0.18489495 0.11214524 0.01997448 0.09886705 0.026081054
0.29231483 0.18113524 0.13342182 0.13024856 0.058914687 0.14065713 0.03164793 0.09342166
-0.025821572 0.12595716 0.12109714 0.2542307 0.18821976 0.19480452 0.20465638 0.11573976
0.1911405 0.06445106 0.02139262 0.055970278 0.07260394 0.07693584 0.031842943 0.063645
0.15985736 0.077638514 0.11632848 0.031941757 0.21199231 0.13776891 0.06275088 0.14399219
0.25032264 0.047947064 0.018947028 0.10933282 0.025374053 0.14221229 0.16486108 0.0651946
-0.020584794 0.14700738 -0.16321295 0.1297428 0.23428543 0.08456179 0.12553185 0.13337855
0.1807519 0.17845918 0.21916443 0.23130915 0.16090496 0.3235519 0.16846073 0.15746088
0.19776182 0.15178648 0.18108216 0.15378708 0.17310588 0.23244606 0.039367262 0.22941734
-0.039932646 0.13807927 0.157944 0.0681145 0.11184948 0.06534588 0.1420893 0.12858066
0.024773348 0.12308445 0.088321365 0.19657107 0.20026046 0.096242845 0.24674179 0.07150356
0.12902708 0.16819277 0.1610313 0.16339485 0.18800874 0.2228047 0.16432248 0.07239876
0.09909146 0.19246666 0.1260818 0.21036004 0.21439299 0.10728754 0.19385213 0.2126168
0.17341088 0.04992711 0.0903505 0.31924477 0.17720798 0.06563073 0.099609815 0.15552983
0.089947514 0.13465706 0.13902722 0.22715718 0.19441122 0.026022136 0.11525003 0.018626003

fc2.bias f4 [128]
00000000: 243d 383e c7cc bb3d 686f 513e 5d45 acbc
00000010: 48b1 593e a2a8 413b 5dfa 1fbd a3b1 4fbc
00000020: e134 db3b a2c4 6a3d 5c10 ea3c 9256 7a3d
00000030: b819 6a3e 72a3 b5bc 1cf9 273e 15de 983c
00000040: 3fbf 3d3e f701 ef3d f670 443e 9c88 1a3d
00000050: 1c7e 9f3d 185d 9cbd ec5c 403d 5df4 4c3e
00000060: 3876 6c3e 629e 833d 155b 01bd 6993 943d
00000070: d912 46bc 4071 8e3d 0be5 b83c 4092 b0bb
00000080: da0f 353d 3869 ee3d 8d16 983d 6d29 64bd
00000090: 1fbb 0f3e 7247 693e e962 303e 43f8 963d
000000a0: 7417 503d 0141 3a3e c26a e9bc e4a0 043e
000000b0: 677b 57bd 41ac 0e3d c3b2 513e 7174 3bbd
000000c0: b1f2 abbd 018f 19bc ca45 bc3c c7b6 873d
000000d0: d380 663e 0559 683e 943c 89bd 0f0d 553e
000000e0: ab32 6bbd bd26 243c c60d 903d 2372 c1bb
000000f0: 5a43 443e 3646 b8bd 0563 1f3e 18cb 023d
00000100: 33f5 a4bc 739a 88b9 0b14 bf3d 273e ea3d
00000110: 2c78 0e3e 0051 0a3d 98f2 583d 4f4e d03d
00000120: 6437 373d 4e26 9c3d d1f6 093e 26bd 733d
00000130: 3d1c 01bd 907e 163e 3dff 2d3e b3bc 403c
00000140: 532f f93c b341 683e ef8f 593e 2843 a23b
00000150: 5ebb a4bd 0802 533e f421 44bd 544c a73d
00000160: 8a3c 073d 44e8 8ebd 9a9c 633e e74a 1d3e
00000170: c078 d93c b43a 8b3d 6ccf 083d 3fc1 2c3e
00000180: 964d a0bd 0503 9bbb 684e b5bd 6918 d2bb
00000190: 151e 653e ef69 0cbc 1633 35bd 7b2c 0f3d
000001a0: 164f ff3d 2cfb 123e 5612 223e 8fe2 29bd
000001b0: ed7e 4e3e e25c 743d eb26 bebd 6f57 7a3d
000001c0: 218f 373e 9506 353e 61af a53d 0fd0 343e
000001d0: 4cfe 9e3d 4070 02bd caf4 2a3c f429 7cbd
000001e0: c1b8 5dbd 3298 3e3d ef2c 133e f61e 173e
000001f0: a36d 303c 064e b43d eaa7 6e3d 376a 4b3e
0.17992073 0.091699176 0.20452654 -0.021029169 0.21259034 0.0029549976 -0.039057124 -0.012676629
0.0066896533 0.05731643 0.028572254 0.061117716 0.22861373 -0.022172663 0.16403621 0.018660584
0.18529986 0.11670297 0.19183716 0.037727937 0.07787725 -0.07634944 0.046963617 0.20015092
0.23091972 0.064266935 -0.031581003 0.07254679 -0.012089455 0.069551945 0.022570154 -0.005388528
0.04420457 0.11641163 0.07426176 -0.05570357 0.14036225 0.2278116 0.17225231 0.07371571
0.050803617 0.1818886 -0.028493289 0.12952 -0.05260792 0.034832243 0.20478348 -0.045765344
-0.08395899 -0.009372474 0.022982497 0.06626659 0.2251008 0.22690208 -0.067010075 0.20805763
-0.057421368 0.010019002 0.07033877 -0.0059034987 0.19166318 -0.08997767 0.15565117 0.031931967
-0.020136451 -0.00026055015 0.09329995 0.11437636 0.1391303 0.033768654 0.05296573 0.10171186
0.04473056 0.076244935 0.13473059 0.059506558 -0.03152107 0.14696717 0.16991897 0.011763739
0.030418074 0.22681312 0.21246313 0.0049518533 -0.0804355 0.20606244 -0.047883943 0.08168855
0.03301672 -0.06977895 0.22227708 0.15360604 0.026546836 0.06798306 0.033400938 0.16870593
-0.07827298 -0.0047305846 -0.088528454 -0.0064116013 0.22374757 -0.008570178 -0.044238172 0.03495453
0.12466256 0.14353627 0.15827307 -0.04147583 0.20165606 0.059658892 -0.09284767 0.06111854
0.17925693 0.17678292 0.080900915 0.17657493 0.07763347 -0.03184533 0.010434339 -0.061563447
-0.054131273 0.046531864 0.1437261 0.14757904 0.010768327 0.08803944 0.058265604 0.19864736

q_out.weight f4 [4, 128]
00000000: 3b63 04be 0815 a4bd ee30 efbd 8fbd 6b3d
00000010: 4c7e 20be d228 2fbd 03b4 983d ef37 34bd
00000020: 707e 6cbc 3046 32be c230 a2bc 1aa6 2bbd
00000030: 4005 a3bd 07d6 62bd 6181 d8bd 3fb5 8f3d
00000040: 93bb 43be a19e 16be 14df f2bd 1c7c 4ebe
00000050: f0d3 30be bcf2 303d 7974 483c ea00 2bbe
00000060: bf83 21be 4831 57be 0b7c aab9 3cb6 ae3c
00000070: e452 233d 5682 37be 7c93 5a3d f325 743c
00000080: 8f13 53be 397b 9fbd 4f62 c0bd f12e 4bbd
00000090: 8ccc 0ebe de97 2fbe 4129 e6bd 5549 a9bb
000000a0: 0235 1e3d 4358 9abd 957c ad3c 4005 d6bd
000000b0: 2207 9f3d 2768 433d 31d9 58be 6b99 9c3a
000000c0: 3581 583d 4c63 9f3c d52f 773d d647 853d
000000d0: 61e0 5abe d03e 52be c0ab 243d dc3d 1abe
000000e0: c7f7 853d 833a a13d e0d5 5bbe 7ef2 0e3d
000000f0: ac3f 88bd 52c6 97bd d334 a0bd 2c37 533c
00000100: bc82 893d f2ae a0bd ee3c 35be 01f5 3abe
00000110: 6977 2fbe bdcf 893d 5e80 97bd 7253 a4bd
00000120: 4b56 a33d fbc7 95bd 7030 7cbd 2e63 733d
00000130: 4699 a5bd 9c26 bebd 95c0 09be 5a36 543d
00000140: 4e36 743d d7d8 1dbe d07c 8fbd f532 21bc
00000150: f214 afbc 3c8b 3cbe 297a 9c3d 2dda fabd
00000160: 0a53 84bc 9fd3 643d a842 a7bd d5d4 0bbe
00000170: 27a2 af39 ee9d 16be f9b9 553d 68aa 11be
00000180: f002 6f3d 5b74 b7bd a41d c3bb 33fe 633d
00000190: c332 c0bd 999b a73d b98c 7f3d 5903 603d
000001a0: 9c89 15be f5c1 f2bd 6cae aebd 93b0 ecbc
000001b0: 7073 5bbd d824 adbb 717d 2b3d 8d6b 9a3d
000001c0: 5b6d 51be 7ab5 06be 2e32 8bbd da25 0ebe
000001d0: be68 e5bd 499a 123d b168 c2bd cd79 f23c
000001e0: ffb5 75bd 080d a53b 9ff1 49be 2186 09be
000001f0: db20 4a3d b963 27be 97e5 34be 6da2 4fbe
00000200: 4cb8 f0bc 2fc9 15be f1ff a9bd 2272 823d
00000210: 6977 3ebe d2ef 6a3d 52e2 3dbd 3979 483d
00000220: 36a5 17bd 705c 09be b1ab be3c 0a9d adbc
00000230: 4204 4ebe 4115 3b3d cb17 28be 7ec3 92bc
00000240: d833 d3bd 61b5 f6bd 140a cbbd 7c0e 53be
00000250: 427d 1abd 299e 66bd d7be 93bb cd55 15bd
00000260: a579 39be 9b40 8abd 2e71 2dbb f4b1 e2bc
00000270: 4d75 823d 35ff e2bd edb3 853d 3f3f 6cbd
00000280: 83b2 18be c253 3abe 8126 37be b0a8 ab3d
00000290: d81a 3abe 1173 f7bd 5744 2bbe 4234 833d
000002a0: e4c7 6cbd 8e2d 4dbe cd9f 463d 2776 57be
000002b0: f235 ec3c 02b7 bb3c 8715 65bd 26ea 77bc
000002c0: d507 82bc a5b4 35bd 273e 893d 9a63 abbd
000002d0: 57fa 2ebe 465a 35be 92e3 3b3d f978 34be
000002e0: e29e 983c 9198 2d3d da3c 10be b19b a7bd
000002f0: 40e1 24be e263 823d afc5 f2bd 9f90 9abb
00000300: 89cf 613c 9221 5fbd 3742 55be 995c 47be
00000310: 6e84 41be 5754 ffb9 569d 27bd b10e 14be
00000320: b56f 653c 5e70 56be 9c32 44be a46e a33d
00000330: d529 c1bb 52c4 9fbd df9d 5cbe 63f4 983d
00000340: efa1 1d3d 8aa8 42be c75c dabd 9632 9b3b
00000350: b980 a13d 0787 26be f233 283d d42c 2ebe
00000360: 285b 913d bdd1 343d a141 b9bd 39e1 37be
00000370: edb8 183d edf7 04be 9b0a 4d3d 2cca 4fbe
00000380: 48cd 33bb da29 003d c587 e8bc e9d5 9c3d
00000390: 93bd 39be f2a7 b13b 0678 8d3d 2c6c b43c
000003a0: abea 50be 5d29 28be 0118 34be c4e4 4e3d
000003b0: 5d3f 8dbd 7e20 2a3d d6eb 393d 1d92 7d3d
000003c0: 06ba 1cbe 4c77 b4bd 3b7a 3cbe 19a0 12be
000003d0: 55ce 1abe f068 6e3d 328a 5a3b 16e7 953d
000003e0: f7e1 9c3c 017f 093d 55b9 31be 780e e9bd
000003f0: d7fc 8ebd bb76 cfbd f6ef 2dbe 833f 57be
-0.12928478 -0.08011824 -0.116792545 0.057553824 -0.15673178 -0.04276354 0.074562095 -0.043998655
-0.014434442 -0.17409587 -0.01979864 -0.041906454 -0.07959986 -0.055379894 -0.10571552 0.07016992
-0.19114523 -0.1470895 -0.11858955 -0.20164531 -0.17268348 0.04320024 0.0122348005 -0.16699567
-0.15772913 -0.21014893 -0.00032517346 0.02132713 0.039873973 -0.17920813 0.05336331 0.014901626
-0.2061293 -0.07787175 -0.09393751 -0.049605314 -0.13945216 -0.17147776 -0.11238337 -0.0051662126
0.03862477 -0.07536366 0.02117757 -0.1045022 0.07765032 0.04770675 -0.21176602 0.0011947578
0.052857596 0.019456528 0.06034835 0.06507842 -0.21374656 -0.20531774 0.040202856 -0.1506266
0.065414004 0.07872488 -0.21468306 0.034899227 -0.066527694 -0.074108735 -0.078225754 0.012891572
0.06714389 -0.07845868 -0.17699024 -0.18257524 -0.17135395 0.06729076 -0.07397531 -0.080237284
0.079754435 -0.07313534 -0.06156963 0.059420757 -0.08085875 -0.09284708 -0.1345237 0.051809646
0.0596221 -0.15414749 -0.07006228 -0.009838809 -0.021372292 -0.18412489 0.07640488 -0.12248645
-0.016152877 0.05586588 -0.081670105 -0.13655408 0.00033499414 -0.14708683 0.05217931 -0.14225161
0.05835241 -0.0895774 -0.005954461 0.055662345 -0.09384682 0.08183975 0.062390063 0.054690693
-0.14603275 -0.118534006 -0.08529362 -0.02889279 -0.053576887 -0.005283933 0.041867677 0.07540045
-0.20451872 -0.13155165 -0.067966804 -0.13881627 -0.112016186 0.03579167 -0.094926246 0.029599095
-0.059988018 0.005036954 -0.19721077 -0.13430072 0.04934774 -0.16346635 -0.17665707 -0.20276804
-0.029384755 -0.14627527 -0.0830077 0.06369425 -0.18600239 0.057357617 -0.046358414 0.048943732
-0.03702279 -0.13414168 0.023275228 -0.021193046 -0.20118812 0.045674566 -0.16415326 -0.017915484
-0.10312623 -0.12046314 -0.099140316 -0.20610994 -0.03771711 -0.056303177 -0.004508834 -0.03645878
-0.1811281 -0.06750604 -0.0026465165 -0.027672745 0.063700296 -0.11083833 0.06528459 -0.057677504
-0.14911847 -0.18196014 -0.17885782 0.08381784 -0.18174303 -0.12082494 -0.16725288 0.06406452
-0.057807818 -0.20036909 0.04849224 -0.21041165 0.028834317 0.022914413 -0.055928733 -0.015131509
-0.015872875 -0.04436173 0.06701308 -0.08368607 -0.17087685 -0.17710218 0.045871325 -0.17624272
0.018630449 0.042381827 -0.14085713 -0.08183993 -0.16101551 0.063667074 -0.118541114 -0.004716947
0.01378239 -0.054475375 -0.2082604 -0.19468917 -0.18898174 -0.00048700228 -0.04092153 -0.1445873
0.014003684 -0.20941302 -0.19159931 0.079800874 -0.0058948793 -0.07801117 -0.21544598 0.07468488
0.03848451 -0.19009605 -0.10662227 0.004736255 0.0788588 -0.16262446 0.041065164 -0.17009288
0.07097465 0.044145335 -0.09045721 -0.1795701 0.037285734 -0.12985201 0.050058942 -0.20291966
-0.002743559 0.031289913 -0.028385052 0.076579876 -0.18138723 0.005421632 0.06907658 0.022024237
-0.20402019 -0.16422029 -0.17587282 0.050511137 -0.06896851 0.041534893 0.045390926 0.061906923
-0.15305337 -0.088118166 -0.18406002 -0.14318885 -0.15117772 0.058205545 0.003334653 0.07319467
0.019150717 0.033568386 -0.17355855 -0.11379713 -0.06981819 -0.10130068 -0.16986069 -0.21020322

q_out.bias f4 [4]
00000000: 51f7 dfbd 0f65 1dbe e448 3abc 5ddb 20be
-0.10935844 -0.15370582 -0.011369918 -0.1570868
