models/400step_5000iter_HER_PER/q_te_agent_0.pt (torch, 108049 bytes, 6 tensors)

fc1.weight f4 [128, 71]
000000 29 2e 25 3c a8 e7 fd 3b ef 5c 01 3d 1f 45 a1 3d
       0.010081806 0.007748563 0.03158277 0.07874512
000010 6a 88 72 3e 27 bd 7d 3e 1e 09 61 3e 31 59 83 3d
       0.2368485 0.24779187 0.21976134 0.06413496
000020 0f 96 ab 3c 2e bd 91 3e f5 39 f9 3d b6 b9 4a 3e
       0.020945577 0.28464645 0.121692576 0.19797406
000030 34 cd 27 3e 9e 3a 02 3e 49 68 1e bd 49 c7 49 bd
       0.16386873 0.12717673 -0.038673673 -0.04926232
000040 51 ee 76 3e 1b 8a c9 3d 8c 61 6a 3e 91 7e 82 3e
       0.24114348 0.09840795 0.22888774 0.25487188
000050 90 9d f7 3d 75 dd 8a bd ff 01 b1 bc a5 8a 8f 3e
       0.120905995 -0.06780521 -0.021607397 0.28035465
000060 06 4b 0e 3e 83 4b cc 3d f9 db 1f 3e 32 52 f9 bb
       0.13895807 0.0997534 0.15611257 -0.0076086754
000070 79 8b 4e ba 9b 6a b9 bd b5 4b 93 3e 17 f4 55 3e
       -0.00078790594 -0.090535365 0.28768697 0.20893894
000080 d4 0f 25 3e 32 be a0 3d 7a b1 8c bd 4b 85 53 bd
       0.16119319 0.07848777 -0.068697885 -0.05164079
000090 2d 9a a0 bd 1b 77 45 3e cb d4 8c 3e a2 9c 71 3e
       -0.07841907 0.19283716 0.27506098 0.23594907
0000a0 6d d3 6b 3e 51 28 1c 3e 0e 99 92 3d c2 00 e9 bd
       0.23029871 0.15249754 0.07158099 -0.11377098
0000b0 02 27 26 3e 80 02 85 3e ea 3b 15 3e 25 ca 1a 3e
       0.16225818 0.2597847 0.14573637 0.15116175
0000c0 77 9e dd 3d 45 e3 61 3d 94 ff fb 3d 43 9f f4 3d
       0.108212404 0.05514838 0.12304607 0.11944439
0000d0 a3 8f a1 3e bd 3d 07 3e 4a 33 50 3e 4d dd 19 3d
       0.315549 0.13207145 0.20332065 0.037564564
0000e0 7d 84 d3 3d a4 75 62 bd a9 dd 03 3e e6 ef 68 3d
       0.103280045 -0.055287972 0.12877525 0.05686941
0000f0 1b 14 82 3e 90 60 85 3d 21 43 57 bd 23 03 c1 3d
       0.25405964 0.065125585 -0.052554253 0.094244264
000100 f1 a9 05 3e 28 a3 4f 3e 15 ee 81 3d 61 73 4e 3e
       0.13053109 0.20277083 0.06344239 0.20161201
000110 3d d8 72 3e 2a 2f 80 3d 62 75 a4 bd 80 3d fe 3d
       0.23715301 0.06258996 -0.080302015 0.12414074
000120 9c a6 b1 3d 3d 14 b4 bc 82 ed 77 3e 11 b9 0d 3e
       0.08674356 -0.021982307 0.24211696 0.13840128
000130 a2 81 47 3d 89 b3 04 3e 7f 2e 25 3d 14 5c 92 bd
       0.04870761 0.12959112 0.040327545 -0.07146469
000140 56 e0 60 3d 3e 15 17 3e 96 d3 11 3e 56 d2 3e 3d
       0.054901443 0.14754197 0.1424087 0.04658731
000150 0d a5 26 bc e6 27 2b bd 5f 47 57 bd 39 d7 64 3e
       -0.010171187 -0.041786097 -0.0525583 0.22347726
000160 41 06 6a 3e b7 f5 80 3e 9e d9 c1 3d cd d7 42 3e
       0.22853948 0.25187466 0.09465335 0.19027634
000170 21 f8 c0 bd 58 17 5b bd dd 76 72 3e c9 38 8e 3e
       -0.09422327 -0.05348906 0.23678155 0.277777
000180 d7 64 b2 3d 8f 12 a7 3d dc dd 31 bc ef a8 9a 3d
       0.0871064 0.08157837 -0.010856118 0.07551753
000190 71 2e 6a bd ea 37 02 3e d2 aa 62 3e 8a c0 53 3e
       -0.057173196 0.12716642 0.22135475 0.20678917
0001a0 98 e2 29 3e 70 01 0f 3c ae e6 14 3e 38 06 26 be
       0.16590345 0.00872837 0.14541122 -0.1621331
0001b0 c9 97 52 3e 06 e0 eb 3d f8 11 57 3e 1b d9 0b 3e
       0.20565714 0.115173385 0.21002948 0.13657038
0001c0 a7 28 45 3d f9 37 4d bd d3 43 b2 bc c7 15 b3 3d
       0.048134472 -0.050102208 -0.021760857 0.08744388
0001d0 26 7a 85 3d 1f 3b 5f 3e a6 26 16 3e c3 7b 31 3d
       0.065174386 0.21799897 0.1466318 0.04333092
0001e0 2c ce 5b bc a2 e7 a4 3d c8 8b 1d 3e 0a 11 3c 3e
       -0.013415854 0.08051993 0.15385354 0.18365875
0001f0 af ab 55 3e a9 fa 2a 3e c5 a3 b2 3c 37 ed 90 3d
       0.20866273 0.16697182 0.021806607 0.07076495
000200 51 c3 97 3d 23 fc c9 3d ca 03 d2 3d 09 6f 84 3d
       0.074103005 0.098625444 0.10254629 0.06466491
000210 19 ba 23 3e 32 60 00 3e 0f 15 de 3d 09 e8 f8 3d
       0.1598896 0.12536696 0.1084386 0.12153632
000220 87 23 40 3e 52 79 dc 3d 16 42 89 3d 89 af 15 3e
       0.18763553 0.107653275 0.06702058 0.14617743
000230 6f d9 ef bb 60 43 83 3c f8 6c 90 3d 93 83 8e 3d
       -0.0073196213 0.016023338 0.07052034 0.069586895
000240 10 f5 ea bb ce 45 6a 3e 48 1d 6a 3e bb 6a e3 3d
       -0.007170327 0.22878191 0.22862732 0.111043416
000250 de f4 45 3e f2 b8 17 3e b8 65 dd bc ae 68 8a 3d
       0.1933169 0.14816645 -0.027026042 0.06758247
000260 f0 5c 82 3e 1a 0d 3f 3d e5 e5 12 3e 93 09 05 bd
       0.2546153 0.046643354 0.1434551 -0.032479834
000270 f2 c4 71 bd bb 83 8c bd b9 92 6b 3d 86 25 88 3e
       -0.059025712 -0.06861063 0.057512973 0.26591128
000280 5d 62 cd 3d 1d 5c 91 3d 10 a0 01 3d aa c3 db bd
       0.10028527 0.07097647 0.031646788 -0.10730679
000290 f2 a4 12 3e 48 11 b5 3d dd 11 63 3d 63 0f 6d 3e
       0.14320734 0.08841187 0.055436958 0.23150401
0002a0 33 d2 08 3e 7e 1b df 3c 7a 36 5f 3d 8e c7 82 bc
       0.13361435 0.027234789 0.054495312 -0.015964296
0002b0 bd b8 8c 3d f4 ba 20 3e ff 7a dc 3d fe fc 4e 3e
       0.068711735 0.15696317 0.10765647 0.20213696
0002c0 67 a3 ec 3d b1 f9 1d 3e a5 bb 73 bb 58 53 d2 3d
       0.11554604 0.15427281 -0.0037190702 0.10269803
0002d0 5c 9b 6a 3d 2a 4c 62 3e 63 6d 86 3e 0c 3f 68 bd
       0.05727707 0.22099367 0.2625533 -0.05670075
0002e0 a1 a8 b4 3c cd d1 87 bc 77 5f 6e 3e 4b b8 27 3e
       0.022053065 -0.016579533 0.23278604 0.16378896
0002f0 72 d9 3d 3e 67 71 3e 3e 01 17 09 3e b0 5a 08 3e
       0.1853998 0.18597947 0.13387682 0.13315845
000300 e0 e7 7d 3a 52 ff c5 3d ec 1e 4a 3e 0b c6 4f 3e
       0.0009685736 0.09667839 0.19738358 0.20290391
000310 30 f7 06 3e a4 f4 ca bb dc 3c 04 bd 25 4e 61 bc
       0.13180232 -0.006193714 -0.032284603 -0.013751541
000320 ca 4e c0 3d 94 7b 10 3e 13 86 84 3e b8 fa 78 3e
       0.09390028 0.14109641 0.2588354 0.24314392
000330 da a9 d1 3d 00 f0 48 bd 2f 66 08 3e 1c 06 94 3d
       0.10237475 -0.049057007 0.1332023 0.07227728
000340 8b c3 00 3e fd 4b 66 3e f9 d0 99 3d 9a fb d5 3c
       0.12574594 0.22489925 0.075105615 0.02612095
000350 48 e8 17 3e 4c 2c 1e bd 36 f5 a4 bd a5 04 13 3b
       0.14834702 -0.038616464 -0.08054583 0.0022433188
000360 8e 3a 14 3e 7c df 15 3e 3d d5 1f 3e d2 d0 49 3e
       0.14475462 0.14636034 0.15608688 0.19708565
000370 8c 16 8c 3e b8 31 9c bc 4d de 91 3e cc 83 12 3e
       0.27360952 -0.019066676 0.28489915 0.14308089
000380 28 af 4d 3e d8 f9 88 3d c9 15 84 bd a2 f9 1e 3d
       0.20086348 0.06688279 -0.06449468 0.038812287
000390 08 20 af bc 79 92 7b 3e aa de 81 3d a8 3e c8 3d
       -0.021377578 0.24567594 0.06341298 0.09777576
0003a0 44 59 ad 3d 6a 5c db 3d e3 f5 06 be e2 39 b2 3c
       0.08464292 0.10710986 -0.13179736 0.021756116
0003b0 e6 93 92 3e 01 ab 8a 3e 90 83 89 3d 33 ff 36 3e
       0.28628463 0.2708359 0.06714547 0.17870788
0003c0 d6 8d bd 3d b0 88 4d 3d 03 ea d3 bd 9c bd 76 3e
       0.09255569 0.050179183 -0.103473686 0.24095768
0003d0 7b 6f ef 3d 30 11 56 3e 7c 1f 90 3e f3 81 2c 3d
       0.11691185 0.20904994 0.2814902 0.042116117
0003e0 40 06 80 3d ce d1 ec bd c7 36 f0 3d 3a 8d 8a 3e
       0.06251192 -0.115634546 0.11729198 0.27060872
0003f0 32 af 32 3e 2e b2 6d 3d 4f 9c 4d 3d 9d 32 49 bd
       0.17449644 0.058031254 0.050197896 -0.049120534

fc1.bias f4 [128]
000000 83 ed 02 3e fb 5e c6 3d f1 25 ea 3d 79 a4 d7 3d
       0.12785916 0.09686085 0.11433018 0.105294175
000010 0a 01 79 3e 37 e3 d0 3d f2 96 12 3e 24 73 83 3d
       0.24316803 0.10199588 0.14315394 0.06418446
000020 df 24 83 3e d3 04 36 3e 81 d6 d8 3d 90 90 23 3e
       0.25614068 0.17775278 0.105877884 0.15973115
000030 08 ef ee 3d f2 14 85 3e 33 40 08 3e d1 fb 1a 3e
       0.11666685 0.25992543 0.1330574 0.15135123
000040 0d 12 0a 3e a2 4b 8a 3e 0c f5 69 3e c8 8c 97 3e
       0.13483448 0.27010828 0.22847384 0.29599595
000050 90 50 58 3e cc 21 51 3e 8b 70 5c 3e 06 c8 35 3e
       0.21124482 0.20423049 0.21527307 0.17752084
000060 96 54 73 3e 65 cc 98 3e 4d a2 f1 3d c2 bd 53 3e
       0.23762736 0.2984344 0.117985345 0.20677856
000070 f8 91 15 bc 3a b7 0e 3e 8c bd 21 3e 9e c6 89 3e
       -0.00912904 0.13937083 0.15794963 0.26909345
000080 28 da 92 3e 98 c6 7a 3e 77 da 0b 3e ab 18 22 3e
       0.28682065 0.2448982 0.13657556 0.15829723
000090 b6 e7 36 3e 62 98 96 3e bf 71 76 3e 26 75 62 3e
       0.17861828 0.29413134 0.24066828 0.22115001
0000a0 22 0b 3f 3e 1d 66 46 3e 05 7c 5e 3e 71 1c 4b 3e
       0.1865659 0.1937489 0.21726997 0.19835068
0000b0 4e d3 46 3e 26 67 c4 3d 82 e4 9b bd 04 16 64 bc
       0.19416544 0.095899865 -0.07611944 -0.013921265
0000c0 4b 6a 90 3e a4 a1 63 3e 96 07 b9 3d c1 61 21 3e
       0.28206095 0.2222963 0.0903465 0.15759946
0000d0 01 11 da 3d 13 2d 16 3e 0b 10 77 3e a5 61 a4 3d
       0.106477745 0.14665632 0.24127214 0.08026437
0000e0 b0 1c 00 3e 81 c5 b4 3d eb 43 51 3e 4d d8 f7 3d
       0.12510943 0.088267334 0.20436065 0.12101803
0000f0 c4 c8 03 3e 0c 97 5e 3e 71 0f b4 3d 31 fd 4e 3e
       0.12869555 0.21737307 0.08792008 0.20213772
000100 c7 90 ff 3d c9 45 7c 3e 4b b7 41 3e d9 d3 fe 3d
       0.12478786 0.24635996 0.18917577 0.124427505
000110 2b a4 29 3e 60 77 3f 3e be 69 19 3e 05 1d 47 3e
       0.16566531 0.18697882 0.14981744 0.19444664
000120 c3 21 19 3e b3 f1 42 3e d3 96 2f 3e 8b 01 29 3d
       0.14954285 0.19037513 0.17147379 0.041261237
000130 8b e7 b6 3d 81 b6 1d 3e 1e c8 f3 3d 1a ff 70 3e
       0.08930882 0.15401651 0.11903404 0.23534814
000140 37 c1 38 3e 34 d4 4a 3e 9c b6 40 3e 33 d2 60 3e
       0.18042456 0.19807512 0.1881966 0.21955185
000150 17 97 8f 3e a0 ca 15 3e b3 7b 76 3e bd 8f 10 3e
       0.2804496 0.14628077 0.24070625 0.14117332
000160 dc ce 47 3e 35 bc 2f 3e a2 02 b3 3d b4 bb bc 3d
       0.19512504 0.17161639 0.087407365 0.09215489
000170 0f 7e 55 3e 93 ad 89 3e 5f 65 89 3d fa 0b e0 3d
       0.20848869 0.2689024 0.06708788 0.10939784
000180 b3 22 96 3d 72 c3 09 3e 87 61 21 3e c3 8d 62 3e
       0.07330837 0.13453463 0.1575986 0.2212439
000190 ee 01 96 3d a4 9f 57 3c 42 5b a3 bd a1 44 c1 3d
       0.07324587 0.01316062 -0.079763904 0.09436918
0001a0 6f 1a 6f 3e 22 ed 1c 3e 69 a4 c9 3d f0 55 88 3e
       0.23349927 0.15324834 0.09845812 0.26628065
0001b0 cd e7 31 3e 06 90 a1 3e 1b 1b f4 3d a0 3b cc 3d
       0.17373581 0.31555194 0.119192325 0.0997231
0001c0 41 6d 63 3d f5 94 63 3e e2 94 5d 3e fb 46 98 3e
       0.055524115 0.22224791 0.21638826 0.29741654
0001d0 b8 c4 3b 3e a6 0f 92 3e fe 2c 1d 3e 4b 04 94 3d
       0.18336761 0.28527564 0.15349194 0.07227381
0001e0 50 cd 9f 3a a4 0e 9a 3e 50 b3 45 3e 54 ab 29 3e
       0.0012191925 0.30089295 0.19306684 0.16569263
0001f0 d9 c4 6d 3d 56 cd 18 3e 53 52 b1 3d 48 64 bf 3d
       0.058049057 0.1492208 0.0865828 0.09345299

fc2.weight f4 [128, 128]
000000 5f 73 05 3e dc 4b 14 3e 1d 8c 2f 3d d5 eb 80 3e
       0.13032292 0.14482063 0.04285823 0.25179926
000010 be c7 0c 3e 46 f7 89 3c 5f b5 db 3d e3 8a e8 3d
       0.1374807 0.016841542 0.10727953 0.113546155
000020 a2 f4 2a 3e 95 6a e9 3d ed 88 41 3e a7 3a 17 3e
       0.16694883 0.11397282 0.1889989 0.14768468
000030 79 19 c0 3d 0c 11 11 3e 85 0b fc 3d 18 2c 0b 3e
       0.093798585 0.14166659 0.12306885 0.13591039
000040 44 13 db 3c ee 94 27 3e f1 97 15 3e 31 c0 86 3e
       0.026742585 0.16365406 0.14608742 0.26318505
000050 67 55 d0 3d 4e 34 ea 3c ce 0a 5a 3e 30 ec 4b 3d
       0.10172539 0.028589394 0.21293184 0.049785793
000060 52 0a 87 3d d8 f6 37 3e 8e 79 39 3e 77 62 af 3d
       0.06593765 0.17965257 0.18112776 0.085637026
000070 fc 56 a2 bd eb 49 06 3e b4 16 97 3e 4f c9 56 3d
       -0.07926747 0.13114135 0.2950951 0.052438077
000080 10 e3 10 3e 4f 1c b9 3d 2d a1 23 3e 45 3d 44 3d
       0.14149117 0.090386026 0.15979452 0.047909994
000090 74 55 11 3d 2a 58 73 3e 71 42 70 3e 85 9a 0d 3e
       0.035481885 0.237641 0.23462845 0.13828476
0000a0 fa db 75 3d b3 a1 e8 3b b4 e0 c4 3d 17 ca 3e 3e
       0.06002424 0.007099354 0.09613171 0.18631779
0000b0 9e be 4e 3e 79 01 57 3c d1 8d 68 3d 1f 8c de 3c
       0.20189902 0.01312291 0.05677587 0.027166424
0000c0 43 a4 65 3e 6a ed 5d 3e 08 69 d4 3d b1 75 b1 3d
       0.22425942 0.21672598 0.103715956 0.08665026
0000d0 91 dc 39 3e 9f 4f 78 3d 27 b3 4b 3e 02 5c c8 3d
       0.18150546 0.060622808 0.1989256 0.09783174
0000e0 3f 4a 57 3a 5b e6 3a 3d 5a bc bf 3d d7 9f 16 3e
       0.00082126627 0.04562984 0.09362097 0.14709412
0000f0 7c 41 4c 3e 35 d4 b8 3d a6 b8 3e 3e a0 a6 0b 3e
       0.19946855 0.0902485 0.18625125 0.13637781
000100 e3 75 73 3d 44 60 df 3c 51 61 dc 3d c3 6e 7b 3e
       0.059438597 0.027267583 0.10760749 0.24553971
000110 40 fb 1e 3e 2e ac e2 3d 54 37 45 3e 78 56 f0 3c
       0.15525532 0.11067997 0.19259387 0.029338107
000120 13 43 e3 3d d4 b4 36 3e b3 19 0f 3c e4 2a 09 3e
       0.11096778 0.17842418 0.0087341545 0.13395268
000130 81 f1 c8 3d f4 d5 ab 3d e5 c1 24 3e 1d b2 44 3d
       0.09811688 0.08390418 0.1608959 0.048021425
000140 bb f9 f6 3d 92 be b3 3d f9 c6 22 3e d9 c9 0f 3d
       0.12059351 0.08776583 0.15896215 0.035104606
000150 f9 ae 3e 3e 96 f3 25 3d f1 4a 88 3e 29 77 61 3e
       0.18621434 0.040515505 0.26619676 0.22018112
000160 27 59 83 3e ed 41 0a 3e c8 c7 30 3e 85 77 37 3e
       0.25653955 0.13501711 0.1726371 0.17916687
000170 8e 8e 37 3e 49 c8 85 3d 4d 9d ad 3d 60 7b 23 3e
       0.17925474 0.06532342 0.08477268 0.15965033
000180 1d 5b 76 3e 0d 72 c8 3d 0e 5e 39 3d ce be 03 3e
       0.24058194 0.097873785 0.045255713 0.12865755
000190 cb cb bd 3d 51 92 54 be 5b 6b 95 3d b8 7e 75 3d
       0.09267386 -0.2075894 0.07295867 0.0599353
0001a0 e3 60 32 3e c1 47 5d 3e 16 9a 98 3d 7e 3b 40 3e
       0.17419772 0.21609403 0.074512646 0.18772694
0001b0 34 8b b7 3d 62 1f 99 3e d5 50 34 3e 0e 65 38 3e
       0.08962098 0.29906756 0.1760896 0.180073
0001c0 c1 bb 12 ba a8 5a bd 3d 70 55 9a 3c 3a 40 04 3e
       -0.00055974355 0.09245807 0.018839568 0.12915125
0001d0 f7 ac 2b 3e 7c 44 14 3e de db 3f 3e 37 ce 79 3d
       0.167652 0.1447925 0.18736216 0.060987677
0001e0 80 d8 54 bd c1 3d 35 3e e9 3e 44 3e ae a2 12 3e
       -0.051964283 0.17699338 0.19164623 0.1431987
0001f0 e7 24 7c 3e d4 9a 69 3e eb c8 07 3e 57 de 65 3e
       0.24623452 0.22812968 0.13260238 0.22448097
000200 63 78 11 3d ff 2b 15 3d 98 3d ba bc 6a ca a3 bd
       0.0355152 0.03641891 -0.022734448 -0.07997592
000210 84 be 90 3d d1 02 ac bd 5e 15 33 3c e3 13 b2 bd
       0.07067588 -0.08398975 0.010930387 -0.08695199
000220 34 28 93 3b 7c e6 0f 3c d8 7b 93 bd 8e f6 a2 3c
       0.0044908766 0.008782979 -0.07201356 0.019892957
000230 74 f7 83 3d 80 a9 fb bc 3c 49 2d 3c bf 63 a3 3d
       0.06443682 -0.030720472 0.0105765425 0.079780094
000240 79 47 8b 3d 38 a1 60 bd a5 f9 6b bd 42 db fa bc
       0.06800742 -0.05484125 -0.057611126 -0.030622128
000250 36 43 83 3d d3 c2 f5 3c e2 29 97 3d ec 1d d2 3c
       0.06409304 0.030000126 0.073810354 0.025649033
000260 f8 ad 70 3d da 96 94 bb 7d 6e 42 bd 0f a3 0a 3b
       0.05875966 -0.0045345845 -0.04746865 0.002115432
000270 fa 40 28 3d 73 33 49 bc bc 4d ad bc 71 6d 82 bd
       0.04107759 -0.012280333 -0.02115523 -0.063685305
000280 45 3e a2 3c 15 5b 53 bd 91 cf bf bd c7 54 86 3d
       0.019805083 -0.051600534 -0.09365762 0.06559139
000290 c4 2d c4 bd 7e bc 0e 3d 48 1d 18 bc d1 93 50 bc
       -0.095790416 0.03484773 -0.009284325 -0.012730555
0002a0 2c 55 87 3d f6 f3 99 bd 7b 85 1c 3d 8a 26 f0 3b
       0.06608042 -0.07517235 0.038213234 0.007328813
0002b0 3a 19 49 3c 46 76 a0 bc df b3 df bb 08 a9 1e bd
       0.012274081 -0.019587647 -0.006826862 -0.03873542
0002c0 8d d4 a0 bd bc 53 99 3d cc a0 87 bc b8 f0 72 3d
       -0.07853041 0.07486674 -0.016556166 0.0593116
0002d0 52 ab 3c 3c 38 0f de 3b 53 c4 dd 3c 3e 34 69 3d
       0.011515455 0.0067767166 0.027071154 0.056934588
0002e0 f0 9f f2 3a 6a 55 91 bc 95 89 8b bd 00 52 7a 3d
       0.00185108 -0.017740924 -0.06813351 0.061113358
0002f0 97 9a 46 bd d1 16 1d 3c b5 01 81 3d 15 35 a8 3d
       -0.048487272 0.009587959 0.06299154 0.082132496
000300 29 fe 86 3d 5a a9 a9 bc 66 1c c1 bd 02 ca 99 bd
       0.06591446 -0.020710636 -0.09429245 -0.07509233
000310 b7 fa 88 3d d4 02 8a bd 42 1b 93 3d d7 9f 4d bd
       0.06688445 -0.06738821 0.071829334 -0.050201263
000320 c5 ba 9c bd eb 5b 43 3d 3a 80 7f 3d 65 62 ba bd
       -0.07652811 0.04769508 0.062378146 -0.091007985
000330 ba 18 97 bd c9 2b 85 bd 6c f8 92 bb 94 7b 70 3d
       -0.07377763 -0.06502492 -0.0044851806 0.058711603
000340 b1 8a f6 3c 3c 4d 19 bc 07 4a e7 bc 5a ad 64 bd
       0.03009543 -0.009356793 -0.028233541 -0.055829383
000350 1e 64 a0 bd 50 be 0e 3c 56 41 43 3d 0a 73 75 3d
       -0.07831596 0.008712366 0.04766973 0.059924163
000360 d9 a0 b6 bc 5f 32 d6 3b 77 d7 e2 3b 41 92 c2 3c
       -0.022293495 0.0065367664 0.006922658 0.02375138
000370 22 de 19 bd ba 51 80 bd 43 bb 66 bd 9d f2 0a 3d
       -0.037565358 -0.06265588 -0.05633093 0.03392278
000380 b5 c7 dc bb 9a e3 81 3a 8d 5b f1 3c fb 49 a0 bd
       -0.006737674 0.000990975 0.0294626 -0.07826611
000390 16 b0 68 bd d5 ba 3c 3d 1b 46 04 bb 1d 1a ae bb
       -0.056808554 0.046076614 -0.0020183388 -0.0053131715
0003a0 93 f5 86 3d 62 fa 5d 3d e8 d2 d8 3c d6 7f 08 3d
       0.06589808 0.05419386 0.026467755 0.03332504
0003b0 8e 77 79 3d 0d c3 16 bd 03 d0 a4 bd 4c 72 83 3d
       0.06090503 -0.03680711 -0.080474876 0.06418285
0003c0 42 97 a9 bc f9 a2 c8 bd fd 15 6e bd e4 df ee 3c
       -0.020702008 -0.097967096 -0.05812644 0.029159494
0003d0 dd 62 96 bd 10 2a a4 bd fd e3 03 3d 19 e2 4f 3d
       -0.073430754 -0.08015835 0.03219985 0.050752733
0003e0 a2 0f cc 3a ac b9 12 bc a7 c8 65 3d 80 77 d0 bb
       0.0015568624 -0.0089554 0.05609956 -0.0063619018
0003f0 9e e8 95 bd ec c5 68 3d 5c 61 07 bd ce 9d 82 3d
       -0.07319759 0.056829378 -0.033051834 0.06377755

fc2.bias f4 [128]
000000 ac 69 23 3e d5 f2 aa bd 9e 0e a5 3d 64 3d 45 3e
       0.1595828 -0.08347098 0.08059429 0.192617
000010 d9 89 9b bd 91 6b 80 bd aa 78 5a 3e 37 77 39 3e
       -0.07594652 -0.06270517 0.21335092 0.18111883
000020 8d 1a 85 bd 5a 02 e9 3c 28 ec 4a 3e a4 67 42 3e
       -0.06499205 0.028443504 0.19816649 0.18984848
000030 93 ba 63 3d f0 a7 75 bd 8d 12 28 3e f2 d4 cc 3d
       0.055597853 -0.05997461 0.16413327 0.100015536
000040 9b 98 90 3c a4 cd e9 3d 8d aa 92 bc 76 59 36 3e
       0.017650893 0.11416176 -0.01790359 0.17807564
000050 26 4e 1b 3e d9 f1 d3 3d aa c7 a3 3d 1f cd 25 3e
       0.1516653 0.10348863 0.07997067 0.16191529
000060 a8 91 26 3d 17 d1 59 3e 12 40 77 bd fe c5 75 3e
       0.040666252 0.21271168 -0.060363837 0.2400131
000070 ed db da 3d 26 7d 94 bd 13 32 49 3e 19 db 6d 3e
       0.10686479 -0.07250433 0.19648008 0.2322811
000080 36 74 1e 3e 13 16 87 3d d3 18 fa b9 0b 85 76 3e
       0.15474018 0.06596007 -0.0004770221 0.2407419
000090 6c cf 2c 3e 1c 8e 4e 3b 32 16 5c bd 4d 88 7b 3d
       0.16876 0.003151781 -0.053732105 0.061409283
0000a0 0e 06 86 3d ad 14 bb 3d 8a 9a 12 3e 74 79 01 3e
       0.065441236 0.09134803 0.14316764 0.12643987
0000b0 29 64 ac 3d 51 3d 97 3d e7 c7 8d 3c c4 96 4d 3e
       0.084175415 0.07384742 0.017307235 0.20077044
0000c0 d2 4a 03 bd 1a 52 c2 3d eb 22 33 3e 15 41 37 3e
       -0.032053776 0.09488316 0.17493789 0.1789592
0000d0 04 d6 09 3e b0 a4 8d 3d a9 58 a8 bc 13 07 9c bd
       0.13460547 0.06916177 -0.020550089 -0.07618537
0000e0 c5 48 31 3e 41 dc 29 3e b3 cf ae bd 23 94 31 bd
       0.17312916 0.16587926 -0.08535709 -0.043354165
0000f0 ea a4 99 bd d4 28 38 3e 38 73 00 3e 84 b6 b2 3d
       -0.07502158 0.17984325 0.12543952 0.08726218
000100 3e 8b 23 3e 86 62 1d 3e 85 bc 3b 3e f8 66 fa 3d
       0.15971085 0.15369615 0.18333633 0.12226671
000110 fd 18 08 3e aa 24 85 3d 99 fb 21 3c c7 05 ea 3d
       0.13290782 0.06501134 0.009886646 0.11426883
000120 c3 b5 4f 3d ab b5 8d 3d ae 3d 5c 3e ed 05 92 3d
       0.05071045 0.06919416 0.21507904 0.071300365
000130 2f 68 ff bc 72 15 d5 bc 89 e9 21 3e 68 22 bd 3d
       -0.031177608 -0.026011202 0.15811743 0.09235078
000140 48 b1 b5 bd 8c 13 3d 3e 02 cb 10 3e 7e 62 56 3e
       -0.08871704 0.18464488 0.14139941 0.2093601
000150 51 5e 5a 3d 98 d9 2f bd 9a 1c 61 3d b4 cb 20 3e
       0.053312603 -0.042932123 0.054958917 0.15702707
000160 ba 05 9a 3d 11 23 af 3d 2a 63 c7 bd de af 0c 3d
       0.075206235 0.0855161 -0.09735711 0.034347408
000170 3b be 76 3c ce c3 f6 3d fe a3 c3 3d 10 51 d7 3d
       0.015060003 0.120490655 0.095527634 0.10513508
000180 c9 49 81 3c b6 3f a3 bc be 07 07 bd 11 35 c8 3d
       0.015782254 -0.01992784 -0.032966368 0.097757466
000190 16 8a 77 3d fd f5 8c 3d 30 70 3c 3e b0 ab 32 3e
       0.060434423 0.06882856 0.18402171 0.17448306
0001a0 ab 81 cf 3d 21 14 7c bd fa 7e 4e 3d 9d d5 8d 3d
       0.10132154 -0.061542634 0.050414063 0.06925509
0001b0 59 f6 8c 3d ee 38 82 3a fa cc 4e bd 90 e3 bf 3b
       0.068829246 0.0009935179 -0.05048845 0.005855985
0001c0 2e 6e 50 3e 5e e8 91 bd f6 bd c9 3c 16 ed 01 3e
       0.2035453 -0.07124399 0.024626713 0.12688097
0001d0 4c 19 37 3e 3a 5b 6b 3d 6a 53 fc 3d 54 ca 31 3e
       0.17880744 0.057460047 0.123205975 0.17362338
0001e0 43 12 5f 3e e6 f3 95 3c 53 6c 23 bd 03 f6 1a 3e
       0.2178431 0.018304776 -0.039898228 0.15132909
0001f0 1d dc 94 3d 7c 45 93 bd ce af e2 3d 2a 1b 51 3e
       0.07268546 -0.071909875 0.11068688 0.20420519

q_out.weight f4 [4, 128]
000000 38 7e 9a bd 83 e9 85 bc 7c c4 8e 3c 95 52 56 be
       -0.075436056 -0.016346699 0.017427675 -0.2092994
000010 de 46 a9 3d 50 b2 a0 3d ad 00 35 be 9a 90 49 be
       0.0826547 0.078465104 -0.17676039 -0.19684067
000020 70 ba 0a 3a 68 d9 17 3b b9 3e 60 be 0d be 3c be
       0.00052920636 0.0023170356 -0.21898927 -0.18431874
000030 b2 2f 1e be 12 02 0b 3c 0a 6c d3 bd c1 01 55 be
       -0.15447882 0.00848438 -0.10323341 -0.2080145
000040 d6 f1 5e bb 73 5d 46 be 5c 04 b6 3c 10 fa 41 be
       -0.0034018657 -0.19371586 0.022218876 -0.18943048
000050 1f 12 8a bd e0 f6 eb bd cf d4 47 be 81 85 fa bd
       -0.067417376 -0.11521697 -0.19514774 -0.12232495
000060 f8 48 79 3d d5 b9 4f be f8 63 95 3d b6 12 dd bd
       0.060860604 -0.20285733 0.07294458 -0.107945845
000070 91 2b 4b be 09 45 41 3d 7b 7a 77 bd 87 73 ab bd
       -0.19840838 0.047184978 -0.06041954 -0.083716445
000080 97 7c f1 bd 54 9e 26 bd be 57 7c bd 61 60 a2 bd
       -0.11791342 -0.040678337 -0.061607115 -0.07928539
000090 aa dc 0b be 76 6f 8e 3c 72 70 a3 3d dc 3c b3 bd
       -0.13658395 0.017387133 0.079804316 -0.087518424
0000a0 c8 d3 3a be 31 2a 29 be ce 8a 47 be cf a5 01 be
       -0.1824485 -0.16520001 -0.19486544 -0.12660907
0000b0 8d a2 23 be e2 eb 28 be 92 d4 6d bc 35 3b 5c be
       -0.15979977 -0.16496232 -0.014516013 -0.2150696
0000c0 78 33 68 3d 1b de c1 bd 68 ab 51 be 1f c1 15 be
       0.05668971 -0.094661914 -0.20475543 -0.14624451
0000d0 56 8d 9b bd a3 4f 16 be 88 94 67 3d e8 a9 10 3d
       -0.07595317 -0.14678816 0.056538135 0.035318285
0000e0 b4 32 ec bd 50 7c 73 bd b5 60 68 bd f6 eb 5e bd
       -0.11533108 -0.059444726 -0.056732852 -0.05442425
0000f0 fc 37 31 3d 8f 96 15 be a1 09 e6 bd 51 e3 62 be
       0.04326628 -0.14608215 -0.11232305 -0.22157027
000100 dc c3 35 be 8b 17 20 be 95 27 22 bd c4 28 44 be
       -0.17750496 -0.15633981 -0.03958853 -0.19156176
000110 17 87 2f be dc 51 68 bd a7 6f 18 3c 00 72 08 be
       -0.17141376 -0.056718692 0.009303964 -0.13324738
000120 84 76 00 bd 4f 1f 67 bd 4d b6 f1 bd 38 df b0 bd
       -0.031363025 -0.056426343 -0.11802349 -0.086363256
000130 1d 7a ab bc 0e 54 e1 3c 5e 7b b1 bd 07 94 1a be
       -0.020932252 0.0275059 -0.086661085 -0.1509553
000140 0b 9f f0 bc 98 c5 3b be ca fa da bd f6 bc 94 bd
       -0.029372713 -0.18337095 -0.106923655 -0.07262604
000150 67 2b 28 bd f6 33 81 3d a8 6b a6 3d b8 3c 41 be
       -0.041057017 0.06308739 0.081260026 -0.18870819
000160 f3 c1 65 bc 26 f1 3e be cf ec d3 3c c6 17 5e bd
       -0.014023292 -0.18646678 0.025869755 -0.05422189
000170 2b c1 a1 3b 92 59 28 be 73 a5 19 be 1d d0 0b be
       0.0049363575 -0.16440418 -0.1500452 -0.13653608
000180 f3 e9 95 3d 40 5c 48 3d c1 23 0b 3c 5e dd 37 be
       0.07320013 0.0489161 0.008492411 -0.17955539
000190 d2 ae 3b be ec 56 4f be e2 bb 62 be 69 dc 08 be
       -0.18328407 -0.20248002 -0.22141984 -0.1336533
0001a0 ed dd d7 bd 03 46 9d 3d 0a e8 9e 3d 30 5c 31 be
       -0.10540376 0.07679369 0.07759102 -0.17320323
0001b0 e4 5f 0f be fb 86 ab bd 9e 2a 96 3d 63 35 df bb
       -0.14001423 -0.08375355 0.07332347 -0.006811784
0001c0 c3 c5 1a be 04 8e 13 bb 2b fd 8f 3b 60 47 52 be
       -0.15114503 -0.0022515068 0.0043941936 -0.2053504
0001d0 ad 89 04 be d2 6b 5e be 5d 04 42 be a6 f3 c9 bd
       -0.12943144 -0.21720818 -0.18946977 -0.098609254
0001e0 e7 1d 4f bd 5d 95 05 3d f3 49 83 3c 9f ed ee bd
       -0.050565626 0.032613147 0.016026473 -0.116664164
0001f0 43 a3 04 be 81 5c c9 3c cd cf 35 be 5b 3e 6a be
       -0.12952904 0.024580242 -0.17755051 -0.22875349
000200 a7 df 54 be 0c a4 7a 3d 6a 7a a3 bb be eb 44 be
       -0.20788442 0.061191604 -0.004988958 -0.19230554
000210 72 40 72 3c ab c9 18 3d 51 91 47 be 0a 6c 4d be
       0.014785873 0.0373017 -0.19489028 -0.20060745
000220 19 da 42 3c de d3 d7 3c ca bf 0a be 7e e1 4d be
       0.011892819 0.026346143 -0.13549724 -0.2010555
000230 c5 3b 24 bd 19 62 2d bd 13 f8 08 be 5a 0c 39 be
       -0.040096063 -0.04232988 -0.13375883 -0.18071118
000240 8e 43 38 3d 0f 86 eb bd 1b 16 72 3d fe 3f 50 be
       0.0449863 -0.11500179 0.059103113 -0.20336911
000250 66 57 41 be 10 38 e7 bd 80 5a dd bd 7f e2 0a be
       -0.18880996 -0.1128999 -0.10808277 -0.13562964
000260 2b 3c 1c bd 6d 97 a1 bd a1 33 15 bd 66 fc 08 be
       -0.03814332 -0.0789021 -0.03642619 -0.13377532
000270 4a 54 0d be 8f 45 c2 bb 98 52 39 be fb da b5 bd
       -0.13801685 -0.005928702 -0.18097913 -0.08879658
000280 d8 5b 22 be 3c c9 e0 bb 46 36 0f bd 0c 38 4c be
       -0.15855348 -0.0068599265 -0.03496387 -0.19943255
000290 4c 56 01 be 85 9b 51 3d 7b 72 93 3d f7 39 0c 3c
       -0.12630576 0.051173706 0.0719957 0.008558742
0002a0 e5 5f 12 be de 67 01 be 6a 2a 4b be 49 1b 44 be
       -0.14294393 -0.12637278 -0.19840398 -0.19151033
0002b0 f8 c3 05 be 47 8d 20 be d1 8d 2d bc c3 e8 cb bd
       -0.13063037 -0.15678893 -0.010592894 -0.09956505
0002c0 12 99 44 3d 79 b9 57 be b8 d8 42 be f3 d8 31 be
       0.04799754 -0.21066846 -0.19027984 -0.17367916
0002d0 b5 e9 1d be 56 5b 0a be 93 ad 5a 3c 8c 4d 9e bd
       -0.15421183 -0.13511404 0.013347047 -0.07729635
0002e0 ea 30 35 be 2b 47 39 be c5 4f 13 3d 4d 80 96 3d
       -0.1769444 -0.18093555 0.035964746 0.0734869
0002f0 f0 31 55 3d ec 1b 63 bd 63 9c 1e be 53 ae b8 bd
       0.052049577 -0.05544655 -0.15489344 -0.09017625
000300 48 a3 c9 bd db cf 28 bd ca 29 bf bd 6c 51 14 be
       -0.098455966 -0.04121385 -0.093341425 -0.14484185
000310 f2 d4 49 be bf aa 40 be 94 fe 65 bc c8 79 c2 bd
       -0.19710138 -0.18815134 -0.014037747 -0.09495884
000320 78 55 5a 3d e2 37 90 3b fb 3d ba bd ad c5 9c bd
       0.053304166 0.004401193 -0.09093853 -0.07654891
000330 33 08 71 3d 45 21 65 3d e0 e3 07 be 84 24 39 be
       0.05884571 0.05593993 -0.13270521 -0.18080336
000340 c2 ab 9f bc 6c 99 34 be 08 66 c8 bd b1 56 13 be
       -0.01949108 -0.17636651 -0.09785086 -0.14388539
000350 81 da 07 3d af a7 39 bd 59 ed 9e 3d 00 06 12 be
       0.033167366 -0.04532593 0.07760114 -0.14260101
000360 13 7b e3 3c 1c 24 3c be e8 b1 11 bd 9c a2 92 3d
       0.027768647 -0.1837315 -0.035570055 0.071599215
000370 d0 07 a0 3d 35 9d 32 be 5d c3 4d be 1c 94 dd bd
       0.0781399 -0.17442782 -0.20094056 -0.10819265
000380 5b 09 6a bd fa 7b 84 3d c9 50 f0 3c 22 d0 47 be
       -0.05713783 0.06468959 0.029335396 -0.1951299
000390 f4 e4 2b bd 8d d7 40 be 73 d4 8f bd 1f df 00 be
       -0.041966394 -0.18832226 -0.07022943 -0.12585114
0003a0 7d d2 18 bd 8c 33 a5 3d 5b fe 24 3d db 29 ff bd
       -0.037310112 0.080664724 0.040281635 -0.12459155
0003b0 2d 14 f3 bc 7b 4f 3d 3d fd 13 63 3d ae 66 5a 3d
       -0.029672706 0.046218377 0.055438984 0.05332058
0003c0 12 8f 2e be 83 d5 5e 3d 66 54 1e 3d 16 e0 0f be
       -0.17046764 0.05440284 0.038654707 -0.14050326
0003d0 0d 5a 50 be d7 aa 6f bd 36 f4 c3 bd 2d 5b 38 be
       -0.20346852 -0.058512535 -0.09568064 -0.18003531
0003e0 33 25 5b be 35 cb 72 3c e5 c7 a9 3d d4 5b d7 bd
       -0.21400909 0.014818956 0.0829008 -0.10515562
0003f0 fb f9 7a bd 2a 7d 81 b7 ff bd 25 be 3d 10 2f be
       -0.061273556 -1.5436282e-05 -0.16185759 -0.17096038

q_out.bias f4 [4]
000000 0b fd 7c bd 37 1b f8 bd 97 24 b8 bd 4f ee bd bd
       -0.061764758 -0.12114566 -0.08991354 -0.092739694
