models/Second_Model_TwoAgents11x11/q_ind_agent_1.pt (torch, 108573 bytes, 6 tensors)

fc1.weight f4 [128, 71]
00000000: ccf1 b1be 4110 0abd 5ea3 253e 5bdd c7be
00000010: 3b94 11bf 088f 9f3e 860c e3be 4b88 403d
00000020: 0866 823c a5ef 823b e752 18be 22f2 23bc
00000030: 1ed1 9dbd 87a1 09be ae63 bd3c b852 0d3e
00000040: b4d9 a13d de0d 8e3d 2b15 e43d d52b f5bd
00000050: b115 6bbe 82ed 8bbd c18f 2fbd e110 313b
00000060: 47f2 3c3c c08b 633c bcae fdbc da2b be3e
00000070: d2c4 be3c 6f17 e2bd ef24 c5bc db88 473d
00000080: 42a0 45bd e716 693d 37ed 03be 6c13 98bd
00000090: 3dbd 713d 2997 a3be 8a3a ccbe 1d37 993e
000000a0: 61b9 dcbe a9ec c0bd 9faf e7bc fe48 01be
000000b0: fd9e ef3d 64cf 18bc c5f6 1dbd 0ed0 813a
000000c0: edd5 4a3e 2da5 5c3d 159e 413d b76c 173d
000000d0: 7050 a8bd 050e a9bc 55ca af3c f038 4bbe
000000e0: 3752 79bd ad66 ff3d b250 1fbd a6c5 25be
000000f0: b174 b13d b907 eabd 68c9 f7be f806 863d
00000100: ba91 a13d 6c42 fabd 0252 123d b7de 82bc
00000110: 966a 04be 47ef 2e3e 9bb2 90bd 0e4b 973c
00000120: d009 cdbd 58dc 28bd caa2 2dbd 8492 e8bd
00000130: 8f87 593d aa7f a2bd 8b9d e5bd c365 dd3d
00000140: 6e6c b8bc 7385 9abc 4e70 e63d e808 88bd
00000150: f190 d93c f3e8 b5bd 65e0 a63d 184b cdbd
00000160: 40ff 303d ef3b d4bd 061b dfbc 9807 7cbd
00000170: cf81 41bd 4838 2b3d 78bb 8fbd 8851 f2bd
00000180: e6fd 893d c9de 5bbd f242 4f3d 7390 fd3c
00000190: 610a d8bd 21c9 613d 6ded 0dbd c015 db3d
000001a0: d044 ce3c e81a ebbd 4305 eb3c 24b4 a43d
000001b0: 91e6 383d 53e0 5e3d 639c 6abc ea0d 023c
000001c0: edbb a3bd fc5c ee3d d662 003d 3b69 05be
000001d0: cb7a 803c af75 0e3c dc1c b93d 4e7d 7b3d
000001e0: 58c6 a8bd aafd e53a fe68 403b 2ae1 f1bd
000001f0: 963b 993d 3ff2 d2bb 3426 c4bd fbe2 d6bd
00000200: 3880 8b3c 4b32 39bd a872 3f3d 6f5a 44bc
00000210: e6ee 373d 303f f3bd c9b0 d0bd b8d6 93bd
00000220: 1828 93bd 755b eebd 2a07 6c3d 6de5 3dbc
00000230: 39e5 e83a 88ff bb3d 6265 253e 34c2 353b
00000240: 1771 163d b9f8 f1be 8431 ec3c 5c9e febe
00000250: 7001 cc3d ca4c 0ebe addd 19be d289 873c
00000260: d176 69bc bf92 2ebe d9bd 26be 5308 50bb
00000270: 3f67 8c3d cc6d f9bd b90f 213c c835 c3bd
00000280: e40b 90bd 8dd3 fa3c 4e30 fcbe eaf8 d33c
00000290: 3874 c33d 1512 7bbc a918 3f3e c9ab 3c3a
000002a0: f330 87bd 494a 14be a08b 8f3d 4de8 3f3d
000002b0: ded8 84bd 66a0 c83d b13c 103c 7e7d c2bd
000002c0: ffff cbbd 04b4 883d 1ceb 303b d290 00bf
000002d0: 7c4a a7bd 4105 d7be 6253 763d 5fbb 05be
000002e0: 9d1e 363d 1084 bfbd fe38 2dbe e488 c13c
000002f0: ecde 46bd 29d0 2cbd 3169 93be 89ea 95bb
00000300: df43 3fbd c350 f1bd 1cf0 b3bd 5679 ebbd
00000310: 5f93 4bbd 991a 18bc a208 28be 3777 043e
00000320: 00a4 99bc ef90 37bc 9ae6 95bc 20d0 b13c
00000330: 97db 13bf 508b 983d f2ca 38be 5d94 46be
00000340: 5b1c 20be fea3 bd3d b415 6abd f0a0 ecbe
00000350: 4e31 f13a 4deb 2a3e 000a edbd 1163 58bd
00000360: 9d36 993d 6b2f 42bf bc9b 01bf cb9e 233e
00000370: 5109 30bd 4797 d5bd 33ee d8bc 6dfa e53c
00000380: 667d 7a3d 2230 783d 116e 9e3e 5bbf c03d
00000390: d75c ea3d 292b a1bd 26f5 9b3d 8739 71bd
000003a0: 86c4 81bc e3a0 9cbe 5f18 8f3d f9dc 8b3d
000003b0: d08d 423d 6539 6f3d 7ff5 183e 43aa 203d
000003c0: 5a0d 8abe 8779 413e 5f06 013d 6ca8 7ebc
000003d0: 9500 133b df47 afbd c5cf 4cbc 4c59 06ba
000003e0: 7e45 fabd be8f e63d a9eb 103e 6b3f 14bf
000003f0: 029e f5be 2ce8 943e a178 7fbd 48e4 683d
-0.3475479 -0.033706907 0.16175601 -0.39036068 -0.56866807 0.31163812 -0.44345492 0.04700498
0.015917793 0.003995853 -0.14875375 -0.010006459 -0.077059016 -0.13440524 0.02311882 0.13801086
0.07902852 0.06936239 0.1113685 -0.11971251 -0.22957493 -0.068324104 -0.042861704 0.0027018117
0.011532373 0.013888299 -0.030967109 0.3714283 0.02328721 -0.11039626 -0.024065463 0.0487145
-0.048248537 0.056906607 -0.12883459 -0.074255794 0.059018362 -0.31951264 -0.39888412 0.2992486
-0.43110183 -0.09420139 -0.028281985 -0.126255 0.117002465 -0.0093267895 -0.038565416 0.0009903924
0.19808169 0.05386846 0.0472699 0.036968913 -0.08218467 -0.020636568 0.021458784 -0.19845939
-0.06086942 0.12470756 -0.038895316 -0.16188678 0.08664835 -0.11427254 -0.48395848 0.06544298
0.07889123 -0.122197 0.03572274 -0.01597534 -0.12931284 0.17083465 -0.07065316 0.018468406
-0.10011637 -0.04122576 -0.042391576 -0.11356071 0.053107794 -0.07934506 -0.112116896 0.10810425
-0.02251264 -0.018862462 0.11251889 -0.06642324 0.026558371 -0.08882322 0.081482686 -0.100240886
0.043212175 -0.10362994 -0.027234565 -0.06153068 -0.047242936 0.04180172 -0.07018179 -0.11831957
0.067378804 -0.05367926 0.050600953 0.030952668 -0.105488546 0.055123452 -0.034650255 0.10697508
0.025179297 -0.11479741 0.028689032 0.080421716 0.04514176 0.05441315 -0.014319512 0.007937888
-0.079948284 0.11638829 0.031344257 -0.13028423 0.015683552 0.00869505 0.090387076 0.061398797
-0.08240956 0.0017546911 0.0029359455 -0.11810525 0.07482068 -0.0064375694 -0.09577599 -0.10492512
0.017028913 -0.04521398 0.046740204 -0.011984452 0.044905566 -0.118772864 -0.10189969 -0.07218689
-0.07185382 -0.11638538 0.05762402 -0.011590344 0.0017768509 0.09179598 0.16151956 0.0027734162
0.036728945 -0.47260073 0.028832205 -0.49730194 0.09961212 -0.1389648 -0.15025969 0.01654521
-0.014249519 -0.17048167 -0.16283359 -0.0031743243 0.0685563 -0.12179145 0.009830409 -0.09531742
-0.07033518 0.030618453 -0.49255604 0.025875527 0.09543651 -0.015324135 0.18661751 0.0007197229
-0.06601133 -0.14481463 0.07009053 0.0468524 -0.06486677 0.097962186 0.008803532 -0.09496592
-0.09960937 0.0667496 0.0026995605 -0.5022098 -0.08168504 -0.41996196 0.060138114 -0.13059758
0.04446279 -0.09351361 -0.16916272 0.023624845 -0.04855244 -0.042190704 -0.28791192 -0.004575078
-0.046695586 -0.11782982 -0.087860316 -0.11497752 -0.04970109 -0.009283685 -0.16409543 0.12936102
-0.01875496 -0.011203988 -0.018298436 0.021705687 -0.5775694 0.07448447 -0.18046167 -0.19392534
-0.15635817 0.09259795 -0.057149604 -0.46216536 0.0018401535 0.16691323 -0.11574173 -0.052828852
0.0748112 -0.75853604 -0.50628257 0.15978543 -0.042977635 -0.104292445 -0.02648077 0.028073514
0.061154746 0.060592778 0.3094335 0.09411498 0.11443489 -0.0786956 0.07615118 -0.058892753
-0.01584078 -0.30591497 0.0698707 0.068292566 0.047498524 0.058404345 0.149374 0.039224874
-0.2696331 0.18894015 0.031500217 -0.015543085 0.0022430767 -0.0855863 -0.012500708 -0.00051250006
-0.12220286 0.112578854 0.14152397 -0.5790927 -0.47972113 0.29083383 -0.0623709 0.05685833

fc1.bias f4 [128]
00000000: 859c 2ebd f368 7ebc ddd3 0fbe 3509 3b3c
00000010: f583 96bb 983c eebd a17b 7abd d2a8 52bc
00000020: f482 bcbd abd3 a03d c666 d3bd a871 e3bd
00000030: bdea 57bd 20f8 bfbd 3193 b6ba 544b 213d
00000040: 3ff2 ffbd b415 a53c 54ed dbbd 108f b8bd
00000050: a0de 923c 7338 f7bd 4c6b 9cbd a246 debd
00000060: 4fd6 20be e689 713d 58c1 86bc 91f4 f73b
00000070: 2997 7a3c 7a5e 74bd 5891 723e 1c87 60bd
00000080: 1554 d8bc 242f 3d3c bbf5 c1bd cb1d 4abc
00000090: e2df 35bd 825c f1bb 3663 c13d c2c5 b83d
000000a0: 809d 743d 2600 f4bd d397 c7bd 9418 ae3d
000000b0: 5e1f 793d 387e 02be 900b ebbd d774 62bd
000000c0: bb9d 7dbd 0d9f ab3c 6824 d7bd 8170 34bd
000000d0: f1bf 083c a0e7 59bd 5a21 05bc b824 89bd
000000e0: a612 eb3d bac9 83bd 3c69 9ebd 5a61 80bd
000000f0: 2303 36bc 710d 483b 5dae c33d a19f f6bd
00000100: 02c6 933b 48b5 333d ecb7 c0bd 4cf3 d0bd
00000110: 67c4 2e3d 0047 c93c c7e4 8bbc 782a 703d
00000120: b56c f2bd 5813 f7bc c190 4d3d c90d a73d
00000130: b4bd 173e 6887 febd 907f d5bd f2f2 f2bd
00000140: 51fc e1bd 8ef9 663d 9699 6bbd f899 5d3d
00000150: 2c8f 34be a02e bfbc b918 cf3d 3a04 32bd
00000160: 7387 a73d 8bdf 313c 7add db3a f81b 8d3d
00000170: ef97 9f3d 2934 a8bd 09c9 963d 26ae 113b
00000180: 52a7 8b3d 78ce e2bd cab0 bdbb 6432 6fbd
00000190: 7170 ea3d ddb1 09bd 53ec 963c 485d ce3d
000001a0: 607f 30be c464 86bd 71b5 713d edad cdbd
000001b0: 593d e03d 3834 b03d 9579 2ebe 9561 01be
000001c0: 687b 8fbd 6cff b8bd 0fe6 5d3c 4ba9 73bd
000001d0: b711 fd3c c7b8 ea3d d7eb f0bd ba8c fbbd
000001e0: b235 10be 472b 45bd 61bb 833d 6c0a fdbc
000001f0: 8249 3abd a9e7 983d edc1 603b a5f4 b8bd
-0.042629737 -0.0155279515 -0.14045663 0.011415769 -0.004593367 -0.11632651 -0.061153058 -0.012857633
-0.09204665 0.078528725 -0.10322337 -0.111056626 -0.0527141 -0.09373498 -0.0013929365 0.03937848
-0.12497377 0.02015195 -0.10738626 -0.09011662 0.017928421 -0.12071314 -0.07637653 -0.10853316
-0.15706752 0.0589694 -0.016449615 0.0075669964 0.015294828 -0.059660412 0.23688257 -0.05481635
-0.026407281 0.011546884 -0.094706975 -0.012336205 -0.044402964 -0.007365764 0.09442751 0.09022094
0.059720516 -0.11914091 -0.09745755 0.08500782 0.06082093 -0.12743461 -0.11476815 -0.05528721
-0.061918 0.020949865 -0.10504991 -0.044052605 0.008346544 -0.05319941 -0.008125627 -0.06696457
0.11478166 -0.06434961 -0.077349156 -0.06268568 -0.011109146 0.003052559 0.095547415 -0.120421655
0.0045096884 0.043874055 -0.0941008 -0.10202655 0.042667773 0.024569988 -0.017076863 0.05863425
-0.118371405 -0.030160591 0.050186876 0.08156926 0.1481846 -0.124281704 -0.10424721 -0.118627444
-0.11034454 0.056390338 -0.057519518 0.054101914 -0.1763274 -0.023337662 0.10112137 -0.043461062
0.08180132 0.010856519 0.0016774379 0.068901 0.07792651 -0.08213074 0.07362563 0.0022229045
0.06819023 -0.11074537 -0.005788897 -0.058397666 0.11447228 -0.03361689 0.018423235 0.10076386
-0.1723609 -0.06562188 0.059010927 -0.10042939 0.10949201 0.0860371 -0.17038567 -0.12634881
-0.0700596 -0.09033093 0.01354362 -0.059487622 0.030892236 0.11461025 -0.11763733 -0.12282701
-0.14082983 -0.048136976 0.06432224 -0.030888759 -0.04548026 0.07466061 0.0034295276 -0.09031037

fc2.weight f4 [128, 128]
00000000: 88f7 0fbd 2211 c0bc 016c 28bd dc88 40bd
00000010: b171 91bd e69d b7bd 2655 1c3c 053c 9c3c
00000020: 2183 b13c b0a8 37bd b7d7 893d 6d08 83bd
00000030: 4e98 713d 89c0 7abd 2f06 47bd 9677 14bd
00000040: 711c acbd fb8d e23b 0c22 98bc ba4e aabd
00000050: 3bb7 dd3c fe26 39bc 7cbb 673d 6193 4a3c
00000060: 4e51 87bd 0aa8 b1bd 14a1 92bc a2cc f5bc
00000070: 6d5e 5ebd 8e1b 783d d7f8 ebbb 9802 853c
00000080: 6bd3 5c3c 9836 48bd 52f3 aabd 4ffc ccbc
00000090: 5afb 6d3d d216 a23d bdc1 01bd 9e77 2abc
000000a0: 284e 8e3d 40ab 9f3d 247f 8bbd 0172 09bd
000000b0: 2fe5 233d 8644 ea3c f33a 4bbd e444 71bd
000000c0: 2b21 80bd 7ce5 c83c e4c1 8a3d 5b8b cc3c
000000d0: ec74 f33b b067 1ebd b3d3 2b3d 956f 49bd
000000e0: 6ffa 48bd 1795 24bc 6258 45bd f54f 22bd
000000f0: 021b ec3c 5a1c 0fbd 2f43 8e3d 6ca1 883d
00000100: 77be e73c e655 83bd a5f4 79bd 4ed2 2ebd
00000110: 9faf 4d3d b28d 083d 0fe5 3bbd 3ed5 f4bc
00000120: 921f 123d 107c 82bd 6ec0 6cbd 4b65 4c3d
00000130: cc35 88bd aeb1 c6bc faaa a8bd b068 893d
00000140: 4d66 41bd 78a7 babc 05ab 85bc 38dd 0fbc
00000150: 708a 183c 0fe2 80bd d7e3 ea3c cf90 abbd
00000160: 96cf a13d 807c 0d3d b866 923d 02de 233c
00000170: 91f0 fe3b b065 f1bc 1e5b a7bd 7ecf 13bc
00000180: 606e 0b3d b911 633d 6829 54bd 458e 83bd
00000190: 29e0 c4bc d489 44bd 7742 9a3c e974 4bbc
000001a0: b0fb de3c afce a13d d4ec b1bd 8052 1e3d
000001b0: 8439 2bbd 3eaa abbb f983 8c3d aac5 b4bd
000001c0: d013 a8bd 6fdb 89bb 770c 35bd 147e 85bd
000001d0: 3e6e b7bd ef7a 4f3d 6362 5c3c 1442 62bd
000001e0: 5d2c 33bd dde3 f4bc 18b5 90bd 4f4e 47bc
000001f0: 0a3b afbd 2572 173c 5740 2e3d 32c8 7bbb
00000200: 2881 4c3d d085 08bd eea4 73be 508f 453e
00000210: 57f5 87bd 84c7 6fbd ea6a 3abd eb56 8fbd
00000220: bb72 30be 554c 3dbe a4ee 753c effd b6bd
00000230: 14cc 0fbe 5289 64bd df7c 59be 9c37 15bd
00000240: f972 4ebe 75b7 d73d 48e0 fdbd 3ddc 23bc
00000250: 483d 103e 0574 0b3d 1752 a8bd 568c c4bc
00000260: 541f c8bd cf0d 923d 2737 83bd 3e7f debd
00000270: 3d82 863d d2d0 5e3d ad22 7f3e 9ade 513e
00000280: 1e8f bd3d 0ee0 85be 0e3a 1b3d b1d3 2dbd
00000290: ad00 b2bb 5dca 403e 30e2 86be a2c2 313e
000002a0: 8b0c fa3c debe 153d 2237 70bc b830 ae3e
000002b0: f532 0bbe 4801 dfbc 45dd fb3c 8ab9 cebd
000002c0: ca69 6cbd da50 7c3c d302 30bd c624 da3d
000002d0: 6897 05bd 5fcd 8d3c 872d 14be 6878 d0bd
000002e0: b92c 173e 61f4 c33c eadf 543d e575 f5bd
000002f0: c080 93be f859 803b 0256 313e a8a0 13bd
00000300: d46d 25bd 33ec 213d 6b68 7c3d f9fe 9ebd
00000310: d856 fc3d e425 ecbd 8c58 4c3d 2ad3 c0bc
00000320: b0fe 5bbb 76d6 2c3d 22e0 823e 50fa 593c
00000330: 52a4 01bd c72e 713d 3d6c c9bd d4a8 c6bd
00000340: 5bbd 1bbd 9bb4 ec3d 5f37 a6bd 348d 10be
00000350: ce1d 7fbe 4012 af3d e512 223e af12 a0bd
00000360: c2cf 053d 8f79 5fbe ef6d fcbd 3838 2dba
00000370: 768b b3bd 1d33 54bd e9a6 3ebd ef28 933c
00000380: 603c 4d3e 11f4 21bd dcaa d23d 7a2a 983d
00000390: 5905 c6bd c5c6 88be 46e0 dabc 7489 633e
000003a0: d0b7 89bd 0ac8 3ebd c1dc d7bc 31a0 97bd
000003b0: 0054 153e b9f1 d73d 8877 bfbc aae4 c8bd
000003c0: 1d22 c0bd 4f85 2a3c 372f 82be 31b7 a3bd
000003d0: eb1c 843c ac66 da3d f25f ce3c d365 03bc
000003e0: 1bdb f6bd 8d65 523d ef2e c33c 601c babd
000003f0: f3d2 bbbd 98a9 0e3e 317a 0c3e 13ae de3c
-0.035148174 -0.02344567 -0.041118626 -0.04700552 -0.07101763 -0.089656636 0.009541785 0.019071588
0.021668972 -0.044838607 0.067305975 -0.063980915 0.05898314 -0.061218772 -0.04858988 -0.03624686
-0.08403862 0.006913898 -0.018570922 -0.08315797 0.02706491 -0.0113008 0.056575283 0.012364239
-0.066073045 -0.08674629 -0.017899074 -0.030004803 -0.05428927 0.060573153 -0.007201295 0.016236588
0.01347814 -0.04888019 -0.08347191 -0.025022654 0.058101036 0.07914509 -0.031678904 -0.0104044955
0.06948501 0.07796335 -0.068113595 -0.03355599 0.04001349 0.028597128 -0.049616765 -0.05890359
-0.06256326 0.02452349 0.06775263 0.024968794 0.0074297097 -0.038673103 0.04194994 -0.04917868
-0.049066957 -0.010045311 -0.04817999 -0.039627034 0.028821472 -0.034939148 0.06946408 0.06671414
0.028289063 -0.06412868 -0.061024327 -0.04268103 0.050216313 0.033338256 -0.045872744 -0.029886838
0.03567464 -0.06371319 -0.057800703 0.049901288 -0.06650886 -0.024254646 -0.08235736 0.06709421
-0.047216702 -0.022784933 -0.0163169 -0.00878077 0.00931035 -0.06293117 0.028673096 -0.083772294
0.07900922 0.03454256 0.07148498 0.010001661 0.0077801426 -0.029467434 -0.08171676 -0.009021638
0.03404081 0.055436824 -0.0517973 -0.0642362 -0.02403267 -0.047983006 0.018830521 -0.01241801
0.027219623 0.0790075 -0.086877495 0.038652897 -0.041802898 -0.0052388003 0.06861109 -0.08826764
-0.08206904 -0.0042070667 -0.04420134 -0.06518188 -0.08956574 0.050654348 0.013451192 -0.0552388
-0.04374348 -0.02989381 -0.07065791 -0.012164666 -0.08556183 0.009243523 0.042541828 -0.0038418886
0.04992786 -0.03333074 -0.23793384 0.1929295 -0.06638592 -0.058539882 -0.045512117 -0.06999
-0.17231266 -0.1848615 0.01501051 -0.08935153 -0.14042693 -0.05579502 -0.21239041 -0.036429986
-0.20161046 0.105330385 -0.12396294 -0.010001239 0.14085877 0.03404619 -0.082187824 -0.023992699
-0.097716 0.0713154 -0.06407004 -0.10864113 0.0656781 0.054398365 0.24915572 0.20495072
0.09255813 -0.26147503 0.037897162 -0.042438213 -0.0054322095 0.18827195 -0.26344442 0.17359403
0.03052356 0.03655898 -0.014661582 0.34021544 -0.13593657 -0.02722229 0.030745158 -0.100939825
-0.057718076 0.015400136 -0.042971443 0.10651545 -0.032615095 0.017309843 -0.14470492 -0.10179216
0.14763154 0.02392024 0.051971354 -0.11985377 -0.28809166 0.003916975 0.17317966 -0.036041886
-0.040387943 0.039531898 0.06162302 -0.07763476 0.12321252 -0.115306646 0.049889132 -0.02353819
-0.0033568554 0.042196713 0.25561625 0.013304308 -0.03165085 0.0588825 -0.09835098 -0.0970017
-0.03802238 0.11557885 -0.0811603 -0.14116365 -0.24913713 0.08548403 0.1582752 -0.078160636
0.032668836 -0.21823715 -0.12325656 -0.00066078035 -0.087668344 -0.051806558 -0.046545897 0.017963855
0.20042562 -0.0395394 0.10286495 0.07429977 -0.09668989 -0.2671415 -0.02671827 0.22220403
-0.067245126 -0.04657749 -0.02635038 -0.07403601 0.14582825 0.10544152 -0.023372427 -0.09809239
-0.093815066 0.01040776 -0.25426647 -0.07993925 0.01612707 0.10664114 0.025192235 -0.008019882
-0.1205351 0.051366378 0.02382609 -0.09087443 -0.09171095 0.13931882 0.13718487 0.027182614

fc2.bias f4 [128]
00000000: 3d9b 5fbd c2b2 8a3d d7eb ebbc 042b 37be
00000010: 4099 553e d22b c1bd e7e0 d8bd a66e a73d
00000020: a64d 8f3c e68f 5a3e 0e26 00bc 4bad 343e
00000030: 9617 133e dc34 bb3c 2021 81bc d21f 773e
00000040: ae72 9c3b 6c57 163d 4915 403e 12cf 883d
00000050: 4d62 ca3c 4a9d 4abd 2cfc b33d 7965 813b
00000060: 54e9 d43c f760 10bd 7201 8cbd e525 193d
00000070: 1589 3bbd afe9 a8bc 927d 953c f63c b3bd
00000080: 441e 113e 9e5d cb3c c79c b0bd 5350 603e
00000090: b6c3 b6bd 4f9b 09be 953f 3abd 83fb 60bd
000000a0: 5d1f 873c 475b e9bd dbbc 19be 835c bdbd
000000b0: c1e5 b8bd 7652 fbbc c30f f6bd 3ce9 bd3d
000000c0: 1e4a 18bd b70e de3c 4ac1 06be 9b86 8abc
000000d0: 7b6d a2bd c17a 773c 1fca 333c 8cf7 b8bd
000000e0: 55d9 a9bd 80ae 673d a612 debc 9606 31bd
000000f0: e055 a23d b858 193e 0a81 ef3c 9c0c b8bc
00000100: e728 fabd 9f7a 67bd fa57 3f3d 1492 bdbd
00000110: 8581 8a3e efa5 c7bc ff93 6d3c 421e 433e
00000120: b7c6 f33c 7344 4dbd 18d3 52bd 5f0f 60bd
00000130: e23a 4c3e 1355 313d 4f4f f2bd 3a92 0e3e
00000140: ba11 0fbe caf2 31bd 95aa 9abd 7faf a1bd
00000150: 5fbf 573c 52a1 9e3c d7b1 92bd dcd4 1ebe
00000160: 9aa8 d7bd 6446 b3bc 9099 c43d 280e 28bd
00000170: b06c 60bd 11fc b63d 1f6f 903a 4961 233e
00000180: b868 d93c 8478 6a3d 5221 04bd f143 8abd
00000190: c262 e8bc c870 e4bd 921f 1fbd 7236 a4ba
000001a0: 52b3 963d 884e bcbc 0c57 58bd 3ebe 14be
000001b0: d2fc 90bd 5889 a03c d241 86bd eca4 13bd
000001c0: 70ae 993b b06f 04bd 1e78 1f3c da81 273e
000001d0: 56b6 3fbd a3d7 b4bd 2bb9 a0bd bd2a d1bc
000001e0: 8d53 82bd 6633 d3bd 2354 95bd c459 dfbc
000001f0: 48df 24bd 4ea7 813c 2445 91bd 4eea 08bd
-0.054591406 0.067723766 -0.02879898 -0.17887503 0.20859241 -0.09432186 -0.10589772 0.081754014
0.01749308 0.21343955 -0.007821573 0.17644231 0.14364466 0.022852354 -0.015762866 0.24133232
0.004774413 0.036704466 0.1875812 0.066801205 0.024705077 -0.04946641 0.08788332 0.003948864
0.025990166 -0.035248723 -0.06836213 0.037389655 -0.04578503 -0.020619242 0.018248353 -0.08751862
0.14171702 0.024824914 -0.08623653 0.21905641 -0.08924048 -0.13438152 -0.045470793 -0.05492736
0.016494447 -0.11394363 -0.15013449 -0.09246161 -0.09028197 -0.030678969 -0.12014725 0.092730016
-0.03718006 0.027106626 -0.13159671 -0.016909888 -0.07931038 0.01510495 0.010973482 -0.09031591
-0.08293406 0.0565629 -0.027108502 -0.04321917 0.079265356 0.1497525 0.029236335 -0.02246695
-0.12214833 -0.056513425 0.04671476 -0.09256378 0.2705194 -0.024371115 0.014500617 0.19054511
0.02975784 -0.050114106 -0.051470846 -0.05470216 0.19944337 0.043294024 -0.11831533 0.13922969
-0.13971606 -0.043444432 -0.07552067 -0.07894801 0.013168185 0.019364033 -0.071628265 -0.15510887
-0.10530205 -0.02188415 0.09599602 -0.041029125 -0.054791152 0.089347966 0.0011019445 0.1595508
0.026539192 0.05724384 -0.03225834 -0.0675124 -0.028367404 -0.11154324 -0.038848467 -0.0012528433
0.073584214 -0.022986665 -0.05281739 -0.14525697 -0.07079472 0.01959674 -0.06555523 -0.036045954
0.004689984 -0.032333076 0.009733228 0.16358128 -0.04680475 -0.08830192 -0.07847818 -0.025533075
-0.06363592 -0.10312538 -0.072914384 -0.027264483 -0.040252 0.015826847 -0.07093266 -0.033426575

q_out.weight f4 [5, 128]
00000000: de71 013c e975 983e c264 3f3d f050 203e
00000010: 955f cd3d 266b a23c 9770 003e 9dcd b43d
00000020: be88 62bc 0986 663e f0da b63d 3f98 1c3e
00000030: 5d97 eb3d fd5f f53d 5fc6 10bd fdcf 203e
00000040: fb90 ce3d 822c 313e 4e0c 5f3e 6916 a83d
00000050: 0c72 753b e38b 22bd 056f 2a3e e571 03be
00000060: 4a91 3b3d 0bb8 573d 0dca f5b7 e328 91bc
00000070: 9eb6 833d b56e 933d 1cb5 2a3d 8484 613d
00000080: 9877 a33d 7efc 0d3b 6b86 c03d 1564 023e
00000090: fdc7 26bd 88a2 3bbd ca39 a93b 6746 163d
000000a0: 211e df3c b770 9f3d 8262 f03b 9052 06bc
000000b0: 1d62 c3bb 2a92 2abd c155 0e3e c918 1d3e
000000c0: 20bd 03bc 0b28 25bd 6efa b63c 2fa4 8bbd
000000d0: 7214 0a3e 3c9d 1fbd 9fce c73c a260 893d
000000e0: 470c 9a3d a7a4 66bd d83a 163e 5008 8a3d
000000f0: c006 7fbd 33a5 1b3e de4e 893c ab22 58bc
00000100: 7fcf 70bc 5518 853d 7aa0 2d3d aef4 8b3c
00000110: 9f9c 093e 3560 003e c542 d3bd 699a 823e
00000120: 2d2e 073e 0682 61bd c1b7 71bd 542a 82ba
00000130: b00e bd3d 1132 2cbc 54cc 13bd f785 d43d
00000140: d34f 4abd 58ab 223d 2fb1 353d edf7 943d
00000150: 6097 1b3c d776 edbc 5e0e 99bd 4eae ad3d
00000160: 58b5 31be 308e 71bd 1596 db3d 2b08 d73d
00000170: e7d6 d1bc 0053 973d 694c 433d df3f 173e
00000180: b3e9 52bd dad4 cb3d 206b 453d daac 25b9
00000190: 30f5 1a3d a481 35bb 97f7 e03a 0164 cfbb
000001a0: f7fe e03a 1217 0d3e f65d 38ba 7272 8bbd
000001b0: ca31 143e ee24 5cbd 0f5f a73c 9614 173a
000001c0: 6377 2d3d 2a8c 733d 60c9 b6bc 2780 763d
000001d0: 5355 953b 9c00 3ebd 5cd8 3d3d bd35 d53d
000001e0: a489 fa3b 7fd3 bf3d ea80 1cbc 51ae 2f3d
000001f0: f41f 143d f1f2 163e 5395 5cbc 26a5 acbc
00000200: 42c7 833d ecc6 483e d2e7 283d a951 a8bd
00000210: 6cd8 573e 60e6 603d 4c45 933d 20b3 243d
00000220: 6e43 debd d015 4b3e 29f0 eebd 227c 723e
00000230: fb98 5c3e f94f b83c 2eec 22be 7c12 303e
00000240: f47e e6bd e95f a93e 26ba 2fbd 9116 303e
00000250: c897 733c ec1d 04be e8f3 e23d b210 11be
00000260: 9c4d 88bd 610e 17be 2a1c 7e3d 2a14 48be
00000270: d81b 21be acdf febd a371 7a3c 7a03 953d
00000280: 3a86 893d db8a 203c 8cfd 86bd c19b 683e
00000290: 7030 433d 7c9c d2bd 5b77 e6bd 1202 5b3d
000002a0: afb7 3c3d 39ca a1bd c32a 8abd 2ef6 c8bd
000002b0: c208 963c b205 0ebe 044a e0bd 7594 513e
000002c0: 2a45 21be 99b7 06be 272a 48bc 58fd 373d
000002d0: a127 f4bd a9bb 17bd 121c 18be 112d de3c
000002e0: 6a0b 013d 9fff fabd fd3f 26be f7b0 1fbe
000002f0: 306a b73a 4a94 f53d e658 1ebe eeec 9abd
00000300: ee47 27be 4cee 453e 6547 2cbd 8ec8 ac3c
00000310: f31a 3e3e 584f 573d cd6a 17be 0ec5 803e
00000320: f6e3 0abe 5302 833d 6838 933d 148a 45be
00000330: bdf8 343e 60d8 3f3d 90a7 f6bd 4c2e 323e
00000340: 0b4d 80bd e08b 80bd 0ee6 c2bd 1d82 e2bc
00000350: 2606 5f3d a6f6 18be 9e26 053d 858a 0dbe
00000360: bf8f 90bd 76db 88bd c516 bb3d 0553 663d
00000370: bbf4 12bd 3f78 c63d 5389 33bd 7e3c da3d
00000380: 2f62 02be 3583 64be 152f 72be c94a 823d
00000390: ceee 3b3d 25b5 25be 0d55 eebd 5f5a 5f3b
000003a0: 302a 603d 088b 263d db65 5dbd 4c80 e83c
000003b0: a587 34be 5f7f c6bd ca7f 0fbe 6d3c 31be
000003c0: 623c 003b 4364 903c eb4b 09be 10fa 523e
000003d0: 0478 8abd c66a 8bbd 21db b1bd 65bf f4bd
000003e0: 5311 55ba b89e 4ebe d68e fbbd d6ed 253d
000003f0: 588c 44bc 7fcd 52be 3696 a93d a9e9 963d
0.007900683 0.29777458 0.04672695 0.15655875 0.100279965 0.019826483 0.1254295 0.0882828
-0.013826547 0.22512068 0.08928478 0.15292452 0.1150348 0.11981199 -0.03534543 0.15704341
0.100862466 0.17302135 0.21782038 0.082073994 0.003745201 -0.039684188 0.16643913 -0.12836416
0.045792855 0.05266575 -2.9300363e-05 -0.017719692 0.06431316 0.0719885 0.041676626 0.055058017
0.07981795 0.002166539 0.09400638 0.12733491 -0.040718067 -0.0458093 0.0051643597 0.036688235
0.027236046 0.077851705 0.007335962 -0.008198395 -0.0059626237 -0.0416433 0.138999 0.15341486
-0.008040696 -0.04032139 0.022336211 -0.06818425 0.13484362 -0.03896831 0.024390517 0.06707884
0.07521873 -0.05630937 0.14670885 0.06739867 -0.062262297 0.15199737 0.01676124 -0.013191859
-0.014697908 0.064987816 0.04238937 0.017084446 0.13438652 0.125367 -0.1031547 0.2550843
0.13201208 -0.05505564 -0.059013132 -0.0009930828 0.09231317 -0.010509984 -0.036083534 0.10377114
-0.049392533 0.039714187 0.04435843 0.072738506 0.00949654 -0.028987331 -0.074734434 0.084805116
-0.17354333 -0.05897349 0.10721985 0.10499605 -0.025615169 0.07388878 0.047680292 0.14770459
-0.051492404 0.099527076 0.048197865 -0.00015800018 0.037831485 -0.002769568 0.0017163631 -0.00632906
0.0017165829 0.13778332 -0.0007033044 -0.06808938 0.14472118 -0.053746156 0.02043107 0.00057632604
0.042350184 0.059459843 -0.02231282 0.06018081 0.0045572906 -0.0463873 0.046348915 0.104106404
0.0076458026 0.093665116 -0.00955222 0.04289085 0.036163285 0.14741112 -0.013463336 -0.021074843
0.0643449 0.19607133 0.041236706 -0.082187004 0.21078652 0.054907203 0.07190952 0.04020989
-0.10852705 0.1983254 -0.11666901 0.23680165 0.21542732 0.022499071 -0.15910408 0.17194551
-0.11254683 0.33080986 -0.042902134 0.17196108 0.01486773 -0.1290204 0.11081678 -0.14166525
-0.06655428 -0.14751579 0.062038578 -0.19538942 -0.15733278 -0.12445006 0.015285882 0.07276054
0.06715055 0.009798731 -0.06591329 0.22715665 0.047653615 -0.10283753 -0.11253234 0.05346877
0.04607361 -0.07899899 -0.067464374 -0.0981258 0.018314723 -0.1386936 -0.10951617 0.20466788
-0.1574904 -0.13155974 -0.012217081 0.04491934 -0.11921621 -0.0370442 -0.14854458 0.027121099
0.031505026 -0.12255787 -0.16235347 -0.1559485 0.0013993438 0.119911745 -0.154636 -0.07564722
-0.16336033 0.19329184 -0.042060275 0.021091726 0.18564968 0.052565902 -0.14786835 0.2515034
-0.13563523 0.06396928 0.07188493 -0.19290954 0.17673011 0.04683721 -0.12043679 0.17400473
-0.06264695 -0.06276679 -0.09516536 -0.027649933 0.054449223 -0.14937839 0.03250753 -0.13822372
-0.070586674 -0.06682484 0.09135202 0.056231517 -0.035877924 0.09690904 -0.043832134 0.10656069
-0.12732767 -0.22315677 -0.23650773 0.063619204 0.04588204 -0.16182382 -0.11637316 0.0034080965
0.054727733 0.040659934 -0.054052215 0.02838149 -0.1762987 -0.09692263 -0.14013591 -0.17308207
0.001956724 0.017625934 -0.13407867 0.20603204 -0.067611724 -0.06807475 -0.08684374 -0.11950568
-0.00081278867 -0.20177734 -0.12283103 0.04051002 -0.011996351 -0.20586203 0.082806036 0.07368786

q_out.bias f4 [5]
00000000: ba18 ae3d af87 213d c73f e53d d722 333e
00000010: df81 e43d
0.0850081 0.03943604 0.11193805 0.17493759 0.111575834
