models/Second_Model_TwoAgents11x11/q_ind_agent_0.pt (torch, 108573 bytes, 6 tensors)

fc1.weight f4 [128, 71]
-0.122641 -0.09810747 0.020278322 -0.08778904 -0.05199603 0.03709273 -0.05251535 -0.027222017
-0.047652252 -0.15364197 0.013533197 -0.028895445 0.115741506 -0.06133165 0.050838508 -0.049976725
-0.1446482 0.06868978 -0.01753398 0.13276142 0.08942466 -0.0406047 -0.075629875 -0.13923018
-0.06347537 0.05939341 0.03928946 -0.11774813 0.007880123 -0.041821443 0.035099775 0.048985757
0.09790427 0.081365235 0.028751524 0.040431958 0.053017806 -0.09531707 0.059030477 -0.022120815
0.053863026 0.04560268 -0.038363405 -0.012338622 -0.10975167 -0.11340378 -0.07269537 -0.077744015
0.048889115 0.06939368 -0.049981758 -0.05596286 -0.038707417 0.02767918 0.021322763 0.03139781
-0.08346172 -0.08157125 0.046047077 0.065085076 0.0850769 -0.06709949 0.08840451 -0.071895905
0.06822512 0.05529302 0.03545583 -0.006247865 0.07212824 -0.072141424 0.019526377 0.060558155
-0.06341526 -0.10287155 0.0040039127 -0.06590415 0.1360721 -0.06984236 -0.15385854 0.032686498
0.09521581 0.15836437 -0.029438961 0.082447805 0.06844181 0.033873495 -0.09861728 -0.003326546
-0.042929772 -0.043818716 -0.009734293 0.09800059 -0.11973632 0.008494147 -0.10059374 -0.050609045
-0.04150533 -0.012631086 -0.034437303 0.025893267 0.02838741 0.04248381 -0.042348485 0.033020463
0.015782287 0.17589732 0.06560079 0.069002554 -0.035174735 -0.0008802124 0.14614853 -0.14487603
0.030789515 -0.19943869 0.06357667 0.035355903 0.05164259 -0.045077153 -0.043019235 0.23484538
-0.020046748 0.04079436 -0.08963154 -0.10125469 0.00806126 0.056026634 -0.16804576 0.04212074
0.054264307 0.049611248 0.05471888 -0.0899885 0.034502108 0.12748608 -0.03231879 -0.10589164
-0.11080826 -0.07586837 0.070988394 -0.049381543 0.07125005 -0.088664725 -0.12195073 -0.09488094
0.17244592 0.24948536 -0.39169246 0.07868367 -0.35982358 0.15039895 -0.080189005 0.089763716
-0.15510106 0.1490759 0.15163058 -0.28389317 0.084555395 -0.09896811 0.12371508 0.13758408
-0.01224358 0.00039719278 -0.15969835 0.116171524 -0.012179137 0.10750564 -0.10661982 0.054492828
0.04951818 0.2027323 0.025671672 0.071705215 0.14947385 -0.030995686 0.08786731 0.20804542
-0.38401586 0.084610984 0.13316427 0.11920821 -0.5039121 0.13008992 -0.43307772 0.1255271
0.015243679 -0.011589013 0.002931677 0.0427305 0.09497745 0.06191598 -0.047882333 -0.03298372
-0.2127126 -0.001993624 -0.11682018 -0.1318848 -0.13615909 -0.049346063 0.124087915 -0.059502225
0.15461275 -0.05828989 -0.032413874 0.030232502 0.067265764 0.072267495 0.13150685 0.11603527
-0.040555563 0.04017903 0.051423196 0.14214373 -0.021185054 -0.04737093 -0.20623863 -0.02290737
0.21313757 -0.29580587 -0.11166614 -0.31481722 0.101071 -0.15636034 0.1105905 -0.024957739
-0.11494634 -0.033931393 -0.21394424 0.105012916 -0.06470148 0.09151465 -0.13722402 0.017037885
-0.053562447 -0.029843332 -0.014273005 -0.15221737 0.07468042 -0.061053436 0.07698517 -0.02968271
-0.057607863 0.010892488 0.06035949 -0.10627508 -0.0034621693 0.1334213 0.1545835 -0.26367155
-0.073567696 0.09669335 0.12315118 -0.3404371 -0.058815453 -0.18166085 0.01564257 -0.02167401
00000000: 342b fbbd 92ec c8bd b91e a63c bdca b3bd
00000010: caf9 54bd 8cee 173d 561a 57bd b500 dfbc
00000020: 022f 43bd 5254 1dbe 58ba 5d3c 24b6 ecbc
00000030: e209 ed3d e536 7bbd 0a3c 503d 65b4 4cbd
00000040: a81e 14be 3aad 8c3d 6ca3 8fbc 9cf2 073e
00000050: 4724 b73d 1d51 26bd d6e3 9abd 5b92 0ebe
00000060: 60ff 81bd 8146 733d fced 203d ee25 f1bd
00000070: a21b 013c f64c 2bbd c8c4 0f3d 4aa5 483d
00000080: 0982 c83d d1a2 a63d 5188 eb3c fb9b 253d
00000090: 3329 593d 9935 c3bd f1c9 713d b636 b5bc
000000a0: 7a9f 5c3d e0c9 3a3d f222 1dbd ee27 4abc
000000b0: 7cc5 e0bd 3e40 e8bd 4fe1 94bd 4138 9fbd
000000c0: f43f 483d 461e 8e3d acb9 4cbd 5039 65bd
000000d0: ab8b 1ebd 73bf e23c 13ad ae3c fd9a 003d
000000e0: faed aabd d40e a7bd dc9b 3c3d 534b 853d
000000f0: cc3c ae3d 756b 89bd 6c0d b53d 293e 93bd
00000100: 9db9 8b3d ef7a 623d 223a 113d e4ba ccbb
00000110: f8b7 933d e2be 93bd c8f5 9f3c d40b 783d
00000120: dcdf 81bd 52ae d2bd 4133 833b c1f8 86bd
00000130: 7c56 0b3e 8309 8fbd 188d 1dbe 47e2 053d
00000140: 8200 c33d 452a 223e fa29 f1bc 65da a83d
00000150: 382b 8c3d efbe 0a3d dbf7 c9bd 2e02 5abb
00000160: 21d7 2fbd 417b 33bd 967c 1fbc 89b4 c83d
00000170: 5138 f5bd 092b 0b3c 1704 cebd 6e4b 4fbd
00000180: 7e01 2abd 9df2 4ebc 210e 0dbd 1e1e d43c
00000190: b78c e83c 8103 2e3d 9b75 2dbd 7740 073d
000001a0: db49 813c 6d1e 343e b559 863d 3651 8d3d
000001b0: 6213 10bd 0ebe 66ba f6a7 153e 625a 14be
000001c0: 4b3a fc3c a839 4cbe 7c34 823d 5ad1 103d
000001d0: 2e87 533d d2a2 38bd f034 30bd 4f7b 703e
000001e0: 1439 a4bc fd17 273d be90 b7bd 9e5e cfbd
000001f0: 6013 043c 2f7c 653d 3014 2cbe cc86 2c3d
00000200: 4044 5e3d 2a35 4b3d e820 603d e44b b8bd
00000210: 1552 0d3d b68b 023e b560 04bd b7dd d8bd
00000220: 71ef e2bd e060 9bbd 5d62 913d 4d44 4abd
00000230: 8ceb 913d da95 b5bd 4ec1 f9bd f050 c2bd
00000240: aa95 303e 1779 7f3e ea8b c8be e724 a13d
00000250: cc3a b8be 2f02 1a3e 223a a4bd 0ad6 b73d
00000260: d0d2 1ebe 5aa7 183e 0c45 1b3e 725a 91be
00000270: 612b ad3d cbaf cabd 555e fd3d d7e2 0c3e
00000280: 4c99 48bc 503e d039 f787 23be 56eb ed3d
00000290: 018b 47bc eb2b dc3d 7e5b dabd df33 5f3d
000002a0: 93d3 4a3d 0e99 4f3e 664d d23c 2fda 923d
000002b0: ac0f 193e aaea fdbc c7f3 b33d dc09 553e
000002c0: ba9d c4be 8648 ad3d 375c 083e 6f23 f43d
000002d0: 6200 01bf 4b36 053e 5dbc ddbe 2d8a 003e
000002e0: a0c0 793c d8df 3dbc 6121 403b 2d06 2f3d
000002f0: 8a83 c23d 9c9b 7d3d 4420 44bd f019 07bd
00000300: 55d1 59be 76a7 02bb 6b3f efbd cf0c 07be
00000310: 4a6d 0bbe 191f 4abd ce21 fe3d 9bb8 73bd
00000320: ce52 1e3e 61c1 6ebd 69c4 04bd 27aa f73c
00000330: a2c2 893d fb00 943d bba9 063e e6a3 ed3d
00000340: 971d 26bd c492 243d 21a1 523d 208e 113e
00000350: 478c adbc 0508 42bd 3830 53be 3da8 bbbc
00000360: bc40 5a3e de73 97be 38b1 e4bd b92f a1be
00000370: 50fe ce3d ed1c 20be 467d e23d 2c74 ccbc
00000380: fd68 ebbd a5fb 0abd 3314 5bbe 0311 d73d
00000390: 3682 84bd 086c bb3d 7484 0cbe 0993 8b3c
000003a0: 4c64 5bbd 017a f4bc 52d9 69bc dfde 1bbe
000003b0: 0cf2 983d 2b13 7abd 67aa 9d3d 2829 f3bc
000003c0: 39f6 6bbd 6876 323c 833b 773d c0a6 d9bd
000003d0: 90e5 62bb 989f 083e 234b 1e3e f5ff 86be
000003e0: a9aa 96bd 2a07 c63d b036 fc3d c64d aebe
000003f0: 79e8 70bd 4d05 3abe d924 803c b28d b1bc

fc1.bias f4 [128]
-0.09583965 -0.09084863 -0.04069635 0.003165322 0.030424625 -0.038458373 -0.122128025 0.027241312
-0.020966679 0.035146743 -0.047546156 0.03818491 0.044395234 -0.026641991 -0.112491935 0.11777462
0.08994344 -0.10031874 -0.050253853 0.02002407 0.021649906 -0.023815345 0.01297218 0.038151573
0.022509985 -0.154347 0.053328272 0.07797223 0.09037906 0.0070342743 0.028739545 0.08557965
0.014181846 -0.00087442587 0.123503454 -0.016537596 -0.00814734 -0.16710588 0.028206157 0.04977552
-0.021790594 -0.016770966 0.015159417 -0.053097352 -0.031053906 -0.104466274 -0.083107926 -0.105887674
-0.08426077 -0.10745809 -0.040655877 -0.11450774 -0.118742615 0.028896458 -0.017180547 -0.10216898
0.03202126 -0.016938115 -0.0463424 0.019533182 0.01759975 0.066948526 0.0839079 -0.105387114
-0.112720184 0.11296471 0.024681475 0.057998735 -0.0813776 -0.07062353 -0.0010461471 -0.018353729
0.049537607 0.08046234 0.12482539 -0.11561757 0.04797078 -0.09625055 -0.036333323 -0.09778634
-0.02994103 0.0133832805 0.12806284 -0.007107576 -0.18142669 -0.13559131 -0.0048438967 -0.0072942134
0.09914822 0.052429177 -0.13708276 0.007143136 0.034264065 -0.15665132 -0.09688027 -0.08089603
-0.06527725 0.09737828 0.15570556 0.05867232 -0.16788346 -0.053253695 -0.08519284 -0.009927237
-0.13090545 -0.043447968 -0.12371863 0.063080914 -0.074922495 0.009854189 -0.06877961 -0.109499164
0.10055995 -0.14155695 -0.08064076 -0.028275117 0.06524843 -0.024504185 0.068777926 -0.011604541
0.036967523 -0.084472045 0.05346547 0.023275001 -0.10249281 -0.08845184 -0.021344401 0.1146233
00000000: 9447 c4bd d90e babd 37b1 26bd 4a71 4f3b
00000010: 103d f93c 8786 1dbd 421e fabd 2c29 df3c
00000020: 50c2 abbc 08f6 0f3d c2bf 42bd c867 1c3d
00000030: c7d7 353d 4e40 dabc 2c62 e6bd d233 f13d
00000040: 4434 b83d e973 cdbd fcd6 4dbd 8509 a43c
00000050: 255b b13c 6618 c3bc 4489 543c d344 1c3d
00000060: dc66 b83c 240d 1ebe bf6e 5a3d e8af 9f3d
00000070: a818 b93d c57f e63b 326f eb3c 6244 af3d
00000080: f95a 683c ba39 65ba 61ef fc3d da79 87bc
00000090: 6c7c 05bc ce1d 2bbe 9910 e73c 6ae1 4b3d
000000a0: 3082 b2bc 4463 89bc 345f 783c 9c7c 59bd
000000b0: c364 febc 6af2 d5bd 7d34 aabd a3db d8bd
000000c0: e990 acbd fd12 dcbd c786 26bd 0983 eabd
000000d0: 542f f3bd 44b8 ec3c 38be 8cbc f83d d1bd
000000e0: ba28 033d cdc1 8abc 87d1 3dbd 0d04 a03c
000000f0: 5a2d 903c 4f1c 893d e8d7 ab3d 33d5 d7bd
00000100: d7d9 e6bd 0b5a e73d ce30 ca3c 1590 6d3d
00000110: 4da9 a6bd 12a3 90bd df1e 89ba 8f5a 96bc
00000120: f2e7 4a3d 70c9 a43d 74a4 ff3d e8c8 ecbd
00000130: 027d 443d 021f c5bd 40d2 14bd 3444 c8bd
00000140: e446 f5bc 8c45 5b3c e822 033e abe6 e8bb
00000150: ebc7 39be 73d8 0abe 8db9 9ebb 4c04 efbb
00000160: 390e cb3d fabf 563d 6c5f 0cbe f810 ea3b
00000170: 7a58 0c3d 3469 20be 2a69 c6bd d1ac a5bd
00000180: 14b0 85bd 436e c73d 4771 1f3e 6352 703d
00000190: a4e9 2bbe 8c20 5abd 9579 aebd daa5 22bc
000001a0: 140c 06be 7ff6 31bd 3160 fdbd 9130 813d
000001b0: f770 99bd 7773 213c 53dc 8cbd 1941 e0bd
000001c0: 60f2 cd3d 4ef4 10be fc26 a5bd 38a1 e7bc
000001d0: f8a0 853d 00bd c8bc 71db 8c3d f920 3ebc
000001e0: 426b 173d aeff acbd 9cfe 5a3d 37ab be3c
000001f0: c0e7 d1bd 3d26 b5bd 74da aebc 9fbf ea3d

fc2.weight f4 [128, 128]
-0.040430892 -0.077917516 0.09800833 0.08102927 0.06678947 -0.014143143 -0.10364095 -0.029670464
0.033594918 0.10287185 -0.09425522 0.18019387 -0.10318879 0.15414298 0.08288673 -0.02933001
0.077349186 0.026114218 -0.06424779 0.008637713 0.067502245 -0.034514844 -0.01206078 0.081845894
0.041749857 -0.01112252 0.083762154 0.08470209 0.019067815 0.20768781 0.088192336 -0.08627125
-0.03655806 0.017239023 -0.032364223 -0.036439635 0.033774715 -0.09053259 0.019803494 -0.14385277
-0.11563321 0.09691406 0.022464387 -0.10531451 0.07796031 -0.07397214 -0.03600471 -0.006339449
0.02705151 0.057718676 -0.08732915 -0.013598453 -0.030916927 0.08699855 0.08385031 0.1487882
-0.10814688 0.06461078 0.015403897 0.06353112 -0.13715252 -0.0029034056 -0.01274302 -0.05727559
-0.064586625 0.15158136 -0.09678907 -0.14409196 0.09230671 -0.06669363 0.07493853 -0.067813076
-0.05434627 0.033047937 0.28416398 0.09555671 -0.048906002 -0.07346367 0.0013973763 0.06917863
0.04015146 0.0542854 0.029431598 0.050732516 0.047134895 -0.07543052 0.044870544 0.0423522
0.028424423 0.1965013 0.11771078 0.017431939 0.12238735 -0.0899055 -0.1419563 0.07187128
-0.061623745 -0.06411471 -0.018373312 0.053887248 -0.07309729 -0.17982106 0.0262814 0.1503711
0.141872 0.0042863693 -0.039816234 0.031157 -0.09860514 0.07672051 0.02476259 -0.053470105
0.1977337 0.18013953 0.0829298 -0.044980552 0.1287575 0.14791334 0.023323616 -0.02105889
0.051150758 -0.013574706 -0.05441944 -0.02937471 0.02937013 -0.039075434 0.08847773 0.067131795
-0.07047994 0.03410598 0.003367275 -0.16550212 0.007792734 0.117589094 -0.1161628 -0.032543957
0.19791539 -0.027828427 0.1318474 0.20262328 -0.13136964 0.058419675 0.0371062 -0.052186728
0.052599687 0.11972416 -0.02798695 -0.024426265 -0.013978196 -0.15048526 0.00033105884 -0.023640795
-0.066386685 -0.021272276 -0.11259439 0.00043523678 -0.061653532 -0.055792972 -0.028871058 0.11976452
-0.14297734 0.20747672 0.012455633 0.0836267 -0.163284 0.14803745 0.09287599 0.15081815
-0.08018669 -0.0008940454 0.11286138 -0.103157155 -0.05263198 0.091159426 -0.08325688 -0.048428252
-0.080095984 -0.006343069 -0.17849873 0.003174942 0.046624836 0.118116274 -0.2065059 0.2435663
0.043753132 -0.055672716 -0.11547625 0.06250463 0.14216 -0.0471049 0.22468862 -0.0842299
-0.08262661 0.16632032 0.03468985 0.11457978 -0.016686283 -0.0068918844 -0.05519874 0.06931476
-0.07151486 0.119133 0.14261997 0.05614558 -0.2933552 -0.082878254 -0.07118808 0.15969235
-0.19759734 -0.035873644 0.19069804 -0.009531601 0.07158349 -0.06285589 0.035522256 -0.00792116
-0.026003014 0.14488937 -0.007648253 -0.12155144 0.11462257 0.04880564 0.097131245 -0.06549487
-0.02810959 0.032875992 0.036440857 0.13410482 -0.059972182 0.27546203 -0.05552126 0.22711048
-0.010022 -0.14093448 -0.051578365 -0.27715105 -0.12773517 0.025684474 -0.0050161597 -0.03347623
0.020957125 0.045473 0.036322452 -0.06812453 -0.09856986 0.22940983 -0.10602668 0.09639121
-0.058865827 0.07220778 0.15419346 0.10984876 -0.07278697 -0.052094027 -0.043995976 0.07484538
00000000: dd9a 25bd 3893 9fbd 97b8 c83d adf2 a53d
00000010: ebc8 883d a4b8 67bc b541 d4bd 790f f3bc
00000020: d39a 093d 7aae d23d e108 c1bd be84 383e
00000030: a554 d3bd a8d7 1d3e 85c0 a93d 7d45 f0bc
00000040: 4069 9e3d 7ced d53c 5894 83bd 3285 0d3c
00000050: 9e3e 8a3d 705f 0dbd 949a 45bc d29e a73d
00000060: e601 2b3d 3b3b 36bc 7e8b ab3d 4a78 ad3d
00000070: 1b34 9c3c 1dac 543e 2f9e b43d fbae b0bd
00000080: e8bd 15bd da38 8d3c 5990 04bd ba41 15bd
00000090: 5b57 0a3d 2769 b9bd f03a a23c 244e 13be
000000a0: 1bd1 ecbd e17a c63d 3c07 b83c 22af d7bd
000000b0: a8a9 9f3d b57e 97bd ad79 13bd 27bb cfbb
000000c0: 219b dd3c 6b6a 6c3d a0d9 b2bd 0ccc 5ebc
000000d0: 7f45 fdbc 4c2c b23d b6b9 ab3d ef5b 183e
000000e0: 1d7c ddbd a852 843d a060 7c3c 9b1c 823d
000000f0: b671 0cbe 1047 3ebb 1ac8 50bc cf99 6abd
00000100: fe45 84bd 2538 1b3e 5939 c6bd d88c 13be
00000110: 4d0b bd3d ab96 88bd 5f79 993d 95e1 8abd
00000120: 329a 5ebd 465d 073d f17d 913e 3db3 c33d
00000130: a951 48bd 1f74 96bd 2b28 b73a 87ad 8d3d
00000140: db75 243d 5e5a 5e3d 891a f13c e6cc 4f3d
00000150: 8510 413d 517b 9abd 2dca 373d 8079 2d3d
00000160: 56da e83c a337 493e 5912 f13d 6dcd 8e3c
00000170: 38a6 fa3d 6020 b8bd fe5c 11be 4031 933d
00000180: 2e69 7cbd 934e 83bd a183 96bc e0b8 5c3d
00000190: 08b4 95bd 0323 38be 174c d73c e2fa 193e
000001a0: e546 113e ac74 8c3b 5916 23bd f73c ff3c
000001b0: 7ef1 c9bd a51f 9d3d eada ca3c 7803 5bbd
000001c0: b47a 4a3e 7f76 383e 19d7 a93d 873d 38bd
000001d0: 02d9 033e 9876 173e 2b11 bf3c b183 acbc
000001e0: 7583 513d 7268 5ebc ebe6 5ebd 3ba3 f0bc
000001f0: a099 f03c 900d 20bd d033 b53d 657c 893d
00000200: c957 90bd b6b2 0b3d 80ad 5c3b 6379 29be
00000210: 315a ff3b 8dd2 f03d c3e6 edbd d04c 05bd
00000220: 55aa 4a3e 71f8 e3bc 0103 073e 7a7c 4f3e
00000230: c385 06be 7849 6f3d acfc 173d c0c1 55bd
00000240: c572 573d f131 f53d e344 e5bc 9719 c8bc
00000250: ce04 65bc cf18 1abe f791 ad39 57aa c1bc
00000260: bef5 87bd 3243 aebc e397 e6bd 7e30 e439
00000270: 6a88 7cbd 2c87 64bd ff82 ecbc 1a47 f53d
00000280: a768 12be c774 543e b612 4c3c 7a44 ab3d
00000290: ec33 27be 2197 173e c435 be3d 1370 1a3e
000002a0: eb38 a4bd 5f5e 6aba de23 e73d 0f44 d3bd
000002b0: a294 57bd cbb1 ba3d 9582 aabd b45c 46bd
000002c0: 5d09 a4bd 85d9 cfbb 5fc8 36be b012 503b
000002d0: aff9 3e3d f2e6 f13d 4876 53be 7269 793e
000002e0: 7c36 333d 1309 64bd d07e ecbd 6d02 803d
000002f0: 6492 113e 11f1 40bd c614 663e ba80 acbd
00000300: 2438 a9bd e04f 2a3e f216 0e3d cea8 ea3d
00000310: acb1 88bc 51d5 e1bb 1318 62bd e6f4 8d3d
00000320: 6276 92bd 01fc f33d f80a 123e e8f8 653d
00000330: a732 96be 13bc a9bd 0ecb 91bd 6486 233e
00000340: f556 4abe 3ef0 12bd 5946 433e 6f2a 1cbc
00000350: 5d9a 923d 97ba 80bd c97f 113d c1c7 01bc
00000360: 4604 d5bc e15d 143e 329e fabb f6ef f8bd
00000370: 3dbf ea3d 6ce8 473d bfec c63d 2d22 86bd
00000380: 1546 e6bc faa8 063d 0243 153d c652 093e
00000390: 64a5 75bd 5c09 8d3e 436a 63bd a68f 683e
000003a0: 5133 24bc 2151 10be d643 53bd bee6 8dbe
000003b0: 02cd 02be 3f68 d23c 995e a4bb 5f1e 09bd
000003c0: 47ae ab3c e541 3a3d dac6 143d e084 8bbd
000003d0: ffde c9bd 69ea 6a3e 8424 d9bd c168 c53d
000003e0: 4b1d 71bd ace1 933d e4e4 1d3e 63f8 e03d
000003f0: 5611 95bd 8c60 55bd 2035 34bd 8948 993d

fc2.bias f4 [128]
0.17887303 -0.00426364 0.06904759 0.033604164 0.044095438 0.02296584 -0.050572347 0.010643805
-0.07736217 0.089652434 0.010769812 0.07123463 -0.07060503 0.003489578 0.017057538 -0.062255815
0.10215444 -0.027702557 -0.09432413 -0.07152298 0.010645833 -0.027392691 0.034101725 -0.008331853
-0.036494154 0.01167327 -0.12455262 0.040471908 0.089627236 -0.07000115 -0.05201253 0.04539736
0.031301446 0.017257417 0.007572876 -0.0409286 -0.049392436 0.025749993 -0.07951566 -0.0009863888
0.027321389 0.11788106 0.16542493 -0.023566432 0.058014613 -0.06215053 -0.04884044 0.043568946
0.0073546926 0.09816971 -0.068808556 0.031661116 -0.09855803 -0.024993071 -0.050909787 -0.035190392
-0.06946994 -0.07690385 0.037131947 -0.026971277 0.15224516 -0.069643825 0.0065832916 -0.10097821
-0.0018184928 0.018491918 0.013372761 0.0067086834 0.02229954 0.10440998 -0.023649497 0.15626803
-0.07449215 -0.007563729 0.03756685 0.03661584 0.011484624 0.064891025 0.01153086 0.06137052
-0.09785978 0.019436466 0.16810182 -0.11853822 0.025737591 -0.043654144 -0.060930017 -0.048196763
-0.12002456 -0.04038262 0.051354818 -0.05518488 -0.011827738 0.043393485 -0.11257231 0.0151931485
-0.07046071 0.10017527 -0.043452274 -0.027969768 -0.08528448 -0.10473982 0.16663972 -0.023901498
0.009600566 -0.005748473 -0.010998789 0.20485128 -0.06684669 -0.096602514 -0.0020654907 0.04340604
0.031921666 0.05220216 0.0088443 0.016506186 0.013986593 -0.02194938 -0.13102934 0.13120747
0.046147186 -0.10875136 -0.024252504 -0.09020343 0.0829365 0.027122218 -0.12189879 -0.12477152
00000000: 7e2a 373e 01b6 8bbb d368 8d3d 85a4 093d
00000010: 6b9d 343d db22 bc3c f324 4fbd 5b63 2e3c
00000020: 0f70 9ebd b29b b73d de73 303c 76e3 913d
00000030: 5f99 90bd 67b1 643b 40bc 8b3c f4ff 7ebd
00000040: 5936 d13d 79f0 e2bc 022d c1bd a47a 92bd
00000050: dc6b 2e3c a366 e0bc 40ae 0b3d 5382 08bc
00000060: e57a 15bd 3e41 3f3c 7215 ffbd dfc5 253d
00000070: 7c8e b73d c35c 8fbd 170b 55bd 95f2 393d
00000080: f235 003d 6d5f 8d3c e325 f83b bfa4 27bd
00000090: b94f 4abd a6f1 d23c 1bd9 a2bd b749 81ba
000000a0: 1bd1 df3c a06b f13d 2765 293e 640e c1bc
000000b0: bba0 6d3d 8e91 7ebd ea0c 48bd 5a75 323d
000000c0: a2ff f03b 330d c93d 80eb 8cbd 16af 013d
000000d0: cbd8 c9bd 45be ccbc c886 50bd cd23 10bd
000000e0: 4246 8ebd c47f 9dbd ab17 183d def2 dcbc
000000f0: 28e6 1b3e 6ca1 8ebd a7b8 d73b aacd cebd
00000100: 7e5a eeba 5d7c 973c 6d19 5b3c 84d4 db3b
00000110: 86ad b63c e6d4 d53d 97bc c1bc ba04 203e
00000120: 578f 98bd 28d9 f7bb b3df 193d 7efa 153d
00000130: 012a 3c3c 96e5 843d efeb 3c3c a85f 7b3d
00000140: b56a c8bd 3939 9f3c e222 2c3e 2bc4 f2bd
00000150: a4d7 d23c b0ce 32bd c191 79bd f869 45bd
00000160: 70cf f5bd 3f68 25bd 6e59 523d 8a09 62bd
00000170: 21c9 41bc 5ebd 313d 508c e6bd afec 783c
00000180: b44d 90bd b128 cd3d 03fb 31bd db20 e5bc
00000190: a1a9 aebd d581 d6bd 9aa3 2a3e 13cd c3bc
000001a0: b14b 1d3c b05d bcbb 4434 34bc 89c4 513e
000001b0: ebe6 88bd 8ad7 c5bd 2f5d 07bb 88ca 313d
000001c0: 4bc0 023d efd1 553d afe7 103c fb37 873c
000001d0: 0628 653c 30cf b3bc 8e2c 06be 405b 063e
000001e0: d504 3d3d 08b9 debd 30ad c6bc 93bc b8bd
000001f0: 9dda a93d 6a2f de3c 13a6 f9bd 3688 ffbd

q_out.weight f4 [5, 128]
0.21634883 0.17064886 0.049223233 -0.073215984 0.028693117 0.1361061 -0.039290655 -0.0028209516
0.040949397 0.10967004 -0.04261689 0.086192794 -0.05220818 -0.19241422 -0.09866146 -0.032579094
-0.26673767 -0.025463216 0.02138545 0.03018558 -0.022238495 -0.023432812 0.0028635475 0.08237682
-0.13187075 0.07342331 -0.08136861 -0.033392403 0.0004702991 -0.072345145 -0.04741502 -0.019036457
0.060051553 -0.10340868 0.13151628 -0.021068506 -0.019290727 0.05675872 0.023732677 0.060912263
0.0076947054 0.1783879 0.00028350065 -0.048340708 0.005796256 0.12026836 0.00092665496 0.07336072
0.009477975 0.0864612 0.05464367 -0.0658662 -0.0496826 -0.008813348 -0.0045991377 0.10800603
0.045386825 0.06862593 -0.049387433 -0.0068382267 0.047556177 -0.05807838 0.11409583 -0.06354324
-0.04222558 -0.049822383 0.0053287554 -0.048503667 -0.017899847 0.10077856 -0.01006034 0.20640162
-0.030962901 0.048094723 0.009005333 0.08043268 0.017688693 -0.031397738 0.056895044 0.0075966385
0.07201842 0.082699366 0.16733336 -0.037668828 -0.05866103 -0.06184438 0.017278302 -0.009122099
0.028973486 -0.058620725 -0.08517531 0.11532659 0.06632958 -0.104468055 -0.053979512 -0.06622917
-0.07285203 0.22219288 0.044210978 0.0882679 0.08759855 0.13512422 0.10763788 0.041281283
0.036025476 0.0063186605 -0.056531712 0.20918088 -0.03588398 0.029594667 -0.039675843 0.120700575
-0.07701404 0.023728691 0.021470554 0.052524447 -0.021670938 0.122574516 0.20602362 0.15664388
0.15449452 0.075149186 0.019663928 0.08778994 0.110591054 0.049540877 0.034925047 -0.021833278
0.14951183 0.03896907 0.06681949 -0.3652061 0.054825626 -0.14076778 0.07463034 -0.0065429686
0.03839644 0.11895926 0.02141921 0.01797595 -0.023387803 -0.3538043 -0.08252766 -0.0027287833
-0.25080737 -0.09060485 -0.1700528 0.0070343665 -0.0042056744 0.06971661 -0.10985508 -0.15232842
0.009404007 0.008890489 -0.17825122 -0.078002304 0.21835504 -0.12948579 -0.013681414 -0.1607506
-0.1896647 -0.09401952 0.14873199 -0.13758762 -0.14799628 0.021193411 -0.13278957 -0.17160049
0.0136912 0.11637452 0.18035498 -0.08271993 -0.17397672 -0.17045714 -0.14901319 0.016115608
-0.032936007 0.13442263 -0.16537625 -0.12195718 -0.091218665 -0.10545824 0.087497436 -0.12604147
0.0043816613 0.03273993 0.0125614805 -0.06959613 0.1611587 -0.11283596 -0.1579384 -0.14382587
0.027913868 0.020734366 -0.11790788 -0.18869822 0.0044325446 0.09565044 -0.12819412 0.20874637
-0.070600055 -0.006748715 0.03173127 0.03047932 -0.25435793 -0.145408 0.07423044 -0.09177635
-0.13519846 -0.17253414 0.099878736 0.0039028968 0.1041534 -0.09290424 0.038873073 -0.06590346
-0.008776245 -0.16588816 0.08557878 -0.10752401 0.012328512 0.054357138 -0.012004154 -0.11099195
0.04166502 0.06484743 -0.01506106 -0.20226055 -0.09982853 -0.20901267 0.23480965 -0.2157096
-0.1855835 0.039241713 0.068517655 0.24551088 -0.111436024 -0.15220572 0.0103290705 0.034274377
-0.12644786 -0.00014787006 -0.13271965 -0.13974644 -0.13990784 -0.18850805 -0.17302103 0.06840791
0.07100909 -0.2554897 -0.28156224 -0.14249592 0.118134886 -0.09002295 -0.11354638 0.045733307
00000000: 8c8a 5d3e 93be 2e3e 4d9e 493d 43f2 95bd
00000010: d40d eb3c 665f 0b3e 3def 20bd b7df 38bb
00000020: 8eba 273d b09a e03d 0c8f 2ebd d985 b03d
00000030: 3fd8 55bd 3c08 45be 050f cabd a871 05bd
00000040: d791 88be 3c98 d0bc 8a30 af3c c047 f73c
00000050: 812d b6bc 2bf6 bfbc 5baa 3b3b 2eb5 a83d
00000060: 2009 07be f65e 963d 96a4 a6bd 79c6 08bd
00000070: 7a92 f639 b129 94bd 4136 42bd 58f2 9bbc
00000080: 9ef8 753d eec7 d3bd 34ac 063e dc97 acbc
00000090: 9607 9ebc d57b 683d 086b c23c 237f 793d
000000a0: de23 fc3b 51ab 363e d0a2 9439 e800 46bd
000000b0: 85ee bd3b 424f f63d c3ea 723a 253e 963d
000000c0: 8249 1b3c 9212 b13d 0ad2 5f3d dce4 86bd
000000d0: fb7f 4bbd dc65 10bc 5db4 96bb 4432 dd3d
000000e0: 89e7 393d c08b 8c3d 7a4a 4abd 3413 e0bb
000000f0: 44ca 423d 98e3 6dbd 13ab e93d f522 82bd
00000100: bbf4 2cbd 8e12 4cbd d79c ae3b c8ab 46bd
00000110: b3a2 92bc fd64 ce3d 20d4 24bc f25a 533e
00000120: e9a5 fdbc f9fe 443d 1b8b 133c e4b9 a43d
00000130: e1e7 903c ea9a 00bd c70a 693d 39ed f83b
00000140: 657e 933d 495e a93d 7059 2b3e a14a 1abd
00000150: 8c46 70bd 8850 7dbd 3a8b 8d3c db74 15bc
00000160: ce59 ed3c 491c 70bd 6570 aebd 5930 ec3d
00000170: ced7 873d 59f3 d5bd 9f19 5dbd 29a3 87bd
00000180: 7233 95bd 8886 633e 9216 353d cdc5 b43d
00000190: de66 b33d 015e 0a3e 4071 dc3d 9016 293d
000001a0: 738f 133d c40c cf3b cc8d 67bd 8333 563e
000001b0: 15fb 12bd 8470 f23c 2383 22bd dd31 f73d
000001c0: 89b9 9dbd ac62 c23c 04e3 af3c e023 573d
000001d0: 4087 b1bc 5908 fb3d dbf7 523e 4167 203e
000001e0: d033 1e3e d1e7 993d 3f16 a13c 36cb b33d
000001f0: 907d e23d 60eb 4a3d 910d 0f3d b4db b2bc
00000200: a119 193e 089e 1f3d a8d8 883d 4bfc babe
00000210: d690 603d 6e25 10be cbd7 983d 6666 d6bb
00000220: 9645 1d3d eaa0 f33d 5777 af3c 4d42 933c
00000230: c797 bfbc d625 b5be 4304 a9bd 63d5 32bb
00000240: d369 80be 098f b9bd 5222 2ebe 8b80 e63b
00000250: c1cf 89bb 95c7 8e3d b3fb e0bd fbfb 1bbe
00000260: 4413 1a3c 6aa9 113c 7d87 36be acbf 9fbd
00000270: 7798 5f3e ec97 04be 0228 60bc ce9b 24be
00000280: 7737 42be 4e8d c0bd 334d 183e c5e3 0cbe
00000290: 568c 17be ce9d ad3c fdf9 07be 0ab8 2fbe
000002a0: 0e51 603c c455 ee3d faae 383e 1169 a9bd
000002b0: f426 32be 518c 2ebe ea96 18be e104 843c
000002c0: e8e7 06bd 16a6 093e 6458 29be b0c4 f9bd
000002d0: dad0 babd 7dfa d7bd db31 b33d 0411 01be
000002e0: 0a94 8f3b 4e1a 063d abce 4d3c 6a88 8ebd
000002f0: c906 253e 8a16 e7bd 9bba 21be 1747 13be
00000300: a0ab e43c 1edb a93c b079 f1bd 1b3a 41be
00000310: e13e 913b 61e4 c33d 5245 03be 9cc1 553e
00000320: c396 90bd 5324 ddbb a6f8 013d c4af f93c
00000330: 343b 82be d6e5 14be 2106 983d 3df5 bbbd
00000340: 7771 0abe caac 30be 398d cc3d bec7 7f3b
00000350: 614e d53d 9444 bebd 5f39 1f3d 65f8 86bd
00000360: 3dca 0fbc 96de 29be ed43 af3d 8c35 dcbd
00000370: 87fd 493c 97a5 5e3d 12ad 44bc bf4f e3bd
00000380: f1a8 2a3d bbce 843d aac2 76bc 641d 4fbe
00000390: e672 ccbd 6b07 56be f171 703e fae2 5cbe
000003a0: 9a09 3ebe ebbb 203d fc52 8c3d 3467 7b3e
000003b0: 9238 e4bd d1db 1bbe 433b 293c 4a63 0c3d
000003c0: 8c7b 01be 910d 1bb9 a9e7 07be b119 0fbe
000003d0: 0044 0fbe 4108 41be 6d2c 31be 7219 8c3d
000003e0: 376d 913d 8ccf 82be ed28 90be 73ea 11be
000003f0: b4f0 f13d f45d b8bd 018b e8bd d952 3b3d

q_out.bias f4 [5]
0.005127851 0.09030036 0.054384105 0.050924703 0.018442214
00000000: 8807 a83b 65ef b83d dec1 5e3d 6c96 503d
00000010: 2014 973c
