models/Second_Model_TwoAgents11x11/q_te_agent_1.pt (torch, 108561 bytes, 6 tensors)

fc1.weight f4 [128, 71]
0.008901419 -0.009969656 -0.096223675 -0.08885111 0.09766072 0.08586561 0.07651268 0.06453337
-0.14418954 -0.008021106 0.12965013 0.10112066 0.060120247 -0.082984194 -0.18807282 0.03837678
0.054179523 0.05334788 -0.033329763 0.021732759 -0.059706207 -0.12963904 -0.010659308 -0.15429199
-0.009166377 0.026177432 -0.05892471 -0.09237552 0.021205729 0.023953907 -0.13078704 0.063960336
0.19592582 0.007115238 -0.098095864 0.0018452645 0.04781048 -0.16322973 0.06440401 -0.11211053
-0.041606545 0.02761199 0.02010081 -0.06613594 0.00680907 0.067784786 0.11881932 0.15495035
-0.08778835 0.03259386 -0.032603104 0.03900189 0.0533361 0.007406635 0.06994896 -0.119712494
-0.026606753 0.066021025 0.04771102 -0.024741782 0.27204725 0.09973131 -0.15624072 0.1097804
0.103747234 0.043342818 0.076632485 -0.0019296933 0.16746914 -0.18141174 -0.09796497 0.008526103
-0.21194707 -0.42659622 -0.02810029 -0.33915153 0.23555215 -0.07423224 -0.031481393 -0.24815622
-0.024105903 -0.07262362 -0.048623543 0.08116385 -0.21774186 -0.06341316 -0.07255139 -0.035066854
0.061805405 -0.09527563 -0.12123642 -0.18055439 0.002729388 -0.14031035 0.11180003 -0.023837516
0.049555264 0.020322815 -0.23949897 -0.03659805 -0.09439367 -0.012990197 0.025110103 -0.09912106
0.039991252 -0.1335691 -0.1947112 -0.05667475 -0.1472191 -0.20998187 0.26189193 -0.08227335
-0.16801088 -0.12995167 -0.09472363 0.12258282 0.010880414 -0.09656587 -0.011980495 -0.076753475
0.17194828 0.0736658 -0.101402014 -0.070003405 -0.12077979 0.16963816 -0.10831347 -0.12762259
0.1463462 -0.056864403 0.035246864 -0.14570798 0.0014355076 -0.113490276 -0.013394585 -0.11905714
-0.06695368 -0.0075852335 -0.20634237 0.011108309 0.16626987 -0.10762396 -0.0036146461 -0.039216824
0.16703562 -0.080217294 0.09195621 0.04151671 -0.09267011 0.12044557 -0.039606754 -0.117551275
0.02554879 0.08004084 0.009425484 -0.1578093 0.012337267 0.104952104 0.08659436 0.054654825
0.028069215 0.1731766 -0.033058837 0.055602677 0.080617875 -0.04708774 -0.0061388365 -0.055294063
-0.04338872 -0.15987293 -0.10490172 0.18683626 -0.03829519 -0.02922731 0.1276727 -0.0069142543
-0.1305531 0.04196589 -0.05750456 -0.02612595 0.10527407 -0.07962865 -0.024323422 -0.0022859653
-0.08741561 0.19995642 0.041718848 0.16915886 0.027937235 0.11187543 -0.007630322 0.048650805
0.028460275 0.069364496 0.06549298 -0.04104381 0.027504383 -0.12300922 0.076507665 -0.0934551
-0.100348964 0.16201754 0.016595185 0.008286484 -0.10282666 -0.0051199594 0.008396607 0.11090233
0.08372287 -0.051550433 0.03229283 -0.072256714 0.09013027 0.010799389 -0.17162669 -0.05134763
-0.016865065 -0.14857014 -0.22951812 0.12620032 -0.12549785 -0.03670861 -0.04706771 0.11665585
0.049456887 -0.02977173 -0.0005285097 -0.051503737 -0.10034961 -0.13064042 -0.036231283 0.0826997
0.08568609 -0.041466612 -0.055474557 -0.0037484048 0.046515126 0.03535135 0.07839798 -0.019510362
-0.05426549 -0.104723826 0.019782387 -0.08289234 0.06996917 0.17789952 0.05765631 0.006768443
-0.07235358 0.017202986 0.010718409 -0.09498836 -0.030150177 -0.028853364 -0.12460329 0.10077733
00000000: 42d7 113c c557 23bc eb10 c5bd 92f7 b5bd
00000010: 5802 c83d 4fda af3d aeb2 9c3d 122a 843d
00000020: 6ca6 13be f56a 03bc 01c3 043e 5918 cf3d
00000030: a640 763d 9ef3 a9bd 2996 40be f830 1d3d
00000040: 59eb 5d3d 4e83 5a3d ca84 08bd e608 b23c
00000050: 7f8e 74bd 19c0 04be 61a4 2ebc b8fe 1dbe
00000060: 922e 16bc 0e72 d63c 095b 71bd 602f bdbd
00000070: a3b7 ad3c fc3a c43c 0aed 05be a3fd 823d
00000080: c7a0 483e f126 e93b 7ce6 c8bd cddc f13a
00000090: ecd4 433d b225 27be 40e6 833d 359a e5bd
000000a0: a06b 2abd 8a32 e23c 74aa a43c 4872 87bd
000000b0: 9e1e df3b c0d2 8a3d 8b57 f33d 4eab 1e3e
000000c0: 61ca b3bd 2481 053d d58a 05bd 72c0 1f3d
000000d0: f476 5a3d 5cb3 f23b 6641 8f3d d32b f5bd
000000e0: 68f6 d9bc 0836 873d a16c 433d 47af cabc
000000f0: c749 8b3e ee3f cc3d 91fd 1fbe 8cd4 e03d
00000100: 6e79 d43d 3d88 313d 7ef1 9c3d c3ed fcba
00000110: 087d 2b3e 00c4 39be dca1 c8bd 11b1 0b3c
00000120: a708 59be d26a dabe 9432 e6bc 45a5 adbe
00000130: 9534 713e 1307 98bd a2f2 00bd aa1c 7ebe
00000140: be79 c5bc b1bb 94bd 7b29 47bd 3c39 a63d
00000150: b9f7 5ebe c2de 81bd d395 94bd 43a2 0fbd
00000160: aa27 7d3d df1f c3bd cd4a f8bd 40e3 38be
00000170: 88df 323b 84ad 0fbe 6af7 e43d e546 c3bc
00000180: 76fa 4a3d 087c a63c 383f 75be d6e7 15bd
00000190: 7851 c1bd d6d4 54bc b4b3 cd3c fbff cabd
000001a0: decd 233d 57c6 08be 5f62 47be c823 68bd
000001b0: 9bc0 16be 7d05 57be b316 863e ee7e a8bd
000001c0: 0b0b 2cbe 0d12 05be 76fe c1bd b40c fb3d
000001d0: c443 323c 54c4 c5bd d749 44bc ed30 9dbd
000001e0: 3613 303e 18de 963d dcab cfbd f25d 8fbd
000001f0: 655b f7bd a0b5 2d3e 74d3 ddbd 7faf 02be
00000200: c7db 153e a6ea 68bd 045f 103d 7934 15be
00000210: a427 bc3a 976d e8bd f674 5bbc 3bd4 f3bd
00000220: 031f 89bd 8d8d f8bb 6a4b 53be a0ff 353c
00000230: a642 2a3e f369 dcbd b3e3 6cbb d2a1 20bd
00000240: 630b 2b3e f748 a4bd 8a53 bc3d 6d0d 2a3d
00000250: d4c9 bdbd 2bac f63d b13a 22bd b9be f0bd
00000260: b24b d13c 74ec a33d 586d 1a3c c398 21be
00000270: 4022 4a3c 21f1 d63d 6258 b13d bddd 5f3d
00000280: 69f1 e53c 3555 313e b468 07bd a2bf 633d
00000290: fc1a a53d 13df 40bd 4b28 c9bb 077c 62bd
000002a0: 5fb8 31bd bbb5 23be b7d6 d6bd 0152 3f3e
000002b0: 6bdb 1cbd 1d6e efbc a2bc 023e f890 e2bb
000002c0: b6af 05be 6de4 2b3d e789 6bbd 1706 d6bc
000002d0: ee99 d73d 5814 a3bd ea41 c7bc 22d0 15bb
000002e0: f506 b3bd 60c1 4c3e 62e1 2a3d fb37 2d3e
000002f0: a1dc e43c f21e e53d c807 fabb 1146 473d
00000300: 8625 e93c f90e 8e3d 2f21 863d 8e1d 28bd
00000310: df50 e13c 42ec fbbd 0db0 9c3d 6365 bfbd
00000320: c283 cdbd ede7 253e a0f2 873c 08c4 073c
00000330: c996 d2bd 55c5 a7bb ec91 093c c320 e33d
00000340: e576 ab3d 8c26 53bd 7d45 043d 54fb 93bd
00000350: 3896 b83d ecef 303c e8be 2fbe e451 52bd
00000360: 9b28 8abc c522 18be cc06 6bbe a83a 013e
00000370: 8282 00be c45b 16bd 12ca 40bd 43e9 ee3d
00000380: 4e93 4a3d d8e3 f3bc b08b 0aba 95f5 52bd
00000390: 1984 cdbd 9ac6 05be 4167 14bd 765e a93d
000003a0: 307c af3d e5d8 29bd 4a39 63bd cca7 75bb
000003b0: a586 3e3d 94cc 103d 1f8f a03d 32d4 9fbc
000003c0: 7e45 5ebd 7279 d6bd ac0e a23c 76c3 a9bd
000003d0: ff4b 8f3d 4b2b 363e 0629 6c3d d1c9 dd3b
000003e0: 1d2e 94bd 47ed 8c3c 449c 2f3c 4289 c2bd
000003f0: 81fd f6bc e45d ecbc 0230 ffbd 5864 ce3d

fc1.bias f4 [128]
-0.058258057 -0.06352352 0.11224418 -0.070282854 0.0745217 0.13378203 0.03974372 0.16775143
0.05639209 -0.02119576 0.023894899 0.07352365 -0.030162783 -0.06825119 0.04430414 0.050862502
-0.044389114 -0.05627163 -0.03739789 -0.083152 -0.028226715 -0.057165634 -0.020590808 -0.037947495
0.009099972 -0.08017015 -0.03569196 0.05149403 0.036335066 0.03749053 -0.118874595 0.09508854
-0.0014061067 0.0073703364 -0.06569319 -0.06647196 0.06629084 -0.023664488 0.043932583 -0.04818378
-0.025804216 0.057676848 -0.062206272 0.021789279 0.03487367 -0.054735567 0.11685184 -0.03305516
0.013586093 0.016983123 -0.0040805293 0.10489548 0.021065999 0.09053093 -0.031253118 -0.022119766
0.037145603 -0.017804844 -0.04439187 -0.095872805 -0.038206305 0.17897849 0.011271252 -0.022687407
0.05568822 0.07744363 0.060144573 0.05278501 0.06966746 -0.10920402 -0.021437285 -0.013636474
0.023273865 0.019842591 -0.1219559 0.09883308 0.0320375 0.031882 0.10217598 0.057602677
-0.12112685 -0.011566006 -0.057742044 0.07925854 0.11846026 0.12790333 -0.053939033 -0.109769925
0.07212594 -0.03619216 -0.07169332 -0.06409025 -0.023499778 -0.106915474 -0.08892409 0.08681663
-0.08305613 -0.08590619 0.086724944 -0.045905836 -0.11796068 0.10249962 0.056397863 -0.02127709
-0.09870759 0.01636996 0.028385025 0.045176055 0.09504441 0.12302261 0.10529838 0.19660737
0.18964282 0.09653262 -0.046596367 -0.13395837 0.052976683 0.06749943 -0.11665473 0.15636626
0.004433033 0.10117578 0.025308948 0.1134089 -0.030919822 -0.13056126 -0.048632745 -0.047563165
00000000: 00a0 6ebd 9f18 82bd 47e0 e53d 75f0 8fbd
00000010: d59e 983d 28fe 083e 50ca 223d 08c7 2b3e
00000020: 64fb 663d bba2 adbc 3cbf c33c 9193 963d
00000030: f117 f7bc 48c7 8bbd 4278 353d 3355 503d
00000040: 5cd1 35bd 157d 66bd 882e 19bd 994b aabd
00000050: b63b e7bc 8326 6abd 0eae a8bc d56e 1bbd
00000060: 0d18 153c 3f30 a4bd bc31 12bd 67eb 523d
00000070: 14d4 143d ac8f 193d 8674 f3bd c8bd c23d
00000080: 1d4d b8ba dd82 f13b 278a 86bd 7322 88bd
00000090: 7ec3 873d 07dc c1bc a7f2 333d 5b5c 45bd
000000a0: 5d63 d3bc 8f3e 6c3d 01cc 7ebd 6e7f b23c
000000b0: b2d7 0e3d 6732 60bd 0450 ef3d d964 07bd
000000c0: 3498 5e3c 3120 8b3c f6b5 85bb 71d3 d63d
000000d0: 9a92 ac3c 4868 b93d 4503 00bd 8334 b5bc
000000e0: fd25 183d 77db 91bc 40d4 35bd f658 c4bd
000000f0: 377e 1cbd 2346 373e 0fab 383c f1da b9bc
00000100: 5519 643d c49a 9e3d 285a 763d 1835 583d
00000110: d0ad 8e3d 5ba6 dfbd 3f9d afbc 846b 5fbc
00000120: d5a8 be3c ee8c a23c 04c4 f9bd ff68 ca3d
00000130: c139 033d b396 023d a441 d13d c9f0 6b3d
00000140: 5b11 f8bd 587f 3dbc ec82 6cbd 4d52 a23d
00000150: 4b9b f23d 17f9 023e 2def 5cbd 0ecf e0bd
00000160: c4b6 933d 3b3e 14bd f3d3 92bd c041 83bd
00000170: 9b82 c0bc 80f6 dabd d51d b6bd ebcc b13d
00000180: 5519 aabd 96ef afbd d99c b13d c207 3cbd
00000190: 5e95 f1bd 52eb d13d 7201 673d 4b4d aebc
000001a0: 3427 cabd 4b1a 863c b687 e83c 870a 393d
000001b0: a5a6 c23d 47f3 fb3d ada6 d73d 7153 493e
000001c0: ba31 423e e5b2 c53d d5db 3ebd 622c 09be
000001d0: 14fe 583d 243d 8a3d ade8 eebd 7a1e 203e
000001e0: fa42 913b 3f35 cf3d b654 cf3c ed42 e83d
000001f0: 914b fdbc dab1 05be 2133 47bd 98d1 42bd

fc2.weight f4 [128, 128]
-0.044312604 0.028993936 0.015874915 0.08038082 0.10893233 0.14576054 0.07166015 0.08278101
-0.027642293 0.0052921716 0.03404397 0.025865732 0.02079374 0.06918192 -0.01807441 0.011141007
0.027136099 0.10480129 0.06692694 -0.085065514 -0.048536617 0.045130644 0.1148598 -0.08530809
0.022302639 0.08337782 0.1309887 -0.07733037 -0.03164871 -0.091438875 0.034342192 -0.018786756
0.10814194 0.045125723 -0.022645779 -0.103356116 0.01663415 -0.017180225 0.11924519 0.102616325
0.010405665 0.024431579 -0.067393616 -0.007261515 0.07731571 0.25545916 0.09120818 0.09159472
-0.050217938 0.07363119 0.071747266 0.009798911 0.0049447524 0.102168106 -0.02763231 -0.0072103203
0.024952048 0.1893272 0.080169566 0.038253482 -0.006437814 0.23175849 -0.027192404 0.06863494
0.11871936 0.023489127 0.12125546 -0.022861078 0.012970533 0.09947542 0.018670045 0.025392707
-7.2996685e-05 0.07466567 -0.007284838 0.017727423 0.17549866 0.09186456 0.05707442 -0.061188314
0.01985099 -0.012018023 0.016347354 0.07669626 0.06062807 0.11070434 0.08754833 -0.012025557
0.010600532 0.16316354 0.12551682 0.0455719 0.18118984 0.024353428 0.10650184 0.0895733
0.01674174 0.08028976 0.10458919 0.019216748 -0.03498694 0.12657006 -0.014576698 0.086531185
-0.03628861 0.0042526876 0.034302376 0.07991092 -0.101703584 0.06527227 -0.04203542 0.16228841
0.12682825 0.044538874 -0.06597521 0.01722321 0.19304416 0.09380521 -0.014839607 0.005406387
0.08238086 0.0039004362 -0.1616743 -0.0866517 0.052009158 -0.056467175 0.064590864 0.08992986
-0.039225336 0.10880475 -0.063021846 0.0024974504 -0.06649791 -0.03238748 -0.089856945 0.06375988
0.05264541 -0.100399554 0.06767059 -0.10542168 -0.10334172 0.054066513 -0.0149992155 -0.039584074
0.05097563 -0.07431686 0.04554622 0.015508222 0.0013083104 0.074333556 -0.10662407 -0.14210209
0.0058451714 0.02613875 -0.070642725 -0.06637814 0.04117376 -0.033103507 0.010975445 -0.00018390562
-0.11558068 -0.108296625 -0.066255376 -0.12307243 0.06467664 -0.05253832 -0.031562805 0.04873606
-0.040512804 -0.014469557 -0.1002386 -0.0489733 -0.020315807 -0.013299624 -0.08624224 -0.0022569315
-0.100579605 -0.0920183 0.041361365 -0.025212456 0.016246276 -0.09150223 0.04474333 -0.033999566
-0.021145618 0.037036553 -0.1164404 -0.068076774 -0.048149608 -0.06679407 -0.04599324 -0.14237587
0.046033837 0.01580884 -0.0750763 -0.1449092 0.06291158 0.032437067 0.027330121 -0.0064537046
-0.08563514 -0.023712004 -0.108066075 0.07439225 -0.100778274 0.03482524 0.053373836 -0.098642446
-1.5759859e-05 -0.019328004 0.031874996 0.047752485 0.06345395 0.029237507 0.029202761 0.0240028
0.0075513953 -0.061146785 -0.014928162 -0.04871566 -0.09026675 0.052688025 0.048476413 -0.09325212
0.013978181 -0.09134369 0.066465504 -0.14997369 0.0750207 0.07223047 -0.07981746 -0.023306904
0.06848457 -0.08386375 -0.034509104 -0.0031236156 0.035832155 0.06267616 -0.022900237 -0.13880965
0.028687328 0.12404576 0.044005 -0.10869511 -0.0345115 -0.009917665 -0.10514294 -0.09035838
-0.073247045 -0.077180825 -0.009432671 0.037290677 -0.14870536 0.008966731 0.012199627 -0.044668213
00000000: 2281 35bd b184 ed3c 1c0c 823c b39e a43d
00000010: ea17 df3d 4042 153e 8fc2 923d 1789 a93d
00000020: 1772 e2bc f469 ad3b b171 0b3d 5fe4 d33c
00000030: a257 aa3c 40af 8d3d c910 94bc c588 363c
00000040: 864c de3c 0fa2 d63d fe10 893d d436 aebd
00000050: 55ce 46bd e9da 383d 9d3b eb3d 02b6 aebd
00000060: 06b4 b63c fec1 aa3d e721 063e 635f 9ebd
00000070: 14a2 01bd 4e44 bbbd 66aa 0c3d afe6 99bc
00000080: 8579 dd3d c0d5 383d a483 b9bc 5fac d3bd
00000090: 5744 883c 8bbd 8cbc d236 f43d 8228 d23d
000000a0: 867c 2a3c bc24 c83c aa05 8abd 01f2 edbb
000000b0: b357 9e3d 8bcb 823e 5bcb ba3d 0396 bb3d
000000c0: 53b1 4dbd f3cb 963d 3bf0 923d 9d8b 203c
000000d0: 9707 a23b 833d d13d 275d e2bc 8d44 ecbb
000000e0: 3d68 cc3c fdde 413e f12f a43d afaf 1c3d
000000f0: 4cf4 d2bb 1952 6d3e 9bc2 debc 7a90 8c3d
00000100: 2323 f33d 456c c03c c854 f83d 2847 bbbc
00000110: 5c82 543c c5b9 cb3d ecf1 983c 5e04 d03c
00000120: cc15 99b8 51ea 983d a6b5 eebb 1a39 913c
00000130: ecb5 333e 7d23 bc3d dec6 693d 99a0 7abd
00000140: 8b9e a23c 3ee7 44bc e3ea 853c ee12 9d3d
00000150: 2455 783d f5b8 e23d 8a4c b33d d806 45bc
00000160: dbad 2d3c 5814 273e 7b87 003e 9aa9 3a3d
00000170: d489 393e d780 c73c a31d da3d 3572 b73d
00000180: f925 893c f56e a43d db32 d63d 716c 9d3c
00000190: 774e 0fbd 959b 013e 1ad3 6ebc 4337 b13d
000001a0: 5ea3 14bd 215a 8b3b a680 0c3d 56a8 a33d
000001b0: f849 d0bd 78ad 853d 552d 2cbd ef2e 263e
000001c0: 44df 013e 656e 363d 031e 87bd b017 8d3c
000001d0: 5ead 453e f21c c03d d321 73bc 1028 b13b
000001e0: 4cb7 a83d 769e 7f3b f38d 25be 7276 b1bd
000001f0: 8e07 553d 204a 67bd 3748 843d 252d b83d
00000200: bfaa 20bd 06d5 de3d 9911 81bd 44ac 233b
00000210: 0e30 88bd bca8 04bd eb06 b8bd 8a94 823d
00000220: b7a2 573d 489e cdbd e196 8a3d 52e7 d7bd
00000230: d3a4 d3bd d974 5d3d 45bf 75bc e922 22bd
00000240: d2cb 503d 7033 98bd ac8e 3a3d 3316 7e3c
00000250: 9d7b ab3a 313c 983d b85d dabd 3683 11be
00000260: da88 bf3b ef20 d63c 22ad 90bd 43f1 87bd
00000270: d1a5 283d 8b97 07bd 5ad2 333c cad6 40b9
00000280: 90b5 ecbd 9fca ddbd e6b0 87bd 660d fcbd
00000290: 3075 843d 6c32 57bd 0048 01bd 769f 473d
000002a0: c1f0 25bd b911 6dbc e549 cdbd 3a98 48bd
000002b0: 566d a6bc abe6 59bc c69f b0bd 07e9 13bb
000002c0: aefc cdbd 1774 bcbd 896a 293d 5a8a cebc
000002d0: e916 853c 8565 bbbd c844 373d 2143 0bbd
000002e0: 9339 adbc a4b3 173d 4e78 eebd d66b 8bbd
000002f0: 8638 45bd 54cb 88bd 6863 3cbd fbca 11be
00000300: fa8d 3c3d 8a81 813c 9ac1 99bd 1463 14be
00000310: c9d7 803d bbdc 043d 6be3 df3c 9979 d3bb
00000320: 7a61 afbd ad3f c2bc bf51 ddbd f75a 983d
00000330: d764 cebd e9a4 0e3d 869e 5a3d 0d05 cabd
00000340: 0a34 84b7 c355 9ebc 5b8f 023d 1c98 433d
00000350: 25f4 813d 7f83 ef3c a13a ef3c 85a1 c43c
00000360: b271 f73b 0d75 7abd 4095 74bc 128a 47bd
00000370: c6dd b8bd 66cf 573d 348f 463d f8fa bebd
00000380: be04 653c 6712 bbbd 111f 883d b492 19be
00000390: 74a4 993d 92ed 933d 5677 a3bd 1fee bebc
000003a0: a341 8c3d c2c0 abbd 6b59 0dbd 93b5 4cbb
000003b0: bdc4 123d 5c5c 803d 4799 bbbc 1e24 0ebe
000003c0: b001 eb3c b40b fe3d 963e 343d 8b9b debd
000003d0: ee5b 0dbd b47d 22bc 2f55 d7bd d00d b9bd
000003e0: 8c02 96bd fb10 9ebd 7d8b 1abc 1cbe 183d
000003f0: 3846 18be 32e9 123c f2e0 473c 04f6 36bd

fc2.bias f4 [128]
0.00028037446 -0.05337405 -0.018330736 -0.06044312 0.04285918 -0.118493035 0.023375029 -0.07660202
0.045660984 0.02575988 -0.03707863 0.01998943 0.045098543 0.06284753 0.08803156 -0.094965704
0.018898726 0.052999437 0.017967762 -0.029914334 -0.016205577 -0.08217042 -0.021883594 -0.030698944
0.027356192 -0.051196776 0.045291245 0.07481909 -0.040451206 -0.074480295 -0.011067567 -0.09838461
-0.011467764 0.009655048 -0.05962876 0.018559817 -7.1345974e-05 0.10396677 0.0029607173 -0.099203356
-0.043217007 -0.067326896 -0.0128174275 -0.037850104 0.06436844 0.040565275 0.031042375 -0.018710516
0.01708968 0.028261391 -0.014117048 -0.09654739 -0.01721238 -0.09930981 -0.01613838 0.104023345
-0.07811581 0.0150990095 0.00017004662 0.006930985 -0.04112929 0.09743808 -0.039690576 0.03651815
-0.009435177 0.070322186 -0.0031692567 -0.07068291 -0.07860002 -0.0025312505 0.065675765 0.023904867
0.005526389 0.037591577 -0.022836892 -0.06770777 0.051468953 -0.07683366 -0.041982114 0.031469468
-0.061168056 -0.11496504 -0.048662182 -0.027016457 -0.041156437 0.040999025 0.023388607 -0.051864944
0.036686067 -0.09552331 0.02261814 -0.021884691 -0.054465584 -0.06683064 -0.003975227 0.0881085
0.016813891 0.03736335 -0.056139387 -0.0394337 0.005872971 0.058426004 -0.0895762 -0.11477189
-0.0108496845 -0.11407673 -0.07224426 -0.06406548 -0.021538638 -0.114633664 -0.01230556 -0.038499877
-0.04706336 -0.0736101 -0.014449634 -0.062149778 0.07271313 0.074312635 0.10117601 0.09181387
-0.017296188 -0.08296848 -0.14323129 0.11278874 0.061981384 -0.029383147 0.06962147 0.0422837
00000000: 39ff 9239 bf9e 5abd 572a 96bc 3493 77bd
00000010: 1c8d 2f3d 7aac f2bd fd7c bf3c 85e1 9cbd
00000020: 0307 3b3d 6206 d33c c3df 17bd e0c0 a33c
00000030: 40b9 383d 35b6 803d e449 b43d 617d c2bd
00000040: 80d1 9a3c f015 593d 2131 933c e80e f5bc
00000050: 8fc1 84bc f748 a8bd 3945 b3bc 5a7c fbbc
00000060: 181a e03c b6b3 51bd 5083 393d c03a 993d
00000070: 2ab0 25bd 2089 98bd be54 35bc df7d c9bd
00000080: 4ae3 3bbc 3530 1e3c 493d 74bd c20a 983c
00000090: 949f 95b8 88ec d43d 9808 423b 212b cbbd
000000a0: 5104 31bd afe2 89bd 3000 52bc b608 1bbd
000000b0: 9ad3 833d c627 263d 944c fe3c cc46 99bc
000000c0: a8ff 8b3c 6f84 e73c 314b 67bc a3ba c5bd
000000d0: fa00 8dbc f162 cbbd a334 84bc 310a d53d
000000e0: 2ffb 9fbd d661 773c 8b4e 3239 511d e33b
000000f0: 3077 28bd 9e8d c73d 9692 22bd 0e94 153d
00000100: 0096 1abc 1405 903d 4eb3 4fbb 34c2 90bd
00000110: 0cf9 a0bd 56e3 25bb 0481 863d 24d4 c33c
00000120: b616 b53b a0f9 193d 6f14 bbbc 5faa 8abd
00000130: 1cd1 523d f75a 9dbd 70f5 2bbd 21e6 003d
00000140: 5b8b 7abd ca72 ebbd ff51 47bd 9e51 ddbc
00000150: a793 28bd 98ee 273d 7799 bf3c 5670 54bd
00000160: 2144 163d baa1 c3bd ad49 b93c 8647 b3bc
00000170: 4e17 5fbd 81de 88bd 9f42 82bb 3b72 b43d
00000180: 49bd 893c 500a 193d 6af2 65bd 3b85 21bd
00000190: 0d72 c03b 1b50 6f3d ba73 b7bd 860d ebbd
000001a0: e0c2 31bc 10a1 e9bd ccf4 93bd c334 83bd
000001b0: cc71 b0bc 0ec5 eabd 429d 49bc 0cb2 1dbd
000001c0: 83c5 40bd e4c0 96bd 28be 6cbc c490 7ebd
000001d0: 9fea 943d 3931 983d 5e35 cf3d e908 bc3d
000001e0: bcb0 8dbc 61eb a9bd 39ab 12be c8fd e63d
000001f0: 31e0 7d3d edb4 f0bc b495 8e3d ac31 2d3d

q_out.weight f4 [5, 128]
-0.049540564 -0.039685965 -0.020464476 0.002787948 0.06813101 0.123532996 0.040038165 -0.09837553
-0.017250018 -0.081190735 -0.029274192 0.061092265 -0.13289843 -0.08864113 -0.0556864 0.0585237
-0.020338956 -0.11108273 -0.11996246 -0.0022930498 -0.045698527 -0.049837857 -0.073912 -0.08393699
-0.05826965 -0.05701982 0.011846834 -0.057137273 0.0349033 0.026383856 -0.05888825 0.023641136
0.028268179 -0.055871606 -0.08594899 -0.013573624 0.051895354 -0.037790798 -0.023228463 0.050261967
-0.05519414 -0.0702128 -0.040264368 0.065333545 -0.12209867 0.04692725 -0.030810738 -0.08790777
-0.13472553 -0.0629372 -0.07078521 0.075207315 0.040095184 -0.038049806 -0.105213284 -0.048820026
-0.10379821 0.0033803512 0.056277614 -0.083246864 -0.031208947 -0.086664826 -0.12166628 -0.050726335
-0.064921364 -0.108378366 0.048095644 -0.01587353 -0.05528397 -0.039752483 -0.05145876 -0.07442761
-0.02180431 -0.10157842 -0.055692714 0.048624273 -0.13649334 -0.05514953 -0.074439 0.050965652
-0.047479466 -0.020078052 -0.029068397 -0.12050058 -0.081849925 -0.036774028 -0.0033393563 -0.011168811
-0.06408329 -0.01906009 -0.0920755 0.031043485 0.043725457 0.011395138 -0.063273296 -0.024915995
0.037034314 -0.07287509 -0.056424495 0.04792693 -0.09132083 -0.10055404 -0.12136484 0.065393254
-0.042479374 0.019371618 0.059556093 0.0070747263 -0.0073047862 -0.0061128535 -0.06114238 -0.10639734
-0.06998957 0.062061634 -0.07824177 0.054017358 -0.10837455 -0.026165629 0.004634143 -0.08721533
0.012112686 0.048410334 -0.07348708 -0.07001244 -0.049269453 -0.035083275 -0.13346821 0.0034169303
0.02078771 0.051002547 -0.05534986 0.060264673 -0.0044017886 0.02106994 0.05244137 0.050152164
-0.13538483 -0.081153594 -0.02533947 -0.0659364 -0.12946081 -0.1179545 -0.09803229 0.028534228
-0.098750934 0.028617827 -0.07710566 -0.07758341 -0.08509968 -0.061929654 -0.15575495 0.07462987
0.003372085 -0.08716514 0.039319362 -0.017209727 0.026524192 -0.02117112 -0.12448404 0.019169409
-0.06437498 0.052026026 0.02635144 -0.008478162 -0.0731019 -0.07331715 0.027062282 0.026307894
-0.029357426 -0.013309428 0.03651103 0.004373486 -0.1388508 -0.118816175 0.057016708 -0.067440964
-0.071542695 -0.040427428 0.010530288 -0.07083779 -0.0036308204 0.06123748 -0.10003738 -0.08984387
-0.030700872 0.05165577 -0.053822882 -0.047766868 -0.021040186 -0.113927595 0.07548748 -0.006791255
0.038445197 -0.051167652 -0.024801742 -0.09880958 0.022024773 -0.17231663 -0.06997482 0.031964995
-0.009513609 0.00029460908 -0.07344453 0.08530406 -0.06639382 -0.06540738 0.027115168 0.0748893
-0.06290624 -0.016965274 0.00027469208 -0.048947126 -0.006692075 -0.023711486 -0.04441712 -0.0077827005
-0.20451792 0.039625417 -0.08210646 0.051634714 0.032657895 -0.04017373 0.008386506 -0.25968212
0.06824854 0.007035653 -0.07016855 -0.0037452113 -0.105458386 -0.037424967 0.0074497415 0.006431335
-0.020308236 0.0601869 0.035159554 -0.08531551 -0.0005052274 0.014265506 -0.114128515 -0.034965966
-0.025454773 -0.08090144 -0.0031107194 0.041343182 -0.03385831 -0.057763953 -0.016051067 -0.07283838
-0.13568209 0.062459644 0.0061785937 -0.016000388 -0.08354556 -0.03683992 -0.1881371 -0.091326885
00000000: 0ceb 4abd c08d 22bd 1ea5 a7bc 01b6 363b
00000010: 4588 8b3d defe fc3d 0fff 233d 1c79 c9bd
00000020: e94f 8dbc 5447 a6bd 6ed0 efbc e23b 7a3d
00000030: 8716 08be 7b89 b5bd 6c17 64bd 8cb6 6f3d
00000040: e29d a6bc 587f e3bd e1ae f5bd fe46 16bb
00000050: 612e 3bbd c822 4cbd 2d5f 97bd 28e7 abbd
00000060: 28ac 6ebd 9d8d 69bd 3919 423c c608 6abd
00000070: c3f6 0e3d f522 d83c ce34 71bd 0eab c13c
00000080: ab92 e73c a0d9 64bd 0606 b0bd e863 5ebc
00000090: 3990 543d 86ca 1abd 9e49 bebc 7edf 4d3d
000000a0: 4013 62bd bacb 8fbd 40ec 24bd 98cd 853d
000000b0: de0e fabd ca36 403d cd66 fcbc fd08 b4bd
000000c0: 7df5 09be 38e5 80bd d6f7 90bd 4b06 9a3d
000000d0: d93a 243d 1dda 1bbd 107a d7bd 82f7 47bd
000000e0: 2894 d4bd e288 5d3b 5b83 663d 557d aabd
000000f0: e8a9 ffbc 547d b1bd 2c2c f9bd 6bc6 4fbd
00000100: 7ef5 84bd 7af5 ddbd f0ff 443d 3509 82bc
00000110: 7271 62bd 80d3 22bd 6cc6 52bd 816d 98bd
00000120: f49e b2bc 5908 d0bd 0b1e 64bd 3f2a 473d
00000130: e9c4 0bbe 79e4 61bd 7973 98bd 5cc1 503d
00000140: d479 42bd ba7a a4bc d920 eebc 02c9 f6bd
00000150: efa0 a7bd 5da0 16bd 1ad9 5abb 63fd 36bc
00000160: 1a3e 83bd e823 9cbc 1492 bcbd e84e fe3c
00000170: 7719 333d acb2 3a3c 6e95 81bd a11c ccbc
00000180: 4bb1 173d 893f 95bd 5f1d 67bd 074f 443d
00000190: 6a06 bbbd 47ef cdbd 218e f8bd e6ec 853d
000001a0: dafe 2dbd 3ab1 9e3c 17f1 733d 1bd3 e73b
000001b0: fd5c efbb 554e c8bb 6f70 7abd d9e6 d9bd
000001c0: b156 8fbd 5734 7e3d 393d a0bd 4e41 5d3d
000001d0: 7af3 ddbd 4d59 d6bc 02da 973b f39d b2bd
000001e0: 4a74 463c ea49 463d 6580 96bd af62 8fbd
000001f0: c4ce 49bd 7bb3 0fbd e4ab 08be 94ee 5f3b
00000200: fd4a aa3c 0ce8 503d 89b6 62bd 17d8 763d
00000210: e13c 90bb de9a ac3c c3cc 563d 5b6c 4d3d
00000220: 52a2 0abe db33 a6bd b894 cfbc aa09 87bd
00000230: 6091 04be 2192 f1bd 27c5 c8bd 9dc0 e93c
00000240: ee3d cabd ef6f ea3c 93e9 9dbd 0de4 9ebd
00000250: be48 aebd f3a9 7dbd 3a7e 1fbe 8cd7 983d
00000260: 33fe 5c3b a383 b2bd 570d 213d 6afb 8cbc
00000270: 4349 d93c 0f6f adbc 7df1 febd 2a09 9d3c
00000280: 08d7 83bd 3e19 553d fade d73c fde7 0abc
00000290: 73b6 95bd 4d27 96bd b8b1 dd3c a783 d73c
000002a0: fc7e f0bc c90f 5abc 978c 153d 764f 8f3b
000002b0: e72e 0ebe e555 f3bd 5a8a 693d 7d1e 8abd
000002c0: fa84 92bd 3b97 25bd 3b87 2c3c 6713 91bd
000002d0: 0ff3 6dbb 27d4 7a3d 66e0 ccbd 1000 b8bd
000002e0: 6580 fbbc 0095 533d 6275 5cbd 31a7 43bd
000002f0: 785c acbc df52 e9bd 2e99 9a3d 2d89 debb
00000300: b678 1d3d 2c95 51bd 062d cbbc ad5c cabd
00000310: 4c6d b43c c573 30be f54e 8fbd baed 023d
00000320: f8de 1bbc c375 9a39 166a 96bd e5b3 ae3d
00000330: 7cf9 87bd 4ef4 85bd a120 de3c 905f 993d
00000340: fdd4 80bd c2fa 8abc 8c04 9039 c87c 48bd
00000350: 3249 dbbb 973e c2bc baee 35bd 0606 ffbb
00000360: 256d 51be 434e 223d 6f27 a8bd ec7e 533d
00000370: 49c4 053d 368d 24bd 8e67 093c 0ef5 84be
00000380: e4c5 8b3d 568b e63b 87b4 8fbd 3872 75bb
00000390: 91fa d7bd ec4a 19bd f61c f43b f3bd d23b
000003a0: 755d a6bc 8a86 763d 7703 103d e6b9 aebd
000003b0: 3d71 04ba deb9 693c 36bc e9bd 7938 0fbd
000003c0: 8786 d0bc a7af a5bd 36dd 4bbb 7857 293d
000003d0: 03af 0abd e599 6cbd 877d 83bc 4a2c 95bd
000003e0: 3ff0 0abe afd5 7f3d cd75 ca3b 3f13 83bc
000003f0: ef19 abbd 75e5 16bd 03a7 40be 9709 bbbd

q_out.bias f4 [5]
0.019340465 -0.10327747 -0.017975137 -0.06819272 -0.0026979698
00000000: e56f 9e3c 2383 d3bd 9840 93bc a0a8 8bbd
00000010: 6cd0 30bb
