models/Second_Model_TwoAgents11x11/q_te_agent_0.pt (torch, 108561 bytes, 6 tensors)

fc1.weight f4 [128, 71]
0	0x3e1181ec	0.14209718
1	0x3e16fca1	0.14744808
2	0x3e1a3a5e	0.15061328
3	0x3dc3d0e4	0.09561327
4	0x3d017912	0.031609602
5	0x3e21ee0e	0.15813467
6	0x3c61f450	0.013791159
7	0x3e5f6b5c	0.21818298
8	0x3dfdb3cc	0.12387809
9	0x3e238520	0.15968752
10	0x3e4687b9	0.19387712
11	0x3dc7eb1c	0.097616404
12	0x3d02b6b7	0.03191253
13	0x3c8b3c5b	0.016996553
14	0xbc5fd85a	-0.013662422
15	0x3e366bbf	0.1781454
16	0x3d53b99b	0.05169068
17	0x3e1877b1	0.14889409
18	0x3e6dfe04	0.2324143
19	0x3c7f7d8c	0.015593898
20	0x3e129a06	0.14316568
21	0x3e3dff66	0.18554458
22	0x3de3e2bf	0.11127233
23	0x3e680268	0.22657168
24	0x3e88d824	0.26727402
25	0x3e31d3b5	0.17365916
26	0x3d9b14c3	0.07572319
27	0xbd35783c	-0.044304118
28	0x3dfcd844	0.12345937
29	0x3a85b476	0.0010200876
30	0x3e4cb79c	0.19991916
31	0x3e776fde	0.24163768
32	0x3e2358cd	0.15951844
33	0x3e39276e	0.18081447
34	0xbd684309	-0.056704555
35	0xbccc6bb8	-0.024953708
36	0x3e299f40	0.16564655
37	0x3e42da7f	0.19028662
38	0x3e051ad4	0.12998515
39	0x3e1a8785	0.15090759
40	0x3df6e8ec	0.12056145
41	0x3e6e172d	0.23251028
42	0x3e06ae90	0.13152528
43	0x3bba59ca	0.005686973
44	0x3dec7c07	0.11547094
45	0x3d88cc2f	0.0667957
46	0x3e42ff8f	0.190428
47	0x3df01e68	0.117245495
48	0xbc40438b	-0.0117348535
49	0xbd98757c	-0.07444283
50	0x3d9b83e9	0.07593519
51	0x3e2f85b1	0.17140843
52	0x3e86db22	0.2633906
53	0x3da12570	0.07868469
54	0x3da0a4d0	0.078439355
55	0x3dc79de6	0.097469136
56	0x3d32ca73	0.043650102
57	0xbd543619	-0.051809404
58	0x3e31dd73	0.17369632
59	0x3deda9a7	0.11604624
60	0x3e38c092	0.1804221
61	0x3e820a38	0.2539842
62	0x3d2f5615	0.042806704
63	0x3def8628	0.1169551
64	0x3db2eaa8	0.087361634
65	0x3e790c10	0.24321008
66	0x3e329a75	0.17441733
67	0x3dde4bd4	0.10854307
68	0x3df3c3b3	0.11902561
69	0x3da78545	0.08179716
70	0x3d3b52c1	0.045733217
71	0xbd4cf59f	-0.05003893
72	0x3d9086d2	0.07056965
73	0x3e010061	0.12597801
74	0x3e00198f	0.1250975
75	0x3e18a8f8	0.14908206
76	0x3d391492	0.045185633
77	0x3e139fa9	0.14416374
78	0x3ea23893	0.31683788
79	0x3e0cf947	0.13766967
80	0x3e570a7b	0.21000092
81	0x3e3804dc	0.17970604
82	0x3e7e9487	0.24861346
83	0x3e5ca719	0.21548118
84	0xbd972a31	-0.07381094
85	0xbcf972a9	-0.030450182
86	0x3dc6e6de	0.09712003
87	0x3d60f785	0.054923553
88	0xbd3e71c2	-0.046495207
89	0x3d2a95a4	0.041646615
90	0x3c7c171d	0.01538637
91	0xbd23a3cc	-0.03995113
92	0xb9457e0c	-0.0001883434
93	0x3e127b21	0.14304782
94	0x3e06d273	0.13166218
95	0x3dba1e73	0.09087839
96	0x3e06ac26	0.13151607
97	0x3e15e5d1	0.14638449
98	0x3ca3a853	0.019977724
99	0x3d9ba149	0.07599122
100	0x3c69be3c	0.014266547
101	0x3dc1cd65	0.09463004
102	0x3e65cff3	0.22442608
103	0x3e258ba6	0.16166553
104	0x3e28ed15	0.1649669
105	0xbc0cfdaf	-0.008605405
106	0xbd5988e3	-0.05310906
107	0x3d3a14d3	0.045430016
108	0x3e5dd2f0	0.21662498
109	0x3d9722cc	0.07379684
110	0x3e6c4198	0.23071897
111	0xb964699e	-0.0002178312
112	0x3e676e70	0.22600722
113	0x3dad6968	0.0846737
114	0x3d550f92	0.052016802
115	0x3e5d14db	0.21589987
116	0x3e45a0ad	0.19299574
117	0xbd022f35	-0.0317833
118	0x3e3202cb	0.17383878
119	0x3e02a488	0.12758076
120	0xbdaedcb7	-0.08538192
121	0x3d8ba6fa	0.068189576
122	0x3da31cd5	0.07964484
123	0x3e2f1ee5	0.17101629
124	0x3e7eccfc	0.24882883
125	0x3e090240	0.13379765
126	0x3c813312	0.015771423
127	0xbcc2731d	-0.02373653
128	0x3de8c728	0.11366111
129	0x3db034b9	0.08603806
130	0x3e50a2dd	0.20374627
131	0x3e5c3b3a	0.21506968
132	0x3dc420a8	0.09576541
133	0xbda08e42	-0.078396335
134	0x3d1d1c3e	0.038357012
135	0xbde2da00	-0.110767365
136	0x3e39bcab	0.18138377
137	0x3e26adf0	0.1627729
138	0x3e65caf9	0.22440709
139	0x3d8d0938	0.06886524
140	0xbd2e9b02	-0.042628296
141	0x3d8caae0	0.06868529
142	0x3d971e3c	0.073788136
143	0x3e1621ab	0.14661281
144	0x3cc5f418	0.024164245
145	0x3deb1efc	0.11480519
146	0x3e2a95c7	0.16658698
147	0x3d88be48	0.06676918
148	0x3e2b607a	0.16736022
149	0x3e1444d8	0.14479387
150	0x3e1efd8d	0.1552641
151	0x3dd69732	0.10478057
152	0x3e81c229	0.25343445
153	0x3e5d8785	0.21633728
154	0x3dced20c	0.10098657
155	0xbcb5c7f8	-0.02219008
156	0x3c89cd70	0.016821593
157	0x3e4cf7e3	0.20016436
158	0x3e7baa44	0.2457667
159	0x3d8ffa96	0.07030217
160	0x3e61e44c	0.22059745
161	0x3e3d091f	0.1846051
162	0xbd5c0032	-0.053711124
163	0x3d29dbe8	0.041469485
164	0x3ddcd023	0.107818864
165	0x3e16f5d5	0.14742215
166	0x3e74bcc8	0.2390014
167	0x3e491f92	0.1964095
168	0x3d245174	0.040116742
169	0xbd436e3f	-0.04771256
170	0x3e2d939e	0.16950843
171	0x3db9f767	0.090803914
172	0x3df8a15d	0.121401526
173	0x3e8f21ef	0.27955577
174	0x3d7c8bfd	0.06165694
175	0x3dab9d25	0.08379582
176	0x3d747ed5	0.05969127
177	0xbc480c99	-0.012210035
178	0x3e0d8b64	0.13822705
179	0x3e5af964	0.21384197
180	0x3dc4dfd0	0.09613001
181	0x3d19e254	0.03756936
182	0x3e36202d	0.17785712
183	0x3e958ba7	0.2920811
184	0xbcbbde5d	-0.02293318
185	0x3cb6f138	0.022331819
186	0x3de27982	0.11058332
187	0x3e5b5983	0.21420865
188	0xbb422da7	-0.0029629262
189	0x3e038aff	0.12845992
190	0x3db067bb	0.08613535
191	0xbd8d7085	-0.06906227
192	0x3dfba5ea	0.12287505
193	0x3e4bcd70	0.19902587
194	0x3e2ec8f4	0.17068845
195	0x3e3a84b8	0.1821469
196	0x3e50f8c3	0.20407395
197	0x3c088747	0.008333034
198	0x3e0520b3	0.13000755
199	0xbce4617b	-0.027878514
200	0x3e74e7b3	0.23916511
201	0x3df9165f	0.1216247
202	0x3bb8b028	0.005636234
203	0x3e1f4f90	0.15557694
204	0xbd75a2f8	-0.059969872
205	0x3df22ccd	0.11824951
206	0xbd3917bf	-0.04518866
207	0x3da19e81	0.0789156
208	0x3e2aa348	0.1666385
209	0x3dc086d5	0.09400717
210	0x3e4ac452	0.19801453
211	0xbda98f4c	-0.08279285
212	0x3d44cf68	0.04804936
213	0x3ce4f5f1	0.027949305
214	0xbd90dc09	-0.070732184
215	0x3d820c6d	0.06350026
216	0x3e4ce6c8	0.20009911
217	0x3d439523	0.04774965
218	0x3d0fdb10	0.035121024
219	0x3e5271cb	0.20551221
220	0x3e6d39c3	0.23166566
221	0x3e366820	0.17813158
222	0x3e0090d1	0.12555243
223	0x3e71aa46	0.2360011
224	0x3e749d4a	0.23888126
225	0x3e278c78	0.16362178
226	0x3da54c0c	0.080711454
227	0x3d3666ef	0.04453176
228	0x3e2d9b34	0.16953737
229	0x3d407809	0.046989474
230	0x3cbeb98b	0.023281833
231	0x3e22a4e6	0.15883216
232	0x3d2878f3	0.04113097
233	0x3d88bfb9	0.06677193
234	0x3d1db102	0.038498886
235	0x3e401054	0.18756229
236	0x3e193187	0.149603
237	0x3dafc3c9	0.08582265
238	0x3dc3326b	0.09531101
239	0x3d84fa6a	0.06493075
240	0xbd0fc88f	-0.035103377
241	0xbcbc99b4	-0.02302251
242	0xbd827a92	-0.06371035
243	0x3e1e3025	0.15448053
244	0x3e1b6c4c	0.1517803
245	0x3e4586e8	0.19289744
246	0x3e3681ce	0.17822954
247	0x3dc5e194	0.09662166
248	0xbcc3cd39	-0.023901569
249	0x3e2cd049	0.1687633
250	0x3e0a86b7	0.13527952
251	0x3dd50e6a	0.1040314
252	0x3e578187	0.21045505
253	0x3d49e8d8	0.049294323
254	0x3e829eaa	0.25511676
255	0xbd953867	-0.072861485

fc1.bias f4 [128]
0	0x3e8c2d0f	0.27378127
1	0x3e437ac3	0.19089799
2	0x3e803723	0.25042066
3	0x3dcc83aa	0.099860504
4	0x3e1ecc56	0.15507635
5	0x3e734eef	0.2376058
6	0x3e85a2c8	0.26100755
7	0xbd0ee7b8	-0.034888953
8	0x3c688022	0.0141907055
9	0x3e06a50a	0.13148895
10	0x3e2edd28	0.17076552
11	0x3d1594dd	0.03651892
12	0x3de128f9	0.10994143
13	0x3e36019c	0.17774051
14	0x3df18645	0.11793188
15	0x3e6e5d47	0.2327777
16	0x3e16829f	0.14698265
17	0x3e12e48c	0.14344996
18	0x3e85a6bc	0.2610377
19	0x3e8dc552	0.27689606
20	0x3e240c50	0.16020322
21	0x3e3fa5b8	0.1871556
22	0x3d8b2a9f	0.06795239
23	0x3e65b3b2	0.2243183
24	0x3d6b96cd	0.05751686
25	0x3e215287	0.15754138
26	0x3e5d9ad7	0.21641098
27	0x3e1c6e2f	0.15276407
28	0x3e61a0f5	0.22034056
29	0x3e55e3ab	0.2088763
30	0x3e4cf325	0.20014627
31	0x3e2ae206	0.16687784
32	0x3e6e5c23	0.23277335
33	0x3dd47c8b	0.10375317
34	0x3df4416b	0.1192654
35	0x3e83b643	0.25724992
36	0x3e3ee7f0	0.18643165
37	0xbd836cf5	-0.06417266
38	0x3e40bc17	0.1882175
39	0x3e6876d9	0.22701587
40	0xbbc4ef5c	-0.006009979
41	0x3e3901fd	0.18067165
42	0x3d9b5a98	0.07585639
43	0x3e8c6f4f	0.27428672
44	0x3dc9cb5a	0.09853239
45	0x3e7d6424	0.24745232
46	0x3dc0d6ee	0.094159946
47	0x3dad7254	0.08469072
48	0xbd90069b	-0.0703251
49	0xbc025ef1	-0.007957206
50	0xbd90b34d	-0.07065449
51	0x3e5b70b0	0.21429706
52	0x3e4005da	0.18752232
53	0x3e70f77a	0.23531905
54	0x3e85d8b1	0.26141885
55	0x3ddd5869	0.108078785
56	0x3d2b5156	0.041825615
57	0x3e86ccaa	0.2632802
58	0x3d7f17b2	0.062278457
59	0x3d6523f4	0.05594249
60	0x3e2c1f2c	0.16808766
61	0x3da69586	0.08133988
62	0x3d1b7d0d	0.037961055
63	0x3e5bd0a8	0.21466315
64	0x3e681f5b	0.22668211
65	0xbc15fe20	-0.009154826
66	0x3e390f78	0.18072307
67	0x3de158e5	0.110032834
68	0x3e5de0db	0.21667807
69	0x3da4585a	0.08024664
70	0x3e445bfc	0.19175714
71	0x3e7d14a0	0.24714899
72	0x3e43d7ab	0.1912524
73	0x3d816c59	0.06319494
74	0x3e14039d	0.14454503
75	0x3e59695e	0.212316
76	0x3e0ecefa	0.13946143
77	0xbd200641	-0.039068464
78	0x3e926aca	0.285971
79	0x3e5621ac	0.20911282
80	0x3dd6511a	0.10464688
81	0x3daf18af	0.0854963
82	0x3d0d2c69	0.03446618
83	0x3e5a296c	0.21304864
84	0x3dd6387e	0.10459994
85	0xbd6d94f2	-0.058003373
86	0x3e080434	0.13282853
87	0x3e288f19	0.16460837
88	0x3de4b152	0.11166634
89	0x3e026565	0.12733991
90	0x3d7bcac8	0.061472684
91	0x3e3281c6	0.17432317
92	0x3d1f9830	0.038963497
93	0x3e8c4732	0.27398068
94	0x3d4281fa	0.047487237
95	0x3e841f20	0.25804996
96	0x3e760927	0.24026929
97	0x3e2ce40b	0.16883866
98	0x3e779133	0.24176483
99	0x3e0e86b4	0.13918573
100	0x3d89ca42	0.06728031
101	0x3dfad214	0.122471005
102	0x3dcfa4ec	0.10138878
103	0x3e7279e9	0.23679318
104	0x3e61085b	0.21975844
105	0x3d58f95c	0.052972183
106	0xbd2d3207	-0.042284038
107	0x3d0f1044	0.03492762
108	0xbe0c3825	-0.13693292
109	0x3e7340f2	0.23755243
110	0x3e8808e0	0.2656927
111	0x3d8ea337	0.069647245
112	0x3e0414e9	0.12898602
113	0x3da5979c	0.08085558
114	0x3e38c295	0.18042977
115	0x3d93e187	0.0722075
116	0x3e07756b	0.13228385
117	0x3e4049e8	0.18778193
118	0x3d8f6c45	0.07003073
119	0xbdba34f4	-0.09092131
120	0x3e68529c	0.22687763
121	0x3df12e98	0.11776465
122	0x3e3a38c1	0.18185712
123	0x3e8c265e	0.27373022
124	0x3d5163e1	0.051120643
125	0xbd86035d	-0.0654361
126	0x3e7a4efa	0.2444419
127	0x3d7aaa28	0.06119743

fc2.weight f4 [128, 128]
0	0x3e20b11e	0.15692565
1	0x3d3b66fc	0.04575251
2	0x3e09f4f7	0.13472353
3	0x3e0e8e57	0.13921486
4	0x3e7a9091	0.2446921
5	0x3e41a6a5	0.18911226
6	0x3e7475a0	0.23872995
7	0xbcc7bde7	-0.024382545
8	0x3c5307e9	0.012880304
9	0x3e740eaf	0.23833726
10	0x3da3fe5d	0.080075
11	0xbccf589a	-0.025310803
12	0x3e044aa4	0.12919098
13	0x3d628ecf	0.055311974
14	0x3e4f4f4a	0.2024509
15	0x3e123857	0.14279304
16	0x3e307f26	0.17236003
17	0x3e87856e	0.26468986
18	0x3e5039f6	0.2033461
19	0x3e80acd0	0.25131845
20	0x3e3668ef	0.17813466
21	0x3d362481	0.044468407
22	0x3df584ac	0.11988196
23	0x3d9716c6	0.073773906
24	0x3dba674b	0.09101733
25	0x3daf41a1	0.085574396
26	0x3e3c0bd5	0.18363889
27	0x3e01a376	0.12660012
28	0x3d18e82b	0.037330788
29	0x3dfbfef0	0.12304485
30	0x3e0cc8ab	0.13748424
31	0x3e135995	0.14389642
32	0x3da32fef	0.07968127
33	0x3e51bc99	0.204821
34	0x3ded668b	0.11591824
35	0x3e44c752	0.1921666
36	0x3d96122a	0.07327683
37	0x3d60bf00	0.05486965
38	0x3e48cdd9	0.19609775
39	0x3e2c312a	0.1681563
40	0xbe1026a5	-0.14077242
41	0x3da4c1af	0.08044755
42	0x3d45cc6e	0.048290662
43	0x3e2379ce	0.15964434
44	0x3dc38470	0.09546745
45	0x3d8de04a	0.06927545
46	0x3d341c09	0.04397205
47	0x3dcd82c2	0.10034706
48	0x3cca8b5d	0.024724657
49	0x3c4eb00c	0.012615215
50	0xbcd9bbe6	-0.026578855
51	0x3e2d1bc7	0.16905127
52	0x3e4302f1	0.19044091
53	0x3e47519b	0.19464724
54	0x3d53776e	0.05162757
55	0x3dbbe5c0	0.09174681
56	0x3e2f8219	0.17139472
57	0x3e037a44	0.1283961
58	0x3df3694e	0.1188532
59	0x3d5d419b	0.054017644
60	0x3d9ee2ba	0.077580884
61	0x3e139cd5	0.14415295
62	0x3e1db300	0.15400314
63	0x3e0d272e	0.13784477
64	0x3d4c1100	0.0498209
65	0x3d9bf49a	0.076150134
66	0x3df017c3	0.11723282
67	0x3e6af97b	0.22946732
68	0x3dba6e4b	0.09103068
69	0x3e0a0fb1	0.13482548
70	0x3d90d8e0	0.070726156
71	0x3d8614a2	0.06546904
72	0x3e1b140a	0.15144363
73	0x3cd1ea5a	0.025624443
74	0x3d5bde74	0.053678945
75	0x3e23ef93	0.16009359
76	0x3e424377	0.18971048
77	0x3d9f174f	0.07768118
78	0x3e110fad	0.14166136
79	0x3d67fb33	0.056636047
80	0x3e236386	0.15955934
81	0x3d767694	0.06017168
82	0x3e537574	0.20650274
83	0x3df93139	0.121675916
84	0x3d271cb1	0.040798847
85	0x3cf23b0e	0.029569175
86	0x3d5b5cb3	0.0535552
87	0x3e2c8742	0.16848472
88	0x3e249af1	0.1607473
89	0x3cf11276	0.029427748
90	0xbc872afe	-0.016499992
91	0x3df10311	0.11768163
92	0x3cca669b	0.02470713
93	0x3e480cb5	0.19536097
94	0x3da0d3e9	0.07852919
95	0x3d98468e	0.07435332
96	0x3ea1aee9	0.31578758
97	0x3e41d006	0.18927011
98	0x3e6a7425	0.22895868
99	0x3e0a1f63	0.13488536
100	0x3e5d4887	0.21609698
101	0x3da2e871	0.07954491
102	0x3e35e3d2	0.17762688
103	0x3db6d524	0.08927372
104	0x3dfa9dbe	0.12237118
105	0x3e518c30	0.20463634
106	0x3c26da0d	0.010183823
107	0x3dad25a5	0.08454446
108	0x3b41f163	0.002959334
109	0x3e396dcc	0.1810829
110	0x3e31f2f0	0.1737783
111	0x3d723cd7	0.059140053
112	0x3ddc92c9	0.107701845
113	0x3e34164b	0.17586629
114	0x3db60ea0	0.08889508
115	0x3df62ca1	0.12020231
116	0x3e767153	0.24066667
117	0x3d79e7c5	0.06101205
118	0x3d515ef5	0.05111595
119	0xbc95c8ed	-0.018284285
120	0x3da4781d	0.08030722
121	0x3d65318f	0.055955466
122	0x3ea159e2	0.31513888
123	0x3e0478ca	0.12936702
124	0x3d5befe9	0.053695593
125	0xbd991681	-0.074749954
126	0x3dc6cb86	0.09706788
127	0x3e112e2e	0.14177772
128	0xbda66a18	-0.081257045
129	0x3c202426	0.009774243
130	0xbd864638	-0.06556362
131	0xbdd8ee1a	-0.10592289
132	0xbc0ab3fb	-0.008465762
133	0x3d47dd55	0.048795063
134	0x3d90915c	0.07058975
135	0xbd6a8b66	-0.057261847
136	0x3d8b3253	0.06796708
137	0x3d9a11d2	0.0752293
138	0xbd77f7af	-0.060538944
139	0xbbf2abc0	-0.007405728
140	0xbd0bfbba	-0.034175612
141	0x3d86bf48	0.06579453
142	0x3c1583b5	0.00912564
143	0x3b0c0fbc	0.0021371683
144	0xbcd7717f	-0.026299236
145	0x3d113e9e	0.035460107
146	0x3d0def93	0.034652304
147	0xbd01afe6	-0.03166189
148	0xbdbe38e3	-0.09288194
149	0xbd3b36fd	-0.045706738
150	0xbd8e4430	-0.069465995
151	0xbd86fecb	-0.06591567
152	0x3c417b60	0.0118092
153	0x3c57c09c	0.01316848
154	0xbd371950	-0.044701874
155	0xbd5c4487	-0.05377629
156	0x3d8a62dc	0.06757137
157	0xbd0f47e8	-0.034980685
158	0xbd279a88	-0.040918857
159	0xbd76ab0b	-0.060221713
160	0x3c1f525d	0.009724227
161	0x3c949a7d	0.018140072
162	0x3d6be1e3	0.05758847
163	0xbd1ce6ae	-0.03830593
164	0xbc8254ef	-0.01590964
165	0x3cf14bb8	0.02945505
166	0xbd2c77a1	-0.042106275
167	0xbc032487	-0.008004314
168	0xbb9ee188	-0.0048486628
169	0x3d8079e7	0.06273251
170	0x3c3d7e0c	0.011565696
171	0xbb7e8175	-0.0038834487
172	0x3c85509c	0.01627379
173	0x3d3fe9ce	0.046853833
174	0x3bbb7bf6	0.0057215644
175	0xbd42d64f	-0.04756766
176	0x3d2a12c6	0.04152181
177	0x3d96ce8a	0.07363613
178	0xbdc84cea	-0.09780295
179	0xbbf39548	-0.007433567
180	0xbd8183b9	-0.06323952
181	0xbd82b469	-0.06382067
182	0x3d5782ad	0.052614857
183	0x3c2b5bc7	0.010458893
184	0x3d295a54	0.04134591
185	0xbd7092ad	-0.05873363
186	0x3ca14769	0.019687371
187	0x3d6f649a	0.05844555
188	0xbbfadcad	-0.007655701
189	0x3c1be1b1	0.009514258
190	0xbdc0b3b1	-0.094092734
191	0x3b6e2cc2	0.0036342596
192	0xbcf1e23e	-0.029526826
193	0xbce490a5	-0.027901003
194	0x3a892cee	0.0010465661
195	0x3d2df9b3	0.04247446
196	0x3d701281	0.058611397
197	0xbca2ad56	-0.019858044
198	0xbd9c1b8b	-0.07622441
199	0x3cce091a	0.025150824
200	0xbcfaa2fa	-0.030595291
201	0xbd1e7be8	-0.038692385
202	0xbd91bea1	-0.07116438
203	0xbd139f34	-0.0360405
204	0x3c8e2521	0.017351689
205	0xbd80bba6	-0.06285791
206	0xbd5d7679	-0.054068062
207	0x3d80dabb	0.062917195
208	0x3c6840e9	0.014175632
209	0x3d490b55	0.049083073
210	0xbd4bf795	-0.04979666
211	0xbb030f2a	-0.0019998052
212	0xbcbc8847	-0.0230142
213	0xbd86158e	-0.0654708
214	0xbd00da98	-0.031458467
215	0xbd892355	-0.06696192
216	0x3c1d2aa8	0.00959269
217	0xbd7ef369	-0.062243853
218	0xbca516d1	-0.020152481
219	0x3d21c366	0.039492987
220	0xbcc6393c	-0.024197213
221	0x3d579833	0.052635383
222	0x3c907fcd	0.017639065
223	0x3d5b8df2	0.053602166
224	0xbd2f6835	-0.04282399
225	0x3d4b947c	0.049702153
226	0xbd0f9528	-0.035054356
227	0xbd873984	-0.06602767
228	0x3d2ec059	0.042663906
229	0xbdcdf3a9	-0.1005624
230	0xbce1d74c	-0.027568482
231	0xbd747097	-0.059677687
232	0x3d659c6c	0.05605738
233	0x3cb3cac3	0.02194727
234	0x3c86ee63	0.016471094
235	0x3caf1008	0.021369949
236	0xbd8daed4	-0.069181114
237	0x3c24ccae	0.010058565
238	0x3c3f3515	0.011670371
239	0xbd46aa9d	-0.048502553
240	0xbd5ab4a8	-0.053394943
241	0xbb26422c	-0.0025369031
242	0x3c305e21	0.01076463
243	0x3d8def20	0.06930375
244	0x3d61484d	0.055000592
245	0x3c9d0774	0.019168593
246	0xbb8eda62	-0.0043595294
247	0xbc3a10bf	-0.011356532
248	0xbb8bfb2d	-0.004271886
249	0x3bb52cfd	0.0055290447
250	0xbd969bf7	-0.07353967
251	0xbbfde8bd	-0.007748692
252	0xbc30b5bc	-0.010785516
253	0xbd2dd43d	-0.042438734
254	0xbd9ef224	-0.077610284
255	0x3d079419	0.03310022

fc2.bias f4 [128]
0	0x3e7b33d9	0.24531497
1	0x3d0e7601	0.034780506
2	0x3d533ffd	0.051574696
3	0xbd0b2f60	-0.033980727
4	0xbc426a98	-0.011866234
5	0x3dd6e27e	0.10492419
6	0xbdc45574	-0.095866114
7	0xbca3631b	-0.019944718
8	0x3da0dd76	0.0785474
9	0x3e0e306c	0.13885659
10	0x3dd7b7d0	0.10533106
11	0xbddd3500	-0.108011246
12	0x3d63328c	0.055468127
13	0xbdb4d9d6	-0.088306114
14	0x3e257c04	0.1616059
15	0x3dc47821	0.09593225
16	0x3e0a4f2c	0.13506764
17	0x3aa47a21	0.0012548604
18	0xbc64a87b	-0.0139561845
19	0x3e2c15cf	0.16805194
20	0x3db5ab63	0.0887058
21	0xbc845085	-0.016151676
22	0x3e003cc8	0.12523186
23	0x3e11abc2	0.14225677
24	0xbd959465	-0.07303695
25	0x3e18c65c	0.14919418
26	0x3d9d1046	0.076691195
27	0x3e36c02e	0.17846748
28	0xbd4621b9	-0.048372004
29	0x3e4bdb88	0.19907963
30	0xbd372657	-0.044714298
31	0x3d91d34e	0.07120381
32	0x3e54dd61	0.20787574
33	0x3e02fb59	0.12791194
34	0x3dd0764d	0.10178814
35	0xbdb02258	-0.086003006
36	0x3da1cc36	0.07900278
37	0x3e2b9c67	0.16758882
38	0x39dc1d0c	0.00041983312
39	0xbba55693	-0.005045721
40	0xbdaad965	-0.08342246
41	0x3dcd0911	0.10011495
42	0x3e0fb342	0.14033225
43	0x3de51eb0	0.11187494
44	0x3d87a28c	0.066228
45	0xbbf03e78	-0.0073316656
46	0x3d121dc3	0.035672914
47	0x3dc113d9	0.09427614
48	0x3e503ba0	0.20335245
49	0xbc0d28e4	-0.008615706
50	0x3d823d46	0.06359343
51	0x3c3d443d	0.011551914
52	0x3dd6a377	0.10480397
53	0x3e75860f	0.2397692
54	0x3e4c8c2f	0.19975351
55	0x3d3978be	0.045281164
56	0x3e42f4ca	0.19038692
57	0x3c3fd902	0.011709454
58	0xbd2115d1	-0.039327446
59	0x3e3b7830	0.18307567
60	0x3e5de37a	0.21668807
61	0x3d7705e0	0.060308337
62	0x3dc8f43a	0.098122075
63	0xbd8eaba1	-0.06966329
64	0x3d75ca04	0.06000711
65	0x3e3044be	0.17213723
66	0x3e0b1625	0.13582666
67	0xbda3f7f6	-0.08006279
68	0x3d97de7e	0.07415484
69	0xbd9c50e2	-0.07632615
70	0x3db75236	0.08951227
71	0xbdb97bc3	-0.09056809
72	0x3d7a1ada	0.061060764
73	0x3b99140d	0.0046715797
74	0x3e6d7b47	0.23191558
75	0x3db713f5	0.089393534
76	0x3da44d4c	0.08022556
77	0x3ccd34da	0.025049616
78	0x3b74eb31	0.003737163
79	0x3d7804c0	0.060551405
80	0x3e62e7b2	0.22158697
81	0x3de8087e	0.11329745
82	0x3d4ee76b	0.050513666
83	0x3e734044	0.23754984
84	0x3d180827	0.03711715
85	0x3e2cc602	0.16872409
86	0x3e3bcecc	0.18340605
87	0x3d84adc8	0.06478459
88	0x3cd30149	0.025757449
89	0x3de44e0d	0.111476995
90	0x3d8061b8	0.06268638
91	0x3c941937	0.01807843
92	0x3d5ae64b	0.05344228
93	0x3e4372f4	0.1908682
94	0xbd9b21e2	-0.07574822
95	0x3de2e7d9	0.11079378
96	0x3d01e5ec	0.03171341
97	0x3e5df61d	0.21675916
98	0x3e0beab2	0.13663748
99	0xbd0e83e7	-0.03479376
100	0xbd7caf33	-0.06169052
101	0x3d6e3a04	0.058160797
102	0x3d6515fe	0.055929177
103	0x3e177e29	0.1479422
104	0x3e1bffb2	0.15234259
105	0x3dfed29e	0.12442516
106	0x3c8687f7	0.016422255
107	0x3e6f464d	0.23366661
108	0xbc479d24	-0.012183461
109	0x3d5540a5	0.052063603
110	0xbd1bb0dc	-0.038010463
111	0x3e461812	0.1934512
112	0x3e147b91	0.14500262
113	0x3e4ccd77	0.20000254
114	0xbd2839e9	-0.041070852
115	0x3e6810cc	0.22662657
116	0x3e26a62f	0.16274332
117	0x3e3e6574	0.18593389
118	0x3dcc03f5	0.09961692
119	0x3c6947ba	0.014238292
120	0xbcee0b0f	-0.029058008
121	0x3e43acec	0.19108933
122	0x3e56b019	0.20965613
123	0x3dc4d993	0.096118115
124	0x3d4b4b0c	0.049632117
125	0x3e2710fd	0.16315074
126	0xbc87e224	-0.016587324
127	0x3d8d435d	0.06897614

q_out.weight f4 [5, 128]
0	0xbe54d057	-0.207826
1	0x3d118a44	0.03553225
2	0xbdf48e33	-0.11941185
3	0xbc33a37c	-0.010964271
4	0xbdb288bf	-0.087174885
5	0xbd25b3a8	-0.040454537
6	0xbd598d19	-0.053113077
7	0x3d4e01b0	0.050294578
8	0xbdad36f1	-0.08457745
9	0xbdbfa800	-0.09358215
10	0xbe2079c2	-0.15671447
11	0x3cc75d40	0.024336457
12	0xbd076556	-0.033055626
13	0x3cd70295	0.026246348
14	0xbe2aba9f	-0.16672753
15	0xbdcd27e5	-0.10017375
16	0xbe2c51d5	-0.16828091
17	0xbb1019c9	-0.0021988025
18	0xbc770ae9	-0.015078285
19	0xbe0f1393	-0.1397231
20	0xbe160bf9	-0.14653005
21	0x3b668e80	0.0035180151
22	0xbe3e8054	-0.18603641
23	0xbdb80cd6	-0.08986823
24	0x3d6cfeaa	0.057860054
25	0xbe4ac871	-0.19803025
26	0xbe0f81d0	-0.14014363
27	0xbd9e7422	-0.07736994
28	0x3d0b88bf	0.034065958
29	0xbe204a6d	-0.15653391
30	0x3d84f1b3	0.06491413
31	0x3d59d471	0.053181116
32	0xbe05fad7	-0.13083969
33	0xbe291dd2	-0.16515282
34	0xbde4d4a8	-0.111733735
35	0xbcf5dbac	-0.030011974
36	0x3d390671	0.04517216
37	0xbe00a8b6	-0.12564358
38	0x3d2268dc	0.039650783
39	0x3cdf671c	0.027270846
40	0x3cd0fe10	0.025511771
41	0xbe2e6fbd	-0.17034812
42	0xbe0b3d2c	-0.13597554
43	0xbd2909fe	-0.041269295
44	0xbd897b9a	-0.06713028
45	0xbd1aacad	-0.037762333
46	0xbbb1c8ee	-0.005425564
47	0xbdc411f4	-0.09573737
48	0xbe3491ff	-0.17633818
49	0x3d5a0188	0.053224117
50	0x3d13abd1	0.03605253
51	0x3d2a0df2	0.041517206
52	0xbe0e13f2	-0.13874796
53	0xbda9ff48	-0.08300644
54	0xbe470298	-0.19434583
55	0xbdf6d7fe	-0.12052916
56	0xbe457312	-0.19282177
57	0x3ca73c3a	0.02041446
58	0xbd8f5521	-0.06998659
59	0xbe2de14b	-0.16980474
60	0xbe32d66e	-0.17464611
61	0x3d751ecf	0.059843834
62	0xbe0c8968	-0.13724291
63	0x3c98a1ba	0.018631805
64	0x3daf2160	0.08551288
65	0xbe4024da	-0.18764058
66	0xbdba8927	-0.09108191
67	0x3d201dcf	0.039090928
68	0xbd3b8a50	-0.045786202
69	0x3d92bc80	0.0716486
70	0xbe30345b	-0.17207472
71	0xbd1bb084	-0.038010135
72	0x3d91dc05	0.071220435
73	0x3d5c90e6	0.053849123
74	0xbd908b9c	-0.070578784
75	0xbe1384f8	-0.14406192
76	0xbcf169e3	-0.029469436
77	0xbd153fbc	-0.036437735
78	0x3db0c227	0.086307816
79	0x3c9071e5	0.017632434
80	0xbe3b220a	-0.18274704
81	0xbdf12144	-0.11773923
82	0x3d3e9e53	0.04653771
83	0xbda8c15c	-0.082400054
84	0x3c8038aa	0.01565202
85	0xbe4388d8	-0.1909517
86	0xbdc5d4b9	-0.09659714
87	0x3cd78358	0.026307747
88	0xbd42fcaf	-0.04760426
89	0xbd62ca17	-0.05536851
90	0xbc241f66	-0.010017252
91	0xbdc31fff	-0.09527587
92	0x3d20271b	0.039099794
93	0xbe406a5a	-0.1879057
94	0xbd930f33	-0.071806334
95	0xbe40a362	-0.18812326
96	0xbd5196c7	-0.051169183
97	0xbe41730a	-0.1889154
98	0xbe3640d3	-0.17798166
99	0x3d73ef7e	0.05955457
100	0x3d076476	0.03305479
101	0xbdc1c37a	-0.09461112
102	0xbdafa636	-0.08576624
103	0xbda4194c	-0.080126375
104	0xbe058060	-0.13037252
105	0xbd277081	-0.040878776
106	0xbbb735fc	-0.0055911522
107	0xbe420e3b	-0.18950741
108	0x3d8cdb70	0.06877792
109	0x3d0e6a39	0.03476927
110	0xbdaae675	-0.083447374
111	0xbe33abf4	-0.17546064
112	0xbe467e1c	-0.19384044
113	0xbdc84a03	-0.097797416
114	0x3d053356	0.03251966
115	0xbe3b3f6e	-0.18285915
116	0xbe008628	-0.12551177
117	0xbda26162	-0.079287305
118	0xbe48fbfc	-0.19627374
119	0x3d0758d8	0.033043712
120	0x3c56de6c	0.013114553
121	0xbe1a8462	-0.15089563
122	0xbe3ca157	-0.18420921
123	0xbd46e2a7	-0.048555996
124	0xbdaf93f2	-0.0857314
125	0xbe1f60a2	-0.15564206
126	0xbcfbcd8e	-0.030737665
127	0x3d1ea4d5	0.038731415
128	0xbe43d936	-0.19125828
129	0x3cde2c83	0.027120834
130	0xbd939ff6	-0.072082445
131	0xbc5c5de8	-0.013450123
132	0x3d3d2eb1	0.046187107
133	0xbe05ac9b	-0.13054125
134	0x3d99917f	0.07498454
135	0x3d349e66	0.044096373
136	0xbdacbdaa	-0.08434613
137	0xbdfaa560	-0.12238574
138	0xbdd0089e	-0.101578936
139	0xbd969ab5	-0.07353727
140	0xbd0d0cea	-0.034436144
141	0xbe0b9f34	-0.1363495
142	0xbdea0914	-0.11427513
143	0xbe534e70	-0.2063539
144	0xbe4d4edf	-0.20049618
145	0x3d06c9ce	0.0329073
146	0xb9658e42	-0.00021892137
147	0xbdfc274e	-0.12312184
148	0xbd7b7a4b	-0.061395925
149	0x3d82ac0a	0.0638047
150	0xbdce7f1f	-0.1008284
151	0xbe4caa9b	-0.19986956
152	0xbd85f558	-0.06540936
153	0xbe179c51	-0.14805724
154	0xbe18c3f1	-0.14918496
155	0xbe0ae899	-0.13565291
156	0x3d2aa4e9	0.041661177
157	0xbe037dd4	-0.12840968
158	0x3d687d85	0.05676033
159	0xb9847beb	-0.00025269328
160	0xbe0ef9f6	-0.1396254
161	0xbe23111b	-0.15924494
162	0xbe07b43d	-0.13252349
163	0xbd5a70fe	-0.053330414
164	0xbd848960	-0.06471515
165	0xbe4f7617	-0.20259891
166	0xbc435726	-0.011922633
167	0x3cc6251c	0.024187617
168	0x3dac7aca	0.08421858
169	0xbe3a1c30	-0.18174815
170	0xbe297a1f	-0.16550492
171	0xbd817787	-0.06321626
172	0xbe11c339	-0.14234628
173	0xbd984a40	-0.07436037
174	0x3d9d561b	0.07682439
175	0xbd0edef8	-0.03488061
176	0xbe372b6a	-0.17887655
177	0x3d282dc3	0.041059267
178	0x3bb13716	0.005408178
179	0xbd11dec0	-0.03561282
180	0xbd46ff97	-0.048583593
181	0xbe3e0d60	-0.1855979
182	0xbd1e4e06	-0.038648628
183	0xbdc8d405	-0.098060645
184	0xbe3ebad6	-0.1862596
185	0x3d4ed6dd	0.05049788
186	0x3c63ea41	0.013910831
187	0xbe546e1f	-0.20745133
188	0xbd243a53	-0.040094685
189	0x3d0082a9	0.031374607
190	0xbe569335	-0.20954593
191	0x3c10e5e5	0.008843874
192	0x3d1b245a	0.037876464
193	0xbe431e6a	-0.19054571
194	0xbe097dbc	-0.1342687
195	0x3cdfce05	0.027319917
196	0xbdf53ad2	-0.1197411
197	0x3d99bad3	0.07506337
198	0xbd1fbca6	-0.03899827
199	0xbd05f0b0	-0.03270024
200	0x3d4695bd	0.048482645
201	0xbd84586b	-0.06462177
202	0xbe2ef866	-0.17086944
203	0xbd9e7366	-0.07736854
204	0xbdd3281d	-0.103103854
205	0xbdab9582	-0.08378126
206	0x3d898d66	0.06716423
207	0x3bb25faf	0.0054435353
208	0xbdcb322f	-0.09921681
209	0xbe13e871	-0.14444138
210	0x3d99368f	0.07481109
211	0xbe28f43a	-0.16499415
212	0xbd432141	-0.047639135
213	0xbe18b947	-0.14914428
214	0xbddb9e6c	-0.10723576
215	0x3c742454	0.014901239
216	0xbd502e78	-0.050825566
217	0xbd9a0274	-0.07519999
218	0xbca378b9	-0.019955026
219	0xbdce98ce	-0.10087739
220	0xbb17fb31	-0.0023190493
221	0xbe37aef0	-0.17937827
222	0x3d9e1c17	0.077202015
223	0xbe4447a0	-0.19167948
224	0xbc0c3111	-0.00855662
225	0xbe359525	-0.17732675
226	0xbd7386e7	-0.059454825
227	0x3d7a3774	0.06108804
228	0xbd446740	-0.04795003
229	0xbd4e18ca	-0.05031661
230	0xbda6b54b	-0.08140048
231	0xbd29b38c	-0.041430995
232	0xbddd7ba9	-0.10814602
233	0xbe39365e	-0.18087146
234	0xbdb8accf	-0.090173356
235	0xbe50df0c	-0.20397586
236	0x3cc5d535	0.024149517
237	0x3c8bc0c1	0.017059686
238	0xbd9656de	-0.07340787
239	0xbe554b0a	-0.20829406
240	0xbcca1108	-0.024666324
241	0xbe04bc15	-0.12962373
242	0xbdc38507	-0.09546857
243	0xbd9dfc7a	-0.07714172
244	0xbe37ca27	-0.17948209
245	0xbe382db3	-0.17986183
246	0xbe4f24e9	-0.20228924
247	0x3d02e763	0.03195895
248	0xbb8bfd26	-0.004272121
249	0xbded5351	-0.11588157
250	0xbd5af541	-0.05345655
251	0xbe4aa397	-0.19788967
252	0xbd547e77	-0.05187842
253	0xbe4a1b86	-0.19737062
254	0x3c5b21be	0.013374744
255	0xbd45606f	-0.04818767

q_out.bias f4 [5]
0	0xbd975866	-0.073899075
1	0xbd8baab4	-0.068196684
2	0xbd90c5b8	-0.07068962
3	0xbdf8efef	-0.12155139
4	0xbdde4af3	-0.10854139
