models/q_ind_agent_1.pt (torch, 108061 bytes, 6 tensors)

fc1.weight f4 [128, 71]
0	0xbe6387e3	-0.22219805
1	0x3dccf8aa	0.100083664
2	0x3cb2c85b	0.021824053
3	0xbcee09a1	-0.029057326
4	0x3d536275	0.051607568
5	0x3d7cfbaf	0.06176346
6	0x3d8c65e7	0.06855374
7	0xbd590d23	-0.052991044
8	0xbd29c4e5	-0.04144754
9	0xbd7a09ff	-0.06104469
10	0xbbe9050d	-0.007111198
11	0xbd94c97b	-0.07264992
12	0xbc91dd49	-0.017805712
13	0xbdd1f9ea	-0.102527454
14	0xbd4f3c12	-0.050594397
15	0xbd205caa	-0.03915087
16	0x3cf15ec3	0.029464131
17	0xbc763009	-0.015026101
18	0xbcb76f68	-0.02239199
19	0xbd155517	-0.0364581
20	0x3db22714	0.0869886
21	0x3c8df40b	0.017328283
22	0x3c8a5ffa	0.016891468
23	0xbd48ffe0	-0.049072146
24	0xbe056b5e	-0.13029239
25	0xbe1c3a2e	-0.15256569
26	0xbd8461d8	-0.06463975
27	0x3af21b63	0.0018471297
28	0xbbc2f560	-0.005949661
29	0x3b6c0d1c	0.0036018556
30	0xbd7ec810	-0.062202513
31	0xbc0bbd35	-0.008528997
32	0xbe3e8cd4	-0.18608409
33	0x3c0c47b2	0.008562015
34	0x3c4d5b04	0.012533907
35	0x3d33d76f	0.043906625
36	0xbdd6c0d0	-0.10485995
37	0x3dc88126	0.09790258
38	0xbbd4d881	-0.006495536
39	0xbd956fc9	-0.07296712
40	0x3dec52ee	0.11539255
41	0x3d1084e1	0.035282973
42	0x3d56af84	0.05241348
43	0x3d9fe73c	0.07807776
44	0x3da5f1b1	0.081027396
45	0xbd8e9501	-0.06962014
46	0x3db201af	0.08691727
47	0xbd1f44e0	-0.038884044
48	0xbe0c423d	-0.13697143
49	0x3d6042a2	0.054751046
50	0x3cc9f944	0.024654992
51	0xbc2df329	-0.010617056
52	0x3dd9fccc	0.1064392
53	0xbde13f88	-0.10998446
54	0xbdb48cda	-0.08815928
55	0x3e2c1d5f	0.16808079
56	0x3d302d80	0.043012142
57	0x3def794a	0.11693056
58	0xbd4095f6	-0.047018014
59	0xbe509718	-0.20370138
60	0xbcc94b07	-0.024571909
61	0xbd505687	-0.05086377
62	0xbdda16f5	-0.1064891
63	0xbda3491e	-0.0797293
64	0x3d04adc2	0.03239227
65	0xbd279bcf	-0.040920075
66	0x3d4b10f8	0.04957673
67	0xbd48432d	-0.04889219
68	0xbde41026	-0.111358926
69	0xbe376403	-0.17909245
70	0xbd7b0093	-0.061279844
71	0xbdebc6ec	-0.11512551
72	0xbde66cbb	-0.112512074
73	0xbd1ea98f	-0.038735922
74	0x3daa2ff3	0.08309927
75	0xbc2ba40f	-0.010476126
76	0xbc273f1b	-0.010207917
77	0xbd583077	-0.052780595
78	0xbda7a38a	-0.081854895
79	0xbdc7d8ef	-0.09758174
80	0xbc8b12b2	-0.016976688
81	0xbdab37e2	-0.08360268
82	0xbc76d3a4	-0.0150651075
83	0x3dedb718	0.11607188
84	0x3ceb5968	0.028729156
85	0xbd7bf144	-0.061509386
86	0x3d4c8f8b	0.04994158
87	0xbdc1cda6	-0.094630525
88	0xbd4954d5	-0.049153168
89	0xbd49f94a	-0.049310006
90	0x3d9e8002	0.07739259
91	0xbde95098	-0.11392325
92	0xbcced41e	-0.02524763
93	0x3d8db09e	0.06918453
94	0xbda69497	-0.0813381
95	0xbd8a6abe	-0.06758641
96	0x3db0580e	0.08610545
97	0x3d1326b5	0.035925586
98	0xbc91d8dd	-0.017803604
99	0xbdccacff	-0.09993934
100	0xbc908611	-0.017642053
101	0x3dcad754	0.09904352
102	0xbdc887ce	-0.09791528
103	0x3b6538a8	0.0034976397
104	0x3d1f501c	0.038894758
105	0xbd8918df	-0.06694197
106	0xbddae2ab	-0.10687765
107	0xbddf38b2	-0.10899486
108	0xbdc4abb2	-0.09603061
109	0xbdee4673	-0.11634531
110	0x3db4961e	0.08817695
111	0xbd4e8e55	-0.050428707
112	0x3c0eaa60	0.008707613
113	0x3ddefdba	0.10888238
114	0x3d96ce22	0.073635355
115	0xbd8d4e34	-0.06899682
116	0x3cf30d6f	0.029669492
117	0x3d90e39c	0.07074663
118	0xbcafc2c8	-0.021455184
119	0xbda578c7	-0.08079677
120	0xbd79e265	-0.061006922
121	0xbd2bad82	-0.041913517
122	0xbdb80a89	-0.089863844
123	0x3d1a309c	0.037644014
124	0x3dd31f80	0.103087425
125	0xbde7b83e	-0.11314438
126	0xbdc01eb2	-0.09380855
127	0x3df1ae15	0.11800782
128	0xbcbd0733	-0.023074722
129	0x3c123329	0.00892333
130	0xbdb0a573	-0.08625307
131	0xbc9708a3	-0.018436735
132	0x3dc626a5	0.096753396
133	0x3ddc5432	0.107582465
134	0x3dd6498f	0.10463249
135	0xbcce5772	-0.025188182
136	0x3c26fc31	0.010191963
137	0x3d8f1743	0.06986859
138	0x3cdf363b	0.027247539
139	0x3c9c9564	0.019114204
140	0x3cba9b0a	0.022779007
141	0xbbe3608e	-0.0069390005
142	0xbe86965e	-0.26286596
143	0x3dc5a7cf	0.096511476
144	0xbcaaa58d	-0.020830894
145	0xbd8c5f29	-0.06854088
146	0x3d86c7ad	0.06581054
147	0x3c89af08	0.016807094
148	0x3d3c0d76	0.045911275
149	0xbc90b314	-0.017663516
150	0xbd7af189	-0.061265502
151	0xbd40899e	-0.047006242
152	0xbd881207	-0.066440634
153	0xbdcb91cb	-0.09939917
154	0xbcd62efd	-0.026145453
155	0x3cfe6f7c	0.03105902
156	0x3df706aa	0.12061818
157	0xbce5aaaf	-0.02803549
158	0xbd57cb4a	-0.052684106
159	0xbdfb0069	-0.122559376
160	0xbd56742f	-0.052356895
161	0xbd90c3b0	-0.070685744
162	0x3d7cdf6b	0.061736505
163	0x3de5b4e1	0.112161405
164	0x3d8e5a34	0.06950799
165	0x3d66d767	0.056357767
166	0xbdea3294	-0.11435428
167	0x3cef32b9	0.029198991
168	0xbd669d2d	-0.05630224
169	0xbd9ace45	-0.07558874
170	0x3d49d6b3	0.04927702
171	0x3e190cba	0.14946261
172	0x3db79411	0.08963788
173	0xbd0f9170	-0.03505081
174	0xbd5889b7	-0.05286571
175	0xbda572dc	-0.08078548
176	0x3d989df6	0.07452004
177	0x3ca32685	0.019915828
178	0xbc827615	-0.015925447
179	0xbca96770	-0.020679206
180	0xbdf45c7a	-0.11931701
181	0xbe01c5aa	-0.12673059
182	0xbe17bd0c	-0.1481821
183	0x3cfad07d	0.030616993
184	0xbdfd4b4c	-0.12367877
185	0x3e0d3bdb	0.13792364
186	0x3c4ab33d	0.012371835
187	0xbe0d1fbb	-0.13781635
188	0xbda308f5	-0.07960693
189	0x3ceb2bf4	0.028707482
190	0xbe605213	-0.21906309
191	0xbd672cf2	-0.056439348
192	0x3d00242b	0.031284492
193	0xbb625722	-0.0034536798
194	0x3db512d6	0.08841483
195	0xbe68b473	-0.22725086
196	0xbe0991d0	-0.1343453
197	0x3e52315d	0.20526643
198	0x3ddc5da4	0.10760048
199	0x3df613d6	0.12015502
200	0x3deb06b7	0.1147589
201	0xbd73ed0e	-0.059552245
202	0xbd15e908	-0.03659919
203	0xbda37a1d	-0.07982276
204	0xbce87efd	-0.028380865
205	0xbde065d6	-0.10956924
206	0xbdacb25a	-0.08432455
207	0x3cdeb5e6	0.027186345
208	0xbe355fca	-0.17712322
209	0xbdcb71e4	-0.09933832
210	0xbe1ba5d9	-0.15199985
211	0xbe0da515	-0.13832505
212	0xbe1365de	-0.14394328
213	0xbe41b24c	-0.18915671
214	0x3d95620e	0.07294093
215	0x3cf50cec	0.029913388
216	0xbe656d78	-0.2240504
217	0x3e1e2e92	0.15447453
218	0x3deddef2	0.11614789
219	0x3e0141fd	0.12622829
220	0x3ddc8f56	0.10769527
221	0xbbb73af8	-0.0055917464
222	0x3d854c5a	0.065087035
223	0x3d10dd09	0.035367046
224	0x3d53c037	0.051696982
225	0x3d7af68c	0.06127028
226	0xbe4afe5e	-0.19823596
227	0xbe14d933	-0.1453598
228	0xbe45f034	-0.19329911
229	0x3cae6677	0.021289093
230	0xbd39e5f9	-0.045385335
231	0xbe0e63e7	-0.13905297
232	0xbdaf2338	-0.08551639
233	0xbd0c97d2	-0.034324475
234	0x3cd54adb	0.02603667
235	0xbb83b2d8	-0.0040191226
236	0x3db1a21f	0.086735
237	0xbd2aeb8a	-0.041728534
238	0xbd867eae	-0.06567131
239	0xbd5cbad1	-0.0538891
240	0x3caf1edb	0.021377018
241	0xbdb0f677	-0.086407594
242	0x3dfdd2d0	0.12393725
243	0x3d135113	0.03596599
244	0xbe24c99c	-0.16092533
245	0x3d241638	0.040060252
246	0xbc4be4db	-0.0124447
247	0xbdcc5bad	-0.09978423
248	0xbddcc90e	-0.10780536
249	0xbde38ac8	-0.11110455
250	0xbd8710b0	-0.0659498
251	0x3d5a65f1	0.053319875
252	0xbdf73ff0	-0.12072742
253	0x3d74c210	0.059755385
254	0xbdbc2c4f	-0.09188139
255	0xbd0fee8d	-0.03513961

fc1.bias f4 [128]
0	0xbd02066c	-0.031744406
1	0x3c62622f	0.013817354
2	0x3be0d52c	0.0068613496
3	0xbdfa53dc	-0.12223026
4	0x3e8899e7	0.26679918
5	0x3ddcf9fd	0.10789869
6	0x3e6a138a	0.22859016
7	0x3de780f2	0.11303891
8	0x3e2b82d0	0.1674912
9	0xbd9a5796	-0.07536237
10	0x3daed0d2	0.08535923
11	0x3db94f4c	0.09048328
12	0x3d0f1fda	0.034942485
13	0x3e813840	0.25238228
14	0x3e09445e	0.13404986
15	0x3e4e3b29	0.20139755
16	0x3e0a215c	0.13489288
17	0x3dda4a3d	0.10658691
18	0xbc139fbe	-0.0090102535
19	0x3e888427	0.26663324
20	0xbcd9d890	-0.026592523
21	0x3e7e2abd	0.24820991
22	0x3e1a6e8b	0.15081231
23	0x3e0be8b4	0.13662988
24	0xbca9a8e0	-0.020710409
25	0x3d8ee766	0.069777295
26	0x3e69e152	0.22839859
27	0x3e286b6d	0.1644723
28	0x3db05feb	0.08612045
29	0x3da3948b	0.07987317
30	0x3e90441f	0.28176972
31	0x3db14a99	0.086568065
32	0x3e5f7b46	0.21824369
33	0x3d976b34	0.07393494
34	0x3e193824	0.14962822
35	0x3d0c8138	0.03430292
36	0x3e06965d	0.13143297
37	0x3dd2cf20	0.10293412
38	0x3dd1d5b9	0.102458425
39	0x3e7e7bbe	0.24851891
40	0x3e8c6b1e	0.27425474
41	0xbcdef8ca	-0.027218241
42	0x3e850fc6	0.25988597
43	0x3e928f7c	0.28625095
44	0xbc96c6dd	-0.018405372
45	0xbd811a39	-0.0630383
46	0x3dfff10a	0.124971464
47	0x3dc2b8af	0.09507882
48	0x3e8879f8	0.26655555
49	0x3e4aa0ca	0.19787899
50	0x3dfb8301	0.122808464
51	0x3dcb7d68	0.09936029
52	0x3da6af8b	0.08138951
53	0x3e83ad8c	0.25718343
54	0x3d3cafbf	0.046066042
55	0x3e30d58f	0.17268966
56	0x3e1aeefa	0.15130225
57	0x3c864cd5	0.016394058
58	0xbd60ee54	-0.054914787
59	0x3e9abb1e	0.30220884
60	0x3e0445b7	0.12917219
61	0x3e88f8c7	0.26752302
62	0x3e42eaf7	0.19034944
63	0x3e4722a5	0.1944681
64	0x3da45775	0.080244936
65	0x3e170f57	0.14751945
66	0x3db42d7a	0.087977365
67	0xbd9ea395	-0.077460445
68	0x3e88eefc	0.2674483
69	0x3b28a1fb	0.0025731314
70	0xbb8146fd	-0.00394523
71	0xbbab1370	-0.005220823
72	0xbdb85ee6	-0.090024754
73	0x3e2e31d2	0.17011192
74	0xbc64bacb	-0.013960551
75	0x3e00e5c3	0.12587647
76	0x3dddb942	0.10826351
77	0x3e4bb09b	0.19891588
78	0x3e8d6dd7	0.27622864
79	0x3d1fc629	0.03900734
80	0x3dbb9f89	0.09161288
81	0x3d80a67a	0.06281753
82	0x3d0b1667	0.03395691
83	0x3deaba29	0.114612885
84	0x3e7b8401	0.24562074
85	0xbd658ba0	-0.05604136
86	0x3d7cb7ec	0.06169884
87	0x3e2516b0	0.16121936
88	0x3dca86b6	0.09888975
89	0x3e77aac4	0.24186236
90	0xbdbf14e4	-0.093301564
91	0x3d7f6c3e	0.062359087
92	0x3e837fa7	0.25683329
93	0x3e4fd48b	0.20295922
94	0x3e058095	0.13037331
95	0x3d1ef5a1	0.03880847
96	0x3e92a2ba	0.28639776
97	0x3e384def	0.1799848
98	0x3d8a85fa	0.06763835
99	0x3e2652cd	0.16242523
100	0x3da824fe	0.08210181
101	0x3da6a814	0.08137527
102	0x3e829f75	0.2551228
103	0x3e2decc7	0.16984855
104	0x3dadc718	0.0848524
105	0x3e57eafc	0.21085733
106	0xbc0d4759	-0.008622968
107	0x3e45e2db	0.1932482
108	0x3dadaf84	0.084807426
109	0x3e00a27a	0.1256198
110	0x3d255ca3	0.04037155
111	0x3d80079f	0.062514536
112	0x3d19d5f3	0.037557553
113	0xbd1bd45f	-0.03804433
114	0x3e501b05	0.20322807
115	0x3b4f51e2	0.00316345
116	0x3e09b785	0.13448913
117	0x3e853892	0.26019722
118	0x3db44877	0.08802884
119	0xbdc00fd3	-0.09378018
120	0x3e4bf2cf	0.19916843
121	0xbca5fa7f	-0.020261047
122	0x3e171935	0.1475571
123	0x3e57dbb1	0.210799
124	0x3e743c8b	0.2385122
125	0x3dce5488	0.10074717
126	0x3e8e5b82	0.2780419
127	0x3dca4813	0.09877028

fc2.weight f4 [128, 128]
0	0xbe6400bf	-0.2226591
1	0xbda50cbd	-0.0805907
2	0xbeb958fb	-0.362007
3	0xbe8d48bc	-0.27594554
4	0x3cf10a08	0.029423729
5	0x3db9ddce	0.09075509
6	0xbcaf253e	-0.021380063
7	0xbcb74165	-0.02237005
8	0x3d6eb173	0.058274698
9	0xbcfec1e4	-0.031098314
10	0x3dbc94f1	0.09208096
11	0x3d67574b	0.056479733
12	0x3dd1d582	0.102458015
13	0x3d6844fc	0.056706414
14	0xbb6e183e	-0.0036330367
15	0x3d2da5ed	0.042394567
16	0x3e194ac6	0.1496993
17	0xbd0e7367	-0.034778025
18	0xbec7bb77	-0.39010212
19	0x3d812377	0.063055925
20	0xbee73ff7	-0.4516599
21	0x3df8f422	0.1215594
22	0x3d38756e	0.045033865
23	0x3d8ce21f	0.06879067
24	0xbec9a989	-0.39387158
25	0x3c826340	0.015916467
26	0xbccd80ab	-0.025085768
27	0xbe2f2951	-0.17105605
28	0xbeb46eda	-0.35240823
29	0xbe412347	-0.18861113
30	0xbcf520cf	-0.02992287
31	0x3e367ac5	0.1782027
32	0xbcb1cd25	-0.021704266
33	0xbedadd34	-0.4274689
34	0xbe31558d	-0.17317791
35	0x3d5c7008	0.05381778
36	0xbda30289	-0.07959468
37	0x3e1c66f5	0.1527365
38	0x3d771c78	0.060329884
39	0xbcaff3ed	-0.021478618
40	0x3cc43761	0.023952188
41	0x3d3285db	0.043584686
42	0xbd70e34b	-0.058810513
43	0xbd25d7ad	-0.040488888
44	0xbefca42e	-0.4934401
45	0xbed4f14e	-0.4159035
46	0x3d47b56b	0.048756998
47	0x3db9c19e	0.09070133
48	0x3dcb9219	0.09939975
49	0x3d90402d	0.070434906
50	0x3ce2d402	0.027688984
51	0x3e056a15	0.13028748
52	0xbcb2d65d	-0.021830732
53	0x3d708422	0.05871976
54	0xbf0a4c59	-0.5402275
55	0x3db15013	0.08657851
56	0xbc6388d5	-0.013887604
57	0xbece2d89	-0.40269116
58	0xbf07b59b	-0.5301148
59	0xbdb5a4e3	-0.0886934
60	0xbe9f47a9	-0.3110936
61	0x3d836d7f	0.06417369
62	0xbc8ea5b8	-0.017413005
63	0x3d8dc902	0.06923105
64	0x3d8202b2	0.0634817
65	0x3d89b638	0.067242086
66	0xbe1cc4c4	-0.15309435
67	0xbed05f10	-0.40697527
68	0xbe4cf2c4	-0.20014483
69	0xbf05cdcb	-0.5226714
70	0xbcf0f6fb	-0.029414644
71	0xbea82fb8	-0.32848907
72	0xbf0f94fd	-0.56086713
73	0x3de48c7b	0.11159607
74	0xbece5b7c	-0.40304172
75	0xbe834480	-0.256382
76	0x3c030ece	0.007999135
77	0x3df0bbd3	0.117545746
78	0x3985043f	0.000253709
79	0xbeff7630	-0.49894857
80	0x3d9d7bde	0.076896414
81	0xbf0cd6c1	-0.5501519
82	0xbee2ba93	-0.4428297
83	0x3c23d5db	0.009999718
84	0x3cd618a9	0.026134806
85	0xbebee694	-0.37285292
86	0xbe4c4ec8	-0.19951928
87	0x3d9f7865	0.07786635
88	0x3d1b5866	0.0379261
89	0x3dd76fab	0.10519346
90	0xbefd88c3	-0.49518403
91	0x3d09b651	0.033621136
92	0x3d8ab851	0.06773437
93	0x3da47389	0.08029849
94	0xbc92bdcc	-0.017912768
95	0xbee5f225	-0.44911304
96	0x3d9d2930	0.076738715
97	0x3dc7f47a	0.09763427
98	0x3d14a5cb	0.036290925
99	0x3e0a16d0	0.13485265
100	0x3dcdc668	0.100476086
101	0x3df8b91c	0.12144682
102	0x3e734f48	0.23760712
103	0x3df450ed	0.11929498
104	0xbe4fe441	-0.20301916
105	0x3e14c226	0.14527187
106	0x3b77a923	0.0037790022
107	0x3dadc525	0.08484868
108	0xbe4cb711	-0.1999171
109	0x3d01482d	0.031562973
110	0xbe06b579	-0.13155164
111	0x3ddb3d2a	0.107050255
112	0xbe93a9b1	-0.28840402
113	0xbeeb66bb	-0.45976815
114	0xbd534945	-0.051583547
115	0xbf1381a3	-0.57619685
116	0x3d2dc528	0.04242435
117	0x3d952753	0.07282891
118	0x3e2045c1	0.15651609
119	0xbef4b0e3	-0.47791204
120	0x3d363485	0.04448368
121	0xbed99bd1	-0.4250169
122	0x3d59e6ea	0.053198732
123	0x3e283fa7	0.16430531
124	0x3d5473e5	0.05186834
125	0x3cae7806	0.021297466
126	0x3dce6423	0.10077693
127	0x3d86c195	0.065798916
128	0xbe7acbb3	-0.24491768
129	0x3d0de661	0.034643535
130	0xbe2de425	-0.16981561
131	0xbe5352c1	-0.20637037
132	0x3ee890d0	0.45422983
133	0x3e4a68bd	0.19766517
134	0x3e0fce04	0.14043432
135	0x3dd17488	0.10227305
136	0x3dbb6e8b	0.09151944
137	0x3d7dce30	0.061964214
138	0x3dcb5529	0.099283524
139	0x3daac1d7	0.08337753
140	0x3dadbcb6	0.084832594
141	0x3e08d447	0.13362227
142	0x3da97af2	0.08275403
143	0x3d8e651f	0.06952881
144	0x3e5d1763	0.21590953
145	0x3d3ac3d5	0.045596916
146	0xbdb60d07	-0.088892035
147	0x3da483bf	0.08032941
148	0xbd9f5743	-0.07780316
149	0x3da3715a	0.079806045
150	0x3d747faa	0.059692062
151	0x3e63702e	0.22210762
152	0x3d3e7e8f	0.046507414
153	0x3dec8e46	0.11550574
154	0x3e7d385e	0.24728534
155	0x3eca794b	0.39545664
156	0xbe8ed794	-0.27898848
157	0xbe968ae5	-0.29402843
158	0x3e3b3a89	0.18284048
159	0x3f028723	0.5098745
160	0x3d45899c	0.048226938
161	0xbd9045e5	-0.07044581
162	0x3bc2b90d	0.00594247
163	0x3e620cfd	0.22075267
164	0x3e121f7f	0.14269827
165	0x3f0614c0	0.5237541
166	0x3e0d215e	0.1378226
167	0x3e0b80ee	0.13623402
168	0x3dbbf8e5	0.09178332
169	0xbd642653	-0.05570061
170	0x3e468749	0.19387545
171	0x3d43e905	0.047829647
172	0xbe52901b	-0.20562784
173	0xbdbcc192	-0.09216608
174	0x3e2bcaf3	0.16776638
175	0x3e6a6269	0.22889103
176	0x3ddda966	0.10823326
177	0x3dbaef61	0.09127689
178	0x3ec26356	0.37966412
179	0x3d8a4623	0.06751659
180	0x3e37733d	0.17915054
181	0x3d970d06	0.07375531
182	0xbe55bf0b	-0.20873658
183	0x3dc289b5	0.09498922
184	0x3e2cbd52	0.16869095
185	0xbe3537cf	-0.1769707
186	0x3cae48b5	0.021274904
187	0x3d07190e	0.03298288
188	0xbdb5561c	-0.08854315
189	0x3e469fc4	0.19396883
190	0x3e452ff8	0.1925658
191	0x3e400237	0.18750845
192	0x3dd51cbb	0.104058705
193	0x3e082cc8	0.13298333
194	0x3e5dcb9f	0.21659707
195	0xbdb6e3d2	-0.08930172
196	0x3e6a6009	0.22888197
197	0xbd92c27b	-0.071660005
198	0xbe511f3f	-0.20422076
199	0xbe09c4a9	-0.13453926
200	0xbd41e31a	-0.04733572
201	0x3d7fe659	0.062475536
202	0xbead3eb8	-0.33836913
203	0x3d759ff9	0.059967015
204	0x3e5ea44d	0.21742363
205	0x3de49452	0.11161102
206	0x3e7b0cae	0.24516556
207	0xbd8a1fdd	-0.06744359
208	0x3e3e8aab	0.18607585
209	0x3c64e0c1	0.013969601
210	0xbd98d243	-0.07461979
211	0x3d88e387	0.066840224
212	0x3dce287e	0.10066317
213	0xbd5b3043	-0.053512823
214	0xbe339fbf	-0.17541407
215	0x3e5035ec	0.2033307
216	0x3e326086	0.17419633
217	0x3db9cd8c	0.09072408
218	0xbd18940c	-0.037250564
219	0x3e33fc41	0.17576696
220	0x3dac42e2	0.084111944
221	0x3dd6004e	0.10449277
222	0x3e0ccb17	0.13749348
223	0xbd3493e4	-0.044086352
224	0x3de2a5f1	0.11066807
225	0x3e18c141	0.1491747
226	0x3e85e98d	0.26154748
227	0x3e2bf8ba	0.167941
228	0x3d5529b7	0.052041736
229	0x3dcd8ca4	0.10036591
230	0x3eb9aead	0.3626608
231	0x3e23999f	0.1597657
232	0x3da70c55	0.08156649
233	0x3e27a89b	0.16372912
234	0x3b848fbc	0.004045455
235	0x3e08cff5	0.1336058
236	0x3d8ffffe	0.070312485
237	0x3de49523	0.11161258
238	0x3c207029	0.009792366
239	0x3e725b07	0.23667537
240	0xbeaa6911	-0.33283284
241	0xbcb5937e	-0.022165056
242	0x3df05e4a	0.11736734
243	0xbe5c428f	-0.21509765
244	0x3e443895	0.1916221
245	0x3ec2b788	0.38030648
246	0x3dabc9f4	0.08388129
247	0xbe86df99	-0.26342466
248	0x3debda2c	0.11516222
249	0xbc83ed4d	-0.016104365
250	0x3e3ffcd6	0.18748793
251	0x3dd9c67c	0.10633561
252	0x3e55b555	0.20869954
253	0x3ee87dcc	0.45408475
254	0x3e488f06	0.19585809
255	0x3e42f5e4	0.19039112

fc2.bias f4 [128]
0	0xbc81a1a7	-0.015824152
1	0x3e6a1948	0.22861207
2	0x3c6a503f	0.014301359
3	0x3e647241	0.2230921
4	0x3e3e430d	0.18580265
5	0x3d181a50	0.03713447
6	0x3e21a61e	0.15786025
7	0x3dfae34a	0.12250383
8	0xbca878ef	-0.020565478
9	0x3e71609f	0.23572014
10	0xbd455dd8	-0.0481852
11	0x3daa822e	0.08325611
12	0x3deda3b9	0.11603493
13	0x3e0ce94a	0.13760868
14	0x3e28ba58	0.16477334
15	0x3db82018	0.089904964
16	0xbd5669c0	-0.052346945
17	0x3dfe6821	0.12422205
18	0x3d5d9f6a	0.054107107
19	0xbc8e825f	-0.01739615
20	0x3e179d9b	0.14806215
21	0x3b72a582	0.003702492
22	0xbdb4e359	-0.088324256
23	0x3e0e48a6	0.138949
24	0x3d91d32c	0.07120356
25	0xbce60991	-0.028080733
26	0x3e4c4f81	0.19952203
27	0x3e1b12fb	0.15143959
28	0xbd9baa6b	-0.07600864
29	0xbd70f2bc	-0.05882524
30	0x3d0a3b29	0.033747826
31	0xbdacf54a	-0.08445223
32	0x3e06e11a	0.13171807
33	0x3e08e21c	0.13367504
34	0x3e52f9ae	0.20603058
35	0x3dd5269a	0.10407753
36	0x3d9315c9	0.071818896
37	0x3e7f09e7	0.24906121
38	0x3deff57f	0.117167465
39	0x3dd29d0e	0.10283862
40	0x3d972e51	0.07381881
41	0x3c4e1ac0	0.01257962
42	0x3e585d3a	0.21129313
43	0x3e4b25f2	0.19838694
44	0x3e6c5e02	0.23082736
45	0xbbb46274	-0.0055049006
46	0x3cb2c2a5	0.02182133
47	0x3d6f27b1	0.058387462
48	0x3e4e5d9a	0.20152894
49	0xbce9a3bb	-0.028520456
50	0x3bd72676	0.006565864
51	0xbc337377	-0.010952822
52	0x3d1a3fef	0.037658628
53	0x3deb3206	0.114841506
54	0x3e5bebc3	0.21476655
55	0x3db1176e	0.08647047
56	0x3dd4d530	0.10392225
57	0x3cbbb41f	0.022913037
58	0x3e3266a9	0.17421974
59	0xbd864e68	-0.065579236
60	0x3cb37201	0.021904947
61	0x3e648a43	0.22318368
62	0x3d8dc339	0.069220014
63	0x3e6c0045	0.23046978
64	0xba790271	-0.000949896
65	0x3da3d206	0.07999043
66	0xbd4129b4	-0.04715891
67	0x3d83e990	0.06441033
68	0x3e019adf	0.12656735
69	0x3dafc795	0.08582989
70	0x3dfd0c91	0.123559125
71	0x3e0d92cc	0.1382553
72	0x3e765384	0.24055296
73	0x3d8e05c5	0.06934694
74	0x3e4613e1	0.1934352
75	0xbd1cb586	-0.03825905
76	0xbd63a092	-0.055573054
77	0x3e474af0	0.1946218
78	0x3e125656	0.14290747
79	0x3d940466	0.072274014
80	0x3ce029fe	0.027363773
81	0x3bf91601	0.0076015
82	0x3e249497	0.16072308
83	0xbdae9f35	-0.0852646
84	0x3db86004	0.090026885
85	0x3dff36dc	0.124616355
86	0xbd724d00	-0.059155464
87	0x3dde10ff	0.108430855
88	0x3b54d1fd	0.0032473796
89	0x3e13aca2	0.14421323
90	0x3d0782f4	0.03308387
91	0x3e16a4ad	0.14711256
92	0x3d443e06	0.047910713
93	0x3cf38e7d	0.02973103
94	0xbd362993	-0.044473242
95	0x3e28f174	0.16498357
96	0xbba48007	-0.005020145
97	0x3e205e30	0.1566093
98	0x3e20f6d6	0.1571916
99	0x3c080751	0.008302526
100	0x3da03e40	0.07824373
101	0x3c8eb955	0.017422358
102	0x3e4da6e8	0.20083201
103	0x3d541d0d	0.051785517
104	0x3de98627	0.11402541
105	0xbd393cb4	-0.045223907
106	0x3e3c99a6	0.18417987
107	0x3dffe49a	0.12494774
108	0x3b9393a7	0.0045036855
109	0x3e47b394	0.19502097
110	0x3e33a73f	0.17544268
111	0x3e1c6c85	0.15275772
112	0x3e0cdce6	0.13756141
113	0xbce8a7e1	-0.028400363
114	0x3e16419b	0.14673464
115	0xbd98ef2d	-0.07467494
116	0x3e0140a5	0.12622316
117	0x3df0f9e6	0.11766414
118	0x3e67a1a2	0.22620252
119	0x3e45b902	0.19308856
120	0x3e647d54	0.22313434
121	0x3e416fa9	0.18890251
122	0xbdbfa201	-0.09357072
123	0x3dc0db0d	0.094167806
124	0x3e6d1df9	0.23155965
125	0xbd98ad80	-0.074549675
126	0x3e595282	0.2122288
127	0xbcaa2450	-0.020769268

q_out.weight f4 [4, 128]
0	0x3e4bad96	0.19890437
1	0x3e6438e5	0.22287329
2	0xbca4219e	-0.020035561
3	0x3d93aeb6	0.07211058
4	0x3e5a3266	0.21308288
5	0x3e4f70f7	0.20257936
6	0x3e182713	0.14858656
7	0x3e70a28a	0.23499504
8	0xbc2a1880	-0.010381818
9	0x3e69d868	0.22836459
10	0xbdd7fa9e	-0.10545848
11	0xbca8ad75	-0.020590523
12	0x3e6db60a	0.23213974
13	0x3e577be6	0.21043357
14	0x3e4b7eb1	0.19872548
15	0x3e51b9da	0.20481053
16	0x3d19fd3c	0.03759502
17	0x3deab42d	0.11460147
18	0x3c3e9880	0.0116330385
19	0xbd5cbbb5	-0.05388995
20	0x3e9e14d3	0.30875263
21	0xbd88240a	-0.06647499
22	0xbe4ecae1	-0.2019458
23	0x3e34f5e9	0.17671932
24	0x3c82c6f2	0.015964005
25	0xbdf57278	-0.11984724
26	0x3e28eb5f	0.16496037
27	0x3e17c291	0.14820315
28	0xbe5283a2	-0.20558026
29	0xbb9917ff	-0.00467205
30	0x3bfb4587	0.0076682004
31	0xbe381b79	-0.1797923
32	0x3e11ff4d	0.14257546
33	0x3e5bfca8	0.214831
34	0x3e260374	0.16212255
35	0x3e3c3483	0.18379407
36	0x3d9e9f89	0.07745273
37	0x3ea78238	0.32716537
38	0x3e0e0e5b	0.13872664
39	0x3e400bbb	0.18754475
40	0x3e774102	0.24145892
41	0xbe23c04c	-0.15991324
42	0x3e3e0cdf	0.18559597
43	0x3e5a7dd8	0.21337068
44	0x3e68c0a8	0.22729743
45	0xbc937069	-0.017997937
46	0xbd38f897	-0.04515895
47	0xbdf5b88a	-0.11998089
48	0x3eb87fdd	0.36035052
49	0xbe0bd5e6	-0.13655815
50	0xbd9845a8	-0.07435161
51	0xbd0be010	-0.03414923
52	0x3bc1a07e	0.0059090247
53	0x3d8c416f	0.06848418
54	0x3ddf2e1a	0.10897465
55	0x3e00cd1f	0.12578247
56	0x3d6cbb00	0.057795525
57	0xbd5e8cb2	-0.054333396
58	0x3e432b95	0.19059594
59	0xbd972309	-0.07379729
60	0xbd8a7cf9	-0.06762118
61	0x3db791ce	0.08963357
62	0x3cd4d133	0.02597866
63	0x3e62eea4	0.22161347
64	0xbae9b7c8	-0.001783126
65	0x3dd95418	0.10611743
66	0x3d135964	0.03597392
67	0x3c81dc74	0.01585219
68	0x3e47b228	0.19501555
69	0x3e0d783d	0.13815399
70	0x3e74e3e7	0.23915063
71	0x3d919f40	0.07110453
72	0x3e875cb9	0.2643793
73	0x3d9be836	0.0761265
74	0x3e4b232e	0.19837639
75	0x3ce78ef5	0.02826641
76	0xbd9e37e7	-0.07725506
77	0x3e459eeb	0.19298904
78	0x3db07e7b	0.08617874
79	0xbe26b4b6	-0.16279873
80	0xbd95b9bd	-0.073108174
81	0xbc1637d3	-0.009168583
82	0x3e4f0b32	0.20219114
83	0xbd96d820	-0.07365441
84	0x3da9a8ef	0.08284175
85	0x3e0baa5a	0.13639203
86	0xbe1e25be	-0.15444085
87	0x3e23847f	0.15968512
88	0xbd91bdfc	-0.07116315
89	0x3dd2503b	0.10269209
90	0xbc7dc414	-0.015488643
91	0x3ea967c6	0.33086985
92	0x3d1671ab	0.036729496
93	0xbd294d00	-0.0413332
94	0xbca352b9	-0.019936906
95	0x3e8d8aeb	0.27645048
96	0xbe41cf52	-0.18926743
97	0x3d9e7373	0.07736864
98	0x3e0f17c1	0.13973905
99	0xbdaaf448	-0.08347374
100	0x3dee98f9	0.11650271
101	0xbe5ee8de	-0.2176852
102	0x3e432016	0.19055209
103	0xbc2927fe	-0.010324476
104	0x3ded9258	0.116001785
105	0xbd7b00d0	-0.06128007
106	0x3e33df63	0.17565684
107	0x3d3e221a	0.04641924
108	0xbcf6cfbf	-0.030128358
109	0x3eae33f4	0.34024012
110	0x3e0a8b04	0.13529593
111	0x3db3a2cc	0.087712854
112	0x3e1069f1	0.14102913
113	0xbe37dd6e	-0.17955562
114	0x3daeb5f0	0.085307956
115	0x3db070c5	0.08615259
116	0x3e4be163	0.19910197
117	0x3cd43ff0	0.025909394
118	0x3e16bddf	0.14720868
119	0x3e269852	0.16269043
120	0x3e489492	0.19587925
121	0x3e61801e	0.22021529
122	0xbdf1d877	-0.118088655
123	0x3cfd3fe2	0.03091425
124	0x3e6d1ab4	0.23154718
125	0x3cab8c23	0.020940846
126	0x3e8b2850	0.27179193
127	0xbd885136	-0.06656115
128	0x3df56b14	0.11983314
129	0x3da4ab96	0.0804054
130	0x3d4fa567	0.05069485
131	0x3e1164c9	0.14198603
132	0x3e475025	0.19464166
133	0x3dedba93	0.11607852
134	0x3e629788	0.22128117
135	0x3e054639	0.13015069
136	0xbd2eecef	-0.042706426
137	0x3e0f1bae	0.13975403
138	0xbeb3e794	-0.35137618
139	0xbc037db8	-0.008025579
140	0x3de7dc53	0.113213204
141	0x3d80184f	0.062546365
142	0x3e63cf64	0.22247082
143	0x3e11450e	0.14186499
144	0x3e7a77dc	0.24459785
145	0x3e2a9e1e	0.1666188
146	0x3db5582f	0.0885471
147	0xbe6d5159	-0.23175563
148	0x3e88d2d8	0.2672336
149	0x3dddd5fd	0.10831831
150	0xbe0c63a6	-0.13709888
151	0x3e67ac70	0.22624373
152	0x3e10a294	0.14124519
153	0xbe426273	-0.18982868
154	0x3e6926b8	0.22768676
155	0x3e1b2aa8	0.15152991
156	0xbe244737	-0.16042791
157	0xbe7a8a9c	-0.24466938
158	0xbd8368dd	-0.064164855
159	0xbddc4d36	-0.10756914
160	0x3e3a3703	0.18185048
161	0x3e4a2dbb	0.19744007
162	0x3e5aebde	0.21379039
163	0x3e438b14	0.19096023
164	0xbca95a62	-0.02067298
165	0x3ede013c	0.43360317
166	0x3dc7ab40	0.0974946
167	0x3e20d33b	0.15705578
168	0x3dd4f4f8	0.103982866
169	0xbe0a7fa3	-0.13525252
170	0x3d927f5c	0.07153198
171	0x3dada5ab	0.08478864
172	0x3e565a21	0.20932819
173	0x3a4d9102	0.0007841737
174	0x3cfe1d92	0.03101996
175	0xbdec0435	-0.1152424
176	0x3e803d98	0.25046992
177	0x3d8d6fc3	0.069060825
178	0x3b8fc7e1	0.004387841
179	0xbd98c4d5	-0.07459418
180	0xbd7e1d33	-0.062039565
181	0x3e5048b4	0.20340234
182	0x3e51056b	0.20412223
183	0x3e598d75	0.21245368
184	0x3deb6c62	0.11495282
185	0x3d3129ac	0.043252632
186	0x3d71f467	0.05907097
187	0xbd985a67	-0.07439118
188	0xbcdd9862	-0.0270502
189	0x3e1fcff8	0.15606678
190	0xbd86dba4	-0.06584862
191	0x3e238a2e	0.1597068
192	0xbd3765c3	-0.044774782
193	0x3e7fd62c	0.24984044
194	0xbd8f6fcb	-0.07003745
195	0x3e07e22a	0.13269868
196	0x3e4de5c3	0.20107178
197	0x3e66bf11	0.22533824
198	0x3e42c4eb	0.1902043
199	0x3e603946	0.21896848
200	0x3eaa3731	0.33245233
201	0xbd804f8a	-0.06265171
202	0x3ed48a04	0.41511548
203	0xbcc25dc1	-0.023726346
204	0xbdaebf1f	-0.08532547
205	0x3e401cdc	0.18761009
206	0x3e4191cf	0.18903278
207	0xbe1b6e67	-0.15178834
208	0xbd745899	-0.059654806
209	0xbd8e8c9d	-0.069604136
210	0x3d88b182	0.06674482
211	0xbd823e9c	-0.06359598
212	0x3db7c185	0.08972458
213	0x3df350d4	0.11880651
214	0xbe610555	-0.2197469
215	0x3e469092	0.19391087
216	0xbe31dc64	-0.17369229
217	0xbcc524d0	-0.024065405
218	0xbd043f73	-0.032287072
219	0x3ecfa202	0.4055329
220	0xbd90d31f	-0.07071518
221	0x3e6f6295	0.2337745
222	0x3cb810f4	0.022469021
223	0x3e90916a	0.28235942
224	0xbe97d9db	-0.29658398
225	0x3e4004cb	0.18751828
226	0x3e28a5f0	0.1646955
227	0xbe10eba3	-0.14152388
228	0x3e393a15	0.18088563
229	0xbe4adaaf	-0.19809984
230	0x3e4f1af2	0.20225123
231	0x3a56e942	0.000819821
232	0x3e5ba65f	0.21450184
233	0x3d79912a	0.060929455
234	0x3e27f562	0.164022
235	0x3dd052e5	0.10172061
236	0xbd06ef28	-0.03294292
237	0x3e3d17d0	0.18466115
238	0x3dc1f480	0.09470463
239	0x3e1afefb	0.1513633
240	0x3e42327d	0.18964572
241	0xbe56ece2	-0.20988801
242	0x3dbe9e9a	0.093075946
243	0xbd68da84	-0.056849018
244	0x3db30fc7	0.08743244
245	0x3e3a24d4	0.18178111
246	0x3e1d20f1	0.15344597
247	0x3e3edc8b	0.18638818
248	0x3e520fe0	0.20513868
249	0x3dfb0eb8	0.12258667
250	0xbe4d33bb	-0.20039265
251	0xbdc533cd	-0.09629021
252	0x3e20cb1f	0.15702485
253	0xbd28cc18	-0.041210264
254	0x3e93b0c4	0.288458
255	0xbd6da1c7	-0.05801561

q_out.bias f4 [4]
0	0x3d8eed3d	0.06978843
1	0x3e1968eb	0.1498143
2	0x3db0b4db	0.086282454
3	0x3d8bf3d5	0.06833617
