models/q_ind_agent_0.pt (torch, 108061 bytes, 6 tensors)

fc1.weight f4 [128, 71]
00000000: 898d 103e 3aa5 323e db52 5d3b 4fa4 01bd
00000010: 03eb db3d cbad d03c 1532 663e 702d 9a3d
00000020: 0572 9a3d f13d de3d 7c6c 903e 77b1 213d
00000030: fcad 0d3e 74d1 edbd b90c c3bd 68bf 933e
00000040: 6ccb 443e e3be 483e ba29 213e 75a7 433e
00000050: d250 2fbd 67ab 2cbd 8f61 30bb 81ca fa3d
00000060: 0eb3 223e 0fd9 693e abe6 313d 8a7c 843b
00000070: 64c2 aabd 0373 2d3e d999 6c3e bd49 403e
00000080: 7396 543d c476 673e f618 abbc 813c 773c
00000090: 045f 0f3d 38e1 0a3e 5e69 d53c 222e 373e
000000a0: 63b0 913d 86d6 a33d 3c29 13be ed7d a8bd
000000b0: cade 9f3d 6ff6 a1bc 45e3 1c3e 1627 ff3d
000000c0: 2d31 693d a74e b1bd a9b6 c5bd a53c c13d
000000d0: 7b0d 3c3e ca3d 9e3b fc62 df3d 8588 163e
000000e0: 3156 40be 19c8 96bc df32 753e 339d 483e
000000f0: 122e 503e 607b 813d 9e27 b83d 5e53 323e
00000100: d8da ba3d 6675 0c3e 6068 5c3e dc75 0a3e
00000110: b58e f93d ff71 e0bc aecb 3fbc cc5e 39bc
00000120: ab1f 4cbd c371 323d dca9 8fbe 9a59 b43e
00000130: 833f 3b3e 354b 033c dfcb 003d 78b2 0a3d
00000140: 9cd1 933d bf96 2c3e 0926 073e 7536 a43d
00000150: c7d8 7a3d 3ef4 113e 533c 27bd f88b 153e
00000160: fbdd 0abe 0eb3 b0bd d685 a7bd a042 e03d
00000170: 70d9 123e cb62 703b 4592 6c3e 656c 533e
00000180: 18c5 093d 7906 27bd 59d7 533e f32f 423e
00000190: ada0 ff3d a975 183e a1d8 a03e dd67 303e
000001a0: 0e36 dcbd d847 653e 5c6e e73d 47e8 d53d
000001b0: ceb0 bd3d 594e 013e 1a0d 51bd 5232 273e
000001c0: f90e 143e c6d7 263e 4553 843d 37b1 053e
000001d0: df4e 303e ff3d 333e 8bc5 c93d 080c 833e
000001e0: 5761 bc3d 370b 613d ee99 f83d c345 943d
000001f0: 35f5 e63d 62cb 933d 4f13 0e3e 2626 593d
00000200: b5ca e53c 7c91 463e f2f0 2b3e 8cfc b4bd
00000210: 188d 253e 8aa2 253e fc34 d53d 1b25 073e
00000220: f9ec 4b3e 96e2 0a3e 0add a13c b8ff 9a3d
00000230: 7022 4b3e 9b08 4b3e d764 523e 8e08 95bd
00000240: f90b e83c ce41 d6bd 31fb 4cbd d3d8 5b3d
00000250: cfec c13b 9644 393d 9f73 a9bd 23d1 cfbc
00000260: 4ff1 f9bc d418 c0bc ce1d ecbd 5d75 9b3d
00000270: bdab 85ba 6d12 48bd de9e 0cbd 2663 2dbe
00000280: db5f c3bd f339 cebd bc7f 203e eb22 bf3d
00000290: 30f9 813d 35e7 8f3c 4399 33be 512b 3abe
000002a0: 8162 4d3c 6fe6 4b3e 6548 fb3d 8403 dbbd
000002b0: b3be 683d 5f2a 7bbd 4236 b1bc d63a 23be
000002c0: 914c ccbd a4d7 85bd 53be fdbc be21 2f3d
000002d0: 30f9 e3bd 64c9 7abd dc19 ebbd 7fcf afbd
000002e0: 258e dc3d 4644 4b3d a93c 50bb c50d aebd
000002f0: cd58 70bd 2627 d9bd 5479 b6bd 0a04 28bc
00000300: 9afb 8abd 9f17 133d 7c0f 83bd 09f6 37bd
00000310: 6522 46be 8491 01be ef7b a53d 15f0 37bd
00000320: 1c88 043c 0cc1 1abe 4fb5 6bbd 8471 5bbe
00000330: e283 29be cfb8 92bd 18fe 113e bf7c 143d
00000340: c24f 26be 49ec 46be 973d 0ebd 4f20 c63c
00000350: ec36 19be 2186 283d 083d 37bc a6c3 b1bd
00000360: b3ec de3d da5b 61be 5f8c 95be 4958 7d3e
00000370: 9205 883d 51f6 b23d a949 9dbc 87ab 8cbd
00000380: b6fa 0fbe 9db9 413e baa3 183e 0cdd 133e
00000390: 753b 233e 9c62 0f3c f129 303e 4f5d d4b9
000003a0: 5e9c 673d 6902 adbc 72ec 8ebc 747f 623d
000003b0: 1897 3fbd c8a6 a93a 8427 11be 2581 353e
000003c0: 341c 6e3e fa9b e23d 084e 29bc d489 9cbc
000003d0: 6d40 b93b 2a57 37be 2be7 423e 4ea5 373e
000003e0: fa58 3e3e 1c53 c1bc d9e1 5f3d 1db2 403c
000003f0: 4523 c5ba 9e89 c6bb de80 30bd 2aa1 2f3e
0.14116491 0.17445841 0.003377131 -0.031650838 0.10738184 0.025473496 0.22480042 0.07528198
0.07541279 0.10851658 0.28207767 0.039475884 0.13835901 -0.11612216 -0.09523911 0.2885697
0.19218224 0.19604068 0.15738574 0.19106849 -0.042801686 -0.04215565 -0.0026913618 0.12245656
0.15888616 0.22836708 0.043432873 0.0040431665 -0.08337858 0.16938405 0.23105563 0.18778129
0.051901292 0.22603899 -0.020885926 0.015090109 0.035002723 0.13562477 0.02605122 0.17888692
0.07113721 0.079999015 -0.14371198 -0.082271434 0.078061655 -0.019770829 0.15321071 0.12458627
0.056931663 -0.0865758 -0.0965398 0.09435395 0.18364517 0.004829143 0.10907552 0.14700516
-0.1878288 -0.01840596 0.23945187 0.19591217 0.20330074 0.0632236 0.089919314 0.17414615
0.091237724 0.13716659 0.21524191 0.13521522 0.12185422 -0.027398108 -0.011706276 -0.011314105
-0.04983489 0.043565523 -0.2805928 0.3522461 0.18285947 0.008013536 0.031444427 0.033861607
0.07217714 0.1685438 0.13198103 0.08018199 0.06124189 0.14253327 -0.040829014 0.14604175
-0.13561241 -0.08627902 -0.08179824 0.10950208 0.14340758 0.003667998 0.23102672 0.20646818
0.03363523 -0.040777657 0.20687617 0.18963604 0.12481818 0.14888634 0.31415275 0.1722712
-0.107524976 0.22390687 0.11300346 0.10444694 0.092622384 0.12627544 -0.051037885 0.1632779
0.14458837 0.16293249 0.06461195 0.13055883 0.17217587 0.17504118 0.098521315 0.25595117
0.091982536 0.054942336 0.12138735 0.072398685 0.11277238 0.072165266 0.13874553 0.053014897
0.02805076 0.19391435 0.16791132 -0.08837232 0.16167104 0.16175285 0.104104966 0.13197748
0.19914617 0.13562998 0.01975872 0.07568306 0.19837356 0.19827501 0.2054628 -0.07277022
0.028326022 -0.1046177 -0.050044242 0.053673577 0.0059181224 0.045231424 -0.08274006 -0.025368279
-0.030510573 -0.023449339 -0.11529122 0.07590745 -0.0010198277 -0.048845697 -0.034331195 -0.16932353
-0.09539767 -0.10069647 0.15673727 0.09332832 0.06346357 0.017566303 -0.17538933 -0.18180586
0.012535692 0.19912122 0.122696675 -0.1069403 0.05682249 -0.061319705 -0.021632317 -0.15940413
-0.099755414 -0.06535271 -0.030974543 0.04275679 -0.11131513 -0.061227217 -0.11479542 -0.085844986
0.107692994 0.049625657 -0.0031774438 -0.0849872 -0.058678437 -0.1060317 -0.0890986 -0.010254869
-0.067862704 0.0359112 -0.06399438 -0.04491237 -0.19349058 -0.12653166 0.08080279 -0.044906694
0.008089092 -0.15112704 -0.057545956 -0.21430022 -0.16554216 -0.07164156 0.14257085 0.03625178
-0.16241363 -0.19426073 -0.034726705 0.024185328 -0.14962357 0.04114354 -0.011183985 -0.08679895
0.108849905 -0.22007695 -0.29208657 0.2474071 0.066416875 0.087383874 -0.019200163 -0.06868654
-0.14060482 0.18918462 0.14906207 0.14439791 0.1594065 0.008751538 0.172035 -0.0004050531
0.056545608 -0.021119313 -0.01744673 0.05529733 -0.046774954 0.0012943381 -0.1417523 0.17725046
0.23252946 0.110649064 -0.0103335455 -0.01910869 0.005653432 -0.17904344 0.19033496 0.17934152
0.1858863 -0.0235992 0.054658744 0.0117612155 -0.0015040418 -0.0060588857 -0.043091647 0.17151323

fc1.bias f4 [128]
00000000: a85d 6f3e 91a8 aa3d a917 0bbd 7e28 c23c
00000010: 5c50 443e bfaa 183e 1b38 303e 9940 d6bc
00000020: 8abd 07ba 9076 ed3d 6c3d 543e d148 313e
00000030: 11f4 4e3e 3b29 5c3e d53d 3e3e 4164 543b
00000040: 4d14 02be 1975 1bbd 1ace c03d 2a9e f1bd
00000050: 03b1 d5bd 419c 343e cd22 493d 4231 8e3e
00000060: a44f eabd 2a36 a73c 4c86 a13d 625a eb3d
00000070: 6b89 573e 95d1 68bc 7def 153d 0f5a 623e
00000080: 2647 af3c 2dc4 023e 5ae5 4f3e 1306 a03e
00000090: b6de a63e 2488 3a3e ca90 cabd 38b4 d33d
000000a0: 800d 36bd 2153 813e 9246 1d3e eb53 93bc
000000b0: ab7d 783e 48e6 3a3e a3ab 963e 4785 833e
000000c0: 915c 1b3e aca5 f13d 9bb0 813e 2668 7e3e
000000d0: 3f7f b2bc c58a a63e ba29 db3d d923 c53d
000000e0: cf6a 2d3e 4210 413e 4b3a 783d c503 863e
000000f0: 7e5c 8a3e af69 d43c 64d7 a4bc caf9 153e
00000100: 25b5 a93e d557 8b3e 707b fcbb 9efe ccbd
00000110: 4784 513e 302d 7b3e 3573 223c 4373 f23d
00000120: a096 8a3e ddec fe3d 2d0c 0c3e 8a8d 323e
00000130: 22ee 803e e4ff 7b3e a9ed e1bd 2b1e 633e
00000140: 6375 163e 37d3 943e d66f 433e 0cb2 4b3e
00000150: af04 a13e 0a73 933e 00f0 b63d 826c 95bd
00000160: 99e3 5b3e f7bc 583e 27e0 863e d968 983e
00000170: c58d 993d 4691 293d 688f 893e c0f5 d13d
00000180: d068 063e e86f a53e c3ba 393e 2da4 073e
00000190: 1db4 6b3e 351d 3c3e e2d0 a6bd 2f59 bdbd
000001a0: 2ffd d93d d2bf 79bd 4b07 26bd 07b1 473e
000001b0: edbf c73d 3ec0 093d d839 863e 80a3 f1bc
000001c0: cd3f 043e e173 d63c 8d8f b13e c04e c5bc
000001d0: 6d14 d83c f794 a9bd 8784 1b3e 4900 023d
000001e0: b3de 603e 2c4c 8c3e aead b5bd 704b d3bd
000001f0: f79c 8d3e 1bf5 0c3e 922d 433e 34d7 ac3d
0.23375571 0.08332933 -0.03395811 0.023700949 0.1917128 0.14908884 0.17208903 -0.02615385
-0.0005178085 0.115948796 0.20726556 0.17312934 0.20210291 0.21500103 0.18578275 0.0032408389
-0.12703057 -0.03795347 0.09414311 -0.117977455 -0.10434153 0.17637731 0.049105454 0.27771956
-0.114409715 0.02041157 0.07886943 0.114918485 0.21048515 -0.0142101245 0.036605347 0.22104667
0.02139623 0.12770148 0.20302334 0.31254634 0.3259179 0.18215996 -0.098908976 0.103371084
-0.04444647 0.25258735 0.15358952 -0.017984351 0.24266689 0.18251908 0.29427823 0.2568762
0.1517203 0.117991775 0.25330052 0.24844417 -0.021789191 0.32527748 0.10701318 0.09625978
0.16935275 0.18853858 0.060602468 0.2617475 0.2702369 0.0259293 -0.020122238 0.14646068
0.33146015 0.27215448 -0.0077051446 -0.10009502 0.20460616 0.24528956 0.009915163 0.11838391
0.27068043 0.12447522 0.1367652 0.17436805 0.2518168 0.24609333 -0.11031658 0.22179477
0.14693217 0.29067394 0.19085631 0.19892138 0.31448886 0.28798705 0.08932495 -0.07296087
0.2147354 0.21165834 0.2634289 0.29767492 0.074977435 0.04139831 0.26867223 0.10251951
0.1312592 0.3231194 0.1813765 0.13246222 0.23017927 0.18370517 -0.0814531 -0.09245526
0.10643994 -0.06097395 -0.0405343 0.19501124 0.09753404 0.033630602 0.26216006 -0.029496908
0.12914963 0.026178302 0.34679833 -0.024085402 0.026376927 -0.08280366 0.15187274 0.031738553
0.21959953 0.27401865 -0.088710174 -0.10317123 0.27658817 0.13765375 0.19060352 0.08439484

fc2.weight f4 [128, 128]
00000000: 737b 203e d8b4 083e e231 e0bd dde4 c1bd
00000010: db1d 873e 8f8a 333e 00af 933e 4219 4cbe
00000020: 73f0 01be 238e 143e 2a43 d93d b13c 073f
00000030: 5f8f 113e 2e7f 4c3e a819 453e 1dcb 843e
00000040: defc 64bd 7005 f2bd 6f46 553e fc82 3bbe
00000050: 9699 3c3e 67a0 c23d bdfc 3dbe ac00 5f3e
00000060: 548b 22be b685 233e 1177 27be 209a 863e
00000070: c402 a63d 22c1 f1bc efdf 83be 9884 543e
00000080: 8a68 4d3d 81ef d33d 8c0a 063f 15b3 5e3e
00000090: b571 cc3d fe9a d53e a01f 5cbe 2870 023e
000000a0: f4e7 70be 7d98 ca3e 8e20 123e 6e39 073e
000000b0: 8cf2 6d3d 6447 303e 19a3 3a3e 9d7a 0c3e
000000c0: 0680 933e f6e1 123e bff7 663e c10d 4c3e
000000d0: a684 d7bd 8ecf e23c abcc f63e 8899 1b3e
000000e0: 0f64 893d 0297 c13d 6fec 9b3e b298 083e
000000f0: 0456 413e b1c6 52be bb4f 22be a68a cf3e
00000100: 4520 503e 7de8 543d 832c 81bd a494 94be
00000110: 77e7 da3d 630f a83d 9b53 67bd 612f 3e3e
00000120: 3808 ff3d 9af3 253e f104 c63e 9d8b 753e
00000130: 4734 b33d d97b cb3d 6e54 923d 07c7 f03d
00000140: 2124 2d3e 3127 e53d fae7 973e 4e0a c63e
00000150: d57c 4b3e 833d 743e 9d08 1c3e 037a 4bbd
00000160: 4594 433e 6bc1 543e aae7 383e ab4d 3f3e
00000170: bfa6 a3bd 239e 92bd c40f 6b3e bc3e 1a3e
00000180: deb4 dc3d 6e42 813d 24e5 933d 4b0b df3e
00000190: c644 003e e41c 253e 0e32 38be a047 97be
000001a0: 13ef 2c3e da0a dabd e66c 2abe 8d67 143e
000001b0: 0e84 4b3e b54c 3fbe 8346 4c3e acc3 1abe
000001c0: f4da c13e 8491 02be 01ab 233d 6289 48be
000001d0: 7d1c 39bd eec2 20bd ee7f d23d badb 57be
000001e0: 4062 0b3e 3928 403e 3f58 68be eb3b 133d
000001f0: a8d5 e83d 6ae6 8a3e 4d89 203e 5bea 1ebe
00000200: c1c0 133e 075f 183e a79e 04be dc73 19bd
00000210: bafc 8b3e 0ab1 883e 1686 033e 5dea 8ebe
00000220: 3b66 1dbe 9a2e 553c b3bf 743e c0f9 ff3e
00000230: f19d 4f3e be8f 883e 4f9f 783e 0396 113e
00000240: 6058 aebb 508c 34be da18 873e d18e 24be
00000250: 1050 553e c59b 873d 6977 e6bd 28ad 513e
00000260: 4c14 26be bd81 533e 2a10 59be 6284 b73e
00000270: 0427 233e ab3b bdbd 675f a4be 7621 c83d
00000280: 6cad 24bd de7c 013e 2a19 e93e ab8a 563e
00000290: 4952 a23d 4c90 153f 2998 2bbe 7359 0e3e
000002a0: 539f b3be af12 ce3e c35d ad3d b3d1 213e
000002b0: 4332 373e 9199 043e c01d 113e e5e6 003e
000002c0: d022 513e 859c 3e3e 6703 2c3e 432e 703e
000002d0: e0ee d7bd b219 0d3e 6c11 b43d 1eea 613e
000002e0: 36f4 023c 752e 7b3e 1beb ab3e d74a 163e
000002f0: 2d18 463e 33d5 89be ac21 3cbe 0429 cd3e
00000300: 90c8 e83d a8db 753e 946e 40bd 4cf1 99be
00000310: 0ebf 623e 7ed5 633e b7a7 8fbd bd14 363e
00000320: 251f 493e ec61 7c3e 07d5 f43e 928d 383e
00000330: f126 203e 0814 853e 71d2 ba3c 6b96 663e
00000340: 8bbe db3d cba9 083e f509 583e f572 ac3e
00000350: 8f25 1c3e d1a3 153e 240b 513e b59e c5bd
00000360: f9c5 693e a64d 323e 7083 6b3e 239b 773e
00000370: 2a3e 77be 1ff5 20be a6e7 8c3e 8476 5e3e
00000380: 7565 323e 5717 083e 9d1d d83d 53ed 8b3e
00000390: 622c ec3d 1659 323e 6e0d 7bbe 8d89 98be
000003a0: 60e1 6c3e 17f5 c6bd 54b5 94be 2677 363e
000003b0: cfaf 3a3e 1ad5 88bd 786e 843e 0897 aebd
000003c0: f4b1 c23e f029 67bd d8d8 143e ccce bdbe
000003d0: d127 31be d117 073d cc84 063e a834 09be
000003e0: 44f6 463e b8e5 f83d ff41 2cbe d256 043d
000003f0: be97 7e3e 5ea0 403e 325b 563e a0d7 90bd
0.15672092 0.13350236 -0.109470144 -0.0946748 0.26389965 0.17533325 0.28844452 -0.1993151
-0.1268938 0.14507346 0.10608514 0.5282698 0.14214848 0.1997039 0.19248068 0.25936213
-0.055905215 -0.11817443 0.2082765 -0.18311685 0.18417963 0.095032506 -0.18553443 0.217776
-0.15873462 0.15968975 -0.16354014 0.26289463 0.08105996 -0.029511038 -0.25756785 0.20753706
0.050148524 0.10348416 0.52359843 0.21748002 0.099826254 0.41719812 -0.21496439 0.12738097
-0.23525983 0.39569464 0.14270231 0.13205501 0.05809264 0.17214733 0.1822628 0.13718648
0.28808612 0.1434401 0.22555445 0.19927122 -0.105233476 0.02768686 0.48203024 0.15195286
0.06708538 0.094526306 0.30453822 0.13339499 0.18880469 -0.20583607 -0.15850727 0.40535468
0.2032481 0.05197953 -0.06307318 -0.29019654 0.1068868 0.0820606 -0.056476217 0.18572761
0.124527395 0.16206208 0.38675645 0.2397904 0.087502055 0.099357314 0.0714501 0.117567115
0.16908313 0.11189116 0.29669172 0.38679737 0.19871838 0.2385159 0.1523766 -0.049676906
0.19099529 0.20776908 0.18057123 0.18681972 -0.07990789 -0.071590684 0.22955233 0.15062994
0.10776685 0.063114986 0.072214395 0.43563303 0.12526235 0.16124302 -0.17987844 -0.29546833
0.16888075 -0.10646601 -0.16643104 0.14492626 0.19874594 -0.18681605 0.19948773 -0.15113705
0.3786236 -0.12750822 0.039958004 -0.19583657 -0.045193184 -0.0392484 0.10278307 -0.21079913
0.13611698 0.18765344 -0.22689913 0.035945814 0.11368877 0.27128917 0.15677376 -0.15519087
0.14428999 0.1488 -0.12951146 -0.037464008 0.27341253 0.2669757 0.12844118 -0.2791318
-0.15371029 0.013011599 0.23901252 0.49995232 0.20275094 0.26672167 0.24279521 0.14217381
-0.0053205937 -0.1763165 0.26386148 -0.16070105 0.20831323 0.066215076 -0.112532444 0.2047621
-0.1621868 0.2065496 -0.21197572 0.35843188 0.15932852 -0.092398964 -0.32104036 0.09772007
-0.04020445 0.1264529 0.4552701 0.20951335 0.07925851 0.58423305 -0.16757263 0.1390131
-0.35082492 0.4024863 0.08465149 0.1580265 0.17890267 0.12949206 0.14171505 0.1258808
0.20423436 0.18614395 0.16798173 0.23455147 -0.10543609 0.13779333 0.087923855 0.22061965
0.007992795 0.2452944 0.3357781 0.14676987 0.1934516 -0.2692047 -0.1837222 0.40070355
0.11366379 0.24009573 -0.046980456 -0.30066907 0.22143194 0.2224941 -0.07014411 0.17781349
0.19640787 0.24646729 0.47818777 0.18022755 0.15639855 0.25991845 0.022805424 0.22518317
0.107297026 0.13346021 0.21097548 0.33681455 0.15248702 0.14613272 0.20414406 -0.096494116
0.22829427 0.17412433 0.22999358 0.24180274 -0.24144807 -0.15718506 0.27520484 0.21724898
0.17421515 0.13290153 0.10552523 0.27329502 0.11531903 0.17416796 -0.24516842 -0.29792443
0.23132849 -0.09714716 -0.29044592 0.17818889 0.18231128 -0.06681271 0.2586553 -0.08524901
0.38026392 -0.05643648 0.14535844 -0.37071836 -0.17300345 0.032981697 0.13136595 -0.13398993
0.1942988 0.121531904 -0.1682205 0.03230936 0.24862573 0.18811175 0.20933226 -0.07072377

fc2.bias f4 [128]
00000000: b8c0 2b3e bd01 883e ab35 4c3e aab4 9b3d
00000010: 5649 823e f397 3b3e 7622 893d 7be3 063d
00000020: cb5a b8bd acb1 92bd 24a1 013c 1ca0 8a3d
00000030: 1e08 7c3e e984 95bc cebf bd3d d198 70bc
00000040: 0f50 263d e321 17bd dc7b 9d3d 9449 853d
00000050: 80c2 843e 8bc0 193e a3a6 f13c 90f1 743e
00000060: b739 3cbd 0ef6 3abd 9235 9fbc 4fe2 3c3a
00000070: b409 173d 61c0 653e 9e67 d5bc a282 033d
00000080: f4f1 c83c a0d1 303e b497 5a3d 33ca 653c
00000090: 6c66 b9bc 1790 eb3c acd2 ebbc 0622 aa3d
000000a0: e605 183d 5f57 aa3c 320b 723d 3ee7 39bc
000000b0: 3d66 7d3b 7f0e 77bd c9ab 983d e7f7 a8bc
000000c0: f125 c13d b9a6 823d efc0 f7bc db23 b03d
000000d0: e43b 513d 96e5 1a3d 534e 113d bb7d 583e
000000e0: 94c7 1e3d 46eb 283e 06e6 adbc 84f5 7bbd
000000f0: ce06 6e3d 2dfe 193d 1861 283e 0bcf 113e
00000100: 8722 9cbd 949e 5dbc 7e15 673e 925e b4bd
00000110: 2d00 043c 932b 643e 9073 473c 80bc 393e
00000120: 05b4 28bd 27f9 cb3d b053 b1bc e308 78bd
00000130: bdec 9f3b ef55 28bd bcf8 803e aae6 91bd
00000140: 12d3 703d 3881 723e 5136 74bb 4e35 0b3e
00000150: e9ca 853d beb1 823d 6aca ac3c 5981 eb3c
00000160: df38 b2bd c203 8abd b4bd 07bc 8d04 1bbd
00000170: 5171 1f3d de4e 233e c1e1 7e3e ad07 403e
00000180: 5cc7 7abc 0ef4 b63b c513 e73d 49b2 a4bd
00000190: 4d1e 3a3d a3a3 85bd bde2 fc3d 457d 9f3c
000001a0: 49cc 673e 4f40 6bbd 061d 653e 13b3 6e3d
000001b0: 062a 99bb 7f16 163e ce74 8abc 5acb 3cbd
000001c0: 25dd 833e 6764 abbd ec6d 8b3e 077b 1bbc
000001d0: 3994 053d 1dfd c23b 1702 4b3e a661 d3bd
000001e0: 80ce 733e eb27 743e 0aca 683d 3b83 b53d
000001f0: 2e8e 4e3e 9458 643b fbaa d5bc bd60 4abd
0.16772735 0.26563826 0.19942348 0.07602818 0.25446576 0.18319683 0.06696026 0.032931786
-0.090016924 -0.071627945 0.007911954 0.0676882 0.24612471 -0.018251853 0.092650995 -0.014684872
0.040603694 -0.03689755 0.0768964 0.065081745 0.25929642 0.15014856 0.029498404 0.23920274
-0.04595348 -0.045644812 -0.019434724 0.00072053535 0.036874488 0.22436668 -0.026050385 0.032107003
0.024529435 0.17267466 0.05336733 0.014025259 -0.022631846 0.02875523 -0.02878698 0.08307271
0.037115 0.020793615 0.059092708 -0.011346636 0.0038665675 -0.06031656 0.074546404 -0.020626022
0.09431065 0.06379456 -0.030243365 0.08600589 0.051082507 0.037816606 0.035475086 0.21141712
0.03876455 0.16496 -0.021227848 -0.06151344 0.05811196 0.037595917 0.16443288 0.14239137
-0.07623773 -0.0135265775 0.22566792 -0.088071 0.008056683 0.22282247 0.012173548 0.18138313
-0.041187305 0.099596314 -0.02164635 -0.06055535 0.0048805163 -0.041097578 0.2518977 -0.07124074
0.058795042 0.23682106 -0.003726382 0.13594553 0.06532843 0.06381558 0.021092612 0.028748201
-0.087022536 -0.06738998 -0.008284975 -0.037846137 0.038926426 0.15948054 0.24890806 0.18752928
-0.01530632 0.005583293 0.112830676 -0.08041818 0.045439053 -0.06525352 0.123479344 0.019468913
0.22636522 -0.057434376 0.22374353 0.058276247 -0.004674199 0.14657019 -0.0169014 -0.04609237
0.25754657 -0.083687596 0.272323 -0.009489781 0.03261206 0.0059505836 0.19825016 -0.10321359
0.23809242 0.23843352 0.056833304 0.08862921 0.20171425 0.0034842836 -0.026082506 -0.049408663

q_out.weight f4 [4, 128]
00000000: 4d7a 4c3e 54d2 003e 3a17 483e a900 20be
00000010: 06bc 113e 03fa 5a3e e746 a5bd 07e1 f83d
00000020: 265d 3c3d 0af8 8fbd a11f 923b d71a 06bd
00000030: 2e3f 883e 8def efbd 3dbf 133e b043 04bd
00000040: 43c5 ddbb 75c2 af3d ac91 dabd 98e2 82bd
00000050: fc2f 863e 811c 003e 6491 97bd faa2 493e
00000060: c4ca 973d d728 10bc 014d 483c 2e43 0cbe
00000070: 1683 88bd 254a 7a3e 25cb 843d 98ae 34be
00000080: 69ae a0bd f01a 283e 1460 da3d 777e 7abd
00000090: 17ea 4fbc 6077 6f3d f5d0 793c 1a5d 25be
000000a0: 738a 15bd 827e 38bd 70d1 003d d667 2cbe
000000b0: 8e0f a13d 50d0 02bd 87cc d5bc fea0 1dbe
000000c0: 78e9 293e ed3a 7abd e8e7 fcba 19af 7d3e
000000d0: 8f24 0fbd f16d 6cbd 4f43 8c3c d062 3a3e
000000e0: 0fd6 2cbd b6e6 273e 1c58 3a3d d4be 70bd
000000f0: f273 42bd 150e 90bd faa7 933e 6212 7e3e
00000100: 0677 5e3d 573c 81bc 310b 433e 8d8e 83bd
00000110: ff9c 36bd ab50 2a3e e595 9a3d 5b34 123e
00000120: 1db7 d1bd 89cd 613e bb7b 73bd 9153 d13c
00000130: 6201 80bd e82c e8bc da12 2e3e 6d97 32be
00000140: 2297 25be 6a72 de3d c245 d7bc 8e36 483e
00000150: dd87 adbc caea 01be 0b3a 00be 3044 8ebd
00000160: 7f9d af3c eea8 853d 4380 933d 36c2 45bc
00000170: 4559 b3bd 4f91 673e b979 473e b2cb ff3d
00000180: 9a7b cdbd 8aa1 40bc 8272 4d3e a80b 81bd
00000190: 0def 34be 90c0 afbc f548 703e bc9b 27be
000001a0: bab2 5a3e 6188 a63c 839f 7c3e b264 18be
000001b0: 22a0 b13d e01e 873e 1eec 37bc 2fb3 3fbe
000001c0: d7fa 2a3e 00f2 1c3d ffd8 483e 6f9a d53c
000001d0: 114a 973c 5d75 c93c 62cc c23d b982 00be
000001e0: e812 513e f080 9a3e 39c4 36be 2fe5 883e
000001f0: f9cd 343e 8e7f eebc ea5f f8bd c6d0 cdbd
00000200: df45 dd3d bedf 7f3e 5e6e 313e b1e1 ccbd
00000210: 38b2 693e c102 e23d 25ed 3e3d d613 553e
00000220: e9ef f1bc 344e 37ba 229d e33b f601 b1bd
00000230: a06a 713e 0942 33be fc8a 863e 07c3 a23c
00000240: 4110 78bd 9589 86bd 979f da3d 9c79 62bd
00000250: 2e7a 273e a9b5 4e3e 9b10 803d 541a 263e
00000260: 94e8 49bc 36ed 1d3d cac4 013c 5910 e9bd
00000270: cbe1 ed3c 837f 403e be6d 403d cb49 01bd
00000280: 267e 4ebe 2e22 413e 0895 803e 1fa2 cb3c
00000290: d945 89bd f4a5 babb 5ed6 6e3d ee5f 31be
000002a0: 1714 523d 41b2 11bd fac8 60bd 102f 52be
000002b0: 1274 64bc 945a 993c 7a84 c93b 686b a1bd
000002c0: 3e8f 3f3e 8e20 a03d 3667 a0bd 981e 293e
000002d0: 5dc8 da3a 643a 883d d175 6b3e 36ef 753e
000002e0: 8513 88bd 1e03 753e 408b 933d 5b44 373d
000002f0: 5137 263d bb74 4cbe b5f9 593e 8561 d83d
00000300: 9bd5 9d3c 3761 5f3d 4c4d ed3d 0cf5 11bd
00000310: 3cdc ee3c be00 633e 3c35 3d3d 4def cb3e
00000320: 608a 1abe 7ed0 d43d 3116 373c 1d93 9cbc
00000330: 13c4 093e 431c 453d f962 263e f09b eebd
00000340: 74c7 0cbe 53c4 853e 84d9 e5bc d74d 2a3e
00000350: 51a6 4c3d 153c 37be 2df0 c53c 925c a4bd
00000360: 43d6 663d dc98 8c3c 3f93 d8bd d352 233c
00000370: 3890 6cbc e19b 363e a53c 473e 28df 653e
00000380: 0d42 523c 0900 ea3c f28b 833e e83d 263c
00000390: b02b 4ebe d65f 703d 6d09 583e 7a68 56be
000003a0: 81ff 1c3e 598e a43d ec83 553e aae9 46be
000003b0: 4b8c 6d3c e516 9a3e 1707 683c 9ae3 63be
000003c0: 26a8 033e 9b77 83bd 41c3 013e 9270 883e
000003d0: 9851 65bd 25b3 13bd 1014 333e 5392 4fbe
000003e0: f4e2 773e ede4 ce3e 4a18 71be 7580 be3d
000003f0: 17dd 063e 7535 4cbc f694 5ebe 7ecc 50be
0.19968529 0.12580234 0.1954011 -0.15625252 0.14231881 0.21384434 -0.08070164 0.121522956
0.04598727 -0.070297316 0.004459337 -0.03274044 0.26610702 -0.117156126 0.1442842 -0.032291114
-0.0067679 0.085820116 -0.10672316 -0.063908756 0.26208484 0.12510873 -0.07400778 0.19691077
0.07411721 -0.0087987995 0.01222539 -0.13697502 -0.06665628 0.24442346 0.06484059 -0.17644727
-0.07845766 0.16416526 0.10662857 -0.061155763 -0.012690089 0.058463454 0.015247573 -0.16148797
-0.03650899 -0.045042522 0.031449735 -0.16836485 0.07864295 -0.031936944 -0.026098503 -0.15393445
0.16592968 -0.061091352 -0.0019295188 0.24773826 -0.034946974 -0.057722036 0.017121939 0.18201756
-0.04219633 0.16396603 0.045494184 -0.058775738 -0.047473855 -0.07033936 0.28839093 0.248117
0.05431273 -0.015775843 0.19047238 -0.06423674 -0.044583317 0.16632335 0.07548121 0.14277785
-0.10240004 0.22051062 -0.05944417 0.025552543 -0.06250264 -0.028341725 0.16999379 -0.17440577
-0.16170934 0.108616665 -0.02627838 0.19552061 -0.021182949 -0.12687221 -0.12522142 -0.069465995
0.021437405 0.065263614 0.07202198 -0.012070229 -0.08757261 0.22614025 0.19480027 0.12490024
-0.10033341 -0.011757264 0.20063213 -0.063010514 -0.17669316 -0.021454126 0.23465331 -0.16368002
0.21357241 0.020328702 0.24670224 -0.14882162 0.08673121 0.26390743 -0.011225728 -0.18720697
0.1669725 0.038316727 0.19614027 0.026074616 0.018467935 0.024592096 0.09511639 -0.12549867
0.20417368 0.30176497 -0.1784829 0.26737353 0.17656697 -0.029113557 -0.12127669 -0.10049586
0.108043425 0.24987695 0.17327258 -0.10003985 0.22821891 0.110356815 0.046612877 0.20808348
-0.029533343 -0.0006992549 0.006946222 -0.08642952 0.2357583 -0.17505659 0.26277912 0.019868387
-0.060562376 -0.065692104 0.106749706 -0.055291757 0.16355202 0.20186485 0.06253167 0.16220981
-0.012323517 0.0385563 0.007920453 -0.11380071 0.02903833 0.18798642 0.04697966 -0.031564515
-0.2016531 0.18860695 0.25113702 0.024857579 -0.067027755 -0.0056960527 0.058309905 -0.1732175
0.05128869 -0.035570387 -0.054879166 -0.20525765 -0.013943689 0.018719949 0.0061498256 -0.07881814
0.18706986 0.07818709 -0.07832186 0.16515577 0.0016691793 0.06651762 0.22994162 0.24017033
-0.06644348 0.2392697 0.07204294 0.044742923 0.040580098 -0.19966404 0.21286662 0.105654754
0.019266894 0.05453607 0.11587009 -0.035634086 0.02915775 0.22168252 0.046193346 0.3983101
-0.15091848 0.10391329 0.011174724 -0.019113118 0.13453703 0.048122656 0.16248693 -0.116508365
-0.1374796 0.26126346 -0.028057821 0.16631256 0.0499633 -0.17894013 0.024162376 -0.08025469
0.05635668 0.017162733 -0.1057496 0.009968477 -0.014438681 0.178329 0.19456728 0.22448409
0.012833131 0.02856447 0.25692707 0.010146596 -0.20133853 0.058685146 0.21097346 -0.20938292
0.15331842 0.08034963 0.20851105 -0.19425073 0.0144987805 0.30095592 0.014161847 -0.22254792
0.12857112 -0.06419297 0.1267214 0.26648384 -0.055986017 -0.036059517 0.17488122 -0.20270662
0.2420767 0.40409032 -0.23544422 0.09301845 0.13170277 -0.012463917 -0.21736512 -0.20390508

q_out.bias f4 [4]
00000000: ea71 f53d 5855 033e 4c16 d83d c981 4b3d
0.11984618 0.12825525 0.10551128 0.04968432
