models/q_te_agent_1.pt (torch, 108049 bytes, 6 tensors)

fc1.weight f4 [128, 71]
00000000: 2e84 3cbc 5211 0a3c 34c9 de3d 8e83 563e
00000010: e6eb 633e 5774 f43d e0bc 023e 8382 403e
00000020: 8dc6 af3c acfa 913e 193e 043e 4c23 763e
00000030: 941a f83d 8f3c bd3d dcb0 bdbd d451 823d
00000040: 07fc 993d 9e16 493e 374c 403e dcd1 4e3e
00000050: 8630 d2bd fe01 d63b 3d10 e43d 02e5 173e
00000060: 0168 813d 36f6 8a3e 85c1 5b3e 2b04 c8bc
00000070: 19a7 1dbd 88b6 173c d993 623e 6fc6 453e
00000080: 3971 623e 5e9c 9f3e e563 313d 6a7c 083c
00000090: c6d7 98bd 66dd 3c3e a239 733e 6d36 333e
000000a0: 6e10 423e 9209 0e3e cf8d ba3d 6195 b0bd
000000b0: 6fe4 863e 51ce aa3d 6847 073e 801d 523e
000000c0: d020 653d a440 b9bc 7237 82bd db83 9c3e
000000d0: f5c8 db3d 5999 c43d 4dba 403e 88bf 143e
000000e0: 6a95 10be eb1a 593d 5b22 db3d 9c05 993e
000000f0: c358 993e 8bfa 163e eb3c 713e 04af 62bc
00000100: b113 df3c f0da 713e b793 f83d 570d 133e
00000110: 84e9 3d3e b031 313e 9ca1 213d d150 aa3b
00000120: ef79 6dbd b0c7 babd c9f9 973d 4194 673e
00000130: a78b 913e 1fd4 9c3e e0ef 933e 0e53 33bd
00000140: eba9 953e d618 7e3e 02f7 103e 1b4f 823e
00000150: 3774 85bc 1d8c 4b3d 0026 27be bf58 343e
00000160: 6501 893e 43c6 0f3e 9d6a 763d b8a7 b33c
00000170: 1b04 fbbd 824e 73bc 8d8b 283e 5697 163e
00000180: 5dc4 953e d5fc 673e ef63 57bd 0a0e 4bbb
00000190: 1d12 02be 48c6 843e 6950 5c3e db8c 793e
000001a0: 0f7c 973d c215 bb3d eb6a 533d 990e 0ebe
000001b0: 793a e33d eba0 813e b3b0 0e3d b3e8 133e
000001c0: 9207 403d 7a59 6e3d 1252 383d 337d a53e
000001d0: 92f0 8c3d b03c 663e 8344 463e 22de e03d
000001e0: cf59 84bd 47b6 a53d 88de 293e dbb8 9e3e
000001f0: 9cea 3c3e 1e41 523e 4f56 a63c 40a9 773d
00000200: d476 ba3d 5f4e e23d f96d 9b3e 0522 073e
00000210: 96b3 873e bdc8 7c3d 6fdd acbc f255 04bc
00000220: 9578 103e 8ba0 723e ae1f 773e fe28 333e
00000230: 75da 3c3e 5d23 4bbb 04bc 49bc 9aa0 9ebd
00000240: 9602 eb3d db17 483e 52ab 5b3e 5812 843e
00000250: 29bf 9d3d 66b6 6b3e 0fef 893d be7a 553e
00000260: 3cce 8f3d be7e 573e 0938 ee3d a522 7cbd
00000270: ea2f af3d cef2 11be 02ab 983e fc3b 1c3e
00000280: 3d78 aa3d 6755 2a3d 193a ea3d 8ae2 63bd
00000290: d33b 00bc 4db7 493e 9cfe 5c3d 8efb 493e
000002a0: eb1e f83d e964 dc3b f802 053c 59ee 91bd
000002b0: c3e6 de3d 4e16 753e f0e2 083e 3211 2d3e
000002c0: cb24 cd3d 76b0 d33d 0d5c 06be 652c 023e
000002d0: 5a77 203e 4521 443e dc05 053e e1eb 3bbc
000002e0: fc18 2dbb 6b66 45bd c14d 6c3e 864b 1e3e
000002f0: 17a4 3d3e 1f38 863e 751c 993c 275d 19bd
00000300: 4c27 1c3e 2b23 273e af73 2a3e f446 633e
00000310: 6952 853e 4a73 02bc 97d4 04be 35c3 fe3d
00000320: c536 5b3e 4b62 903e 467a 403e 689e 803e
00000330: d175 213d f174 82bd 2916 c83d 3959 9c3e
00000340: 2f40 903e 1693 af3d e934 b03d 5edc a53d
00000350: 18be b33d a35b 56bd 2fb1 b6ba bda7 f5bc
00000360: 54a3 373e e04e 853e 41d1 253e 7689 403e
00000370: 6156 123e 6f60 603d 0efb 763e a8db 343e
00000380: b3dc d93d 9563 263e 04d3 65bc 0936 38bc
00000390: 9d88 b1bd f95e 433e 0ec5 6b3e fbd4 373e
000003a0: 3c9c 5e3d b1ff 76bd 7563 703d 09c9 d73d
000003b0: cb52 5c3e 67e0 803d 86be 423e c7db d13d
000003c0: bd70 81bd 888d 67bd 13c6 743d ce06 5e3e
000003d0: eb61 6a3e f16e 223e db01 333e 1a5d e13c
000003e0: a4da 3dbd a0c3 ebbd e5dd 843e d249 6c3e
000003f0: 811c 803c 14d2 383e dfcb af3d 4958 d73b
-0.0115061235 0.008426981 0.1087822 0.20948622 0.22257957 0.119362526 0.12767363 0.18799786
0.021456981 0.2851156 0.12914313 0.24036902 0.121144444 0.09240066 -0.09262249 0.06363264
0.075187735 0.19637534 0.18779074 0.20197242 -0.10263161 0.006530999 0.1113591 0.14833453
0.06318665 0.2714097 0.2146054 -0.02441605 -0.038489435 0.009259827 0.22126712 0.19313978
0.22113504 0.31173986 0.043308157 0.008330444 -0.074630305 0.18443832 0.23752454 0.1750123
0.1895158 0.13870838 0.09109079 -0.08622242 0.26346156 0.08340133 0.13210833 0.20519066
0.055939496 -0.02261383 -0.063582316 0.30569348 0.10731689 0.09599561 0.18821068 0.14526188
-0.14119497 0.053004187 0.10699912 0.29887092 0.29950532 0.14744012 0.23558395 -0.013835672
0.02723107 0.23618674 0.12137549 0.14360557 0.1854611 0.1730411 0.039460763 0.0051976223
-0.057977613 -0.091201186 0.074206896 0.22615148 0.2842686 0.30630586 0.28893948 -0.04378038
0.292312 0.24814162 0.14156726 0.25450978 -0.016290767 0.04969417 -0.1632309 0.17611979
0.26758876 0.14040475 0.060160268 0.02193056 -0.122566424 -0.014850261 0.16459484 0.14706168
0.29251376 0.22655042 -0.05258554 -0.003098371 -0.12702222 0.25932527 0.21515049 0.24370138
0.07396709 0.09135009 0.051615637 -0.13872756 0.11095137 0.25318083 0.034836482 0.14444236
0.04688222 0.0581908 0.045000143 0.32322082 0.06881823 0.22484088 0.19362073 0.109798685
-0.06462442 0.08091407 0.16588795 0.3100041 0.18448871 0.20532653 0.020304827 0.060464144
0.09104696 0.11050104 0.3035734 0.13196571 0.265042 0.061714876 -0.021101682 -0.008077132
0.14108498 0.23694055 0.24133179 0.17496106 0.1844271 -0.003099642 -0.012312893 -0.07745476
0.114751026 0.1954035 0.21452072 0.25795245 0.077024765 0.23018798 0.0673505 0.20847604
0.07021758 0.21044442 0.116317816 -0.061556477 0.08554061 -0.14252779 0.2981797 0.15257257
0.08323715 0.041585352 0.114368625 -0.055635966 -0.007826763 0.1969883 0.053953752 0.19724867
0.12115272 0.0067258966 0.008118384 -0.07125539 0.10883858 0.2393429 0.1336782 0.1690109
0.10016783 0.10336392 -0.13121052 0.12712248 0.15670529 0.19153316 0.12990516 -0.011469812
-0.0026412597 -0.048193377 0.23076536 0.15458497 0.18519627 0.26214692 0.018690327 -0.037442353
0.15249366 0.1632201 0.16645692 0.22195035 0.26039436 -0.007962057 -0.12971722 0.124395765
0.21407612 0.28199992 0.18796644 0.25120854 0.039419 -0.06369961 0.09769852 0.3053682
0.28173968 0.08572976 0.08603842 0.08098672 0.08776492 -0.052333485 -0.0013938303 -0.02998721
0.17933398 0.2603674 0.16193105 0.18802437 0.14290763 0.054779466 0.24119207 0.17661917
0.10637798 0.16248925 -0.014027361 -0.011243352 -0.08668635 0.19079198 0.23024389 0.1795234
0.054348215 -0.06030244 0.0586886 0.10536391 0.21515958 0.06292801 0.19017991 0.10246997
-0.06320331 -0.05653146 0.05975921 0.21682283 0.22888915 0.15862633 0.17481177 0.027510215
-0.04635109 -0.11511922 0.25950542 0.23075035 0.015638592 0.18048888 0.08583807 0.0065718037

fc1.bias f4 [128]
00000000: 1204 a73e 3b50 563e 1258 493e ffbc 933e
00000010: 3c56 903e 18d2 453e 2cca b73d 3a6c 3f3e
00000020: 925f a33e 5b42 323e 3fe5 3b3e 37ac fd3d
00000030: 5975 e2bc 2457 633e 44cc 0d3e b8af 0b3e
00000040: 662b bf3d a599 c53d d73d a93e 7af5 6f3e
00000050: afe1 113e 3d1c 9e3e 87a8 a13e f9d9 463e
00000060: b3e5 553e c7d9 953e 2ba9 f23d 4509 3d3d
00000070: dd9a 813e d493 853e 90b8 9d3e 5e58 5a3e
00000080: 6961 7f3e d357 ab3e 6e1d 953e f469 a73e
00000090: 397f 913e 9bbb 463e 2ac3 0d3e 39ae 4d3e
000000a0: a5af 0e3e ba7a a3bd 6261 4a3e ee5d d33d
000000b0: 5893 a93e a93f ff3d 3087 7d3e fc5b 6e3e
000000c0: 504d f63d 31f5 8a3e 8fb1 bb3d db08 5e3e
000000d0: 7e16 7dbd c472 5a3e c958 6a3e 136a 673e
000000e0: 4847 c13d 3fab 403e 68c4 1f3e 5a7b a63e
000000f0: 3ca7 0a3e ef86 563e 4e56 833e dff5 903e
00000100: bc18 2c3e 1276 133e 4a73 8c3e e1d2 c63d
00000110: aa1c 323e 03a1 643e c7f2 513e 7561 0f3e
00000120: 29db 253e d78b 893e 722e 963e 59fa 693e
00000130: c151 e83d 8f4e a33e fc11 843e 61b6 6f3e
00000140: 6990 4d3e b057 913e 9bfe b0bd b4a9 8d3e
00000150: 47a4 7a3e ae27 cb3d c2c9 513e ce50 8c3e
00000160: 7916 c83b 4b5e 5f3e d961 133b f6ea 903e
00000170: 5bcf 7b3e 5ba2 123e 7661 2d3e 77a8 a53e
00000180: c505 823e 56b4 023e 48ba 163e 061f 893d
00000190: f069 9c3e f37d 833e 6e1f 823e 8edc 2d3e
000001a0: b5af 803d ca3f 083e 9e2b 1c3e a576 9a3e
000001b0: 55d7 753e a291 703e 5698 b03d be73 443e
000001c0: fdd9 ed3d ae06 5b3e 6179 a53e 2852 773e
000001d0: b04c 063e e3bc 273e 1beb 693e 53bd 9f3e
000001e0: 9360 03be 7d63 4c3e 77a7 9c3e d02c ff3d
000001f0: f4e5 4f3e 53cb 933e c8d4 9b3e 43e8 853e
0.32620293 0.20929043 0.19662502 0.2885513 0.28190792 0.19318426 0.08974108 0.18693629
0.31908852 0.17408125 0.18349169 0.12386363 -0.027643846 0.2220121 0.13847452 0.1364125
0.093344495 0.09648446 0.33054993 0.23433486 0.14246248 0.3088092 0.3157389 0.19419087
0.20888405 0.29267713 0.118486725 0.04615142 0.25313464 0.26089346 0.30804873 0.21322772
0.24939503 0.33465442 0.29124016 0.32698023 0.28417376 0.19407503 0.1384398 0.20085992
0.1393419 -0.079823926 0.19763711 0.1032065 0.33120227 0.12463314 0.24758601 0.23277277
0.12026465 0.2714019 0.09164726 0.21683066 -0.06178903 0.21332842 0.22885431 0.22599058
0.09437424 0.18815325 0.15602267 0.32515985 0.13540357 0.2094991 0.25651783 0.28312585
0.1680631 0.14400509 0.2743171 0.09708191 0.17393747 0.22327046 0.20502768 0.1400202
0.16196884 0.26864502 0.2933231 0.22849406 0.11343718 0.31895873 0.2579497 0.23409416
0.2007462 0.28387213 -0.08642312 0.27668536 0.2447673 0.09919678 0.20487121 0.274054
0.0061061946 0.21813314 0.0022488742 0.2830426 0.24590819 0.14319746 0.1693171 0.3235509
0.25395027 0.12764105 0.14719498 0.066953704 0.30549574 0.2568203 0.25414604 0.16978666
0.062835135 0.13305584 0.15251014 0.30168644 0.24007924 0.23493055 0.08622806 0.19184777
0.116138436 0.21389267 0.32319167 0.24152434 0.13115191 0.16380648 0.22843592 0.3119913
-0.12829809 0.19959827 0.30596516 0.12459719 0.20302564 0.28866062 0.30435777 0.26153764

fc2.weight f4 [128, 128]
00000000: 3a71 073e 0838 393e 4111 8a3e c036 053e
00000010: e0be c73d 6a0b 423e 8022 843e 8003 303e
00000020: f8b5 413e 0c7e 2c3e 4b07 393e cb57 6a3d
00000030: bc5c 743d 5652 173e 1dd8 423e a772 273e
00000040: 6fec 413e 7a69 3e3e abf0 e13d 7042 a13d
00000050: 22eb 533d cd69 0d3e 4dc2 0d3e 6e55 4e3d
00000060: bdfc 7b3e 21bc 153e db8d 7c3e 76f9 683d
00000070: 4c21 fe3d ca0a fd3d a078 ab3d 0d71 af3e
00000080: 49d7 773d d81e f73d db90 a93d c55f 263e
00000090: 5e97 5e3e eafc e73d 5eba 083e 0a94 413e
000000a0: 7d1f 743e 0d05 403d a2d9 b53e e23a ef3d
000000b0: d0de 193e 7afd b13d bc1d 003e 863f d13d
000000c0: 64ed bd3d 65ab 3e3e 1447 353e 9f71 c23d
000000d0: 6a7b 853d 12c0 e13d cf52 493e 6328 3a3e
000000e0: 9b20 3a3e d911 943d c624 da3d 2fd3 b63d
000000f0: ee6e c33d 27f0 473e 72fb 353e 5a9c 593e
00000100: 68eb d83d 6e49 b43d 2fbe 0f3e d058 c23d
00000110: dd9a 1f3e 989c 7c3e 1200 473e dd27 5a3e
00000120: f444 b23e 8a87 1a3e 0d9e bd3d f7ca 6a3e
00000130: 78c5 c03d 6ee6 763e 0119 d03d 9203 623d
00000140: bb7b 513e fc0f c03d 760d 8bbc 204c b23d
00000150: cab2 b23d 3090 483d 0f79 073e 2707 b73d
00000160: 9642 893d d236 123e b050 0e3e 3f5c 453d
00000170: 621e d53d a567 073e 6867 103e da47 de3d
00000180: 7786 333e ee3e d63d fc67 8c3d 4077 263e
00000190: 6953 103e 6318 183e 32f3 023e fca5 8e3e
000001a0: b781 573d cc33 653d fed2 263e 2d98 463d
000001b0: 8cb5 df3d 1f94 393e 2974 b73e 8ca4 5b3e
000001c0: d6e8 063e 341c 2a3e 0541 1b3e e7d2 9d3e
000001d0: 5879 9f3e 6825 4f3e b19c 023e 6dc2 bc3d
000001e0: 533e 923d 9e3c 523e 6e55 d63d 2814 8d3d
000001f0: 1c9f 263e b153 643e b2c1 5f3e 77a7 f63d
00000200: 940d 653b 2939 78bd 610f 293d 4e5f e0bb
00000210: 3c25 9bbd 8098 87bd e48b 883c 18f8 2abd
00000220: 0ed2 213d 6456 bbbb c2a8 153d 5d96 1a3d
00000230: 3112 9ebd 3c94 4dbd cd1e 163d 14c4 113d
00000240: ee9a 66b8 b725 95bd b986 6b3c 6490 b5bd
00000250: cc71 31bc b0ef 25bb 11fd a13d c06d 033c
00000260: 7104 90bc f8cd a6bd 953f 38bd 26bc 83bd
00000270: 9309 903c 24cd 59bd b3b1 28bd 3c14 a33d
00000280: 06fc 30ba 0eaa 9b3d bd48 563d 4a46 823d
00000290: e677 2ebb efd9 4f3d 935e a2bd 9872 dabc
000002a0: 01ca c8bc 2d60 99bd 4228 a33d 7494 a13b
000002b0: b054 e7bc 1370 a9bc c979 a73d 7599 573c
000002c0: 5d07 14bd cd46 a8bd 25c0 34bd 92c5 b6bc
000002d0: f972 a73d 29a9 923d ff28 d23c c720 41bd
000002e0: f412 893d 79a3 673d 5e6c 533d 1332 af3c
000002f0: 12fa b0bd 4d2e 4d3d 369a 8a3d 98c7 62bd
00000300: da56 b5bd 448d ca3c c86f 803d e58b 7ebd
00000310: f44e d2bc d6ed 6e3d de62 33bb b9f2 ff3c
00000320: 6e81 a9bd 2694 c8bb 1acc 8dbd d9e3 7dbd
00000330: a6cc ac3c 505e 293b a730 0d3d d671 04bd
00000340: 3690 6e3d 8227 febc 4978 8fbd dea1 003d
00000350: a425 df3c e4e3 adbd f73a fcbc 44cd 7f3c
00000360: 4ff5 88bd 19e8 42bd 5051 c7bc 6ba7 3b3d
00000370: 4759 2cbd eb86 88bb 4b26 c3bb 7f0f 383c
00000380: 3142 383d c040 a43d 0c72 6dbd 36ba 6c3d
00000390: d702 30bd f67e 92bd e7b4 88bd 805a 86bd
000003a0: 9567 953d f06b 323d 0f49 a73a e235 0cbd
000003b0: edd2 9ebd 897d a43c 94a5 863d a850 babc
000003c0: 86e7 fe3b a410 173d e63f d6bb fc22 ba3c
000003d0: a655 08bd df9c 013d 5b68 9bbd 3511 453c
000003e0: 7aae acbd c836 d1bc 896b 6c3d d1fb 733d
000003f0: cb47 a3bd ac0c a33d 3799 2d3d b3b2 77bd
0.13226786 0.1808778 0.2696629 0.13009167 0.097532034 0.18949667 0.2580757 0.17188835
0.18917072 0.16844958 0.18069188 0.057212632 0.05965875 0.14777502 0.19027753 0.1635233
0.18937849 0.18594924 0.11032232 0.07874 0.051737912 0.13809891 0.13843651 0.05037444
0.24608131 0.14622547 0.24663489 0.05687853 0.124086946 0.123555735 0.08372617 0.34265938
0.060508046 0.1206643 0.08279582 0.1624747 0.2173743 0.113275364 0.13352343 0.18904129
0.23840137 0.046879817 0.35517603 0.11681153 0.15026402 0.08690925 0.12511343 0.10217194
0.09273794 0.1862007 0.17702895 0.09494328 0.0651768 0.11022963 0.19660495 0.18179469
0.181765 0.07229967 0.10651545 0.08926999 0.095426425 0.19525205 0.177717 0.2125105
0.10591775 0.08803068 0.14037393 0.09489596 0.1558642 0.24669111 0.1943362 0.21304269
0.34818232 0.15090767 0.092586614 0.22928987 0.09412664 0.2411134 0.10161019 0.055179186
0.20457356 0.09378049 -0.016974192 0.08705926 0.087255076 0.048965633 0.13229774 0.08936911
0.067021534 0.14278725 0.13897967 0.048183676 0.10406186 0.13223131 0.14101946 0.10853548
0.17531763 0.10461222 0.06855771 0.16256428 0.14094318 0.14853053 0.12788084 0.2786101
0.05261394 0.0559576 0.16291425 0.04848497 0.10923299 0.1812291 0.3583081 0.21449488
0.13174757 0.16612321 0.15161522 0.30824968 0.31147265 0.20229113 0.12755086 0.09216771
0.07140794 0.20530936 0.10465513 0.0688861 0.16271633 0.2229755 0.21851233 0.1204366
0.003495072 -0.060601387 0.041274432 -0.0068472987 -0.07575461 -0.06620884 0.016668268 -0.041740507
0.039506964 -0.0057170857 0.036537893 0.037741054 -0.077183135 -0.050190195 0.036650468 0.035587385
-5.4980563e-05 -0.07282584 0.014375382 -0.08865431 -0.010830354 -0.0025319867 0.07909597 0.008021772
-0.017580243 -0.08144754 -0.04498251 -0.06432371 0.01758269 -0.053174153 -0.041185092 0.07962844
-0.00067514216 0.07600795 0.052315462 0.06361063 -0.0026621758 0.050744947 -0.07928195 -0.02666597
-0.024510385 -0.07489047 0.07966663 0.004931027 -0.028238624 -0.020683324 0.081775256 0.013159146
-0.036139835 -0.08216629 -0.044128556 -0.022311006 0.08176226 0.07161171 0.025654314 -0.0471504
0.06693068 0.056552384 0.05161702 0.021386182 -0.08641447 0.050092984 0.06767695 -0.05536613
-0.08854456 0.024725564 0.062713206 -0.062145133 -0.025672413 0.058332287 -0.0027372162 0.031243669
-0.0827664 -0.0061211763 -0.06923695 -0.06198487 0.021093678 0.0025843568 0.034470227 -0.032335125
0.058243 -0.031024698 -0.070053644 0.03140437 0.027239628 -0.08490732 -0.030789835 0.015612904
-0.06687414 -0.047584627 -0.024330765 0.04581396 -0.04207733 -0.004166474 -0.0059554926 0.011234163
0.044985 0.080201626 -0.05797009 0.057794772 -0.04297146 -0.07153122 -0.066751294 -0.0656023
0.07295147 0.04355997 0.0012762862 -0.034231074 -0.07755075 0.020079391 0.0657455 -0.022743538
0.0077790646 0.036881104 -0.006538379 0.02272176 -0.033284806 0.031643745 -0.075882636 0.012028028
-0.08431716 -0.025538817 0.05771974 0.059566323 -0.07972678 0.07961401 0.042382445 -0.060473155

fc2.bias f4 [128]
00000000: 2f02 2b3e 2978 4dbd 02f2 be3d 400a 4bbd
00000010: 24b6 413e 0f40 efb9 b8b0 53bd 736a 893e
00000020: dbe4 093e 6fd8 843e f4dd 4c3e 1128 143d
00000030: 28f7 9bbc 8498 653e 98ca 0c3d 3275 2bbd
00000040: 309f 883e 9be3 6f3e d774 123e a76e e43d
00000050: 3bcc 353e 92b6 cc3c 3dff 1d3e ae7e 5b3e
00000060: 9276 063d a3d5 733e 5ca1 d53d 9d17 343d
00000070: b445 073e a945 d33d 2f15 083e ddb6 88bc
00000080: e37d 96bb 2201 233e 50c1 393e 9a0d 793e
00000090: a494 96bd f9d0 1fbd acb6 f53c 5503 8bbd
000000a0: 5e16 2b3e 4c23 e03d a9b8 c8bc b2cf 763e
000000b0: a43f 3c3e 6adf a5bd baad 2c3d 68c7 043c
000000c0: b631 06bd e1e4 e63d c00c 6f3e 0e81 db3d
000000d0: d969 b9bd 8d90 343e b17e 343d bd57 a8bd
000000e0: e35b 36bb 2f53 f7bc c75b 403b 7cca 3ebd
000000f0: 2edb 133d 7579 743e fa91 8a3c 01f7 9bbd
00000100: 940e cbbc fdaf 403e c9d9 d73d 84c7 663e
00000110: 6edf 1b3e af09 9bbd 1e2e 883e fa92 503e
00000120: 0a8a 763d dd2f 003e b807 173d 523a 4f3d
00000130: 3a7a a6bd c45b f03d 6bdc 3a3e 0916 573e
00000140: 8610 2e3e 72af 613d b43c 063c cf04 78bc
00000150: cf43 293d f106 32bd 7b77 19bd 5cce 803e
00000160: 153d 8fbd 87ca 08bd 1d7d 833d 829c 4a3e
00000170: f2e1 0a3e 72ff f73c b0d2 86bc 136a 8e3c
00000180: 1a9a 553e 9968 a23d 959d 0ebd 6190 153d
00000190: 86f3 4f3e d774 4a3e 18f5 103e a1a7 0b3e
000001a0: 4360 5d3d db2a 173e c6d3 32bc 4c16 373e
000001b0: a2d6 21bd f462 803e 2c70 7f3d f9c8 ee3c
000001c0: 28e0 4b3e b887 4a3d 7233 39bd c36a 1c3e
000001d0: 0dc8 a6bd 5b24 113e 7aeb 7fbc 7c8d 7b3e
000001e0: 4fba c1bb d3ef 5d3e d953 1f3e 50a3 34bd
000001f0: 360b 87bd bd14 0a3e 2f18 1e3e 8328 50bb
0.16700052 -0.05016342 0.09323503 -0.049570322 0.18917137 -0.0004563336 -0.051682204 0.26839027
0.13466208 0.25946376 0.20006543 0.036171023 -0.019038752 0.22421461 0.034372896 -0.041859813
0.2668395 0.23426668 0.14302383 0.11153918 0.17753689 0.0249894 0.15429397 0.21435043
0.03282792 0.23811965 0.104311675 0.043967832 0.13210183 0.10316021 0.13289331 -0.016688759
-0.0045926436 0.15918401 0.18140149 0.24321595 -0.0735257 -0.03901765 0.029994331 -0.06787745
0.16707751 0.10944232 -0.024502115 0.24102667 0.18383652 -0.080992535 0.042157866 0.008104183
-0.03276225 0.11274124 0.23344707 0.107179746 -0.09053392 0.17633267 0.044066135 -0.0821986
-0.0027825765 -0.030191032 0.0029351579 -0.046579823 0.036097698 0.23874457 0.01691531 -0.07615472
-0.024787225 0.18817134 0.10539586 0.22537047 0.1522195 -0.075702064 0.26597685 0.20368567
0.060190238 0.12518258 0.036872596 0.050592728 -0.081287816 0.11736253 0.18248145 0.210045
0.1699849 0.05509896 0.008193184 -0.015137865 0.041324433 -0.04346365 -0.03746746 0.2515744
-0.06994072 -0.03339627 0.06420348 0.19786265 0.13562754 0.030273173 -0.016457886 0.017384565
0.20859566 0.07930107 -0.03481825 0.036514644 0.2030774 0.19771133 0.14155996 0.13638164
0.05404688 0.14762442 -0.010914749 0.178796 -0.03951133 0.25075495 0.062362835 0.029148566
0.19909728 0.049445838 -0.045215078 0.15275101 -0.081436254 0.14174025 -0.015620107 0.24565691
-0.0059121023 0.21673517 0.15559329 -0.04410106 -0.06593935 0.13484474 0.15438913 -0.0031762428

q_out.weight f4 [4, 128]
00000000: ef63 97bd 8ea7 203a a9da 12be 3f1e 853d
00000010: 4c8b 10be c1b1 4c3c 306e 3fbd 886a 8dbd
00000020: 2627 24be e60b 9cbd ca2d bebd db49 0f3d
00000030: f820 4f3d 2651 26be fd82 30bd 270a 7d3d
00000040: e8f3 1ebe 6e5c f7bd 6142 a0bd c38c 45be
00000050: 5a8d 06be 6d45 2bbd eeb7 aebd f8a9 5bbe
00000060: d2f7 903c 9e8a 2fbe cbe6 44be 2cc1 ad3c
00000070: fa80 68be eb64 1cbe 7184 09be d3c4 85ba
00000080: 78a4 6d3d b861 6fbe 9c37 64be 7946 12be
00000090: 23bc 9c3d 0f45 4b3d da7f b1bc 08c9 113d
000000a0: cc8a 15be db09 6fbe 3c9c 99bd d245 50be
000000b0: e77f ccbd a304 473d dc28 a0bd 826f 8b3d
000000c0: 43b0 ecba 8fe2 debd b5bb e1bd 6370 fcbd
000000d0: e636 833d 9089 25be 77ca bb3c c173 443d
000000e0: 1906 403d 15f0 3d3d b45d 72bd 237f 0fbc
000000f0: 708b 25bd aa7a 3cbe 935f 553d 54fb 7f37
00000100: 8794 5e3d cc4c 3fbe 7251 5abe 8bc5 0cbe
00000110: e5e8 45be 2665 1abb f921 c7bd bd98 0fbe
00000120: f7b7 babc badf 3ebe e0c3 7e3d 369a 0c3d
00000130: ebc4 f2bc 0d77 2bbe 7f89 17be 2443 a6bd
00000140: 6fda 45be 281f 39bd 948e e53c 16bc 9f3d
00000150: d505 ff3c 1e79 873c caea d03c 3870 51be
00000160: b87d 39bd 9499 ccba 0098 883d e30d 0cbe
00000170: 3bb8 4bbe cc8a 92bd 054d b6bb 41ab 7bbd
00000180: cfe8 50be 55e9 7dbd 6591 54bd fb49 5f3d
00000190: a99d 85bd 1091 eabd 7e5c 1bbe 4111 e9bd
000001a0: effe 32bb 39ae 50be 0733 103d 1097 49be
000001b0: 9ea8 aabc 3f96 35be 2a5c 5d3c 09e4 a03d
000001c0: f538 5fbe 9e2b 823b 9155 cc3c 868e 20be
000001d0: 6b5d c73c 0371 64be 0d99 253d 420d 47be
000001e0: b3b4 523c 94d1 5bbe 42f6 17be 72e5 c43c
000001f0: 3309 2abd ce3a 2fbe 9cd5 3fbe a2af a53d
00000200: d77c 36be 219a c03c 6714 65be bf9d 543d
00000210: 8ad5 33be 08be ad3b 86b5 753d 9e46 4dbe
00000220: 03e2 8cbd 2f02 41be 96b7 6cbd 1b27 4abc
00000230: a438 8a3d 8167 90bd 85f3 433d 6196 6ebd
00000240: 65e1 e9bd ea7c 0fbe 9346 5bbe 76c0 74be
00000250: 9379 63be b1bd 5d3d 2612 30be 6585 e1bd
00000260: 2094 e43a 17e0 39be b846 06be a8cb d53b
00000270: 2ffc 45be 6395 68be f791 4abe d3d2 90bd
00000280: cf9e 073d 05c4 47be 36b7 42be dac8 36be
00000290: 5408 423d 6c05 1e3d 85ea 2a3d b9d8 6a3d
000002a0: 08e3 0dbe a00f 23be f2c4 843d ab65 32be
000002b0: 227c 75be cfb2 753d 6dc5 633d 8ee9 ca3c
000002c0: 6127 923b 7842 04be 68de c2bd a2fc 6bbe
000002d0: c9e2 4c3d 4bc2 2ebe 17eb 04bd 4b93 a13d
000002e0: 541f 2d3b b0ec 493c a35d ec3c 0799 083d
000002f0: 10ea 973d f031 b6bd da8a 8ebd cb40 933d
00000300: 24c9 773d 42fb e6bd 1aaa 49be a0f8 52be
00000310: c32f b7bd bdd5 8c3d 8c0b 74be eeed 4bbe
00000320: 8597 973d 40ab d2bd 00bc 6e3d 76bb 37bc
00000330: 3c4b 5e3d dc5f 5dbe 7a0d 1cbe 6209 1cbe
00000340: fbf5 13be 1766 a0bc 76a5 163c 9456 7dbc
00000350: e692 60bd a485 d2bc 7f4e 083d 52bf abbd
00000360: 3dfe a0ba 16ff 903d 2d08 763d 83a9 babd
00000370: 5490 24be dfda 2d3c 98ce 9e3d 3b27 6e3d
00000380: 159a 45be 9a6b e83b 0729 65bd bcf1 99bc
00000390: e4a9 eabd dc3e efbd 2bdd fabd ecb0 56be
000003a0: e7da 273d 22ab 54be ca25 b4bc 7d5f 2bbe
000003b0: 17ae 223d 4a95 09be 28c6 763d ed7c 6cbd
000003c0: 4c38 43be 1889 81bd 5536 b93c c90e 2abe
000003d0: 19a3 6a3d 3bb7 e3bd 935a 8e3d 9880 a7bd
000003e0: ccc5 71bd b815 e4bd 0b4d eebd 254c 963d
000003f0: fa85 753d 28c6 56be c7f6 d4bd 6adf afbd
-0.07392108 0.0006128483 -0.14341225 0.064999096 -0.14115638 0.012493552 -0.046735942 -0.06905085
-0.16030559 -0.07619457 -0.09286077 0.034982543 0.05056855 -0.16241893 -0.04309367 0.06177726
-0.1552273 -0.120781764 -0.07825161 -0.19291978 -0.13139859 -0.041814256 -0.085311756 -0.21451557
0.017696295 -0.17142722 -0.19228666 0.021210276 -0.2270545 -0.15272872 -0.13429429 -0.0010205753
0.058018178 -0.2337712 -0.22286838 -0.14284696 0.07653072 0.049626406 -0.02166741 0.03559211
-0.14603728 -0.23343603 -0.075005025 -0.20339134 -0.09985333 0.048588406 -0.07820293 0.06808378
-0.0018057901 -0.10883056 -0.110221304 -0.123261236 0.064069554 -0.16165757 0.022923691 0.047961954
0.046880815 0.04637154 -0.059171394 -0.008758339 -0.04041618 -0.18406168 0.0520931 1.5257701e-05
0.054340865 -0.1868164 -0.21320131 -0.13747232 -0.19327123 -0.0023558824 -0.09723277 -0.14023109
-0.0227928 -0.18640032 0.06219852 0.034326755 -0.029634913 -0.16744633 -0.14798544 -0.08118275
-0.19321607 -0.04519573 0.028022088 0.077995464 0.03113071 0.016537245 0.025502581 -0.20452964
-0.04528591 -0.0015609735 0.06669617 -0.13677172 -0.19894497 -0.0715538 -0.0055633807 -0.061442617
-0.2040131 -0.0619901 -0.05189647 0.054513913 -0.06524212 -0.1145345 -0.15172002 -0.11380244
-0.0027312597 -0.2037896 0.035204913 -0.19686532 -0.020832356 -0.17733096 0.013510743 0.07855994
-0.21799071 0.0039724847 0.024943145 -0.15679368 0.024336537 -0.22308736 0.040429164 -0.19438651
0.012860465 -0.21466666 -0.14840034 0.02403519 -0.04151268 -0.17112276 -0.1873383 0.0809014
-0.1782106 0.023510994 -0.22371064 0.05190825 -0.17561927 0.0053021945 0.059987567 -0.2004647
-0.06879046 -0.18848489 -0.05779227 -0.012338425 0.067490846 -0.07050992 0.04783966 -0.05824888
-0.11419944 -0.14012495 -0.2141364 -0.23901543 -0.22214346 0.054135982 -0.17194423 -0.11011771
0.0017439164 -0.1815189 -0.13112915 0.006524522 -0.19334482 -0.22713237 -0.19782244 -0.070714615
0.033110436 -0.1950837 -0.19015202 -0.17850056 0.047371224 0.03857939 0.04172756 0.05733559
-0.13856137 -0.15923929 0.06482877 -0.17421596 -0.23973134 0.05998498 0.0556082 0.02476957
0.0044602607 -0.12915981 -0.09515077 -0.2304559 0.050020967 -0.17066304 -0.03245076 0.07889422
0.0026416378 0.012324497 0.028853243 0.033349063 0.07417691 -0.088962436 -0.069600776 0.07190093
0.060494557 -0.112783924 -0.19693795 -0.20602655 -0.08944657 0.06876705 -0.2383253 -0.19914982
0.07401947 -0.102865696 0.05828476 -0.011214128 0.054270968 -0.21618599 -0.15239516 -0.15237954
-0.14449303 -0.01957993 0.009194722 -0.015462536 -0.054827593 -0.02569849 0.033277985 -0.08386101
-0.00122828 0.07079904 0.06006639 -0.09114363 -0.16070682 0.010611265 0.077542484 0.05814288
-0.19297059 0.007092905 -0.05594733 -0.018792026 -0.11458185 -0.11681911 -0.12249216 -0.20965928
0.040980246 -0.20768407 -0.021990675 -0.16735645 0.039716806 -0.13435856 0.06024757 -0.057736326
-0.19064444 -0.06324977 0.022608915 -0.16607203 0.05728445 -0.11118933 0.069508694 -0.08178824
-0.059026524 -0.11136955 -0.116357885 0.07338742 0.059942223 -0.20974028 -0.103986315 -0.08587535

q_out.bias f4 [4]
00000000: 967c 1cbe 1cdb 4fbe 02f3 81bc 9811 2bbe
-0.15281901 -0.20298427 -0.015862945 -0.1670593
