models/q_te_agent_0.pt (torch, 108049 bytes, 6 tensors)

fc1.weight f4 [128, 71]
00000000: fa57 bdbd 9a05 60bc b78d 4f3d 24b7 1e3e
00000010: 75c0 493e 98a5 8a3e e058 403e 1c1d 753e
00000020: 2972 9f3d 6fe6 2a3e d9f6 573e 06de 533e
00000030: 0416 6a3e 5391 d7bc f6d1 ecbd 6d26 82bc
00000040: c801 863e 2626 493d 688c 173e 52b0 403e
00000050: c015 8c3d c679 823d 1859 5bbd c970 983e
00000060: 40dc c53d dd8a ec3d 5b0e 893d 7db1 85bd
00000070: 98a3 e3bc 1170 c9bd 996b 543e 888d af3d
00000080: c236 c13d d29e 1f3e ead7 e83d 8e51 063e
00000090: c680 fcbd e915 183e 27d3 5c3e fcb3 643d
000000a0: 1a20 cd3d 57cf 77bd a637 273e 50aa 0c3c
000000b0: 0732 fc3d ccf2 663e e006 723d aff1 883e
000000c0: fcb3 ff3c 44e7 393c c2fe 4b3c 4571 8d3e
000000d0: 22a2 3d3e 0c10 933e aaa8 803e fc7c cd3c
000000e0: 3e47 15be c5fe 1bbd 18ed 1f3e b014 3b3e
000000f0: 53e4 903e 5999 5a3e 09af 023d a744 febc
00000100: 635b 953b 1ceb 8b3e c771 b53d d1b8 253e
00000110: 5ed5 823e 53a3 103e 16e6 a23d cdd1 3abd
00000120: be90 213d ebe8 5b3d 3dd3 523e c4b6 383e
00000130: 8c4f a13d 782a 453e 7811 403e 82e9 983d
00000140: 372b 9d3e 30ba 423e 4596 063e fd31 b83d
00000150: 39a5 4ebd adfb 093d 377b 64bd f2f3 c73d
00000160: ca5b 8a3e d959 bb3d 87a0 413e a25e 513c
00000170: 1a84 8c3d 8686 f13c ec9c 343e 55aa 823d
00000180: be73 453e 21de 873e 961c 4d3c 4fe9 7a3d
00000190: 01cb d2bd 7626 553e 00ee 073e cf38 3f3e
000001a0: 9aab f53d c756 c23d b0cb d73d 70fa 923c
000001b0: 9666 0e3e 17bf 4b3e 3601 5f3e 5322 6e3e
000001c0: e32f 363e 6249 103c 1f8e cebd 8df5 823e
000001d0: 0f37 4b3e a190 823e dfa7 293e fc7f c43d
000001e0: 8349 0a3d 7279 a93d df4f 893e b21a 6a3e
000001f0: a791 e03d 67b7 773e 0873 163e b7fe 993d
00000200: 502e 173e d7f3 553e 7d64 703e 667c 603e
00000210: 0d93 4b3e 1a7e 143e 89a4 093e c44f 313e
00000220: a979 4f3e 0946 7f3e 62a0 653e d2c7 a03e
00000230: cb69 b83c 7f92 4e3d c3b7 ae3d 2ef0 d83d
00000240: 8fed 36bd 7959 1f3e ee28 283e f8cc 8c3d
00000250: 23ec 0d3e 4c59 943d 097b 1c3d af28 253e
00000260: 539f 883d dfd7 ea3d 0e42 823e 291a 5f3c
00000270: 19b4 37bd 49a5 11be dece b73d 63b2 8c3d
00000280: 4603 4f3e d066 b53d 2cb9 4abd 8946 e3bc
00000290: cce5 9d3d 760a 8d3e 91c6 8d3d 32e3 903e
000002a0: 3e1f f93d 2c16 74bd ad39 6e3d 5650 1b3d
000002b0: 707c 7a3e 725d 863e 89b3 873e 117b 913e
000002c0: 58b0 153e fcc7 923d 6a01 d8bd c150 853e
000002d0: aa03 863e 6c8f 6a3e 0257 343e c4cc be3d
000002e0: 2424 253e 6b8f b8bd e180 183e 6728 5b3e
000002f0: 629e a83d 6574 0d3e e0b9 023e 5c0d bbbc
00000300: 6a9f 763d 68f5 473e 35e8 3b3e b6c5 7f3e
00000310: 0764 6e3e 419c a13d e100 143d 886b ec3c
00000320: e8bb f03d 42c6 c73d cba0 923e 6e88 e03d
00000330: 6f08 253e 1559 f03b a3f4 d93d 3240 4a3e
00000340: 8105 9c3e b8c9 953e 8112 033e 4cc1 e8ba
00000350: 8209 fabd 4dd4 e93d bc51 ab3c 3a50 d43b
00000360: ab42 8c3e 9b04 8b3d f309 323e d5cb 7a3e
00000370: fcd9 4b3e cb6b 633d 8599 c23d c318 d03d
00000380: 67c6 773e ee1f 123e 29c9 32bd 2daf 163d
00000390: a0fd 303c 25fc 993d a6fb 683d 7950 cb3d
000003a0: 180a 503e 8216 b9bd 5ca8 32bd 08ca c93d
000003b0: cf64 033e 98e2 873e 53a4 a43d f30d f63d
000003c0: 6d70 733d 4513 dbba b775 7cbd 7ac8 9f3d
000003d0: 5979 543e 7f20 103e 247b 833e 225a c63d
000003e0: 9788 913c 9978 7dbd 90d7 403e 5220 763e
000003f0: 7c81 003e 6507 cb3d d9b9 90bc f25c c53d
-0.09245296 -0.0136732105 0.05067226 0.1549955 0.19702323 0.27079463 0.18783903 0.23936886
0.07785446 0.16689466 0.21090259 0.20690164 0.22859961 -0.026314413 -0.11563484 -0.015887463
0.26173234 0.049108647 0.14799654 0.18817261 0.06840086 0.06370883 -0.053551763 0.29773548
0.0966115 0.115499236 0.06692191 -0.06527994 -0.027787969 -0.09835828 0.2074417 0.08571917
0.09434272 0.15587929 0.11369307 0.13117048 -0.12329249 0.14852108 0.21564923 0.05583571
0.100158885 -0.06050047 0.16329822 0.008585528 0.123142295 0.22553557 0.059088588 0.2674689
0.031213753 0.011346642 0.012450876 0.2762548 0.1851888 0.2872318 0.2512868 0.025084011
-0.14577958 -0.038084764 0.15617788 0.1826961 0.28299198 0.2134756 0.031905208 -0.031038595
0.0045580133 0.27327812 0.08859592 0.16183783 0.2555341 0.14124803 0.07954042 -0.045610238
0.039444678 0.053688925 0.20588394 0.1803847 0.078765005 0.19254482 0.18756664 0.07466413
0.30697033 0.19016337 0.13143261 0.089939095 -0.050450537 0.033687282 -0.05578157 0.09763326
0.27023154 0.091479965 0.18908893 0.01277891 0.06861134 0.029483091 0.17637986 0.063801445
0.19282433 0.26536658 0.012519022 0.061257657 -0.10292626 0.20815453 0.13274384 0.18674015
0.11995621 0.09489208 0.10536897 0.017941684 0.13906321 0.19897114 0.21777806 0.23255281
0.17791705 0.008806558 -0.10085701 0.25577965 0.19845222 0.25500968 0.16567944 0.095947236
0.033761512 0.08275117 0.2681875 0.22861746 0.10965281 0.24191056 0.14692318 0.07519286
0.1476376 0.20893799 0.23475833 0.21922454 0.19880314 0.14501229 0.13441671 0.17315584
0.20261253 0.2492906 0.22424462 0.3140245 0.022511384 0.05043268 0.085311435 0.10592686
-0.044660147 0.15561475 0.16421863 0.06875032 0.1385961 0.072435945 0.038203273 0.16128801
0.06671014 0.114669554 0.2544102 0.013617077 -0.04484949 -0.14223208 0.08975004 0.06869962
0.20216092 0.088575006 -0.049493 -0.027743595 0.07709846 0.27547044 0.06922639 0.28298336
0.12164162 -0.059591457 0.058160473 0.03791841 0.24461532 0.26243168 0.26504162 0.28414205
0.14618051 0.0716705 -0.10547145 0.26038173 0.2617467 0.22906274 0.17611316 0.093164
0.16127068 -0.0901173 0.14892913 0.21402131 0.08233334 0.13813932 0.12766218 -0.022833519
0.060210623 0.19527209 0.18350299 0.24977764 0.23280345 0.07891131 0.03613365 0.028859869
0.1175459 0.097546116 0.286383 0.10963522 0.16116498 0.007334838 0.10642364 0.19751051
0.3047295 0.29255462 0.12800027 -0.0017757802 -0.12208845 0.11417446 0.020912997 0.0064792903
0.27394614 0.06787988 0.17386608 0.24491818 0.19907373 0.05552272 0.09501938 0.10160973
0.24196778 0.14269993 -0.043648873 0.036788154 0.010802656 0.07518796 0.056880616 0.09927458
0.2031635 -0.09037496 -0.04361759 0.098529875 0.12831424 0.26540065 0.08039155 0.12014379
0.05943339 -0.0016714117 -0.0616357 0.0780191 0.20749415 0.14074896 0.25679886 0.0968516
0.017765326 -0.06188259 0.1883223 0.24035767 0.12549394 0.0991352 -0.017666744 0.096368685

fc1.bias f4 [128]
00000000: 301d 7e3e 5c07 253e fd48 a73e 6849 523e
00000010: 9f32 803e 432d 823e e209 973e 9a74 6d3e
00000020: 159f 2f3e b601 853e ed21 a53e ede1 243e
00000030: 936f 3b3e d29f bfbd f060 923e c8e2 883e
00000040: ae65 903e 3a7b 0a3e e6cb 993d f975 323e
00000050: 6134 f0bd 2646 d83d 6a70 563e 3576 903e
00000060: d5b1 5c3e 1eca 7e3e af85 a43e f6ab 573e
00000070: 4020 363e e472 3c3e 43b4 ef3d 84c9 513e
00000080: 2395 8a3e 819b a03e eae7 8b3e 8c9a 993e
00000090: e45c 2d3e 9ea0 963e 40d6 823e e9aa 903e
000000a0: bed9 cf3d 6166 053e 9b44 3ebd fa21 573e
000000b0: f5f5 173e 7ad4 1c3e 84ae f53d 99bb e43d
000000c0: a0a3 073e 843b 913e cbfe 523e a156 9c3e
000000d0: dbe8 b53d aae5 973e 024b 403e 91a4 de3d
000000e0: bea8 453e da3d 6d3e f667 703e 68e0 933e
000000f0: 5999 5c3e 9931 3f3e c532 8a3e fc60 a13e
00000100: 3fa9 fd3d 0314 3b3e ac11 293e 4470 963e
00000110: 5329 db3d 4a8b 283e cc78 9c3e 61ae a1bd
00000120: 6f4f 143e 7e0e 363e 114d 8b3e 4314 853e
00000130: e2e7 633e 82fa 4b3e c59d 5f3e 2bc2 793e
00000140: 137b 883e 5921 6f3e c4f7 9b3e 37e3 253e
00000150: 982a 143e 8322 313e 738a 8b3e ed8a 743e
00000160: 9e99 5fbd 0da4 203e a600 873e 44f5 723e
00000170: 7f15 aa3e 8c24 513e 90f4 183e 543f 9c3e
00000180: 519f c73d 9821 563e e15e 2e3e 40aa a93e
00000190: 8530 7b3e 13a6 803e 3e63 8e3e ac59 05bd
000001a0: e6cd 9b3e 618b 863e e691 aabd 3d0c 163e
000001b0: 862b 683e 8ca5 663e eeba 783e 086e a63e
000001c0: b93d 693e f16d 7b3e f2b9 373e 9744 ea3d
000001d0: 5cac 3a3e 1e26 933e c091 713e a25e aabc
000001e0: f1b3 1e3e 9527 953e 5452 313e e07e 843e
000001f0: ad7f 7e3e 493f 863e ebba 8d3e 4ec9 ff3d
0.24815822 0.16116089 0.32672873 0.20535815 0.2503862 0.25425157 0.29499727 0.23189011
0.17150529 0.25977868 0.32252446 0.16101809 0.18304281 -0.09356655 0.28589582 0.2673552
0.28202575 0.1352357 0.07509594 0.17427815 -0.117287405 0.10560255 0.2094132 0.28215185
0.21552213 0.24881789 0.32133242 0.21061692 0.1778574 0.18403202 0.11704304 0.20487028
0.27066907 0.3136864 0.27325374 0.30000722 0.16929966 0.29419416 0.25554085 0.28255394
0.10148953 0.13027336 -0.046452146 0.21009055 0.14839919 0.15315428 0.11996177 0.11168594
0.13246012 0.2836572 0.20605008 0.30534843 0.08882304 0.29667407 0.18778613 0.10871232
0.19302651 0.23168126 0.23477158 0.28882146 0.21542872 0.18671264 0.2699186 0.31519306
0.12385797 0.18269353 0.16510648 0.29382527 0.10701241 0.16459385 0.3056091 -0.07894588
0.14483427 0.17778966 0.27207235 0.2599202 0.22256425 0.1991978 0.21837528 0.24390475
0.26656398 0.23352565 0.30462468 0.16199957 0.14469373 0.17298321 0.27254066 0.23881121
-0.05458986 0.1568758 0.26367682 0.23726374 0.33219525 0.20424098 0.14937043 0.30517066
0.09747184 0.20911252 0.17028381 0.33137703 0.24530227 0.25126705 0.2781009 -0.03255622
0.30430526 0.26278213 -0.08328609 0.14653106 0.22672853 0.22524089 0.24290058 0.32505822
0.22777452 0.24553658 0.17942026 0.11438864 0.18229812 0.2874002 0.23590755 -0.020797078
0.1549833 0.2913176 0.17316562 0.25878048 0.24853392 0.26220158 0.2768167 0.12489568

fc2.weight f4 [128, 128]
00000000: 8f6f 01bc 19ff 1d3d 8bee 973c 739b 963d
00000010: d19b acbd 270c b6bd 4724 9f3a 002b 923d
00000020: c8e3 0dbd 9fd3 943d 5e51 753c eaa9 43bd
00000030: b705 6bbd 4f3b 4e3d 4f3f 8f3d 66ae 8f3d
00000040: 42cb 00bc cd30 463d e47b 9a3d 9987 8cbc
00000050: 8523 6c3d 8a63 abbd d0c0 91bd 3607 41bd
00000060: e472 793d fccd d93c a0e1 41bc 1908 9abd
00000070: d863 12bd 2a94 ee3c bc13 b8bd c5f0 7dbd
00000080: e90c 3dbd 293a 45bd d955 053d c5a7 44bd
00000090: 3bbf 6fbd 6bd1 e83b 9827 1abb 581f adbc
000000a0: 579a 993c f16d 003d 1ea4 063d ae89 6dbd
000000b0: 2428 ac3d 57d3 9fbc 0025 77bd ffaa 48bc
000000c0: 31a9 4e3b 82ab f03c ed69 87bb 7ad2 d53c
000000d0: 3048 44bd 432d 41bd bde8 08bd ad36 22bd
000000e0: a73b 643d 4420 953d 5d74 873a 7765 233d
000000f0: 75ae 50bd 0cd1 753d 56b5 85bc f312 08b7
00000100: acfd 7f3d 544a babc 759c debb bbcd 8abc
00000110: 662a 883b 66b9 f4bb 67ec 4fbd f583 b43d
00000120: ace1 953d b07d 843d d0a6 4dbd bb66 9cbc
00000130: 08a5 6ebd 2fc5 7c3d 1d58 4a3d efac 8b3d
00000140: c591 d33b 446c 18bd c836 8c3d f909 9abd
00000150: 9c4b cebc 11f6 9bbc 13b8 8cbd c676 f63c
00000160: cd3f 1c3d b6f3 b9bd 6af8 5cbd e52c a33d
00000170: 3c4b 9b3d 36d5 243d 2315 36bd cb01 22bc
00000180: 6c89 fabc 31ca 73bd ba0c a93d d400 7dbd
00000190: 2049 a73d e691 d23c 18e5 033c cd45 10bd
000001a0: 2fb7 8b3d 956e 823d e794 98bd 5d0e b6bd
000001b0: 3552 a9bc e7ec 7abd c2a1 373d d640 913d
000001c0: 092a 3dbd 1022 73bd de50 96bc 6b57 cfbb
000001d0: 3000 9dbd 9ac4 c33c ac96 253d 628b 393d
000001e0: 9d01 843b fa79 d7bb 36d4 4c3d 5151 88bd
000001f0: 0b3b cbb9 9886 dcbc 7436 dabc ca88 973d
00000200: c9aa 263e dcd5 7a3e 75f3 233d 6fe0 cf3d
00000210: 716b 573d 1de1 9f3d 24f6 143e b80b 073e
00000220: cd45 fd3d ce25 1c3e c4f9 673e 9527 493e
00000230: c519 a63d 0d6b 86bd 31ed b33d 28af 693e
00000240: 899a 523e cdea f93d d97e 6e3e dc4d 603e
00000250: d6a7 533d 91d9 023e eb34 e13d b57a 963d
00000260: a573 303e 19b0 6e3d 9fe0 fd3d 669f 6d3e
00000270: a83b 453e 1d23 083e 18e3 393e 8390 153e
00000280: d79f f83d eadc a83d 91c4 2f3e 4294 1d3e
00000290: df3b 873d 0d93 b93d 3312 643e 55be bd3d
000002a0: c157 563e cff4 7d3e 2ac8 833d d4c8 6d3e
000002b0: 7233 1a3e af74 113e 2ce6 7e3e e67d 133e
000002c0: c1b3 473e 8f37 603e 3889 bd3d 2279 413e
000002d0: 4d81 363e 380e 323e a8a3 ff3c d61c 5c3e
000002e0: ba46 4e3d f540 bc3e 721c 113e 0ba7 1a3d
000002f0: d066 3c3e f6d0 203e baf7 0e3e 4f77 563e
00000300: 4b51 2a3e 8a39 5b3e 4be0 073e 17d6 333e
00000310: 6797 123e 21d2 683e 274f 673e 5a89 213d
00000320: 0442 d23d cead 143e 9d18 2b3e d980 453e
00000330: c508 6f3e de43 3f3e 60af 223e ac75 be3e
00000340: 9ae3 793e fcde 803e 69c2 e83d c4d6 9f3e
00000350: 7350 293e 4566 e53d bbaf 4b3e 3f04 253d
00000360: dc44 ad3d c2b8 163e ea3a e13d 50d2 633e
00000370: 80a8 6e3e 8d15 7e3e 3b9c 803e 6620 053e
00000380: 6adb 273e 17c0 b83d 1cfa 443e 9b03 5a3e
00000390: 5f89 3f3e 94cd 153e 212b 393e a40a 4ebd
000003a0: a30e 323e 782a 2b3e d750 7b3d c8c2 1f3e
000003b0: 6abb bb3d cbe8 b13d 3b2f b23d 17f8 003e
000003c0: 1ed9 623e 7ac5 273e 0a4d 7a3e a99f 263e
000003d0: e963 5c3e d7ac e03d ed7c 3b3e 482b 0ebe
000003e0: ef8e 543e df54 993d 5889 7f3e 1975 d23d
000003f0: d7d7 fc3d d136 483e 5b36 113e 7ff4 063e
-0.007900133 0.03857336 0.018546363 0.07353868 -0.08428157 -0.088890366 0.0012141549 0.07137108
-0.034641057 0.07266926 0.014973013 -0.047769465 -0.057378497 0.05034953 0.06994497 0.07015686
-0.00786096 0.048386384 0.075431615 -0.017154502 0.05765106 -0.08368595 -0.07116854 -0.047126018
0.060900584 0.026587479 -0.011833578 -0.07521076 -0.03573975 0.029123385 -0.08988139 -0.061997194
-0.04615489 -0.04815117 0.032552574 -0.04801156 -0.05853198 0.0071050427 -0.0023522135 -0.02113311
0.018750353 0.03135485 0.032871358 -0.05799263 0.08406094 -0.019509954 -0.06033802 -0.0122478
0.0031533951 0.029378656 -0.0041325004 0.02610134 -0.047920406 -0.047162306 -0.03342508 -0.039602924
0.05572095 0.07281545 0.0010334362 0.039891686 -0.050947625 0.060013816 -0.01632182 -8.110644e-06
0.06249778 -0.02274052 -0.0067935535 -0.016943803 0.004155445 -0.0074683903 -0.05076256 0.08814231
0.07318434 0.064692855 -0.050207913 -0.019091954 -0.058262855 0.061711486 0.049400438 0.06820094
0.006456586 -0.037212625 0.06846386 -0.075214334 -0.025182538 -0.019038232 -0.06871047 0.030085932
0.038146783 -0.09079687 -0.053947844 0.07967547 0.07582709 0.040242396 -0.04445375 -0.009888123
-0.030583106 -0.059518997 0.082543805 -0.061768368 0.08168244 0.025704335 0.008050226 -0.035222817
0.06822049 0.06368748 -0.07450276 -0.08889458 -0.020669082 -0.061261084 0.044832 0.070924446
-0.046182666 -0.059358656 -0.018349107 -0.0063275597 -0.076660514 0.023897458 0.040426895 0.04529894
0.0040285126 -0.00657582 0.050007068 -0.06656135 -0.00038763168 -0.026919648 -0.026637293 0.07399137
0.16276087 0.24495643 0.0400271 0.10150229 0.0525927 0.07806609 0.1454702 0.13188064
0.12366829 0.15248796 0.22653872 0.19644006 0.08110384 -0.06563387 0.08785475 0.22820723
0.20566763 0.12202988 0.23290576 0.21904701 0.051673733 0.12778307 0.109964214 0.07347623
0.17231615 0.05827341 0.12396359 0.23205337 0.19261038 0.13294645 0.18153036 0.14605908
0.12139862 0.08245261 0.17164828 0.15388587 0.066032164 0.09061251 0.22272567 0.092648186
0.20931913 0.24800418 0.06434663 0.23221141 0.15058687 0.14204668 0.24892491 0.14403495
0.19502164 0.21896194 0.09254688 0.18893865 0.17822762 0.17388237 0.031205967 0.21495375
0.05036042 0.36768308 0.14171007 0.03775696 0.18398595 0.15704712 0.13961688 0.2094395
0.16632573 0.21408668 0.13269155 0.17562138 0.14315568 0.22736408 0.22588788 0.03943763
0.10266498 0.14519426 0.16708608 0.19287433 0.23343189 0.18678233 0.15887213 0.37199152
0.2440323 0.25170124 0.11365206 0.3121854 0.16534595 0.11201147 0.19891255 0.040287253
0.084603995 0.14718917 0.10997565 0.22248197 0.23306465 0.24812908 0.25119194 0.1300064
0.16392294 0.09021013 0.19236034 0.21290438 0.18704747 0.14629203 0.18082859 -0.050303116
0.17388396 0.1671542 0.06135639 0.15601647 0.09166606 0.0868698 0.08700415 0.12594639
0.22153136 0.16383925 0.2444345 0.16271843 0.21522488 0.109704666 0.18309374 -0.13883698
0.2075765 0.07486891 0.24954736 0.10276241 0.12345856 0.19552161 0.14180891 0.13179205

fc2.bias f4 [128]
00000000: b860 b3bd 55d4 073e c6f6 2f3e 3948 fe3d
00000010: ff9a 633e 56ae ce3b a404 eabc 788a 2d3e
00000020: a143 54bd 6937 943c 623c 9f3c 9c2f e93d
00000030: 974d bf3c 04a5 873e b5a8 7e3e 2da8 bd3d
00000040: 69aa 88bd 5a69 dd3d 1833 823e c20d bb3d
00000050: 1635 3c3e 5eaa 9dbd 302b 103e 1017 4a3e
00000060: 5020 fabc 8332 563d 58f7 1cbd 6c0b dbbb
00000070: 1541 ed3d 6153 2f3e dc00 7f3e f54f 763e
00000080: ea77 b23c 5d18 49bd 3e82 7c3e 86ec 393e
00000090: fd13 5c3e bb3b 26bd f623 653e f6ec 773e
000000a0: e1d3 6c3e 718b 613e 70f0 683e e63f 8ebd
000000b0: 7c2f 60bd ddf1 b3bd b30a 233c 7e30 873e
000000c0: 69fb 6a3e 6e32 3e3d 7195 7f3e 7d66 ee3c
000000d0: bc84 433e 2001 ab3d b80c 653e fb6c fc3d
000000e0: 7da0 61bd bfad 1d3e ace3 b63d 7dec b7bc
000000f0: def5 90bd a964 2f3c b0da cebb c3fa 693e
00000100: 6721 c2bb 7651 823e b3c0 453e f099 0c3d
00000110: 399e d03c e848 1abc 8c9e 6b3d 1790 233e
00000120: 1485 793e f8a9 f63d 488b a9bd 5a96 f93c
00000130: 827f 12bd b783 233e 3596 833e 1058 bcbc
00000140: 4af3 853e 9766 423e 7b4c 7dbd 3148 033e
00000150: b017 59bc 08f3 503e 9d34 873e cedc d23d
00000160: 7dfd 53bd 583b 103d 49d2 4d3e ec38 e0bc
00000170: 4879 983d ff6f 173e 5481 45bd bdbf 6f3e
00000180: fe2f 353d 7ccc 343e 142e 4f3e c12f ad3c
00000190: 0a58 ed3d fe1e 403e 394e 513d f01b 593e
000001a0: 0a93 873e 2412 e93d 8eba b7bc 54cf 8cbc
000001b0: 011d 653e 9a89 323e 048a 513e e2f9 403e
000001c0: 5dae c43d e410 37bd 5cee 443c 0718 283c
000001d0: 83cf 513e 63a0 473c c273 c33a 5ae5 75bd
000001e0: 847b 3fbd 53e0 983d 9121 203e 85d4 a0bd
000001f0: 37dd 743d 13c7 5e3d 7bc8 5f3e 07b3 3b3e
-0.08758682 0.13264592 0.1718398 0.12416119 0.22227095 0.0063074036 -0.028566666 0.16947353
-0.05182231 0.018092828 0.019437972 0.11386034 0.023352427 0.26493084 0.24869044 0.092605926
-0.06673128 0.1081111 0.25429606 0.091334835 0.18379626 -0.076985106 0.14078975 0.1973536
-0.030532986 0.052294265 -0.038321823 -0.006684711 0.11584679 0.1712165 0.24902672 0.24053939
0.021785695 -0.0490955 0.24659058 0.18156633 0.21492 -0.040584307 0.22377 0.24211487
0.231277 0.22025849 0.2274797 -0.069457814 -0.054732785 -0.08786366 0.009951281 0.26404184
0.22947468 0.046434812 0.24959351 0.029101605 0.19093603 0.08349824 0.22368133 0.12325474
-0.055084694 0.1539831 0.08930144 -0.022451634 -0.070781454 0.010705152 -0.0063126907 0.22849564
-0.005924392 0.25452775 0.1931179 0.034326494 0.025466071 -0.009416796 0.05752425 0.15972935
0.24367172 0.12044138 -0.08278519 0.030467201 -0.035766132 0.15968214 0.25700536 -0.02299121
0.26162177 0.18984447 -0.061840516 0.12820508 -0.013250276 0.20405209 0.26407328 0.102960214
-0.051755417 0.035212845 0.20099749 -0.027370892 0.074450076 0.14788817 -0.04821904 0.23412986
0.044235222 0.1765613 0.20232421 0.021140935 0.11589058 0.18761823 0.05109999 0.21202064
0.2647937 0.11380413 -0.022427823 -0.017188706 0.22374345 0.17435303 0.20462805 0.18845323
0.0960357 -0.044693843 0.01201972 0.010259635 0.20489316 0.012184235 0.0014911818 -0.06003318
-0.046748653 0.074646614 0.15637805 -0.07853035 0.05978128 0.05438907 0.21853821 0.18330012

q_out.weight f4 [4, 128]
00000000: 33cb e23c 90ff 52be 724e 9dbd 3cfd ebbd
00000010: 2d59 17be 319e 963b c728 e23c 1b97 58be
00000020: 07e4 7dbd 4eee 9d3d 2d7e a03d ef30 52be
00000030: bab9 20bd 7a49 1fbe 79c5 07be 505d 1cbe
00000040: 298e 8b3d 052a 1ebe 02ad eabd 49b2 45be
00000050: 5f4f 79bd 9528 67bd 1fe7 f9bd 22dc d0bd
00000060: 5f5b a03d dae4 b9bd ec15 e73c f394 c33c
00000070: 9310 0ebe e255 65be e732 1abe 2f4b 74be
00000080: 46a3 c4bb e644 1e3d 0c76 c3bd 25d5 53be
00000090: 39aa 67be 2413 a539 ff32 5fbe 90c4 59be
000000a0: 4441 d4bd 283c b3bd ebd2 41be 8d48 103c
000000b0: 6e31 a93d a44a 983c 5d86 86bd 1986 4cbe
000000c0: 3773 73be d425 d03c bdec 53be 48fb c53c
000000d0: eb71 53be 6fb8 113d 5749 1cbe 2505 cabd
000000e0: 3b5b 81bc 2910 27be 5bb0 6bbe 1a33 603d
000000f0: cfe5 74bc b65a 82bc ce76 873c 74e0 24be
00000100: e67b a13d 46fb 03be cdb6 4dbe 1ae6 69bd
00000110: ef2a 993d 78b9 1e3d bf31 4b3d a5f1 60be
00000120: 1cc9 28be d022 29be 898f 80bc ebff 2f3d
00000130: b7e6 443c c3af bcbd 3d54 2cbe 3367 343c
00000140: 2118 4abe 022a fcbd be55 903a a089 34be
00000150: adc7 55bd 1c9e d3bd b30a 72be f9ae 66be
00000160: 211d 95bc eb3e 80bd 7c23 53be 1de6 6b3d
00000170: cc8c 4a3d 335a 7abd eebe 1cbd bdea 9abd
00000180: 1b1e 863d a0ba 01be 0d87 87bd 2e87 133d
00000190: 0ae2 3bbe ae96 1abe 616b bcbc 996e 2abe
000001a0: ce20 2bbe e936 6bbe 72c0 8ebd 1876 a73d
000001b0: 723d 46be 27d3 34be 7337 63bd 5b97 61be
000001c0: 6f4b 0fbe 8abf 0dbb d834 343c e1a1 373d
000001d0: 6ab1 97bd 900f 5c3d 81d2 1bbc bee1 c8bc
000001e0: 1308 6c3d d757 583d a8cc 1cbe c435 a53d
000001f0: ebb2 1cbd 9fd6 0b3d f038 4abe 59eb 38be
00000200: 6da1 453a 0ae1 6dbe 595d 5bbe 5699 0bbe
00000210: c616 3dbe e6e6 5b3d fe98 763d e1bd 96bd
00000220: b102 83bb 3cb4 f4bc 1538 5b3d fe7e 62be
00000230: 78f3 f8bc 3406 3cbe 00ff 2cbe 80c7 6cbe
00000240: d4c5 17bd f55c 1fbe 061a 9cbd fbf6 64be
00000250: 7de5 35be 6efe aa3d 8896 8dbd b9aa c0bd
00000260: 8c3a 24bd 6e10 753d b24c b0bd 154a 4c3d
00000270: 6383 07be 6625 d7bd 4b7a 3dbe e63f 51be
00000280: cf65 673d c6b8 ba3c 88c0 35be 92c6 34be
00000290: 3901 3cbe 82ac 2cbb 9c82 05be 4903 09be
000002a0: 7511 5dbe dda6 5ebe f33b 1abe dea1 b8bc
000002b0: 8b8a fa3b 26b9 4fbd 6800 793d 1f67 27be
000002c0: 3ad3 c1bd 02ad 8c3d 0d35 2dbe 380b 3e3d
000002d0: 0400 efbd cf31 99bd c4b6 21be f8c8 0bbe
000002e0: 92c0 eebb dc41 1ebe 7f43 42be 7296 973d
000002f0: e92d 053d ed6a 6e3d 01cf 57bb 3124 04be
00000300: 74d4 9a3d bdbb 5abe 7a95 61be 123b 18bd
00000310: 7da0 95bd a205 d7bc dee8 973c 70b1 eabd
00000320: 423d 55be 114d edbd b3ef 72bd ae7b 183d
00000330: 04f4 2dbd bc19 09be ce02 6cbd c03e 7f3c
00000340: dbd1 e7bd c319 66be 16de 693d e99a 75be
00000350: e4e8 bbbc 7cd3 53be c825 f6bd fcff f2bd
00000360: 3580 aa3d b709 3b3d b815 1abe 0274 ebbb
00000370: 7fa3 fbbc caa9 52be 0162 82bd 4731 adbd
00000380: 610c d13c 7fe2 32be 91e4 4cbe 1177 bcbd
00000390: b620 58be 3d51 21be 37b6 043d deaa ffbd
000003a0: e18e 65be b088 6cbd e018 ec3b 09c7 38bc
000003b0: 1c65 5abe e77f f8bd b685 37be ae84 3cbe
000003c0: f06a 81bd be3e 7f3d b781 aa3d 425e 813d
000003d0: 469b 40be 95b1 48bd 2b59 ad3d 545b 763d
000003e0: 42cc 6e3d 9d78 64bd 4032 3ebe 0e10 8f3d
000003f0: ede1 213d b293 bfbb 637e 24be 8855 2fbe
0.027684784 -0.20605302 -0.07680978 -0.1152291 -0.14780112 0.0045964946 0.027607335 -0.21151392
-0.061985042 0.07711469 0.07836566 -0.20526479 -0.039239623 -0.15555373 -0.13258924 -0.15269971
0.06814224 -0.15445717 -0.1145878 -0.19306292 -0.06086671 -0.056435186 -0.12202286 -0.10198237
0.07829928 -0.09076853 0.028208695 0.023874735 -0.1387351 -0.22396043 -0.1505848 -0.23856805
-0.006000909 0.038639925 -0.09544 -0.20686777 -0.22623529 0.00031485513 -0.21796797 -0.21266389
-0.10364011 -0.08751708 -0.18928115 0.00880636 0.08261381 0.018590279 -0.065685965 -0.19973029
-0.2377442 0.025408663 -0.20695777 0.024167672 -0.20648925 0.03557628 -0.15262352 -0.098642625
-0.015790572 -0.16314758 -0.23016493 0.054736234 -0.014947369 -0.015912395 0.016536143 -0.16101247
0.0788496 -0.12888822 -0.20089264 -0.057104208 0.07478892 0.038751096 0.04960799 -0.2196718
-0.16482967 -0.16517186 -0.015693443 0.04296867 0.012017897 -0.092132114 -0.1682901 0.011010933
-0.19735767 -0.123127 0.0011011881 -0.17630625 -0.05219238 -0.10332891 -0.23636894 -0.22527684
-0.018202366 -0.06262001 -0.20619005 0.0575925 0.04945068 -0.061121177 -0.038268022 -0.07564304
0.06548711 -0.12668848 -0.06617556 0.03601759 -0.18347946 -0.15096542 -0.023000421 -0.16643752
-0.16711733 -0.22970165 -0.069703 0.081768215 -0.19359377 -0.17658673 -0.055472802 -0.22030394
-0.1399362 -0.0021629059 0.010998927 0.044832114 -0.07406886 0.05372578 -0.009510637 -0.024521705
0.057624888 0.052818146 -0.15312445 0.080668956 -0.038256567 0.034140225 -0.19748282 -0.18058528
0.0007539008 -0.23230377 -0.21422328 -0.13632712 -0.18465719 0.053687 0.0602045 -0.07360435
-0.0039981236 -0.029871099 0.05352028 -0.22118756 -0.030389532 -0.18361741 -0.1689415 -0.23122978
-0.037053898 -0.15562804 -0.07622151 -0.2235984 -0.17763324 0.0834931 -0.06913477 -0.09407563
-0.040094897 0.05983012 -0.086083785 0.049875338 -0.13233714 -0.1050518 -0.18503682 -0.20434532
0.056493577 0.022793185 -0.17749226 -0.17653874 -0.18359841 -0.002634794 -0.13038105 -0.1338016
-0.2158869 -0.21743341 -0.15061931 -0.022538122 0.00764591 -0.05071368 0.060791403 -0.16347931
-0.094641164 0.06868936 -0.16914769 0.046397418 -0.11669925 -0.07480203 -0.15792376 -0.13650882
-0.0072861398 -0.15454811 -0.1897106 0.07401742 0.032514486 0.05820744 -0.003292978 -0.12904431
0.075600535 -0.21360679 -0.22029677 -0.03716571 -0.07306001 -0.026247803 0.018543657 -0.11459625
-0.20824149 -0.11586965 -0.059310626 0.037227325 -0.04246904 -0.13388723 -0.057619862 0.015578926
-0.11319324 -0.22470765 0.057096563 -0.23984875 -0.0229382 -0.20686144 -0.12018925 -0.118652314
0.08325235 0.04566356 -0.15047348 -0.00718546 -0.03071761 -0.20572582 -0.06366349 -0.084566645
0.025518598 -0.17469214 -0.20009066 -0.092023976 -0.21106228 -0.15753646 0.032400336 -0.12483762
-0.22417785 -0.057747543 0.007205114 -0.011277922 -0.21327633 -0.121337704 -0.179221 -0.18409988
-0.06319225 0.062315695 0.083255224 0.063168064 -0.18809232 -0.04899748 0.08464273 0.06014569
0.058300264 -0.05577909 -0.18573856 0.06985484 0.0395221 -0.005846464 -0.16063838 -0.17122471

q_out.bias f4 [4]
00000000: a253 0cbe b92e f4bd 26eb d6bd 29e0 fdbd
-0.13703778 -0.11922974 -0.1049407 -0.12396271
