models/SmallerGrid_First_train/q_ind_agent_1.pt (torch, 108061 bytes, 6 tensors)

fc1.weight f4 [128, 71]
0	0x3e4e2480	0.20131111
1	0x3e426254	0.18982822
2	0xbc874a0f	-0.016514806
3	0xbea0caf6	-0.31404847
4	0x3e86d067	0.26330873
5	0x3d85bd04	0.065301925
6	0x3e80773e	0.25090975
7	0x3dbba635	0.09162561
8	0xbdad061c	-0.08448431
9	0x3cccdb00	0.025006771
10	0x3d875dc2	0.0660968
11	0xbd9c384c	-0.07627925
12	0x3bbb6d4d	0.005719817
13	0x3de9e487	0.11420541
14	0xbac4b68e	-0.0015008019
15	0xbcaa1771	-0.02076313
16	0x3caabd0a	0.020842094
17	0x3e1ea5e0	0.15492964
18	0x3d270031	0.040771667
19	0x3e2caa10	0.16861749
20	0x3e3bc832	0.18338087
21	0xbdf8619e	-0.12127994
22	0xbd8eb17a	-0.06967445
23	0x3e406604	0.18788916
24	0x3d3b9b21	0.04580224
25	0x3ddbf1f1	0.10739506
26	0x3c9ea7c1	0.0193671
27	0x3d3f8dbb	0.046766024
28	0x3d6952fa	0.0569639
29	0x3bd0d8ca	0.0063734995
30	0x3e39893f	0.18118761
31	0x3e58b7c0	0.21163845
32	0x3d66ea00	0.056375504
33	0x3e0ea274	0.13929158
34	0xbd837ef4	-0.06420699
35	0xbd105241	-0.035234693
36	0x3e09897d	0.13431354
37	0x3da73d52	0.08165993
38	0x3dd8b87f	0.10582065
39	0x3d1bf2ad	0.03807323
40	0xbc4ee75e	-0.012628404
41	0xbdbf8126	-0.09350805
42	0xbd3f7d8b	-0.046750586
43	0xbdc330dd	-0.09530804
44	0x3e18258d	0.14858074
45	0x3e727137	0.23676
46	0x3e4b6ced	0.1986577
47	0xbc8cd6af	-0.017192213
48	0x3d07842d	0.033085037
49	0x3dd4e3bb	0.10394999
50	0xbe03404c	-0.12817496
51	0x3e5357df	0.20638989
52	0x3e0844e9	0.13307537
53	0x3db4f969	0.08836634
54	0x3e387414	0.1801303
55	0xbb6e089c	-0.003632105
56	0x3baca148	0.0052682497
57	0xbca65f48	-0.020309106
58	0x3e354c80	0.17704964
59	0x3e3c5724	0.18392617
60	0xbd01f8d5	-0.031731445
61	0x3e396fc6	0.18109044
62	0xbdaf4832	-0.08558692
63	0xbe063124	-0.13104683
64	0x3d4b080a	0.049568214
65	0x3d488298	0.04895267
66	0x3e2ac457	0.1667646
67	0xbc92ad2d	-0.017904842
68	0x3cb8326d	0.022484982
69	0xbda431e6	-0.0801733
70	0x3cd69df6	0.026198369
71	0x3d09ea63	0.033670794
72	0xbe0221cb	-0.12708203
73	0x3ddcc34d	0.10779438
74	0x3f1dbfe7	0.61620945
75	0xbe6ebde8	-0.23314631
76	0x3d150de6	0.036390208
77	0x3c8f2824	0.017475195
78	0x3db6dc09	0.08928687
79	0x3e177b4b	0.14793126
80	0x3dcafcae	0.09911476
81	0x3def9b78	0.11699575
82	0x3e9aa97d	0.30207434
83	0x3e259ecc	0.16173857
84	0x3e231946	0.1592761
85	0xbc17cf33	-0.009265709
86	0x3de2db53	0.11076989
87	0x3d54950d	0.05189996
88	0x3e218ed1	0.15777136
89	0x3e296eb6	0.16546139
90	0x3e7b714d	0.2455494
91	0x3e8c0b95	0.27352586
92	0x3d10b88f	0.03533226
93	0x3aba4c14	0.0014213347
94	0x3e6e734f	0.23286174
95	0x3de4c08d	0.11169539
96	0x3de4b9ad	0.11168227
97	0x3e5a0e93	0.21294622
98	0x3e50336a	0.20332113
99	0xbd4c9008	-0.049942046
100	0x3d97a1fd	0.07403944
101	0x3db43ff3	0.0880126
102	0x3e0af259	0.13569011
103	0x3e464aa9	0.19364418
104	0x3d81856b	0.063242756
105	0x3e7d9b1e	0.24766204
106	0xbd2b8367	-0.041873362
107	0x3e165249	0.14679827
108	0x3e14626a	0.14490667
109	0x3eaba309	0.33522823
110	0x3e5ba434	0.21449357
111	0x3e79c961	0.24393226
112	0x3dff8909	0.12477309
113	0x3dabf3c3	0.08396103
114	0x3cc8ac10	0.024496108
115	0x3e6c1edd	0.23058648
116	0x3e49b8d0	0.19699407
117	0x3d6ba36c	0.057528898
118	0x3e890de4	0.2676841
119	0x3e496d49	0.19670595
120	0x3d421683	0.04738475
121	0x3c25f58c	0.010129344
122	0x3e6df995	0.23239739
123	0x3e7676e2	0.24068788
124	0x3e9d5a81	0.30733112
125	0x3e392701	0.18081285
126	0x3e7d656d	0.24745722
127	0x3de1910a	0.11013992
128	0x3dc083ea	0.094001606
129	0x3d8727c8	0.065993845
130	0x3e1224c1	0.14271833
131	0x3e74f16f	0.23920225
132	0x3eae96c9	0.34099415
133	0x3e3b3840	0.18283176
134	0xbd192f7c	-0.0373988
135	0x3e6213cf	0.22077869
136	0x3e340446	0.17579755
137	0x3dbed796	0.093184635
138	0x3e0c4ad1	0.13700415
139	0x3e4bf083	0.19915967
140	0x3eb23cfd	0.34812155
141	0x3ca66bd4	0.020315088
142	0x3d1871df	0.03721797
143	0xbe1222ff	-0.14271162
144	0x3cbb8c69	0.022894101
145	0x3e813955	0.25239053
146	0xbf0214b4	-0.5081284
147	0x3e104a95	0.14090951
148	0x3dd3a4e2	0.10334183
149	0x3d061115	0.032731134
150	0x3e0906a1	0.13381435
151	0x3e0e0ecd	0.13872834
152	0xbe1415e3	-0.14461474
153	0x3d4a3b05	0.04937269
154	0x3cd50b2d	0.026006306
155	0x3cd5034f	0.026002554
156	0x3d9aa071	0.07550133
157	0x3e75ef4a	0.24017063
158	0xbc36d57f	-0.0111593
159	0xbd32ef4b	-0.04368524
160	0x3e009203	0.12555699
161	0x3d706883	0.05869342
162	0xbd874d0b	-0.06606492
163	0x3e0d798b	0.13815896
164	0x3dd7824e	0.105229005
165	0x3d36c1c9	0.0446184
166	0xbd934f58	-0.07192868
167	0x3ce11668	0.027476504
168	0x3c9ef36c	0.019403182
169	0x3e0c4365	0.13697584
170	0xbe088707	-0.13332759
171	0x3b130298	0.0022431966
172	0x3d33cd8c	0.043897197
173	0xbda8d58b	-0.08243855
174	0x3d0595e4	0.03261365
175	0x3d7b245b	0.06131397
176	0x3dfd1ad8	0.12358636
177	0x3d3cf6ba	0.046133734
178	0x3c2d342f	0.010571524
179	0xbb08e508	-0.0020888466
180	0xbe47094c	-0.1943714
181	0xbcf8a9a7	-0.030354334
182	0x3d9e1616	0.07719056
183	0x3cc33d02	0.023832802
184	0x3d98bd4a	0.07457979
185	0x3d68652b	0.056737106
186	0x3dac39dc	0.08409473
187	0x3c8de1b9	0.017319547
188	0x3e137c95	0.14402993
189	0x3d3d3e85	0.0462022
190	0x3e33dd7e	0.17564961
191	0x3e0fc0ac	0.14038342
192	0x3e15efb2	0.14642218
193	0x3e01fd9a	0.12694398
194	0xbd4d54be	-0.050129645
195	0xbcf9fa32	-0.03051481
196	0x3e11f8f1	0.1425512
197	0x3d9feb7b	0.07808586
198	0xbbef2ea0	-0.0072992593
199	0x3c25d904	0.010122541
200	0x3df5b8b3	0.11998119
201	0x3cbaf91c	0.022823863
202	0x3ddae4ae	0.106881484
203	0x3dcaf33f	0.09909677
204	0x3e80d9be	0.25166124
205	0x3daa6e96	0.08321874
206	0x3d87a2b8	0.06622833
207	0x3d8b56d3	0.0680367
208	0x3d5167d7	0.05112442
209	0x39ec5c5b	0.00045082238
210	0xbcac6e95	-0.021048823
211	0x3e3314b9	0.17488374
212	0xbdb639a5	-0.088977136
213	0xbd15c568	-0.036565214
214	0x3e3641b6	0.17798504
215	0x3da768ab	0.08174261
216	0xbec4fe40	-0.38475227
217	0x3c829236	0.01593886
218	0x3e386b52	0.1800969
219	0x3d58dbf3	0.052944135
220	0x3dde0473	0.10840692
221	0xbd35e125	-0.044404168
222	0x3db0411d	0.086061694
223	0xbd7a57e8	-0.06111899
224	0x3bfa1b50	0.0076326504
225	0x3e029093	0.12750463
226	0xba83e29c	-0.0010062042
227	0xbde1dd1b	-0.11028501
228	0x3c9b5da7	0.018965555
229	0xbb9fc05f	-0.0048752273
230	0x3e21f59c	0.15816349
231	0x3dcdc96e	0.10048185
232	0xbe04a33c	-0.12952894
233	0x3dbe514f	0.09292852
234	0xbdcf6783	-0.10127165
235	0xbc306cbb	-0.010768111
236	0x3dac4600	0.08411789
237	0x3d03041e	0.03198635
238	0x3b27daae	0.002561252
239	0x3dc357d9	0.0953824
240	0xbe655b6b	-0.22398154
241	0x3db283a1	0.087165125
242	0xbcdcbfbd	-0.026946897
243	0xbd060e11	-0.03272826
244	0x3e06d0e9	0.1316563
245	0x3c165d9f	0.009177594
246	0x3e258190	0.16162705
247	0x3cf09e1f	0.029372273
248	0x3d3b091d	0.045662988
249	0x3d5c120a	0.05372814
250	0xbd7f003b	-0.06225608
251	0x3b69f70d	0.0035700232
252	0xbc43d084	-0.0119515695
253	0x3d90a4e4	0.070627004
254	0x3d836118	0.064150035
255	0x3e15a152	0.1461232

fc1.bias f4 [128]
0	0x3e105959	0.14096583
1	0x3e87e39a	0.26540834
2	0xbd61ffa1	-0.055175427
3	0x3a9cc0fd	0.001195937
4	0x3e7d07db	0.24710028
5	0x3d89f794	0.06736675
6	0x3e2c5303	0.16828541
7	0x3e895630	0.26823568
8	0x3db413c3	0.08792832
9	0x3e8a6f89	0.2703822
10	0x3b8d0c90	0.004304476
11	0x3e850fe8	0.25988698
12	0xbce84c13	-0.028356588
13	0x3e7c0238	0.24610221
14	0x3de9cf45	0.11416487
15	0x3e893969	0.26801613
16	0x3d5e8b1d	0.054331888
17	0x3c092ae3	0.008372041
18	0xbdc8a147	-0.09796386
19	0x3e3f4e27	0.18682157
20	0x3e3b9bdd	0.18321176
21	0x3df4d503	0.11954691
22	0xbd5cf808	-0.05394748
23	0x3e8ad632	0.27116543
24	0x3e298225	0.16553552
25	0x3e28c8d8	0.16482866
26	0x3e8b9454	0.27261603
27	0x3e694f96	0.22784266
28	0xbc4f924a	-0.012669155
29	0xbc3dc7be	-0.011583267
30	0x3d903514	0.07041374
31	0x3d2e3cb4	0.04253836
32	0xbe0102d6	-0.12598738
33	0xbdc913af	-0.098182075
34	0x3da6b94d	0.08140812
35	0x3e6464fe	0.2230415
36	0x3cc39bad	0.023877943
37	0x3e5eab0f	0.21744941
38	0x3d853454	0.065041214
39	0x3d1ef1e5	0.038804907
40	0x3e1b9aba	0.15195742
41	0x3e22ff85	0.15917785
42	0x3e1ad550	0.15120435
43	0x3ddcfd2d	0.10790477
44	0x3e889c8c	0.26681936
45	0x3e529a47	0.20566665
46	0x3e6b9c0a	0.23008743
47	0x3e88870b	0.2666553
48	0x3de56249	0.11200387
49	0x3e22e085	0.1590596
50	0x3e163e8e	0.146723
51	0x3e5bed3b	0.21477215
52	0x3e3a18be	0.18173501
53	0x3e80f41d	0.25186244
54	0x3d461790	0.048362315
55	0x3d827c02	0.06371309
56	0x3e1e784a	0.15475574
57	0x3d642b46	0.05570533
58	0x3e3640c6	0.17798147
59	0x3c9b9649	0.01899256
60	0x3e5c9804	0.21542364
61	0x3e086814	0.13320953
62	0x3d9e3613	0.077251576
63	0x3d64377f	0.055716988
64	0x3e72e84d	0.23721428
65	0xbd38d97e	-0.04512929
66	0xbdc0a6a5	-0.09406785
67	0x3d6e7364	0.058215514
68	0x3c0b62f1	0.008507476
69	0xbddaeb47	-0.10689407
70	0xbdce8213	-0.100834034
71	0x3dbb1c70	0.091362834
72	0x3e03d77e	0.12875172
73	0xbdf90cf0	-0.12160671
74	0xbd15df36	-0.036589824
75	0x3d4a2424	0.049350873
76	0x3d2b35f2	0.041799493
77	0x3e5d3833	0.2160347
78	0x3dd0970c	0.1018506
79	0xbd6be0ef	-0.05758756
80	0x3e061c53	0.13096742
81	0x3e0238a3	0.12716918
82	0x3da34031	0.07971228
83	0x3df1cd40	0.118067265
84	0x3dfd24db	0.12360545
85	0xbc921fc3	-0.01783741
86	0xbd86d230	-0.06583059
87	0x3e84a6df	0.25908563
88	0x3e8a9857	0.2706935
89	0x3e15a868	0.14615023
90	0x3daef5c5	0.085429706
91	0x3e7c523d	0.24640746
92	0x3d899b6b	0.06719097
93	0x3cbdd8b6	0.023174625
94	0x3e678b0d	0.22611637
95	0x3cdec877	0.027195198
96	0xbd92f671	-0.07175911
97	0xbdb1f1d8	-0.08688706
98	0x3e052ff1	0.1300657
99	0x3e423b5a	0.18967953
100	0xbd950d6e	-0.07277952
101	0x3e970ada	0.29500467
102	0x3dd4394b	0.1036249
103	0xbd45c790	-0.04828602
104	0xbdae2786	-0.08503632
105	0xbd8ba9e6	-0.06819515
106	0xbe01eab6	-0.12687191
107	0x3e017a86	0.12644395
108	0x3e42ff43	0.19042687
109	0x3e02a486	0.12758073
110	0x3cfee824	0.031116553
111	0x3dba559e	0.090983614
112	0x3e411216	0.18854555
113	0x3d7834ae	0.060597114
114	0x3d812bd7	0.0630719
115	0xbdb4a8b5	-0.08821241
116	0x3d786fdf	0.060653564
117	0xbded57e3	-0.11589029
118	0x3e428ae6	0.18998298
119	0x3e85350d	0.26017037
120	0x3df9cb7e	0.12197016
121	0xbdf2c976	-0.11854832
122	0x3e889ed7	0.26683685
123	0x3e51659f	0.20448922
124	0xbd206000	-0.039154053
125	0xbda22e3e	-0.07918976
126	0x3e7e70cf	0.2484772
127	0xbd9d66eb	-0.07685646

fc2.weight f4 [128, 128]
0	0x3d9785d7	0.07398575
1	0x3ef6343a	0.4808672
2	0x3d9e27f7	0.077224664
3	0x3e3a791e	0.18210265
4	0x3e5958f0	0.21225333
5	0x3d5eb953	0.054375958
6	0x3e030450	0.12794614
7	0x3db04947	0.086077265
8	0x3da518b7	0.080613546
9	0x3ef129bb	0.4710215
10	0xbd1f196e	-0.03884261
11	0x3dc56eac	0.096402496
12	0xbc9eb0d8	-0.019371435
13	0x3d938fdd	0.07205174
14	0x3db63c28	0.08898193
15	0x3df7b172	0.12094392
16	0xbd8c12ad	-0.068394996
17	0xbc825b70	-0.015912741
18	0x3dc01c8d	0.09380446
19	0x3e058ae9	0.13041271
20	0x3e125f89	0.14294256
21	0xbdb16527	-0.086618714
22	0xbe8c645c	-0.27420318
23	0x3e1c102d	0.15240546
24	0x3d95f4f1	0.073221095
25	0x3e495c2d	0.19664069
26	0x3dd420e3	0.10357835
27	0x3e584d1f	0.2112317
28	0xbe79057a	-0.24318495
29	0x3d17f6da	0.03710065
30	0x3e48735c	0.19575256
31	0xbd8e0e5d	-0.06936333
32	0xbd57ae19	-0.052656267
33	0x3d54b141	0.051926855
34	0xbd85f9c1	-0.065417774
35	0x3e03ba79	0.12864102
36	0xbd15fa6e	-0.03661578
37	0x3e5a3ac9	0.21311487
38	0xbdb161a0	-0.086611986
39	0x3de68dc2	0.11257507
40	0x3de86bab	0.11348661
41	0x3e813ed2	0.2524324
42	0x3e4e5db5	0.20152934
43	0xbda65251	-0.08121169
44	0x3ee1217e	0.43970865
45	0x3e6a8920	0.22903872
46	0x3e0804c9	0.13283075
47	0x3e559db8	0.20860946
48	0x3ddccd7d	0.10781381
49	0x3e29ad7e	0.16570088
50	0x3e47ab73	0.19498996
51	0x3dc33c7f	0.09533023
52	0x3db80590	0.08985436
53	0x3e482868	0.19546664
54	0x3e6f0096	0.23340067
55	0x3c609f0a	0.013709793
56	0x3e5f1a19	0.21787299
57	0x3d242aab	0.040079754
58	0x3e2739c9	0.16330637
59	0xbd9507cb	-0.07276877
60	0x3e5ead87	0.21745883
61	0x3e1bf98d	0.15231915
62	0xbc7268e1	-0.014795513
63	0x3e6dee26	0.23235378
64	0x3e6ff847	0.23434554
65	0x3cdc0201	0.026856424
66	0xbd1800a8	-0.03711
67	0x3e810fb6	0.252073
68	0xbd8a25ce	-0.06745492
69	0x3d874151	0.06604255
70	0xbd8f7ef5	-0.07006637
71	0x3d911a8b	0.07085141
72	0x3e2bdcc8	0.1678344
73	0xbe35fb37	-0.17771612
74	0x3a91ad0c	0.0011114194
75	0x3db0183b	0.085983716
76	0x3e36426a	0.17798772
77	0x3e14ed5c	0.1454367
78	0x3e09c1e4	0.1345287
79	0xbe29188d	-0.16513272
80	0x3e172d24	0.14763314
81	0x3e0ccf68	0.13750994
82	0x3d9e7e34	0.07738915
83	0x3e5dd3a0	0.2166276
84	0x3e1da71e	0.15395781
85	0x3e76f61e	0.24117324
86	0xbca31feb	-0.01991268
87	0x3e725663	0.23665766
88	0x3e14ac46	0.14518842
89	0x3e751ddf	0.23937176
90	0x3e289d22	0.16466191
91	0x3ef240ab	0.47314963
92	0x3e293324	0.16523415
93	0x3def4bee	0.11684404
94	0x3e178fa6	0.14800891
95	0xbdb0f8cf	-0.086412065
96	0xbcc4864d	-0.02398982
97	0xbbc1e784	-0.0059174914
98	0x3e91cc56	0.28476208
99	0x3e0d5c3d	0.13804717
100	0x3cebc475	0.028780201
101	0x3e566473	0.20936756
102	0xbdad1489	-0.084511824
103	0x3e2735dd	0.16329141
104	0xbe2950ae	-0.16534683
105	0xbe610646	-0.2197505
106	0x3c442c43	0.011973443
107	0x3d93a184	0.07208541
108	0x3e6cb288	0.2311498
109	0x3ddcab93	0.10774913
110	0x3d229f3b	0.039702635
111	0x3d855694	0.06510654
112	0x3e0549d5	0.13016446
113	0x3e1c0234	0.15235215
114	0x3e4e9b5e	0.20176455
115	0xbdf1c017	-0.11804216
116	0x3dc833dc	0.097755164
117	0xbdfd1e44	-0.12359288
118	0x3e6746d9	0.2258562
119	0x3e30cc81	0.17265512
120	0xbe8f3c53	-0.2797571
121	0xbd1685bc	-0.036748633
122	0x3dbdf5bc	0.09275386
123	0x3e060804	0.13088995
124	0xbd12d36b	-0.035846155
125	0x3d88be3b	0.066769086
126	0x3e0b8027	0.13623105
127	0x3ce0c065	0.02743549
128	0xbc9d4a04	-0.019200332
129	0xbd57e60c	-0.052709624
130	0x3e3f5b0b	0.18687074
131	0xbd9d5d22	-0.07683779
132	0xbd936929	-0.07197792
133	0xbd99270c	-0.07478151
134	0x3d946755	0.072462715
135	0xbbc4cdd3	-0.0060059815
136	0xbd162030	-0.03665179
137	0xbe960d4b	-0.29307017
138	0x3ce2ea32	0.027699564
139	0xbc8a97bd	-0.016918058
140	0x3bb1f1fe	0.005430459
141	0xbc8fa1b7	-0.017533166
142	0xbd53f7b9	-0.05174992
143	0x3d8bba28	0.06822616
144	0x3d9ee501	0.07758523
145	0x3e3e8da4	0.18608719
146	0x3dc622e8	0.096746266
147	0x3a90b9f2	0.0011041744
148	0xbd1804ff	-0.03711414
149	0x3dec7227	0.1154521
150	0x3e8d9de1	0.27659515
151	0x3cde07d7	0.027103348
152	0xbd83e6db	-0.064405166
153	0x3d4d43f5	0.050113637
154	0xbc60a87d	-0.013712046
155	0xbd7da70d	-0.06192689
156	0x3e32686a	0.17422643
157	0xbdc859a3	-0.09782722
158	0xbc8e414d	-0.017365122
159	0x3d2a6671	0.041601602
160	0x3e227daf	0.15868257
161	0xbd5d588c	-0.054039523
162	0x3e1726c2	0.14760879
163	0x3dcfdd6f	0.10149657
164	0xbc9b6777	-0.018970234
165	0x3d923c25	0.07140378
166	0x3e4385aa	0.19093958
167	0x3d6f4ba2	0.05842174
168	0xbd25f352	-0.04051525
169	0x3e807624	0.25090134
170	0xbc000a68	-0.007814981
171	0x3c58e4e2	0.013238164
172	0xbd0e4c44	-0.0347407
173	0x3caed238	0.021340474
174	0x3d8e8609	0.06959159
175	0xbd49134c	-0.04909067
176	0x3d7fb0ae	0.062424354
177	0x3d9a56b1	0.07536066
178	0xbad38d82	-0.0016140195
179	0x3d0952f4	0.033526376
180	0xbd3152c3	-0.04329182
181	0xbbee10da	-0.0072651925
182	0xbdcaaa93	-0.09895816
183	0x3e1d76d7	0.15377365
184	0x3b92840b	0.004471307
185	0xbdcd3c24	-0.100212365
186	0x3c44ccb5	0.012011697
187	0x3e01cca3	0.12675719
188	0x3ce0d9ed	0.027447665
189	0x3daed7a5	0.08537225
190	0x3e438131	0.19092251
191	0x3db0d69d	0.08634684
192	0x3d9226e5	0.07136325
193	0x3d96430e	0.073370084
194	0x3df51479	0.119667955
195	0x3db02516	0.086008236
196	0xbc514f6e	-0.012775285
197	0xbcc54980	-0.0240829
198	0x3e500b15	0.20316727
199	0x3b7c9527	0.003854105
200	0xbbbb49da	-0.005715591
201	0x3e0248e3	0.12723117
202	0x3c82cf2c	0.015967928
203	0xbd8dc313	-0.06921973
204	0xbd8cc34a	-0.06873186
205	0xbc702cfa	-0.014659161
206	0xbc9022bd	-0.01759469
207	0x3d634464	0.055485144
208	0x3c3dfdf4	0.011596192
209	0xbd074833	-0.03302784
210	0xbcd71cea	-0.026258904
211	0x3c0dc07c	0.008651849
212	0xbd0cfef9	-0.03442285
213	0x3e598470	0.21241927
214	0x3cb74281	0.022370579
215	0x3d921b33	0.07134094
216	0x3d44b67b	0.04802559
217	0xbd423352	-0.047412224
218	0x3cb2421d	0.02176004
219	0xbe859502	-0.26090246
220	0x3cc2d62b	0.023783764
221	0xbe8d7600	-0.2762909
222	0xbd056f74	-0.032576993
223	0x3c9c4183	0.019074207
224	0x3c5bce32	0.01341586
225	0x3daff94e	0.08592473
226	0x3e6ec754	0.23318225
227	0x3dad413e	0.084597096
228	0xbd393957	-0.0452207
229	0x3cbf5e8c	0.023360513
230	0x3dfcaab5	0.12337247
231	0xbe646caf	-0.22307085
232	0x3dcb49a0	0.09926152
233	0x3e923fb5	0.2856423
234	0x3d2b2245	0.04178073
235	0xbdb04040	-0.08606005
236	0xbdc7a8f9	-0.09749026
237	0x3d918536	0.07105486
238	0x3e140323	0.14454322
239	0x3d050b69	0.032481585
240	0x3db04351	0.086065896
241	0x3e4e25ea	0.2013165
242	0xbd947c40	-0.07250261
243	0x3ce1f82c	0.027584158
244	0xbcd2852f	-0.025698273
245	0x3e11298a	0.14176002
246	0x3ca809ce	0.020512488
247	0x3d3d02b9	0.046145175
248	0x3e2d8d8e	0.1694853
249	0x3e074f73	0.13213901
250	0x3dd42e26	0.103603646
251	0x3b8c1e81	0.0042760973
252	0xbce96bff	-0.02849388
253	0x3d84b954	0.06480661
254	0xbd5cb3be	-0.053882353
255	0x3d9018e7	0.07036

fc2.bias f4 [128]
0	0x3e4e3a1b	0.20139353
1	0x3c9ddfe1	0.019271793
2	0x3e3a44fc	0.18190378
3	0xbd142be8	-0.036174685
4	0x3cb19da6	0.021681618
5	0xbdb4805e	-0.088135466
6	0x3e4d9c2e	0.20079109
7	0x3e410473	0.18849353
8	0xbd190283	-0.03735591
9	0xbd822d81	-0.063563354
10	0xbc4ebd12	-0.01261832
11	0x3dcd4879	0.10023589
12	0x3e5f7626	0.21822414
13	0x3e14b12a	0.14520708
14	0x3e24b169	0.16083302
15	0xbd738c06	-0.05945971
16	0xbd39fa19	-0.045404527
17	0x3dea63c6	0.114448115
18	0x3d945e02	0.07244493
19	0x3e1c7927	0.15280591
20	0x3e41b6af	0.18917345
21	0x3d8387e8	0.064224064
22	0x3e80e524	0.2517482
23	0x3e181c80	0.14854622
24	0xbca1604e	-0.019699242
25	0x3de01c1b	0.10942861
26	0x3d887f40	0.06664896
27	0xbd2b1f3d	-0.041777838
28	0x3e3d87e8	0.18508875
29	0xbce144b1	-0.027498575
30	0xbda4d656	-0.08048694
31	0xbcbe73c3	-0.023248559
32	0x3c1952fc	0.009358164
33	0x3e439b4d	0.19102211
34	0xbdab6bf0	-0.08370197
35	0xbd7cebab	-0.061748188
36	0xbd88cd4a	-0.06679781
37	0x3d3a3534	0.045460895
38	0x3b8402db	0.0040286607
39	0xbdbc9136	-0.09207384
40	0x3e8c322e	0.27382034
41	0x3cefe4b8	0.029283866
42	0x3e6efb5a	0.2333807
43	0xbd560048	-0.052246362
44	0xbd92063e	-0.07130097
45	0x3dd9fbb3	0.10643711
46	0xbd7fac64	-0.062420264
47	0x3e106d9d	0.14104314
48	0x3e58f925	0.21188791
49	0x3e14d95f	0.14536045
50	0x3e1815f1	0.1485212
51	0x3e3b8161	0.18311073
52	0x3e332371	0.17493989
53	0x3d077c66	0.03307762
54	0xbd124ffd	-0.035720814
55	0xbd844dc7	-0.06460147
56	0x3d7e4af9	0.06208322
57	0x3d71f2da	0.059069492
58	0x3da24ed9	0.07925195
59	0x3c4174ae	0.011807604
60	0x3e63eb18	0.2225765
61	0xbd88c840	-0.0667882
62	0x3d65303e	0.05595421
63	0xbd5c5c3e	-0.053798907
64	0x3e6ac47b	0.22926514
65	0x3dd47daf	0.10375535
66	0x3e63e608	0.22255719
67	0x3d86165f	0.06547236
68	0x3e017b13	0.12644605
69	0x3e4819d9	0.1954111
70	0x3e454f94	0.19268638
71	0x3d9a89b5	0.07545797
72	0xbd67a1cd	-0.05655079
73	0x3c4ceede	0.012508122
74	0xbd81ca57	-0.063374214
75	0x3e4a4d36	0.19756016
76	0x3e2a3eed	0.16625567
77	0x3d58088a	0.05274252
78	0x3e5d5a78	0.21616542
79	0x3dad4aff	0.0846157
80	0x3e211b3f	0.1573305
81	0x3e584bc7	0.21122657
82	0x3e6dbd4c	0.23216742
83	0xbd29243e	-0.04129433
84	0x3d8d38c0	0.0689559
85	0x3e68d0e5	0.22735937
86	0xbc3d7441	-0.011563362
87	0x3e129cea	0.1431767
88	0xbd664c97	-0.056225386
89	0xbd4f913b	-0.050675612
90	0x3e043f4e	0.12914774
91	0x3d370512	0.04468257
92	0x3cb0d985	0.021588096
93	0x3e116157	0.14197288
94	0x3dcc09ee	0.099628314
95	0xbd686940	-0.056741
96	0x3e5193d5	0.2046655
97	0x3e651aaf	0.2237346
98	0x3c84855f	0.016176878
99	0x3d0b2104	0.033967033
100	0x3dd51210	0.10403836
101	0xbdc2fbd1	-0.095206864
102	0x3e483596	0.19551691
103	0xbd9a729a	-0.0754139
104	0x3d4270ac	0.047470734
105	0x3d8d4669	0.06898195
106	0xbd832869	-0.06404192
107	0x3e3e642b	0.18592899
108	0x3daa2557	0.08307903
109	0x3d560e6e	0.052259855
110	0x3b556822	0.0032563289
111	0x3e7b1e84	0.2452336
112	0x3e281c8e	0.16417143
113	0x3e31aefb	0.17351906
114	0x3d9ac401	0.07556916
115	0x3d81114f	0.063021295
116	0x3df6f622	0.12058665
117	0x3ce4ba24	0.02792079
118	0xbd2252d4	-0.039629772
119	0x3ce572af	0.028008787
120	0x3da32ae5	0.07967166
121	0x3e20c1b7	0.15698896
122	0xbd063ab1	-0.032770816
123	0x3cd49877	0.025951607
124	0x3c22f66d	0.009946448
125	0x3cb991ab	0.022652468
126	0x3c6214c8	0.0137989
127	0x3d9ce814	0.07661453

q_out.weight f4 [4, 128]
0	0x3e150acf	0.14554904
1	0x3c670eaa	0.014102617
2	0x3df8e64f	0.12153303
3	0xbdb0b0a7	-0.08627444
4	0x3e18f98a	0.14938942
5	0xbdfddc99	-0.12395591
6	0x3df662ee	0.12030588
7	0x3eb100f4	0.3457104
8	0xbdb6061b	-0.08887883
9	0xbd10df1f	-0.035369035
10	0x3d8216f1	0.06352032
11	0x3e43508a	0.19073692
12	0x3ebde3ee	0.3708796
13	0x3e1bafaf	0.15203737
14	0x3e200230	0.15625834
15	0xbb2b4455	-0.0026133258
16	0x3c809b46	0.01569904
17	0x3e5d3a47	0.21604262
18	0xbd8630ef	-0.06552302
19	0x3e225d4a	0.158559
20	0x3e56fce4	0.20994908
21	0x3e3957f2	0.18099955
22	0x3df26e0d	0.11837397
23	0x3e7f778b	0.24947946
24	0x3ba4f829	0.005034466
25	0x3e474a42	0.19461921
26	0xbcbda133	-0.023148155
27	0x3cdc195f	0.026867567
28	0x3e35bd3f	0.17747973
29	0xbdc58144	-0.09643796
30	0xbe302f16	-0.17205462
31	0x3bda18e3	0.0066557988
32	0xbc955432	-0.018228624
33	0x3e089a4d	0.13340111
34	0x3d7bbe13	0.061460566
35	0xbe62a2b0	-0.22132373
36	0xbc993e57	-0.018706484
37	0x3d6419da	0.055688716
38	0x3d2e46e2	0.042548068
39	0x3d3ba032	0.04580707
40	0x3eb1eecc	0.347525
41	0xbd357afd	-0.044306744
42	0x3e598165	0.21240766
43	0xbe0072bc	-0.12543768
44	0xbe087b6d	-0.13328333
45	0xbc322615	-0.010873337
46	0x3d93b920	0.07213044
47	0x3e09839e	0.13429114
48	0x3e3a1bd7	0.18174683
49	0x3e144d20	0.14482546
50	0x3ddd3fc9	0.10803182
51	0x3e3bbace	0.18332979
52	0x3e55b6bc	0.20870489
53	0xbe15c942	-0.14627555
54	0xbbae2d52	-0.005315461
55	0x3d5d3611	0.05400664
56	0x3e6f29dc	0.23355812
57	0x3e37362a	0.17891756
58	0x3ce4039c	0.027833752
59	0xbd40e9f0	-0.0470981
60	0x3e49262f	0.19643472
61	0x3d01c271	0.031679574
62	0xbd43ba49	-0.047785077
63	0xbe4bdc63	-0.1990829
64	0x3e6a0aeb	0.22855727
65	0x3e330843	0.1748362
66	0x3e71d409	0.23616041
67	0x3e78ed24	0.24309212
68	0x3e3d8bc3	0.18510346
69	0x3e17ce20	0.14824724
70	0x3e24c649	0.16091265
71	0xbcf18120	-0.029480517
72	0xbddf6f7e	-0.10909937
73	0xbcbeb02d	-0.023277367
74	0xbd5ba380	-0.053622723
75	0x3e809e48	0.2512076
76	0x3e84d30a	0.2594226
77	0x3e07843e	0.1323404
78	0x3e21f181	0.15814783
79	0x3e40bc7c	0.18821901
80	0x3e6a1295	0.22858651
81	0x3e61317b	0.21991532
82	0x3ec1609d	0.37769023
83	0x3cafd8fc	0.02146577
84	0x3d4ffbeb	0.050777357
85	0x3dd137c7	0.10215717
86	0xbb967dfc	-0.004592655
87	0x3e72f897	0.23727642
88	0xbc9e517f	-0.01932597
89	0xbd47e7fc	-0.048805222
90	0x3eb0c568	0.3452561
91	0xbe1e5134	-0.15460664
92	0x3cce8d47	0.02521385
93	0x3e327e90	0.17431092
94	0x3e63e35a	0.22254696
95	0xbcc2147b	-0.023691406
96	0x3e27c741	0.16384603
97	0x3e28a041	0.16467382
98	0xbd7b91de	-0.061418407
99	0xbe84a7e3	-0.25909337
100	0x3e74c2d6	0.23902449
101	0xbc90ec54	-0.017690815
102	0x3df0dd0a	0.1176091
103	0x3d47a447	0.04874065
104	0xbcbabc32	-0.022794817
105	0x3e2d091b	0.16898005
106	0xbcb92bfe	-0.022603985
107	0x3e395a86	0.18100938
108	0x3da3eeb2	0.08004512
109	0x3e4e790b	0.20163362
110	0x3c55eafd	0.013056514
111	0x3e1eb8b1	0.15500142
112	0x3dcf31d4	0.10116926
113	0x3e6b1a9f	0.22959374
114	0xbbe3f2fc	-0.006956456
115	0xbdfad003	-0.12246706
116	0x3dfa7296	0.12228887
117	0xbe083def	-0.13304876
118	0xbe1eb954	-0.15500385
119	0xbe055223	-0.13019614
120	0xbd51887c	-0.051155552
121	0x3e44babe	0.19211861
122	0x3d8aea2d	0.06782947
123	0xbe111325	-0.1416746
124	0xbd9b311e	-0.07577728
125	0xbde8b32a	-0.11362298
126	0xbe7a8a8e	-0.24466917
127	0x3d82d088	0.063874304
128	0x3e47e0eb	0.19519393
129	0xbe2c437d	-0.1682262
130	0x3e13e4b4	0.14442712
131	0x3cfd6f99	0.030937003
132	0x3e49db46	0.19712552
133	0xbe1c724d	-0.15277977
134	0x3e68c55c	0.22731537
135	0x3f0b9b35	0.545337
136	0x3d1650d3	0.036698174
137	0x3cfbd9cc	0.030743502
138	0xbc4ddc65	-0.012564753
139	0x3e0183ef	0.12647985
140	0x3edf3bb6	0.43600243
141	0x3e199add	0.15000482
142	0x3e0f1288	0.13971913
143	0xbd87e6cb	-0.06635817
144	0x3d9b6874	0.07588282
145	0x3dee89fb	0.116474114
146	0xbc9e07d6	-0.019290846
147	0x3e84cb54	0.25936377
148	0x3dffabb4	0.12483922
149	0x3e77488a	0.24148765
150	0x3e4d773a	0.20065013
151	0x3df1d40c	0.11808023
152	0x3d7fa3d8	0.062412113
153	0x3e3c2e24	0.18376976
154	0x3e688047	0.22705184
155	0x3cc9bf95	0.024627486
156	0x3e809a3f	0.2511768
157	0xbe65898e	-0.22415754
158	0xbe1144d4	-0.14186412
159	0x3d98336c	0.07431683
160	0xbe71fb03	-0.2363091
161	0x3de5e4f7	0.11225312
162	0xbd8a8784	-0.06764129
163	0xbedcb080	-0.4310341
164	0x3d76b45a	0.06023059
165	0x3be18464	0.0068822373
166	0x3d05fe2b	0.032713097
167	0xbda23eed	-0.079221584
168	0x3f103aa0	0.56339455
169	0xbd61afac	-0.055099174
170	0x3e5e30b8	0.21698272
171	0xbe654aa6	-0.22391757
172	0xbe8c25df	-0.27372643
173	0x3e74e057	0.23913704
174	0x3e83226b	0.25612196
175	0x3e5afeb4	0.21386224
176	0x3e755134	0.23956758
177	0x3e5b93cb	0.21443097
178	0x3e45d332	0.19318846
179	0x3e589c7e	0.21153447
180	0x3e10bb52	0.14133957
181	0xbe7ff0e5	-0.24994238
182	0xbcc9bd2c	-0.024626337
183	0xbd3e7987	-0.046502616
184	0x3e1fbf84	0.15600401
185	0x3e527bbe	0.20555016
186	0xbd95d7f4	-0.073165804
187	0x3d69104d	0.05690031
188	0x3e1b2070	0.15149093
189	0x3d844aa2	0.064595476
190	0xbc74e2bd	-0.014946637
191	0xbde2140e	-0.110389814
192	0x3e1a6056	0.15075812
193	0x3e6ad32a	0.22932115
194	0x3e6d01ab	0.23145168
195	0x3e6b02db	0.22950308
196	0x3e4630e0	0.19354582
197	0x3e329f1e	0.17443511
198	0x3da65404	0.081214935
199	0x3d36cd82	0.04462958
200	0x39ae0f19	0.00033199115
201	0x3d95c9c3	0.073138736
202	0xbbafe692	-0.0053680623
203	0x3eebeec1	0.46080592
204	0x3de81574	0.11332217
205	0x3de5d2e6	0.11221866
206	0x3dd3bde8	0.10338956
207	0xbe1b6bec	-0.15177888
208	0x3e28e4b0	0.16493487
209	0x3da75046	0.08169608
210	0x3ee53e72	0.44774204
211	0xbd5453c2	-0.05183769
212	0xbd0aa7d8	-0.033851475
213	0x3e3cabd2	0.18424919
214	0x3c9f63ae	0.01945671
215	0x3e5aff24	0.21386391
216	0x3e2573e6	0.16157493
217	0x3d1b8b89	0.037974868
218	0x3eeee833	0.4666153
219	0xbe52d386	-0.20588502
220	0x3e60801f	0.21923874
221	0x3e079dad	0.13243742
222	0x3e2b4642	0.1672602
223	0xbbb198c6	-0.0054198233
224	0x3e77f42c	0.24214238
225	0x3e323624	0.17403466
226	0xbca43ee0	-0.020049512
227	0xbe6b5c3d	-0.22984405
228	0x3e2c1e68	0.16808474
229	0x3da8633e	0.08222054
230	0x3e35b62a	0.17745271
231	0xbd7514f1	-0.059834424
232	0xbd944ba6	-0.07240991
233	0x3e807c05	0.2509462
234	0x3d6361a2	0.05551303
235	0x3e241eb6	0.1602734
236	0x3e463002	0.19354251
237	0x3e44eb0f	0.19230293
238	0xbd1e3478	-0.038624257
239	0x3e5cccf5	0.2156256
240	0x3e6475f8	0.22310627
241	0x3d813145	0.063082255
242	0x3d90088a	0.07032879
243	0x3cf79c72	0.030225966
244	0x3e26021f	0.16211747
245	0xbe3cc278	-0.18433559
246	0xbe524679	-0.20534696
247	0xbe61aedb	-0.22039358
248	0xbdc58001	-0.096435554
249	0x3e0c3f63	0.13696055
250	0xbe072313	-0.13196974
251	0xbe1f36c7	-0.1554824
252	0x3d8b6a3e	0.068073735
253	0x3dcae064	0.0990608
254	0xbeb8a620	-0.36064243
255	0xbd962040	-0.0733037

q_out.bias f4 [4]
0	0x3e4243c4	0.18971163
1	0x3e25fe96	0.16210398
2	0x3e4afff8	0.19824207
3	0x3e08842b	0.13331668
