models/SmallerGrid_First_train/q_ind_agent_0.pt (torch, 108061 bytes, 6 tensors)

fc1.weight f4 [128, 71]
-0.00988503 0.23237251 -0.066282384 -0.22366855 0.1025647 0.19284943 0.15691018 0.08330849
-0.04113625 0.19478226 0.21540615 -0.023964295 0.20772779 0.039067924 0.010235661 -0.030496402
0.18038768 0.26901287 -0.005235531 -0.05224402 0.099289395 -0.058306128 -0.101324424 0.1134702
0.029726328 0.10466611 0.15137589 -0.09126458 0.04802825 0.11828411 0.13589668 0.25568828
-0.03009739 0.24999881 -0.11359926 -0.029695263 0.07271603 0.034467913 0.12024848 0.10190536
0.07032628 -0.10247669 -0.06591311 0.046833303 0.20192878 0.08974481 0.13421369 0.12832688
0.07284475 0.013794132 -0.022646356 0.017811138 0.035315674 0.12319433 0.103670575 -0.026333747
-0.068570286 -0.085060485 0.082498126 0.08522512 0.16243486 0.03870592 -0.17215016 -0.1795165
-0.09192735 0.094544664 0.047084562 -0.038349353 -0.019336153 -0.097749285 -0.0041738697 0.24189457
-0.07759765 -0.01944496 0.1357093 -0.006291618 -0.03575827 -0.038554523 -0.069704734 0.05049714
-0.08775168 -0.22424802 -0.06947819 -0.12336552 -0.027025204 -0.10779042 0.108146496 0.084091924
-0.1240836 -0.04626398 -0.025475418 -0.102818124 -0.046155624 -0.0007670451 0.0023879565 -0.07657088
0.0058524334 -0.09106149 0.05641696 -0.029968744 0.08647061 -0.07297627 -0.1653416 -0.074703686
-0.14515223 -0.13014592 0.055221815 -0.02084758 0.106691554 -0.06472844 -0.06309509 0.025153423
-0.018711504 0.060000777 0.04289919 -0.0053037475 -0.14242788 -0.040514376 -0.13013072 0.046593323
-0.14206125 -0.05855654 -0.09003605 -0.18211806 0.025779167 -0.119069554 -0.11219766 0.02078552
0.14012767 -0.1012446 -0.16849296 -0.15987538 -0.19743438 -0.04417563 0.13293722 -0.020419966
-0.04958706 -0.13836731 -0.08544092 -0.13732694 0.25235713 0.025824076 -0.16945946 -0.030255862
-0.069252394 0.013075349 0.077176794 0.08337536 0.0805423 0.021626769 0.08477426 0.018429093
0.018085806 0.023899542 -0.12731567 -0.04561325 -0.072706334 0.06642207 0.028529584 -0.090409815
-0.029778758 0.042081613 0.14882681 0.09146292 0.17225018 0.22096942 -0.022278387 -0.027815972
0.011310837 0.1540682 0.02561226 0.03167561 0.14986384 -0.11861907 -0.044374384 -0.05416907
0.012558277 0.11241496 0.05675455 0.015137401 0.007029052 0.04004889 0.1504429 0.027173439
-0.057636376 0.15851894 0.13535115 -0.05043935 -0.024208913 0.09954307 0.16972645 -0.059794214
0.09200412 0.05519021 0.08593363 0.18537992 0.19471683 -0.13464092 0.008649348 0.014879229
0.19247183 0.09895148 0.026693005 -0.04177093 0.011607612 -0.07712592 0.039778244 0.16548221
0.09657415 0.087566964 0.01132587 0.11740352 -0.06756545 0.15636228 0.17601247 -0.10968957
-0.07848261 0.12307336 0.12253351 0.12080792 0.16484715 -0.08139044 0.042099025 0.10278027
0.16511014 0.21521403 -0.18017173 -0.026351118 0.12370867 0.22243965 0.10641984 0.18574908
0.013549877 -0.035629485 -0.036928188 -0.000101254824 0.020979665 0.21083827 0.0651041 0.12595317
0.0014986971 0.06182056 0.066339776 0.099895515 0.083800405 0.1343923 0.14853136 -0.075893156
0.025415147 0.11835891 0.18279631 0.13892858 0.09663066 -0.033491492 -0.06260643 -0.03736613
00000000: d2f4 21bc 0ff3 6d3e 0fbf 87bd 5e09 65be
00000010: 710d d23d 527a 453e 10ad 203e a49d aa3d
00000020: 7c7e 28bd 0075 473e 6e93 5c3e c550 c4bc
00000030: 98b6 543e b005 203d 79b3 273c 97d3 f9bc
00000040: 8cb7 383e 0ebc 893e d18e abbb d3fd 55bd
00000050: 3d58 cb3d 68d2 6ebd 2e83 cfbd 1063 e83d
00000060: a184 f33c 2f5b d63d 4802 1b3e ede8 babd
00000070: 45b9 443d f13e f23d 8028 0b3e 93e9 823e
00000080: cd8e f6bc b0ff 7f3e bba6 e8bd 7b43 f3bc
00000090: 24ec 943d 3a2e 0d3d d644 f63d c2b3 d03d
000000a0: 3a07 903d 4ddf d1bd 74fd 86bd 47d4 3f3d
000000b0: 6bc6 4e3e 20cc b73d 506f 093e 1f68 033e
000000c0: a12f 953d c800 623c da84 b9bc aae8 913c
000000d0: 2ba7 103d 4f4d fc3d 3d51 d43d dfb9 d7bc
000000e0: 946e 8cbd 3134 aebd c7f4 a83d 828a ae3d
000000f0: 5355 263e 198a 1e3d 2248 30be 2cd3 37be
00000100: 6844 bcbd a2a0 c13d bedb 403d 3614 1dbd
00000110: da66 9ebc c730 c8bd f5c4 88bb 36b3 773e
00000120: 84eb 9ebd 094b 9fbc 61f7 0a3e eb29 cebb
00000130: 4477 12bd 59eb 1dbd 5bc1 8ebd 17d6 4e3d
00000140: 27b7 b3bd 46a1 65be 954a 8ebd 10a7 fcbd
00000150: f663 ddbc 39c1 dcbd e97b dd3d 6338 ac3d
00000160: 8b1f febd 4d7f 3dbd d3b1 d0bc 4f92 d2bd
00000170: ae0d 3dbd 8613 49ba 437f 1c3b 32d1 9cbd
00000180: c5c5 bf3b 727e babd 7815 673d 0381 f5bc
00000190: 8117 b13d 9574 95bd 4f4f 29be 3ffe 98bd
000001a0: c9a2 14be f944 05be 4530 623d 8bc8 aabc
000001b0: 1a81 da3d 5890 84bd 0038 81bd 8d0e ce3c
000001c0: de48 99bc 60c3 753d 10b7 2f3d 0fcb adbb
000001d0: 9dd8 11be 67f2 25bd fd40 05be a4d8 3e3d
000001e0: 8178 11be fcd8 6fbd d264 b8bd 287d 3abe
000001f0: d52e d33c bdda f3bd e3c7 e5bd 6546 aa3c
00000200: a17d 0f3e 5459 cfbd 6b89 2cbe 5fb6 23be
00000210: 3d2c 4abe 81f1 34bd b220 083e c647 a7bc
00000220: cd1b 4bbd 29b0 0dbe a6fb aebd 6f9f 0cbe
00000230: f434 813e 038d d33c c886 2dbe 24db f7bc
00000240: 33d4 8dbd fd39 563c de0e 9e3d b3c0 aa3d
00000250: 5df3 a43d 9f2a b13c 219e ad3d 9cf8 963c
00000260: af28 943c f9c8 c33c 0a5f 02be f6d4 3abd
00000270: 0fe7 94bd 4b08 883d e0b6 e93c c828 b9bd
00000280: 95f2 f3bc c55d 2c3d 0e66 183e e950 bb3d
00000290: 5a62 303e cf45 623e 2a81 b6bc 52de e3bc
000002a0: 1751 393c 0ec4 1d3e cdd0 d13c 49be 013d
000002b0: e875 193e 8eee f2bd eac1 35bd 63e0 5dbd
000002c0: 3bc1 4d3c d139 e63d 7677 683d dd02 783c
000002d0: f653 e63b 4e0a 243d b40d 1a3e d59a de3c
000002e0: 1f14 6cbd ca52 223e 7e99 0a3e 7e99 4ebd
000002f0: c551 c6bc 3ddd cb3d c5cc 2d3e c7ea 74bd
00000300: a86c bc3d 210f 623d f9fd af3d 3cd4 3d3e
00000310: d963 473e 4fdf 09be ffb5 0d3c 02c8 733c
00000320: 5617 453e 13a7 ca3d 4aab da3c ff17 2bbd
00000330: da2d 3e3c 32f4 9dbd 83ee 223d 2b74 293e
00000340: abc8 c53d 4f56 b33d 2490 393c 4271 f03d
00000350: c15f 8abd 6f1d 203e 9d3c 343e eda4 e0bd
00000360: 7ebb a0bd e30d fc3d d9f2 fa3d 256a f73d
00000370: b1cd 283e 08b0 a6bd 0770 2c3d 767e d23d
00000380: a212 293e 1161 5c3e f07e 38be 4dde d7bc
00000390: f95a fd3d 38c7 633e a5f2 d93d 0235 3e3e
000003a0: 4e00 5e3c 39f0 11bd 0342 17bd c558 d4b8
000003b0: 8cdd ab3c fde5 573e 4c55 853d def9 003e
000003c0: ee6f c43a 8e37 7d3d 26dd 873d 0596 cc3d
000003d0: 8c9f ab3d 239e 093e 9b18 183e df6d 9bbd
000003e0: 6d33 d03c 2866 f23d f52e 3b3e 4b43 0e3e
000003f0: 4ce6 c53d 602e 09bd cd37 80bd 3a0d 19bd

fc1.bias f4 [128]
0.18608722 -0.09487759 0.021905834 0.14876448 0.09246775 -0.073661104 0.25599837 0.0741622
0.08883335 0.14624342 -0.01786225 -0.07699626 -0.06564551 0.094111875 0.17437987 0.2174496
-0.076600574 0.12710275 0.11892095 0.15225598 0.049125224 0.20594634 0.17522186 0.20993698
0.12229405 0.2437352 -0.039414834 0.11925128 0.18669498 -0.086209096 -0.049133234 0.047382463
-0.070046164 -0.008016039 0.12577751 0.06873191 0.17094883 0.17044169 -0.06956479 0.18942468
0.14226958 0.10992582 0.0794819 0.27554053 0.047341544 0.06653366 0.13463995 0.09151251
0.21338981 -0.07092907 0.086512394 -0.0628589 0.10004388 -0.06012981 0.14690591 0.031326286
-0.09736475 0.22806966 0.00048525227 0.20838007 -0.038660664 0.13827258 0.15690927 0.0019478821
0.22326179 0.24955419 0.31424612 0.014093661 -0.025310928 0.0768076 0.26329812 0.038460437
-0.028002324 0.017152745 -0.008728078 0.24650347 0.121469446 0.10896894 0.2775676 0.25156656
0.10825821 0.05011983 0.13270831 0.31961784 0.061273694 0.22203928 -0.004893518 0.009402192
0.0113077145 0.22012177 -0.061794184 0.2364311 0.23663294 0.14525901 -0.03251796 0.042294823
0.122034706 0.08941812 0.13434295 0.061379656 0.11278482 -0.073845744 0.13441637 0.25038743
0.08779206 0.20171504 0.15182164 0.08943211 0.14784485 0.09582052 0.18499084 0.14210093
-0.0815982 0.0919409 -0.06816276 -0.09552952 -0.060874783 0.13561109 0.22895458 0.087727256
-0.08321556 0.061644036 0.2436712 0.23543604 0.062192902 0.24829295 0.18368047 0.075611144
00000000: a68d 3e3e 2f4f c2bd dd73 b33c b755 183e
00000010: bb5f bd3d a2db 96bd 3812 833e 5ae2 973d
00000020: 42ee b53d d6c0 153e da53 92bc 37b0 9dbd
00000030: 2771 86bd babd c03d a390 323e 1cab 5e3e
00000040: c3e0 9cbd 3927 023e d48c f33d fee8 1b3e
00000050: 8837 493d 99e3 523e 5c6d 333e b8f9 563e
00000060: 4e75 fa3d b895 793e 7371 21bd 043a f43d
00000070: f82c 3f3e 658e b0bd ee3f 49bd 1d14 423d
00000080: 5d74 8fbd b455 03bc d2cb 003e 51c3 8c3d
00000090: 360d 2f3e 4488 2e3e fc77 8ebd 8bf8 413e
000000a0: 1eaf 113e ca20 e13d 68c7 a23d a613 8d3e
000000b0: 35e9 413d cd42 883d 0edf 093e e96a bb3d
000000c0: dc82 5a3e 4343 91bd 692d b13d 2bbc 80bd
000000d0: cee3 cc3d ad4a 76bd 816e 163e fe4f 003d
000000e0: 2c67 c7bd 188b 693e 7569 fe39 9661 553e
000000f0: a55a 1ebd 5497 0d3e d3ac 203e 1450 ff3a
00000100: bd9e 643e 228b 7f3e dee4 a03e 19e9 663c
00000110: dd58 cfbc 4e4d 9d3d 03cf 863e b188 1d3d
00000120: 2165 e5bc ea83 8c3c 3600 0fbc 686b 7c3e
00000130: f9c4 f83d 1c2b df3d 571d 8e3e 55cd 803e
00000140: 7bb6 dd3d 734a 4d3d b0e4 073e f3a4 a33e
00000150: 20fa 7a3d 445e 633e ce59 a0bb a70b 1a3c
00000160: fe43 393c 9a67 613e e61b 7dbd ff1a 723e
00000170: e84f 723e c7be 143e 8d31 05bd 563d 2d3d
00000180: 55ed f93d d920 b73d 3391 093e 3c69 7b3d
00000190: bafb e63d 703c 97bd 72a4 093e c832 803e
000001a0: 53cc b33d 638e 4e3e 2277 1b3e 2f28 b73d
000001b0: a464 173e 8c3d c43d 3d6e 3d3e e882 113e
000001c0: f51c a7bd 834b bc3d eb98 8bbd fba4 c3bd
000001d0: d657 79bd a2dd 0a3e 1273 6a3e 59aa b33d
000001e0: eb6c aabd 757e 7c3d f184 793e 2516 713e
000001f0: fcbd 7e3d 8240 7e3e bc16 3c3e 04da 9a3d

fc2.weight f4 [128, 128]
0.24840927 -0.17433609 -0.022097163 0.09658569 0.12799475 -0.08718196 0.16285932 0.20300163
0.14203182 0.13305078 -0.048966613 -0.07457336 -0.08494912 0.38054234 0.4815579 0.13926922
-0.15550613 -0.017931707 -0.12148533 0.18673241 0.22861993 0.19403915 0.25640747 0.14344028
0.011321003 0.11081655 -0.17156143 0.20240405 0.18236263 -0.048473068 -0.06785499 0.2567683
-0.12657437 -0.08347527 0.04518275 0.017119413 0.08971103 0.12501703 -0.22524877 0.09315636
0.10180287 0.16847365 -0.08548634 0.23241167 -0.07236009 0.22804463 0.18178858 0.0764336
0.22503975 -0.040074702 -0.08524818 -0.10419494 0.2597642 -0.16554983 0.08145819 0.23591913
0.028099187 0.17030908 0.060354266 0.35463813 -0.10586652 0.15593101 0.24925606 -0.023878984
0.048846766 0.14729166 0.23001686 -0.15820134 -0.04811229 0.007158385 0.22248462 -0.070357144
0.0013827785 -0.12004397 0.11465442 0.16599868 0.091719724 0.15235156 0.26510692 0.10698601
0.15684001 0.14840916 0.24259421 0.3954009 0.060680997 0.10950764 -0.35835683 0.11665207
0.06278764 0.1936769 0.07863941 0.20157976 0.08954464 -0.060104456 0.01146615 0.073340476
0.2502249 0.21613298 0.10550205 0.050614055 0.38365903 0.01235342 0.18656741 0.16454905
0.07573229 0.23448758 0.09824701 0.2507414 0.14641964 0.005281842 0.33749625 0.10380147
-0.008245124 0.01268671 -0.101333216 0.062217645 0.007605936 0.24422123 0.09253757 0.20679836
-0.0667283 -0.17623122 0.37777928 0.25131112 0.15305033 0.13281992 0.22910538 -0.03210232
0.05729784 -0.051961225 0.07666708 0.040170446 -0.031689502 0.03578126 0.04400881 -0.041795343
0.06858307 -0.032114755 -0.106879175 -0.037995394 0.060972597 -0.3354814 -0.38956055 -0.04937925
0.07525675 0.21304122 0.051540773 -0.018431574 0.055875894 0.019212581 0.058673907 0.04019035
0.20593919 0.08192409 0.13172014 -0.041498743 0.018148646 -0.07120448 -0.06756908 -0.053244945
0.0060314494 0.12820679 0.03470237 0.009617211 -0.032842606 0.08908613 0.14563288 -0.05446521
-0.029456727 0.03306873 0.13509853 -0.023695463 -0.096161544 0.053040344 0.0023530568 0.15241642
0.032038555 0.09002453 -0.01380482 -0.10015081 -0.03846213 0.18198472 -0.07779017 0.10477922
-0.07946751 0.049621362 0.105001874 -0.065454215 0.08705903 0.03025287 0.052366063 0.022496808
0.15167417 0.06926296 -0.004334342 0.10044151 0.06691847 0.054211393 0.11459474 -0.01119821
-0.011752124 0.06895288 0.032919858 -0.049615316 -0.013507631 0.0017965587 -0.16140912 0.041628163
0.049065102 0.050394 0.02264708 -0.36452723 0.16500752 0.04838264 0.13432634 -0.017030496
-0.059569 0.004581634 -0.045263648 -0.023456821 0.123904705 0.13258204 0.12243763 -0.011649707
-0.04998321 0.10867756 -0.083581515 0.010675942 -0.16859213 0.033104874 -0.078701705 0.022411015
-0.0015503686 0.07602474 0.18818963 -0.118143894 0.38703528 0.06415447 -0.21691868 0.041854262
-0.010324907 0.11717879 0.08720688 0.02005676 0.06742199 -0.07067713 0.089972645 0.06856339
0.06263822 -0.05035638 -0.2708376 -0.0039542955 0.003261926 0.03849476 0.0565748 0.20369421
00000000: 005f 7e3e 2985 32be 1c05 b5bc b8ce c53d
00000010: 0e11 033e 758c b2bd 98c4 263e a9df 4f3e
00000020: ca70 113e 773e 083e 3791 48bd ebb9 98bd
00000030: cef9 adbd 72d6 c23e c28e f63e 979c 0e3e
00000040: 003d 1fbe 84e5 92bc 4dcd f8bd c836 3f3e
00000050: 581b 6a3e 33b2 463e d747 833e 02e2 123e
00000060: ba7b 393c caf3 e23d cdad 2fbe 0243 4f3e
00000070: 45bd 3a3e b28b 46bd 8ff7 8abd 2277 833e
00000080: b69c 01be 15f5 aabd 8c11 393d 033e 8c3c
00000090: 6bba b73d 7704 003e 9da7 66be c3c8 be3d
000000a0: 067e d03d 5b84 2c3e 7613 afbd 53fd 6d3e
000000b0: 8731 94bd 8884 693e c926 3a3e 3889 9c3d
000000c0: d270 663e 5f25 24bd 9996 aebd 2864 d5bd
000000d0: d0ff 843e e585 29be 8dd3 a63d c994 713e
000000e0: 4430 e63c 8165 2e3e 0936 773d 2193 b53e
000000f0: 8cd0 d8bd 61ac 1f3e fb3c 7f3e dc9d c3bc
00000100: 8c13 483d a0d3 163e 8a89 6b3e 88ff 21be
00000110: 6511 45bd e390 ea3b 02d3 633e 6817 90bd
00000120: 593e b53a 9dd9 f5bd f0cf ea3d 8ffb 293e
00000130: 8dd7 bb3d 0c02 1c3e 18bc 873e 7b1b db3d
00000140: ab9a 203e 92f8 173e 9e6a 783e fd71 ca3e
00000150: a38c 783d 8b45 e03d 8c7a b7be 48e7 ee3d
00000160: ce96 803d 3d53 463e b30d a13d ed6a 4e3e
00000170: 2e63 b73d 1730 76bd 85dc 3b3c 8833 963d
00000180: 7a1d 803e f751 5d3e 7511 d83d af50 4f3d
00000190: f56e c43e 0066 4a3c 870b 3f3e 8c7f 283e
000001a0: 8819 9b3d 831d 703e ba35 c93d 2d61 803e
000001b0: 08ef 153e 4d13 ad3b 4fcc ac3e dd95 d43d
000001c0: 8e16 07bc ebdb 4f3c ca87 cfbd eed7 7e3d
000001d0: 373b f93b 2115 7a3e 5684 bd3d f3c2 533e
000001e0: d9a8 88bd f575 34be 496c c13e daab 803e
000001f0: 3ab9 1c3e f201 083e 9a9a 6a3e b97d 03bd
00000200: 24b1 6a3d 4bd5 54bd a103 9d3d c489 243d
00000210: dacc 01bd 5f8f 123d 9542 343d 9831 2bbd
00000220: 4875 8c3d c38a 03bd 78e3 dabd 0fa1 1bbd
00000230: 67be 793d 38c4 abbe 7b74 c7be e541 4abd
00000240: 3620 9a3d 7a27 5a3e 6b1c 533d d0fd 96bc
00000250: 1fde 643d b463 9d3c 0d54 703d a39e 243d
00000260: b9e1 523e d1c7 a73d a5e1 063e 96fa 29bd
00000270: 78ac 943c a8d3 91bd a861 8abd 5f17 5abd
00000280: 77a3 c53b a448 033e 1324 0e3d 8291 1d3c
00000290: f885 06bd ca72 b63d c920 153e e916 5fbd
000002a0: 3c4f f1bc 1473 073d 4557 0a3e fd1c c2bc
000002b0: 58f0 c4bd d540 593d be35 1a3b 0d13 1c3e
000002c0: dc3a 033d c85e b83d 9d2d 62bc de1b cdbd
000002d0: 778a 1dbd 345a 3a3e 7450 9fbd 7d96 d63d
000002e0: ddbf a2bd c53f 4b3d 390b d73d dc0c 86bd
000002f0: 014c b23d ded4 f73c cc7d 563d 3a4b b83c
00000300: 7950 1b3e bdd9 8d3d 1907 8ebb 47b4 cd3d
00000310: 8d0c 893d c40c 5e3d a6b0 ea3d b278 37bc
00000320: fb8b 40bc 2b37 8d3d f9d6 063d 6e39 4bbd
00000330: 1c4f 5dbc 827a eb3a 6f48 25be 4b82 2a3d
00000340: 7df8 483d f069 4e3d 5e86 b93c 50a3 babe
00000350: bbf7 283e e02c 463d d88c 093e 8a83 8bbc
00000360: a0fe 73bd 8821 963b 6066 39bd 8528 c0bc
00000370: c0c1 fd3d 96c3 073e 95c0 fa3d 6ade 3ebc
00000380: 32bb 4cbd 5792 de3d c92c abbd 25ea 2e3c
00000390: 6aa3 2cbe fa98 073d 5c2e a1bd 4e97 b73c
000003a0: bd35 cbba dcb2 9b3d c8b4 403e 6df5 f1bd
000003b0: 7d29 c63e 6b63 833d ee1f 5ebe 606f 2b3d
000003c0: cc29 29bc 6ffb ef3d 8599 b23d 134e a43c
000003d0: 8a14 8a3d 2cbf 90bd 9443 b83d f66a 8c3d
000003e0: 7848 803d 7e42 4ebd 3aab 8abe 0993 81bb
000003f0: 09c6 553b aeac 1d3d faba 673d 3795 503e

fc2.bias f4 [128]
0.14888248 -0.025119267 0.18053794 0.2075699 -0.021139098 0.089952715 0.11940354 0.018831959
-0.03887051 -0.002889623 0.13620552 0.14291078 -0.03536751 0.24242201 0.24106388 -0.07404165
0.23037888 0.009562937 -0.058155138 0.009213088 0.27119353 0.11681295 0.07518087 -0.016814314
0.16919288 0.14960907 0.13614243 0.035074025 0.19002524 -0.0852793 0.25093576 0.026902575
0.0324874 0.039082766 0.07880971 0.20190546 -0.07166171 0.081310384 0.06574097 0.031228466
0.064589426 0.083280966 0.013227574 0.07826855 0.1649449 0.1263495 0.2395859 -0.03227018
0.00874096 -0.023015738 0.033470333 -0.0148406625 0.019487744 -0.06549596 0.22237545 0.1884274
0.049706228 -0.0074158087 0.113439396 -0.05114575 -0.050106436 0.18670635 0.24073249 0.08917425
0.074169435 -0.022762666 -0.009766155 0.13605748 0.07541042 0.24068752 0.19715907 0.1524041
-0.044149723 0.16399124 0.024326252 0.14804137 0.20016867 -0.00739724 0.09089079 0.036256034
0.21724392 0.027984604 0.071310416 0.23764472 0.16310388 0.009439639 -0.0774091 0.06394351
0.22904128 0.13466851 0.1319174 0.13553229 0.11698729 -0.03222496 0.090095475 0.059701707
0.26511687 0.1169265 0.10819577 0.11825094 0.02271328 0.028092578 0.011556782 -0.01845838
0.0396831 -0.10077711 0.03349655 0.123256415 -0.010610501 0.103634864 0.2242188 -0.078508005
-0.06031729 -0.031315804 0.06900744 0.22557385 0.12444084 0.021861613 0.17891131 -0.007663183
0.074906215 0.10807061 -0.027292607 0.0508556 0.0927085 0.17448545 -0.02605318 0.07561977
00000000: a674 183e ecc6 cdbc f0de 383e 348d 543e
00000010: e72b adbc 2139 b83d d889 f43d 7b45 9a3c
00000020: af36 1fbd d45f 3dbb 7679 0b3e 3457 123e
00000030: 86dd 10bd 7a3d 783e 73d9 763e 26a3 97bd
00000040: 71e8 6b3e ddad 1c3c 1534 6ebd 7ef2 163c
00000050: e1d9 8a3e a13b ef3d 6ef8 993d 2cbe 89bc
00000060: e640 2d3e 1f33 193e ec68 0b3e c8a9 0f3d
00000070: fa95 423e eaa6 aebd a77a 803e ca62 dc3c
00000080: 8211 053d 4015 203d fc66 a13d 4ec0 4e3e
00000090: 60c3 92bd 0f86 a63d 34a3 863d d7d2 ff3c
000000a0: 7647 843d 368f aa3d 77b8 583c 434b a03d
000000b0: 51e7 283e c361 013e 0256 753e bc2d 04bd
000000c0: 3e36 0f3c 808b bcbc 3018 093d 4026 73bc
000000d0: c3a4 9f3c bf22 86bd 64b6 633e 1df3 403e
000000e0: c298 4b3d 5000 f3bb ea52 e83d 357e 51bd
000000f0: 683c 4dbd f32f 3f3e 9482 763e fda0 b63d
00000100: 25e6 973d c578 babc 3902 20bc a752 0b3e
00000110: c770 9a3d ca76 763e 11e4 493e d20f 1c3e
00000120: 57d6 34bd 52ed 273e d947 c73c 2898 173e
00000130: 04f9 4c3e 8c64 f2bb f324 ba3d 3581 143d
00000140: 3175 5e3e f83f e53c 320b 923d 2359 733e
00000150: b404 273e b7a8 1a3c aa88 9ebd d1f4 823d
00000160: cc89 6a3e 8be6 093e 5b15 073e fac8 0a3e
00000170: 0897 ef3d 52fe 03bd fa83 b83d c789 743d
00000180: 66bd 873e 2977 ef3d be95 dd3d 8d2d f23d
00000190: 3311 ba3c 6822 e63c a858 3d3c 0736 97bc
000001a0: bf8a 223d 3b64 cebd ae33 093d dc6d fc3d
000001b0: abd7 2dbc 843e d43d 9d99 653e cec8 a0bd
000001c0: 430f 77bd 0045 00bd c653 8d3d d5fc 663e
000001d0: d7da fe3d 2017 b33c 8734 373e 701b fbbb
000001e0: 6e68 993d 2054 dd3d bf94 dfbc f64d 503d
000001f0: f4dd bd3d 50ac 323e 7b6d d5bc 8ade 9a3d

q_out.weight f4 [4, 128]
0.24128285 -0.14605546 0.13831149 0.21939431 -0.017494444 0.1855834 0.1995904 -0.12665375
-0.07107145 -0.13088155 0.25031325 0.28699693 0.069648005 0.19000632 0.14345804 0.07410408
0.35176924 -0.06268752 0.028519424 -0.03945474 0.41311282 0.1067714 -0.031873614 -0.1337281
0.12301485 0.17503403 0.2119232 -0.020305151 0.14055625 -0.017907536 0.3642266 0.18964003
-0.06733569 -0.053392775 0.08452241 0.123494886 -0.020327592 0.19865672 -0.16698098 0.09058635
0.10445496 0.33488682 -0.010388377 0.03701806 0.17005607 0.14204143 0.19906364 -0.15006612
-0.085370585 0.04615573 -0.011846024 0.19648589 0.08230106 -0.17429136 0.1595503 0.19429049
0.15997101 0.068238 0.20865005 0.051817153 -0.054689784 0.1484702 0.18786144 0.2103586
-0.05037027 -0.009542984 -0.07392229 0.13630736 -0.06263302 0.21854118 0.20955838 0.090849765
-0.0816088 0.20239882 0.24636668 0.22081785 0.19720559 -0.086080514 0.24170089 -0.05752091
0.18161789 -0.01799278 0.17357133 0.19406834 0.24937572 -0.0076450924 0.049261034 -0.06198975
0.19949502 0.22662577 0.31756282 0.1995333 0.21267289 0.022937853 0.14009686 0.007820332
0.40007627 0.16236706 0.17444119 0.16350862 -0.09538587 0.1122115 0.012538919 0.03147254
0.08064303 -0.17795303 0.03135992 0.22468987 -0.0033014074 0.19397599 0.17986953 0.011728715
-0.19583723 0.21812919 0.080288716 0.1069101 0.15645717 0.05272576 0.22978696 0.015321104
0.025204895 0.39842343 -0.11457949 -0.104110494 0.088159986 0.2084655 -0.18594411 0.13533808
0.097706296 0.0918563 0.20921925 0.09021374 -0.084834255 0.19657129 0.21999481 -0.25469038
-0.005280915 -0.23962894 0.2405848 0.25062615 0.021301989 0.09765055 0.19445387 -0.08286337
0.30973724 -0.22823365 0.074426666 0.05706611 0.41845626 0.2316603 0.017809961 0.06959129
0.23406215 0.52624255 0.20483267 0.07130661 0.2410353 0.023863627 0.33296624 0.18973242
-0.03788806 -0.043705262 0.25150883 0.10203545 0.012712701 0.15523244 -0.23167457 0.039768644
0.23323785 0.20919445 -0.035084404 -0.025829982 0.1923588 0.22416668 0.17651403 -0.076749764
0.2757837 -0.008530094 0.040481903 0.24788797 0.001474078 -0.24540028 0.23115614 0.11714795
0.1930314 -0.13952202 0.2435185 0.03861837 -0.20223351 0.1991823 0.1530088 0.17832689
-0.008955459 -0.06850248 -0.03203394 0.22452676 -0.027311988 0.18760726 0.22253515 0.21325202
-0.08805017 0.20870435 0.22076765 0.12648325 0.24132293 0.048658807 0.0937395 -0.08761976
0.12354887 -0.016090669 0.12411847 0.14284338 0.13196716 0.013670719 0.05865904 -0.07152947
0.119192705 0.19198322 0.52777827 0.069425106 0.24605477 -0.06348916 0.17880158 -0.05604122
0.5493056 0.2401424 0.104086116 0.1752432 -0.18890579 0.2853947 -0.028345684 -0.0629224
0.036174357 -0.20172803 -0.0072785476 0.17884336 -0.023543265 0.21258146 0.16927026 0.009570618
-0.023843383 0.094706304 -0.02041998 0.1368029 0.23951223 -0.08538251 0.24952132 -0.038253553
-0.062878266 0.5137816 -0.3903883 -0.17302689 0.19637968 0.19078296 -0.18102607 0.20441975
00000000: da12 773e 908f 15be 87a1 0d3e e7a8 603e
00000010: 8250 8fbc 9309 3e3e 6d61 4c3e 85b1 01be
00000020: e98d 91bd d005 06be 0f29 803e 43f1 923e
00000030: 9da3 8e3d 0491 423e aae6 123e e1c3 973d
00000040: 191b b43e 5162 80bd 91a1 e93c 4b9b 21bd
00000050: 8683 d33e f7aa da3d e88d 02bd 05f0 08be
00000060: 36ef fb3d 1f3c 333e 6502 593e fd56 a6bc
00000070: faed 0f3e d3b2 92bc e97b ba3e ff30 423e
00000080: 4be7 89bd 62b2 5abd 161a ad3d e3ea fc3d
00000090: 0d86 a6bc ab6c 4b3e 10fd 2abe 5685 b93d
000000a0: 7bec d53d 4976 ab3e 0334 2abc 40a0 173d
000000b0: 2e23 2e3e 4f73 113e 57d7 4b3e efaa 19be
000000c0: c6d6 aebd ca0d 3d3d d315 42bc 9933 493e
000000d0: 758d a83d 6f79 32be 2761 233e 16f4 463e
000000e0: 71cf 233e 5dc0 8b3d 5ca8 553e 393e 543d
000000f0: 6502 60bd 9208 183e c05e 403e 3f68 573e
00000100: 0e51 4ebd 2d5a 1cbc 9264 97bd 2894 0b3e
00000110: be45 80bd 42c9 5f3e 7996 563e 710f ba3d
00000120: 8422 a7bd a341 4f3e 8c47 7c3e 131e 623e
00000130: 43f0 493e fb4a b0bd 7080 773e 0c9b 6bbd
00000140: 0afa 393e 9865 93bc afbc 313e dab9 463e
00000150: 595c 7f3e af83 fabb f0c5 493d f7e8 7dbd
00000160: 6c48 4c3e 9610 683e 9897 a23e 7552 4c3e
00000170: ecc6 593e 2ae8 bb3c 8d75 0f3e da20 003c
00000180: ccd6 cc3e 8d43 263e b6a0 323e ce6e 273e
00000190: ab59 c3bd 25cf e53d 0a70 4d3c 5ae9 003d
000001a0: 2c28 a53d 5239 36be 4273 003d 1a15 663e
000001b0: 6d5c 58bb a4a1 463e b82f 383e cc29 403c
000001c0: 8e89 48be 425d 5f3e 696e a43d aff3 da3d
000001d0: 4f36 203e f7f6 573d 464d 6b3e 5e05 7b3c
000001e0: 7f7a ce3c 28fe cb3e a7a8 eabd e237 d5bd
000001f0: 398d b43d fb77 553e 2268 3ebe 1196 0a3e
00000200: 3d1a c83d 281f bc3d 923d 563e fbc1 b83d
00000210: 95bd adbd fc49 493e 5246 613e c766 82be
00000220: 870b adbb 4a61 75be dd5b 763e 1252 803e
00000230: 8281 ae3c 03fd c73d ea1e 473e 45b4 a9bd
00000240: e195 9e3e 15b6 69be 026d 983d 27be 693d
00000250: e63f d63e 5c38 6d3e 32e6 913c e185 8e3d
00000260: fdad 6f3e d5b7 063f a8bf 513e 3309 923d
00000270: f5d1 763e a77d c33c 8d7a aa3e 3749 423e
00000280: 8330 1bbd 4a04 33bd c4c5 803e f6f7 d03d
00000290: ef48 503c 41f5 1e3e 193c 6dbe 72e4 223d
000002a0: e7d5 6e3e 1237 563e aab4 0fbd 6699 d3bc
000002b0: b5f9 443e f38b 653e 18c0 343e fb2e 9dbd
000002c0: 8533 8d3e cfc1 0bbc 5ad0 253d 58d6 7d3e
000002d0: da35 c13a 364a 7bbe 32b4 6c3e 44eb ef3d
000002e0: 06aa 453e dcde 0ebe ea5c 793e 4c2e 1e3d
000002f0: 4d16 4fbe 72f6 4b3e 57ae 1c3e 539b 363e
00000300: ebb9 12bc 074b 8cbd 0536 03bd 58ea 653e
00000310: 64bd dfbc 1e1c 403e 41e0 633e bd5e 5a3e
00000320: a653 b4bd 98b6 553e ea10 623e d384 013e
00000330: 5c1d 773e 754e 473d 7ffa bf3d fd71 b3bd
00000340: 3107 fd3d 94d0 83bc d331 fe3d 8945 123e
00000350: 6622 073e 27fb 5f3c 7644 703d 0b7e 92bd
00000360: 4e1b f43d 4097 443e 7a1c 073f c02e 8e3d
00000370: c8f5 7b3e 9b06 82bd c317 373e 7a8b 65bd
00000380: 4b9f 0c3f e4e7 753e 1a2b d53d f472 333e
00000390: 8570 41be 411f 923e 3535 e8bc 76dd 80bd
000003a0: 902b 143d cb91 4ebe e280 eebb b722 373e
000003b0: cedd c0bc f4ae 593e 2f55 2d3e 15ce 1c3c
000003c0: 3353 c3bc 61f5 c13d cd47 a7bc 0f16 0c3e
000003d0: b242 753e 07dd aebd 8482 7f3e c2af 1cbd
000003e0: 52c6 80bd 3187 033f fae0 c7be f62d 31be
000003f0: c117 493e 9c5c 433e e65e 39be 6953 513e

q_out.bias f4 [4]
0.18009153 0.10606412 0.074083306 0.19416435
00000000: ea69 383e 2538 d93d fdb8 973d 05d3 463e
