models/SmallerGrid_First_train/q_te_agent_1.pt (torch, 108049 bytes, 6 tensors)

fc1.weight f4 [128, 71]
0	0x3dde6f9b	0.10861131
1	0x3d83af3c	0.06429908
2	0x3c8ad2cd	0.01694622
3	0x3e66f8e7	0.22555886
4	0x3e33aa93	0.17545538
5	0x3e483040	0.19549656
6	0x3dadb1d8	0.08481187
7	0x3e3389c5	0.17533024
8	0xbe07b747	-0.13253509
9	0x3dcc3a88	0.099721014
10	0x3ca605a1	0.020266356
11	0x3d4565de	0.04819285
12	0x3e82ec67	0.25570986
13	0x3d987a7f	0.07445239
14	0x3dedd253	0.11612382
15	0xbd9300ce	-0.07177888
16	0x3c51d0a0	0.012806088
17	0x3d4b6e64	0.049665824
18	0x3e10592c	0.14096516
19	0x3e6dba02	0.23215488
20	0x3d7a098a	0.061044253
21	0x3db97d82	0.09057142
22	0x3daef8bb	0.08543535
23	0x3d86faf5	0.06590835
24	0x3e0b6266	0.13611755
25	0x3e25c23f	0.1618738
26	0x3ded4d6a	0.11587031
27	0x3dd4020b	0.10351952
28	0x3cf43690	0.029811174
29	0x3ccaf198	0.024773404
30	0x3e4d72c7	0.20063315
31	0x3df791b0	0.120883346
32	0x3c393415	0.011303921
33	0x3e7b9a3c	0.24570554
34	0xbd7d6c93	-0.061871123
35	0x3d0dc6d6	0.034613453
36	0xbb3ece24	-0.0029114569
37	0x3e123a37	0.1428002
38	0x3e4019a9	0.18759789
39	0x3e45c323	0.1931272
40	0x3e19ad42	0.15007499
41	0x3d507a99	0.05089817
42	0xbdaaf0ec	-0.083467335
43	0xbd21ea5a	-0.039530136
44	0x3e4f416a	0.20239797
45	0x3e17ec2e	0.14836189
46	0x3d4ab394	0.049487665
47	0x3deed8d7	0.11662453
48	0xbc8e541e	-0.017374095
49	0x3d8ef42b	0.06980165
50	0x3dece3fa	0.115669206
51	0x3de7d22b	0.11319383
52	0x3e5f9d14	0.21837264
53	0x3db0423f	0.086063854
54	0x3e1e7905	0.15475853
55	0x3d070bf4	0.032970384
56	0x3d6630a5	0.056198735
57	0x3d9f43af	0.077765815
58	0x3e471e80	0.19445229
59	0x3dfe1120	0.1240561
60	0x3e532cc4	0.20622545
61	0x3e64d92b	0.22348468
62	0x3d02edfb	0.031965237
63	0x3dfc0eb7	0.12307494
64	0xbc8fdb23	-0.017560547
65	0x3df34486	0.11878304
66	0x3e082501	0.13295366
67	0x3d7969be	0.06089186
68	0x3e29c779	0.16579999
69	0x3df51ddc	0.11968586
70	0x3ce85838	0.028362378
71	0x3ccd1950	0.025036484
72	0x3b71bea7	0.003688732
73	0xbddafcbc	-0.106927365
74	0x3cb2b004	0.021812446
75	0x3ce764ee	0.02824637
76	0x3dbf67a7	0.09345942
77	0x3d9cc9a2	0.07655646
78	0x3e53e918	0.20694387
79	0x3d8e9a82	0.06963064
80	0x3e52230d	0.20521183
81	0x3e11e2f7	0.14246736
82	0x3e02ecb4	0.12785608
83	0x3d892e87	0.066983275
84	0x3be544b9	0.006996718
85	0x3c3f7735	0.011686136
86	0xbd70ec4f	-0.05881911
87	0x3e3e1829	0.18563904
88	0x3dcb0199	0.09912414
89	0x3cefef66	0.029288959
90	0x3ded4bb0	0.11586702
91	0xbdbd21a5	-0.09234933
92	0x3d9b4651	0.07581771
93	0xbe088635	-0.13332446
94	0x3e53a325	0.20667703
95	0x3dab3e79	0.08361525
96	0x3dbdcfb4	0.09268132
97	0x3d87dc4a	0.06633814
98	0x3d2152d5	0.039385635
99	0xbcd2be83	-0.025725609
100	0x3cfb5c68	0.030683711
101	0x3d85a21b	0.0652506
102	0x3d3e6fb5	0.04649325
103	0x3d66a4d8	0.05630955
104	0x3e846af6	0.25862855
105	0x3ca46324	0.020066805
106	0x3cdf0827	0.027225567
107	0xbe2f6cef	-0.17131399
108	0x3c0eb40f	0.0087099215
109	0x3e6645f5	0.22487624
110	0x3e2a848a	0.16652122
111	0x3dbbeb8a	0.09175785
112	0x3cea2beb	0.028585395
113	0xbd9d9b4f	-0.076956384
114	0x3d738ae8	0.059458643
115	0x3e615515	0.22005112
116	0x3dadc94d	0.08485661
117	0x3dedd20b	0.11612328
118	0x3df2870a	0.11842163
119	0x3d264ec2	0.040602453
120	0xbbd03030	-0.0063534006
121	0x3df96f30	0.121794105
122	0x3e7c3a45	0.24631603
123	0x3e247d39	0.16063394
124	0x3d29e8e7	0.04148188
125	0x3cfdb473	0.030969834
126	0x3dd82551	0.105539925
127	0xbdd765cd	-0.10517464
128	0xbd9186d3	-0.07105794
129	0x3cfdedf8	0.030997261
130	0x3ddfe02d	0.1093143
131	0x3e740602	0.23830417
132	0x3e779ac0	0.24180126
133	0x3de059c1	0.10954619
134	0x3ddc77ef	0.10765063
135	0x3dc8c5ea	0.09803374
136	0x3e6a4095	0.22876199
137	0x3dce1ff7	0.100646906
138	0x3cc2771d	0.023738438
139	0x3d0c3170	0.034226835
140	0x3e0ca559	0.1373495
141	0x3d15e929	0.036599312
142	0x3d575035	0.052566726
143	0xbc21a718	-0.009866498
144	0x3decaf95	0.11556927
145	0x3e3332f5	0.17499907
146	0x3dc815a4	0.097697526
147	0x3d3c04df	0.045903083
148	0x3e6a8b3d	0.22904678
149	0x3e5ad63a	0.21370783
150	0x3db2e3bb	0.087348424
151	0x3e5dbd98	0.21654356
152	0x3c3b3137	0.011425308
153	0x3d09693c	0.033547625
154	0x3d8c27e3	0.06843545
155	0xbdb445b3	-0.088023566
156	0x3df53b1d	0.119741656
157	0xbdf768f3	-0.12080564
158	0x3d90c92f	0.07069623
159	0x3c5feda2	0.013667496
160	0x3d4ddf96	0.050262056
161	0x3e690c03	0.22758488
162	0xbc59b68c	-0.0132881515
163	0x3d2b57bf	0.041831728
164	0xbd16051c	-0.036625966
165	0x3d1a9eca	0.03774909
166	0x3e2a2d85	0.16618927
167	0x3dbbc976	0.09169285
168	0x3e19757e	0.14986226
169	0xbd8b8f71	-0.06814469
170	0x3db55900	0.08854866
171	0x3da7b028	0.08187896
172	0x3e1c9377	0.15290628
173	0x3df4e31a	0.11957379
174	0x3c0220d3	0.007942396
175	0x3d9e69a0	0.0773499
176	0x3daa669e	0.08320354
177	0x3e11b5fc	0.14229578
178	0xbbc7bfb7	-0.0060958522
179	0x3e35561a	0.17708626
180	0x3e459f02	0.19298938
181	0x3e594888	0.21219075
182	0x3dfb4d58	0.122706115
183	0x3caad868	0.020855144
184	0x3dcd00a5	0.100098886
185	0xbd51f1cf	-0.051255997
186	0x3e38eea9	0.18059792
187	0x3d55cd9c	0.052198038
188	0x3d3dc5fe	0.0463314
189	0x3e3bfed5	0.1835893
190	0x3daa2162	0.083071485
191	0x3db89444	0.090126544
192	0xbd9350d7	-0.07193153
193	0x3e250e81	0.16118814
194	0x3e578abb	0.21049015
195	0x3df26ba5	0.11836938
196	0x3e31fa2b	0.17380588
197	0x3c77891f	0.015108376
198	0x3d9c1523	0.07621219
199	0xbde1e110	-0.110292554
200	0x3d1b7a97	0.037958708
201	0x3d3f7d04	0.046750084
202	0x3d7ae94d	0.06125765
203	0x3e69056e	0.22755978
204	0x3e1c76f7	0.15279756
205	0x3d98a074	0.07452479
206	0x3dea6869	0.11445696
207	0x3e6d34e7	0.23164712
208	0x3e5e69a0	0.2171998
209	0x3afa74d7	0.0019108307
210	0x3e62c0a3	0.22143798
211	0x3da5a078	0.080872476
212	0x3d734b73	0.059398126
213	0xbda106ae	-0.07862602
214	0x3e0d802c	0.13818425
215	0x3ca0dc86	0.019636404
216	0x3d46ddd9	0.048551414
217	0x3d9801ff	0.07422256
218	0x3d6a0175	0.057130296
219	0x3e05b006	0.13055429
220	0x3e614658	0.2199949
221	0x3c9ad53e	0.01890051
222	0x3e2bf036	0.16790852
223	0x3e419e2f	0.18907999
224	0x3e740484	0.23829848
225	0x3e7a7ba3	0.24461226
226	0xbd970013	-0.07373061
227	0x3de3ed93	0.11129298
228	0xbd1ad2ac	-0.03779857
229	0x3d33a3fd	0.043857563
230	0x3d98c7b3	0.074599646
231	0x3d775a4c	0.06038885
232	0x3e380f17	0.17974506
233	0xbd7b4474	-0.06134458
234	0x3d0125d3	0.031530213
235	0x3c86ddbb	0.016463151
236	0x3e2b99bd	0.16757865
237	0x3deb7799	0.11497421
238	0x3cf5c52f	0.030001251
239	0x3dd19b41	0.102346905
240	0xbdb1fca6	-0.08690767
241	0x3bf7ff27	0.0075682583
242	0x3d22209d	0.039581884
243	0x3dc5a546	0.09650664
244	0x3df98a35	0.12184564
245	0x3e5b35d3	0.21407251
246	0x3da2e779	0.07954306
247	0xbc87ea9b	-0.01659136
248	0x3dfde461	0.123970754
249	0xbe2b59c3	-0.1673346
250	0x3e1a61cd	0.1507637
251	0x3e4853c1	0.195632
252	0x3e19764f	0.14986537
253	0x3d23b0f7	0.03996369
254	0xbd93478c	-0.07191381
255	0x3e06cf3d	0.13164993

fc1.bias f4 [128]
0	0x3e3718e6	0.17880592
1	0x3e47c185	0.19507416
2	0x3deb686e	0.11494528
3	0x3d8e28a3	0.069413446
4	0x3e3eec2e	0.18644783
5	0x3db36a3d	0.08760498
6	0x3e66cc9d	0.22538991
7	0x3e5508b7	0.20804106
8	0x3e87d224	0.26527512
9	0x3e5f435e	0.21803042
10	0x3d58ceef	0.052931722
11	0x3e347bac	0.17625302
12	0x3d8e21f7	0.06940072
13	0x3e83cffa	0.2574461
14	0x3e2aa735	0.16665347
15	0x3e53e03a	0.20691004
16	0x3e8dcc98	0.27695155
17	0x3d6c7e0f	0.057737406
18	0x3d7e18b1	0.062035266
19	0x3d3e63f4	0.04648204
20	0x3e19e3cb	0.15028302
21	0x3e0a1b89	0.13487066
22	0x3e88ee1e	0.2674417
23	0x3e5648d2	0.20926216
24	0x3de023e7	0.10944348
25	0x3de3fa39	0.111317106
26	0x3df4ded5	0.11956564
27	0x3db3003b	0.08740278
28	0x3e436570	0.19081664
29	0x3dfd93ff	0.12381744
30	0x3daabb2d	0.08336482
31	0x3e4d06f5	0.20022185
32	0x3e8413b3	0.2579628
33	0xbd4ef07c	-0.050522313
34	0xbc637f1b	-0.013885285
35	0x3e49e7f3	0.19717388
36	0x3e0c73a4	0.13715988
37	0x3e7b0b15	0.24515946
38	0x3e48ac92	0.1959708
39	0x3e2f34ad	0.17109938
40	0x3d92f4eb	0.07175621
41	0x3d454350	0.048159897
42	0x3e5465ba	0.2074193
43	0x3e3ec265	0.18628843
44	0x3e128fd0	0.14312673
45	0x3e5e34db	0.2169985
46	0x3e427488	0.18989766
47	0x3e790387	0.24317752
48	0x3d8f8e3b	0.0700955
49	0x3e3d8340	0.18507099
50	0x3e72db1d	0.23716398
51	0x3e87958e	0.2648129
52	0x3b825008	0.0039768256
53	0x3e84eabb	0.25960335
54	0x3d7febe5	0.062480826
55	0x3dbf0dfb	0.093288384
56	0x3e80691d	0.25080195
57	0x3e51c10b	0.20483796
58	0xbc0a8a50	-0.008455828
59	0x3e409d94	0.18810111
60	0x3e383d96	0.17992243
61	0x3e2b97ba	0.16757098
62	0x3e563c09	0.20921339
63	0x3db81c9e	0.08989833
64	0x3e3a5157	0.18195091
65	0x3e28c0d5	0.1647981
66	0x3daff602	0.08591844
67	0x3e8cc3ef	0.27493235
68	0x3e880764	0.2656814
69	0x3e465262	0.19367364
70	0x3dd40bf4	0.103538424
71	0x3d3d2fbd	0.046188105
72	0x3e29e061	0.165895
73	0x3e1ec721	0.15505649
74	0xbd6ea897	-0.05826625
75	0x3de42bcb	0.11141165
76	0x3d1a527b	0.037676316
77	0x3e87c0b6	0.26514214
78	0x3d5ec0e1	0.054383162
79	0x3dc2f962	0.09520222
80	0x3d96f334	0.07370606
81	0x3dc6fbf2	0.097160235
82	0x3e656141	0.2240038
83	0x3e53dab9	0.20688905
84	0x3e3775b2	0.17915991
85	0x3e232eee	0.15935871
86	0x3d9f2306	0.07770352
87	0x3dacccfe	0.08437537
88	0x3da845c0	0.08216429
89	0x3e189f5e	0.14904544
90	0x3de0c0e2	0.109742895
91	0x3ce0a218	0.027421042
92	0x3e8f4c40	0.27987862
93	0x3da6b649	0.08140237
94	0x3e711a4a	0.23545185
95	0x3e1dc53a	0.15407267
96	0x3d4e079c	0.050300226
97	0x3e1f521a	0.15558663
98	0x3e820a26	0.25398368
99	0x3dd70b02	0.105001464
100	0x3e96d5f3	0.29460105
101	0x3e77fee7	0.24218331
102	0x3e66751d	0.22505613
103	0x3e4d298e	0.20035383
104	0xbca99b42	-0.020703916
105	0x3d7bccc9	0.061474595
106	0x3e0ed7fa	0.13949576
107	0x3e27bf64	0.16381603
108	0x3e3414c3	0.17586045
109	0x3d968c7d	0.07351015
110	0x3e3bc33f	0.18336199
111	0x3e2c583a	0.16830531
112	0x3df6fbdd	0.12059758
113	0x3de36a07	0.111042075
114	0x3e2c1ca4	0.168078
115	0x3e17f788	0.1484052
116	0x3e3c1d27	0.18370496
117	0x3dc5235b	0.09625884
118	0x3e24f036	0.16107258
119	0x3dd01f2e	0.10162197
120	0x3dd60fa7	0.10452204
121	0x3de208ae	0.11036812
122	0x3d961f48	0.07330185
123	0x3e5b03b9	0.21388139
124	0x3ddba4f6	0.10724823
125	0x3e07df60	0.13268805
126	0x3d2ec9e0	0.04267299
127	0x3e14542c	0.14485234

fc2.weight f4 [128, 128]
0	0x3dec740e	0.11545573
1	0x3d97a4d6	0.07404487
2	0x3dd9061b	0.10596868
3	0x3e3643e9	0.17799343
4	0x3d2989e5	0.041391272
5	0x3d6eff05	0.058348674
6	0x3d04fd4c	0.032468125
7	0x3e4b36fd	0.19845195
8	0x3dbc90ad	0.09207282
9	0x3d7c6e0f	0.061628398
10	0x3db944e6	0.090463445
11	0x3e0f272a	0.13979784
12	0x3e472cbb	0.19450657
13	0x3c83bb07	0.016080393
14	0x3dba2487	0.09088998
15	0x3d8d6f13	0.06905951
16	0x3d84e7ff	0.06489562
17	0x3dabbdf9	0.08385844
18	0x3d8ac8ea	0.067766026
19	0x3e8d2826	0.27569693
20	0x3dda0860	0.10646129
21	0x3e1b8108	0.1518594
22	0x3d8931b4	0.06698933
23	0x3ca727b3	0.020404672
24	0x3de12591	0.10993493
25	0x3d515441	0.05110574
26	0x3e161676	0.14657006
27	0x3de996c2	0.11405708
28	0x3e3d747c	0.18501467
29	0x3e2eebb3	0.170821
30	0x3db45825	0.08805875
31	0x3e06addb	0.13152258
32	0x3e01415c	0.12622589
33	0xbd4a5001	-0.049392704
34	0x3dafd787	0.085860305
35	0x3e1f91fd	0.15583034
36	0x3d9ed5bd	0.07755611
37	0x3e134200	0.14380646
38	0x3d0ea3fd	0.03482436
39	0x3d7fa242	0.0624106
40	0x3d8b31ec	0.06796631
41	0x3e39fc3f	0.1816263
42	0x3bc68cf2	0.0060592825
43	0x3e192251	0.14954497
44	0x3dee52a0	0.11636853
45	0x3da9a6ce	0.082837686
46	0x3e061806	0.13095102
47	0x3e3f525f	0.18683766
48	0x3d5e4d40	0.05427289
49	0x3e571864	0.21005398
50	0x3e691c50	0.22764707
51	0x3e2aadc2	0.16667846
52	0xbd084dc7	-0.0332773
53	0x3e7ae3be	0.24500939
54	0xbba5efda	-0.005063993
55	0x3ca79926	0.020458769
56	0x3e04d8b2	0.12973288
57	0x3d122d2b	0.035687607
58	0xbd8dc329	-0.069219895
59	0x3d8404e3	0.064462446
60	0x3e29c8ab	0.16580455
61	0x3e140a7c	0.14457124
62	0x3d52c7cf	0.051460084
63	0x3e56ca3a	0.20975581
64	0x3cf7e80b	0.030262014
65	0x3e55f0ec	0.20892686
66	0x3e0fc102	0.1403847
67	0x3dc72762	0.097243086
68	0x3e35736a	0.17719808
69	0x3ebdfd5d	0.37107363
70	0x3e614323	0.21998267
71	0x3e1f64f3	0.15565853
72	0x3dba64b5	0.091012396
73	0x3e0cb8cb	0.13742368
74	0x3d879d57	0.06621807
75	0x3cf6f465	0.030145833
76	0x3c913283	0.017724281
77	0x3da8338b	0.08212956
78	0x3ca18319	0.019715833
79	0x3ec26197	0.3796508
80	0x3e0c3702	0.13692859
81	0x3cfaf431	0.030634018
82	0x3dd017d7	0.10160797
83	0x3df02323	0.11725452
84	0x3d1c828a	0.03821043
85	0x3da9fab0	0.08299768
86	0x3e0ca145	0.13733394
87	0x3deb7ee8	0.11498815
88	0x3d0698e4	0.03286065
89	0x3e29cb8d	0.16581555
90	0x3dbf6a17	0.09346407
91	0x3e09b6ca	0.13448635
92	0x3e814156	0.2524516
93	0x3e12d893	0.14340429
94	0x3e2d1e2c	0.16906041
95	0x3df35824	0.11882046
96	0x3d8aa4c5	0.067697085
97	0x3dd0b035	0.10189859
98	0x3dd16806	0.10224919
99	0x3dd83d15	0.105585255
100	0x3ea2f487	0.31827185
101	0x3d7a8e60	0.061170936
102	0x3bd19b1d	0.006396665
103	0x3eb04cc0	0.34433556
104	0x3c008d70	0.007846221
105	0x3de9ad96	0.11410062
106	0x3dcee126	0.101015374
107	0x3d402d1b	0.046918016
108	0x3e008b14	0.12553054
109	0x3d105dec	0.03524582
110	0x3ddfad04	0.10921672
111	0x3d16dd6b	0.036832254
112	0x3d8a3ea4	0.06750229
113	0x3daf2c5f	0.08553385
114	0x3da1ac63	0.07894208
115	0x3e884be3	0.26620397
116	0x3e2b1a51	0.16709258
117	0x3e7a0161	0.24414589
118	0x3e07df2e	0.1326873
119	0x3d1656b4	0.03670378
120	0x3e2ded8d	0.1698515
121	0x3e4b1aee	0.19834492
122	0x3dcb40f8	0.09924501
123	0x3c02dcb2	0.007987188
124	0x3e10282e	0.14077827
125	0x3dbdc54a	0.092661455
126	0x3cdb9450	0.02680412
127	0x3d54bce5	0.051937956
128	0x3c83dee1	0.016097488
129	0x3dcd0d35	0.10012285
130	0x3d961f53	0.07330193
131	0x3e3dbf96	0.18530115
132	0x3cc77019	0.024345445
133	0x3e2e2b70	0.17008758
134	0x3e264a4d	0.16239281
135	0x3e3203f0	0.17384315
136	0x3d9cd21b	0.07657262
137	0x3e1a12de	0.1504626
138	0x3dd0f37e	0.102026924
139	0x3da0cd2d	0.07851634
140	0x3ea57f9a	0.32323915
141	0x3d2b31c8	0.041795522
142	0x3de42158	0.11139172
143	0x3e246af1	0.1605642
144	0x3da1fbfb	0.079093896
145	0x3d997ebe	0.07494877
146	0x3e2580e7	0.16162454
147	0x3ea3afe1	0.31970122
148	0x3d9cc4a6	0.07654695
149	0x3e00aa92	0.12565067
150	0x3e39c765	0.18142469
151	0x3d303413	0.04301841
152	0x3e0321e1	0.12805893
153	0x3debcb78	0.11513418
154	0x3d1fe29d	0.039034475
155	0x3cf4aa94	0.029866494
156	0x3d34dfe4	0.04415883
157	0x3d62be47	0.055357244
158	0x3e5e4ceb	0.2170903
159	0x3db324c6	0.08747248
160	0x3d8b3d9b	0.0679886
161	0xbd4b522c	-0.049638912
162	0x3d9c406d	0.07629476
163	0x3c88dfe0	0.016708314
164	0x3ddd4e54	0.108059555
165	0x3e0e2214	0.13880187
166	0x3e289cd4	0.16466075
167	0xbb7c5e92	-0.0038508517
168	0x3cf19482	0.02948976
169	0x3e35426e	0.17701122
170	0x3cce5d42	0.025190953
171	0x3de17ce3	0.110101484
172	0x3d9b040c	0.07569131
173	0x3e3e6187	0.18591891
174	0x3cf4c8db	0.029880932
175	0x3e498eea	0.19683424
176	0x3e004802	0.12527469
177	0x3e309dcc	0.17247695
178	0x3e07c026	0.13256893
179	0x3db45267	0.088047795
180	0x3da9040f	0.08252727
181	0x3e059005	0.1304322
182	0x3e2422f4	0.16028959
183	0x3d852b90	0.065024495
184	0x3de4b16a	0.111666515
185	0x3e0d3fb1	0.13793828
186	0xbdfefeeb	-0.124509655
187	0x3e119337	0.14216314
188	0x3dc8caff	0.098043434
189	0x3e32e844	0.17471415
190	0x3e166e07	0.1469041
191	0x3e1f4db1	0.1555698
192	0x3e23c62a	0.15993562
193	0x3e2a1042	0.16607764
194	0x3e67d5fe	0.22640225
195	0x3dc3c145	0.095583476
196	0x3e1db41f	0.15400742
197	0x3e804dfa	0.2505949
198	0x3df1f5b4	0.11814442
199	0xbb8650fc	-0.0040990096
200	0x3dad854e	0.084726915
201	0x3ca27a26	0.019833636
202	0xbdb0d583	-0.08634474
203	0x3e2849c6	0.16434392
204	0x3d814c5a	0.06313391
205	0x3d078778	0.033088177
206	0x3dacb2bd	0.08432529
207	0x3ea0a639	0.31376818
208	0x3e39a200	0.18128204
209	0x3d5af479	0.053455804
210	0x3c9b0671	0.01892397
211	0x3ca10ef3	0.019660449
212	0x3db69c9b	0.08916589
213	0x3e543af5	0.20725615
214	0x3c215b61	0.009848447
215	0x3da34405	0.07971958
216	0x3e1e974d	0.15487404
217	0x3d9b8635	0.07593957
218	0x3e0f8264	0.14014584
219	0x3d031390	0.032001078
220	0x3e5f680b	0.21817033
221	0x3e3f00f0	0.18652701
222	0x3da751af	0.08169877
223	0x3df9c0ef	0.12195002
224	0x3e1c1583	0.15242581
225	0x3d7f140c	0.062274978
226	0x3da23644	0.079205066
227	0x3c6d705b	0.01449212
228	0x3e9a99da	0.30195504
229	0x3c296bb4	0.01034062
230	0x3e0bd811	0.13656642
231	0x3e8d23a9	0.2756627
232	0xbd93f5d5	-0.07224623
233	0x3e4add0c	0.19810885
234	0x3d98a0d6	0.07452552
235	0x3dab4ce6	0.083642766
236	0x3df27514	0.11838737
237	0x3d2ef121	0.042710427
238	0x3e3dae25	0.18523462
239	0x3daa1434	0.08304635
240	0x3af791c0	0.0018888041
241	0x3dc2275a	0.09480162
242	0x3d6354a4	0.05550064
243	0x3e7e39f6	0.24826798
244	0x3d9baa5b	0.07600852
245	0x3db496e2	0.08817841
246	0x3e1c12fd	0.15241618
247	0x3d3014d7	0.042988624
248	0x3da221a8	0.07916576
249	0x3dc9e0f7	0.09857362
250	0x3e2293a5	0.15876634
251	0x3d240986	0.040048145
252	0x3e03a680	0.12856483
253	0x3deb9097	0.11502188
254	0x3e12eaeb	0.14347427
255	0x3db3e80e	0.08784495

fc2.bias f4 [128]
0	0x3d8529b0	0.06502092
1	0x3e42b146	0.19012937
2	0x3d83a41d	0.064277865
3	0x3e35595c	0.17709869
4	0xbd794513	-0.06085689
5	0x3e1d747a	0.15376464
6	0xbcb4dfcd	-0.022079373
7	0x3d9e8a2a	0.077411965
8	0xbd877778	-0.06614584
9	0x3d2c401b	0.042053323
10	0x3d369339	0.044573996
11	0x3da0b0aa	0.07846196
12	0x3d3406bd	0.04395174
13	0x3e19e5d5	0.1502908
14	0x3d61c387	0.05511811
15	0x3dc1f81c	0.09471151
16	0x3d32f4d3	0.043690514
17	0x3e373975	0.17893012
18	0xbb2a067d	-0.0025943809
19	0x3d80d88c	0.06291303
20	0x3ce206eb	0.02759119
21	0x3e1c872f	0.15285943
22	0x3c2fbc7b	0.01072609
23	0x3da1b2e8	0.07895452
24	0xbda15e0a	-0.07879265
25	0x3e3a2bd3	0.1818078
26	0x3e224ff9	0.1585082
27	0x3cc08f83	0.023505932
28	0x3df1a9b2	0.11799945
29	0xbd63845f	-0.05554616
30	0x3d231c64	0.039821997
31	0xbd8b5474	-0.068032175
32	0x3d93ca2b	0.07216295
33	0x3e082415	0.13295014
34	0x3d6e7378	0.05821559
35	0x3d877853	0.06614747
36	0xbd805c5f	-0.062676184
37	0xbd205957	-0.0391477
38	0x3d16b328	0.03679195
39	0x3d512cca	0.051068105
40	0x3ceda2ac	0.029008232
41	0x3d492ae1	0.049113158
42	0x3cd1b3ff	0.025598524
43	0x3e0ac849	0.13552965
44	0x3d096624	0.033544675
45	0xbbdbfbd6	-0.006713371
46	0xbd84797c	-0.06468484
47	0x3d8c6883	0.068558715
48	0x3d5bf09c	0.05369626
49	0x3d588cb4	0.05286856
50	0x3dd5d24c	0.104405016
51	0x3d426fe0	0.047469974
52	0x3d55a73d	0.052161444
53	0xbd9a67c1	-0.07539321
54	0xbcb0a84a	-0.021564621
55	0x3e5a2b22	0.21305516
56	0xbd9dfdc6	-0.07714419
57	0xbda32680	-0.07966328
58	0x3e3bf1e6	0.18353996
59	0xbd6f8d6a	-0.058484472
60	0xbd3651f5	-0.044511754
61	0xbd9a929a	-0.07547493
62	0x3dc30d4c	0.095240206
63	0xbdbc2b5c	-0.09187958
64	0xbdafa7b1	-0.085769065
65	0xbd463ec2	-0.048399694
66	0xbd61bd5d	-0.05511223
67	0x3e1354bb	0.14387791
68	0x3daddd01	0.08489419
69	0x3e5b2bdf	0.21403454
70	0x3e33ec31	0.17570569
71	0x3e22e5e2	0.15908006
72	0xbc50fd16	-0.012755653
73	0x3e1e10ce	0.15436098
74	0x3cb9d4f3	0.02268455
75	0xbd97188c	-0.07377729
76	0x3d98eb33	0.07466736
77	0x3d35ed81	0.044415955
78	0xbd346ce7	-0.04404917
79	0x3d92d0c2	0.07168724
80	0x3de05344	0.10953382
81	0x3e4dda04	0.20102698
82	0xbd43d53b	-0.047810774
83	0x3d840bee	0.06447588
84	0x3e2cc2af	0.16871141
85	0x3d83bfc2	0.06433059
86	0x3d4784ec	0.04871075
87	0xbd155a0e	-0.036462836
88	0x3c25ea21	0.010126621
89	0x3d9341a2	0.07190253
90	0x3e552f1a	0.20818749
91	0xbd9ed72c	-0.077558845
92	0x3da1739d	0.078833796
93	0x3d301399	0.04298744
94	0xbd059262	-0.032610305
95	0x3d9f192e	0.077684745
96	0x3e12cda3	0.14336257
97	0x3e179d5b	0.1480612
98	0x3d8f7da9	0.0700639
99	0x3dee8233	0.11645927
100	0x3d701e26	0.0586225
101	0x3d3c8907	0.046029117
102	0x3d6d535f	0.057940837
103	0x3d81dcf3	0.06340971
104	0x39a73f51	0.00031899897
105	0x3e13e14d	0.14441414
106	0x3d7af6a5	0.061270375
107	0xbc9efd5b	-0.019407919
108	0x3d3f547c	0.04671143
109	0x3c82f557	0.015986128
110	0x3d8c0f22	0.06838824
111	0xbdad1591	-0.08451379
112	0x3da6075d	0.08106873
113	0xbd3b8ebf	-0.04579043
114	0x3e2eb80f	0.170624
115	0x3d82644c	0.06366786
116	0xbd779c4a	-0.060451783
117	0x3d1e99ce	0.0387209
118	0x3bed0548	0.0072332956
119	0x3c9e6128	0.019333437
120	0xbce618e8	-0.028088048
121	0xbccce726	-0.025012564
122	0x3d662fd3	0.056197952
123	0xbd6817c5	-0.056663293
124	0xbc7bee6a	-0.015376667
125	0x3d6310b9	0.05543587
126	0x3e04632d	0.12928458
127	0x3e26fbd5	0.16307004

q_out.weight f4 [4, 128]
0	0xbdaedb00	-0.08537865
1	0xbe494b16	-0.1965755
2	0x3ae2d6cb	0.0017306445
3	0xbe1319b1	-0.14365269
4	0x3d49a0da	0.049225666
5	0xbe2183f3	-0.15772991
6	0xbac774f4	-0.001521735
7	0xbdfa4291	-0.12219728
8	0x3da8bb63	0.08238866
9	0xbe2e9339	-0.17048348
10	0xbdc66b73	-0.09688463
11	0xbe28893b	-0.164586
12	0xbdec9f51	-0.11553825
13	0xbd825666	-0.063641354
14	0x3d383e19	0.044981096
15	0xbd1ef878	-0.038811177
16	0xbe0a0ea4	-0.13482147
17	0xbddf7442	-0.10910846
18	0xbce43bd6	-0.027860563
19	0x3da51d7e	0.08062266
20	0xbd8d55ee	-0.069011554
21	0xbda38568	-0.079844296
22	0x3da82d63	0.08211782
23	0xbdaeb697	-0.0853092
24	0x3c9753cb	0.018472573
25	0xbe17d052	-0.14825562
26	0xbe180028	-0.1484381
27	0xbd72d0e5	-0.05928125
28	0xbe1a6db6	-0.15080914
29	0x3d5f8981	0.054574493
30	0xbdff3805	-0.12461857
31	0xbdabe844	-0.083939105
32	0x3cc37a34	0.023861982
33	0xbe479f13	-0.19494276
34	0xbd201797	-0.039084997
35	0xbb0e90a2	-0.0021753688
36	0x3d38eaa9	0.045145664
37	0x3c815c49	0.015791075
38	0x3c1a54c2	0.009419622
39	0x3d47de17	0.048795786
40	0x3d9ec472	0.07752313
41	0xbd07b00f	-0.033126887
42	0xbe2ffe94	-0.17186958
43	0xbe1ae678	-0.1512698
44	0x3cb2f55b	0.02184551
45	0x3d9f0cc3	0.07766106
46	0x3d6d7206	0.05797007
47	0x3cc0edb2	0.023550842
48	0xbd997420	-0.07492852
49	0x3d9b5597	0.07584684
50	0xbe37fefd	-0.17968364
51	0x3c7eded0	0.015556052
52	0xbd976397	-0.07392042
53	0x3d102e0b	0.03520016
54	0xbd1a883a	-0.037727572
55	0xbe4ae131	-0.19812466
56	0x3d8c5f50	0.06854117
57	0x3da04f10	0.0782758
58	0xbdbb2b52	-0.09139122
59	0x3d002d53	0.031293225
60	0x3cec50fa	0.028847206
61	0x3da3dd72	0.08001222
62	0xbe11558b	-0.14192788
63	0x3d269535	0.04066964
64	0x3d7f846d	0.06238215
65	0x3d674b51	0.05646831
66	0x3d9f228f	0.077702634
67	0xbd3e5ecf	-0.046477135
68	0xbe3ab405	-0.18232735
69	0xbd888075	-0.06665126
70	0xbdb32174	-0.08746615
71	0xbdeb7dbc	-0.11498591
72	0x3d88117d	0.066439606
73	0xbe18aa0c	-0.14908618
74	0x3d6c0a16	0.057626806
75	0xbd07f53d	-0.03319286
76	0xbe1fd20d	-0.15607472
77	0x3d62e710	0.05539614
78	0x3d741a44	0.05959536
79	0xbd8b0974	-0.067889124
80	0xbe487b4f	-0.19578288
81	0xbd969a94	-0.07353702
82	0x3d490f1a	0.049086668
83	0xbe3f7b88	-0.18699467
84	0xbe285b1d	-0.16441007
85	0xbdb4e9fe	-0.08833693
86	0x3da01df0	0.0781821
87	0x3da47c76	0.080315515
88	0xbc9ea7ab	-0.01936706
89	0xbd5861c5	-0.052827615
90	0xbe24eebe	-0.16106698
91	0xbd2e5d27	-0.042569306
92	0xbe1910da	-0.14947835
93	0x3cefe77a	0.029285181
94	0xbb5baa7c	-0.0033518365
95	0x3d82fe83	0.063962005
96	0xbdce1999	-0.10063476
97	0xbe16ff7a	-0.14745894
98	0xbdd6ce0d	-0.1048852
99	0xbe1e1b7b	-0.1544017
100	0xbdeeac72	-0.11653985
101	0xbdf59c01	-0.11992646
102	0xbe1d2345	-0.15345486
103	0x3ba0c1d8	0.0049059205
104	0x3d69ec3b	0.057110053
105	0xbd9ee21f	-0.07757973
106	0xbe31d694	-0.17367011
107	0x3d198917	0.037484255
108	0xbd6871e3	-0.056749236
109	0x3d994e12	0.07485594
110	0xbe189ab5	-0.14902766
111	0x3d6989c9	0.057016168
112	0x3c0da9eb	0.008646469
113	0x3d2c2d02	0.04203511
114	0xbe2e0cd5	-0.16997083
115	0x3d8d911f	0.06912445
116	0xbd8576ea	-0.06516822
117	0xbd0d0bd2	-0.0344351
118	0x3d975de1	0.07390953
119	0x3da595b7	0.080851965
120	0x3d09ddf1	0.033658925
121	0x3d2a6398	0.041598886
122	0xbe43f758	-0.19137323
123	0x3d027833	0.031852912
124	0x3da0f99c	0.07860109
125	0xbe34c785	-0.17654236
126	0xbd7a8320	-0.061160207
127	0xbd903d2b	-0.07042917
128	0xbd6f2e33	-0.05839367
129	0xbdab7df0	-0.0837363
130	0x3d8f4467	0.069954686
131	0xbdd62648	-0.1045652
132	0xbd0e2aac	-0.034708664
133	0xbd9d6a7c	-0.07686326
134	0xbc3b1943	-0.011419597
135	0xbe1d6dab	-0.15373866
136	0x3d6ebc70	0.058285177
137	0xbe17d1b3	-0.14826088
138	0x3d2d4e8c	0.042311236
139	0xbdf498a2	-0.11943175
140	0xbdcf6b8b	-0.10127934
141	0xbe403a2c	-0.18772191
142	0x3d9d6ac7	0.07686382
143	0xbdd45af8	-0.103689134
144	0xbe03316b	-0.1281182
145	0xbda719d8	-0.08159226
146	0x3cc77dbf	0.024351953
147	0xbd08298f	-0.03324276
148	0x3cc30c0d	0.023809457
149	0xbe4ad9d4	-0.19809657
150	0xbd2b4351	-0.041812245
151	0x3daed398	0.08536452
152	0xbd3fc9d3	-0.046823334
153	0xbe17b121	-0.14813663
154	0xbde37a2b	-0.11107286
155	0x3d82b62c	0.06382403
156	0xbe43d30c	-0.19123477
157	0xbda7b388	-0.0818854
158	0xbdfde909	-0.123979636
159	0x3d48fb4f	0.04906779
160	0x3d9693fb	0.07352444
161	0xbe40be13	-0.18822508
162	0x3d51f4c6	0.051258825
163	0x3be5f461	0.0070176576
164	0xbd0ac5d8	-0.033880085
165	0x3cc05133	0.023476219
166	0xbcd6c0d7	-0.026215
167	0x3d95a760	0.07307315
168	0x3da7433d	0.081671216
169	0x3b9348ef	0.0044947783
170	0xbe39c29e	-0.18140647
171	0xbe224e65	-0.15850218
172	0xbd7936d7	-0.060843315
173	0xbd848261	-0.0647018
174	0xbbb8b1fc	-0.0056364518
175	0x3d4f5fd2	0.05062849
176	0xbde25e41	-0.11053134
177	0x3d694362	0.056949027
178	0xbdab61ea	-0.08368285
179	0x3cef5aa9	0.029218035
180	0xbdac9d94	-0.08428493
181	0xbd13b572	-0.03606171
182	0x3d9c1b3e	0.076223835
183	0xbde04832	-0.1095127
184	0xbd1aaffd	-0.03776549
185	0xbdb41439	-0.0879292
186	0xbdb5f072	-0.08883752
187	0x3beca68f	0.007222004
188	0x3d61b139	0.055100653
189	0x3dab755c	0.08371994
190	0xbdb0fc48	-0.08641869
191	0x3d3a6ac9	0.045511995
192	0x3cae06e3	0.021243518
193	0x3d4e32e8	0.050341517
194	0xbd75e497	-0.060032453
195	0xbe39030c	-0.18067569
196	0xbd5b10f1	-0.053482953
197	0xbdfa3c28	-0.12218505
198	0xbd878c53	-0.066185616
199	0xbdd25430	-0.10269964
200	0xbdc957a6	-0.09831171
201	0xbde4578c	-0.11149511
202	0xbd503ca6	-0.05083909
203	0x3ce5715e	0.02800816
204	0xbd5b145f	-0.053486224
205	0xbb500fe7	-0.003174776
206	0x3d9710b4	0.07376233
207	0xbdebf9a5	-0.11522225
208	0xbe40aee3	-0.18816714
209	0xbdc342fe	-0.09534262
210	0x3d98d75d	0.07462952
211	0xbd667f2d	-0.056273628
212	0xbe34afe2	-0.17645219
213	0xbe25614a	-0.16150394
214	0xbcf5b09c	-0.02999144
215	0xbce422e9	-0.027848678
216	0x3d737ffb	0.059448224
217	0x3d98e328	0.074652016
218	0xbddb0736	-0.10694735
219	0x3d54f4e8	0.051991373
220	0xbe0ec0f7	-0.13940798
221	0xbd9195da	-0.0710866
222	0x3d71ca58	0.05903086
223	0x3d8e9516	0.0696203
224	0xbdeee6c3	-0.11665108
225	0xbe4d61c4	-0.20056826
226	0xbe24dce3	-0.16099887
227	0xbe08ad26	-0.13347301
228	0xbdb3f9a8	-0.087878525
229	0xbd9b2a76	-0.07576458
230	0xbe31b2b6	-0.17353329
231	0x3ca036ff	0.019557474
232	0xbd1f77f3	-0.038932752
233	0xbe3e1f17	-0.18566547
234	0xbdd9db6d	-0.10637555
235	0x3c7ba7c6	0.0153598245
236	0xbdbc18fe	-0.091844544
237	0xbd0da59b	-0.03458176
238	0xbd1b5886	-0.03792622
239	0xbd0b10f6	-0.033951722
240	0x3c1f7d43	0.009734455
241	0xbda0ae15	-0.078457035
242	0xbe3b5bc1	-0.1829672
243	0xbdb8da0c	-0.09025964
244	0xbb446296	-0.0029965988
245	0xbdaf7d82	-0.085688606
246	0x3c236831	0.009973572
247	0xbb94231c	-0.004520787
248	0x3d9325cc	0.071849436
249	0x3d6ba3ae	0.057529144
250	0xbe47f1e1	-0.19525863
251	0x3d501f20	0.050810933
252	0xbd056e1e	-0.03257572
253	0xbd461434	-0.04835911
254	0xbe073218	-0.13202703
255	0xbe0ae388	-0.13563359

q_out.bias f4 [4]
0	0xbd66974b	-0.056296628
1	0xbcf4f9f3	-0.029904341
2	0xbe15ae06	-0.14617166
3	0xbcf6edb8	-0.03014265
