models/SmallerGrid_First_train/q_te_agent_0.pt (torch, 108049 bytes, 6 tensors)

fc1.weight f4 [128, 71]
-0.058620263 -0.060919665 -0.11162552 0.033232037 0.02433337 0.13747211 0.1164881 0.040806163
-0.1005325 0.1607452 0.07442668 0.18019757 0.019459728 -0.0434212 -0.13483213 -0.30347908
0.22471513 0.15137382 -0.021758094 -0.0019079214 -0.09188704 0.035952624 0.024898136 0.057708174
0.058399223 0.030072726 0.052249346 -0.17639983 -0.14675823 0.022114048 0.10012921 0.11296633
0.014880336 0.019372571 0.015005219 0.018211855 -0.061665393 0.15142468 0.04722105 0.033657804
0.008235624 0.0028609484 0.14527373 -0.13502723 0.06944233 0.096907526 -0.01973992 0.15791753
0.035021126 -0.007288604 -0.007712565 0.04628938 0.21208197 0.045022555 0.15825124 -0.009950601
-0.06653714 -0.07961306 0.21091524 0.062001195 0.05710474 0.22609894 0.14137055 0.037558828
-0.10945898 0.14845076 0.09772314 0.106861435 0.2065244 0.022758177 0.012590364 0.117863454
-0.02895811 0.02141663 0.19184206 0.16362955 0.045315742 0.22419159 0.24570967 -0.12889454
0.09794894 0.15492544 0.027225336 0.11003869 0.04534409 0.006307079 -0.04776396 0.20383522
0.21634926 0.03269017 0.1573219 -0.05549102 0.08225335 -0.07289945 0.08182367 0.09950387
0.01835297 0.22213317 -0.1111954 0.05284993 0.018117635 0.038910426 0.21745014 0.14778814
0.116252564 0.02903445 0.124421865 -0.0177299 0.2173856 0.24795906 -0.006287272 0.2027531
0.06075648 0.017883254 -0.09151641 0.06980472 0.21091077 0.049783282 0.22476514 0.015459405
-0.026284458 0.08557601 0.15498269 0.14097968 0.18244964 0.058641475 0.037676677 -0.008135892
-0.1019853 0.13566104 0.23827152 0.08301351 0.16517615 0.027340509 -0.05799721 0.08452686
0.120324805 0.22148648 0.14167061 0.114775166 -0.035226688 -0.08752225 0.10920235 0.032530878
0.009771536 0.13110511 0.04553402 0.14261244 0.047552723 0.057231676 -0.07862846 0.25250497
0.056025784 0.07106772 0.23557909 -0.082837515 0.01774772 -0.19872622 0.15983546 0.07374937
0.16487364 0.17371295 0.03570191 0.10160339 -0.018206894 0.042049084 0.19894233 0.012520298
0.15635137 -0.007509614 0.023465982 -0.13747938 0.15275958 0.15994456 0.14988287 0.047923822
0.13376383 -0.024161652 -0.13913895 0.17627001 0.1634669 0.20157099 0.116112635 0.07260785
-0.045116432 -0.105505906 0.0728579 0.050944373 0.19496287 0.04901149 -0.02107404 0.060689826
-0.07743752 0.2050812 0.10554135 0.023520257 0.028159425 0.13479201 0.075843476 -0.047948617
0.17283899 0.18077251 0.253074 0.06581091 0.039953344 -0.014361768 -0.05713619 0.15133058
0.082687505 -0.0003096084 0.18337752 -0.07521598 -0.08649869 0.048998363 0.026849216 -0.050907463
0.12733708 0.17251283 0.14839225 0.03995207 0.20161521 -0.036760665 0.122694455 0.09576682
0.12493665 0.23222765 0.06607229 0.02155486 -0.06063084 0.076593906 0.2176961 0.028035473
0.105880275 0.058087576 0.026343886 -0.06973344 0.07906665 0.068847954 0.17030156 0.059528887
-0.12454494 -0.046522073 0.09458515 0.11331687 0.11834662 0.0929164 0.12219766 0.08807765
0.04808495 -0.07713613 0.14863984 0.14073029 0.12793767 -0.025987292 0.010452191 0.06463178
00000000: cd1b 70bd e686 79bd ec9b e4bd 511e 083d
00000010: c756 c73c 7dc5 0c3e 5091 ee3d 5d24 273d
00000020: fce3 cdbd 649a 243e 046d 983d b685 383e
00000030: 026a 9f3c 6eda 31bd 6f11 0abe 9c61 9bbe
00000040: b91b 663e bd01 1b3e 083e b2bc 3813 faba
00000050: 462f bcbd 0f43 133d 2df7 cb3c 685f 6c3d
00000060: 0634 6f3d 145b f63c 6903 563d 28a2 34be
00000070: ca47 16be 8528 b53c 8b10 cd3d e45a e73d
00000080: a7cc 733c 3ab3 9e3c 73d8 753c 0731 953c
00000090: da94 7cbd 120f 1b3e dc6a 413d c4dc 093d
000000a0: b6ee 063c c07e 3b3b a3c2 143e 9444 0abe
000000b0: c837 8e3d 7477 c63d 9db5 a1bc 22b5 213e
000000c0: 5072 0f3d 3ed5 eebb afb9 fcbb ef99 3d3d
000000d0: 042c 593e 9269 383d 9d0c 223e d807 23bc
000000e0: a044 88bd 2c0c a3bd 2afa 573e f7f4 7d3d
000000f0: a9e6 693d 7b86 673e 71c3 103e 49d7 193d
00000100: 082c e0bd 7a03 183e 1223 c83d 2bda da3d
00000110: 227b 533e 5b6f ba3c d047 4e3c 6562 f13d
00000120: 8f39 edbc ee71 af3c 3f72 443e 818e 273e
00000130: 009d 393d 7b92 653e 519b 7b3e eefc 03be
00000140: 7499 c83d c6a4 1e3e ab07 df3c f75b e13d
00000150: b9ba 393d 9dab ce3b 24a4 43bd 2eba 503e
00000160: a98a 5d3e 21e6 053d fe18 213e 8d4a 63bd
00000170: 7274 a83d 4f4c 95bd 2b93 a73d afc8 cb3d
00000180: f858 963c e176 633e 6aba e3bd 2b79 583d
00000190: 6f6b 943c 8a60 1f3d 40ab 5e3e c655 173e
000001a0: d315 ee3d a8d9 ed3c e4d0 fe3d 4c3e 91bc
000001b0: 559a 5e3e fbe8 7d3e 7605 cebb 829e 4f3e
000001c0: c9db 783d e77f 923c f56c bbbd c7f5 8e3d
000001d0: fef8 573e 8ee9 4b3d d528 663e 7249 7d3c
000001e0: 8152 d7bc 7a42 af3d c8b3 1e3e fa5c 103e
000001f0: 14d4 3a3e 0b32 703d dc52 1a3d 684c 05bc
00000200: abdd d0bd baea 0a3e 73fd 733e fd02 aa3d
00000210: f023 293e 34f9 df3c 7c8e 6dbd 6b1c ad3d
00000220: da6c f63d 5acd 623e 1a12 113e 3e0f eb3d
00000230: dc49 10bd de3e b3bd 7ba5 df3d 193f 053d
00000240: cb18 203c 6b40 063e e181 3a3d ff08 123e
00000250: a5c6 423d c36b 6a3d f507 a1bd 5548 813e
00000260: 4b7b 653d f48b 913d a53b 713e b7a6 a9bd
00000270: ab63 913c e37e 4bbe e8ab 233e e909 973d
00000280: a3d4 283e cfe1 313e 2a3c 123d 7015 d03d
00000290: a026 95bc a93b 2c3d 8ab7 4b3e f021 4d3c
000002a0: 931a 203e 3513 f6bb bb3b c03c 65c7 0cbe
000002b0: 026d 1c3e 82c8 233e e57a 193e c54b 443d
000002c0: 63f9 083e a8ee c5bc 717a 0ebe 2080 343e
000002d0: de63 273e a068 4e3e 76cc ed3d 6db3 943d
000002e0: 02cc 38bd 7b13 d8bd 8636 953d 0cab 503d
000002f0: 59a4 473e 46c0 483d 77a3 acbc e595 783d
00000300: 9097 9ebd ce00 523e 1026 d83d 8ead c03c
00000310: 98ae e63c eb06 0a3e d353 9b3d c565 44bd
00000320: b4fc 303e 6e1c 393e ea92 813e dfc7 863d
00000330: 1ea6 233d 9f4d 6bbc a307 6abd 67f6 1a3e
00000340: 1158 a93d f052 a2b9 51c7 3b3e d60a 9abd
00000350: 3a26 b1bd 82b2 483d e3f2 db3c 5884 50bd
00000360: a764 023e 34a7 303e 23f4 173e c8a4 233d
00000370: 3874 4e3e 5a92 16bd 3b47 fb3d 6521 c43d
00000380: c9de ff3d 16cd 6d3e e950 873d d193 b03c
00000390: 0b58 78bd 44dd 9c3d baeb 5e3e a6aa e53c
000003a0: c2d7 d83d 3ded 6d3d 22cf d73c 68d0 8ebd
000003b0: b2ed a13d 2800 8d3d 8863 2e3e 90d4 733d
000003c0: 6b11 ffbd ee8d 3ebd dcb5 c13d ad12 e83d
000003d0: b65f f23d f44a be3d c442 fa3d 0e62 b43d
000003e0: b9f4 443d 8cf9 9dbd 0b35 183e 9a1b 103e
000003f0: 1802 033e 4de3 d4bc ab3f 2b3c ab5d 843d

fc1.bias f4 [128]
0.18634734 0.25299588 0.07276184 0.100361034 0.2650278 0.058244295 0.21611644 0.0776081
0.26097465 0.2695843 0.1091539 0.07924537 0.070761174 0.22885726 0.17199376 -0.02013417
0.123727836 0.07781829 0.26806483 0.049724136 0.2299477 -0.102500804 0.062041067 0.22567157
0.047406394 0.06604781 0.15421657 0.070788905 0.07272495 0.068183795 0.11212715 0.054624148
0.18019323 -0.04636562 0.2589044 0.21311304 0.2878777 0.09484852 0.07621203 0.2348543
0.12801656 0.15973523 0.022417083 0.093006045 0.04937549 0.1477193 0.14103585 0.23171604
0.19944659 0.2589079 0.16237277 0.18172668 0.1727709 0.22505473 0.12554419 0.14702788
0.24453376 0.14957857 0.21720268 0.23709236 0.085086174 0.08022876 0.09416458 0.20557712
0.120888084 0.24344608 0.0546385 0.1513947 0.18953595 0.23210041 0.062591195 0.045616727
0.11983808 0.12169897 0.124766245 0.0913658 0.24411362 0.10151594 0.26078346 0.20539707
0.06665617 0.18871692 0.13988301 0.14352474 0.14423753 0.24320748 0.18996127 0.08874135
0.06394638 0.251335 0.10508066 0.24777451 0.089252375 0.05413273 0.23879188 0.16777739
0.17804816 0.23451939 0.2650658 0.057029784 0.25928202 0.16825391 0.1678506 0.06678379
0.23733507 0.21451303 0.14830087 0.09698737 0.25501978 0.16250609 0.08738043 0.18999955
0.26589364 0.09560188 0.25667235 0.120232634 0.25545868 0.2171663 0.26408067 0.10875336
-0.021789232 0.14752033 0.17188896 0.27453494 0.25282472 0.28098616 0.15533157 0.048423138
00000000: d6d1 3e3e ad88 813e 2904 953d 168a cd3d
00000010: b9b1 873e 9291 6e3d a14d 5d3e fff0 9e3d
00000020: 789e 853e f406 8a3e 148c df3d 664b a23d
00000030: 3ceb 903d 8f59 6a3e 221f 303e 6af0 a4bc
00000040: 0565 fd3d 325f 9f3d cb3f 893e 89ab 4b3d
00000050: 6977 6b3e f1eb d1bd c61e 7e3d 7316 673e
00000060: 352d 423d 1344 873d f3ea 1d3e c6f9 903d
00000070: d2f0 943d f2a3 8b3d eba2 e53d 92bd 5f3d
00000080: 9384 383e e0e9 3dbd 1e8f 843e 4e3a 5a3e
00000090: b564 933e f13f c23d 0e15 9c3d a57d 703e
000000a0: c616 033e a291 233e 08a4 b73c f479 be3d
000000b0: f43d 4a3d ba43 173e b46b 103e f846 6d3e
000000c0: ba3b 4c3e 948f 843e 0c45 263e 8f16 3a3e
000000d0: dbea 303e bf74 663e a88e 003e 7a8e 163e
000000e0: 0f67 7a3e 202b 193e 616a 5e3e 57c8 723e
000000f0: a941 ae3d fa4e a43d 5cd9 c03d cf82 523e
00000100: 2c94 f73d ee49 793e 9fcc 5f3d 3607 1b3e
00000110: b615 423e bbab 6d3e d02f 803d 9bd8 3a3d
00000120: ab6d f53d 4f3d f93d 7285 ff3d fe1d bb3d
00000130: ecf8 793e 97e7 cf3d 6985 853e 9c53 523e
00000140: 0883 883d 023f 413e 7e3d 0f3e 26f8 123e
00000150: 01b3 133e 620b 793e 3585 423e 06be b53d
00000160: 52f6 823d fbae 803e 8734 d73d 9ab8 7d3e
00000170: f3c9 b63d 48ba 5d3d dc85 743e d6cd 2b3e
00000180: 4252 363e da25 703e b4b6 873e 1098 693d
00000190: 9dc0 843e c14a 2c3e 07e1 2b3e f1c5 883d
000001a0: f707 733e 4ea9 5b3e 2fdc 173e 50a1 c63d
000001b0: f491 823e ff67 263e 83f4 b23d 3e8f 423e
000001c0: 3623 883e ebca c33d 8f6a 833e 873c f63d
000001d0: 7bcb 823e d860 5e3e 9535 873e 15ba de3d
000001e0: 557f b2bc 920f 173e a903 303e d88f 8c3e
000001f0: 3e72 813e 6bdd 8f3e 3d0f 1f3e 5757 463d

fc2.weight f4 [128, 128]
-0.0070174886 0.050267372 -0.029722882 -0.07527249 0.030653775 -0.06950284 -0.07711802 -0.060609348
-0.06369682 0.020793196 -0.09425085 0.057672184 0.046231784 -0.09516626 0.015783567 -0.044670716
0.028580068 0.07387756 0.059061017 -0.09168561 -0.0016649452 0.034629747 -0.04617911 0.07443863
0.059014432 0.05970856 0.055133753 0.006731065 -0.013692639 0.056237943 0.011161416 -0.050045267
-0.02097935 -0.08819937 0.07496482 0.0331671 -0.03650635 0.031070547 -0.08783392 0.0344176
-0.06524402 -0.00099966 0.0032986267 -0.053771548 0.04391393 -0.051849097 0.056792773 -0.08331457
0.008268959 0.06436437 0.073221296 0.005491582 -0.047648054 -0.042610582 0.061865598 0.033453096
-0.020891203 -0.0023084672 0.06805444 -0.085547455 -0.032243222 -0.0705187 0.044309042 -0.070677444
0.031517982 -0.034750845 0.06974287 0.031164031 -0.019079195 -0.044442784 0.059676446 0.058080997
-0.081400864 -0.08811271 -0.0859114 0.064543925 -0.048618674 -0.016754322 0.057213385 -0.0007107482
-0.09273276 0.063942775 -0.06356969 -0.07272293 -0.0015562988 0.013242356 0.017988117 0.0005902765
0.07563047 -0.064152196 0.0016667718 0.010195834 -0.00912526 0.020326355 0.023490718 -0.09482603
-0.09504233 0.0055951527 -0.06514579 0.006433768 0.0068509765 -0.0476652 0.021102069 -0.0859939
0.027314432 -0.04791613 -0.049555093 -0.012346307 0.08321701 -0.006103079 -0.042435586 -0.06568869
0.02497406 0.020558698 0.017060442 0.045733802 -0.07422491 -0.00061638677 0.0015932298 -0.0023721957
0.056434862 0.060710162 -0.033431053 0.03681329 0.06368313 -0.078381866 0.061762277 0.06607761
-0.028348424 -0.017331067 0.056186214 0.030299433 -0.028526694 0.042533502 0.07213125 0.0002895594
0.060745284 -0.017452082 -0.08592293 0.00035559296 -0.060074884 -0.042068098 -0.078423694 -0.071393296
-0.01884651 -0.018360032 0.06338597 0.06546654 -0.038104355 -0.0065487456 -0.053306606 -0.060906503
0.024610966 0.0056258035 -0.051575128 -0.02038288 -0.06692675 -0.087345675 -0.0684055 -0.014947622
-0.045400944 -0.08557453 0.08762999 0.062268734 0.06840216 -0.08745921 -0.07099626 -0.07643425
-0.035512608 0.052641317 0.08608587 0.031313643 0.01819688 0.020043882 -0.036542572 -0.013435456
0.078064084 0.08467248 -0.015776925 0.043424983 0.0029143386 -0.0045265923 -0.08295029 -0.014036281
-0.05681005 -0.049376413 -0.008104765 0.07531692 -0.06965411 -0.02290523 0.064132005 -0.028582064
-0.077190414 -0.033607252 -0.08404013 0.033613786 -0.0012482632 -0.036514554 -0.05323209 0.08748859
-0.08048516 -0.044852834 0.05413297 -0.014631268 0.05191676 -0.025420807 0.019593121 -0.08369349
0.05671463 -0.06549042 0.06966253 -0.032402076 -0.06578745 -0.039186947 -0.08293258 -0.060018525
0.040194523 0.008502178 -0.060541503 0.08062965 -0.07088826 0.0006211076 -0.07158505 0.012414017
-0.082705855 0.06538346 0.047211032 -0.065922156 0.06692282 -0.056423575 -0.011506058 0.0066470425
-0.040357407 0.08565787 0.016268767 -0.045882303 -0.06554133 -0.049606588 0.08157437 0.02006112
-0.066952184 -0.06250486 -0.08445636 0.02699022 -0.031160071 0.03883499 -0.08629888 -0.08606798
0.030739687 -0.032916076 0.026873272 0.064573966 -0.04705019 0.08067139 0.08050401 0.08169482
00000000: f6f2 e5bb 29e5 4d3d 677d f3bc 7728 9abd
00000010: a01d fb3c 8157 8ebd 0df0 9dbd 8241 78bd
00000020: 7a73 82bd 7e56 aa3c 9706 c1bd ab39 6c3d
00000030: 8a5d 3d3d 87e6 c2bd 8a4c 813c a4f8 36bd
00000040: bf20 ea3c 1e4d 973d f7e9 713d aac5 bbbd
00000050: 4a3a daba ecd7 0d3d 4e26 3dbd 4873 983d
00000060: 1eb9 713d f790 743d eed3 613d 4490 dc3b
00000070: 1757 60bc c259 663d 5fde 363c 44fc 4cbd
00000080: e3dc abbc dfa1 b4bd 2887 993d 3ada 073d
00000090: af87 15bd a987 fe3c 45e2 b3bd 78f9 0c3d
000000a0: a89e 85bd 0607 83ba c62d 583b 8e3f 5cbd
000000b0: 18df 333d b85f 54bd 8a9f 683d d4a0 aabd
000000c0: 877a 073c 78d1 833d 0cf5 953d bbf2 b33b
000000d0: 9b2a 43bd 6f88 2ebd c866 7d3d 1d06 093d
000000e0: 0724 abbc a749 17bb 2060 8b3d 8133 afbd
000000f0: 7811 04bd 1c6c 90bd 667d 353d 56bf 90bd
00000100: 0019 013d e756 0ebd 5ad5 8e3d b64b ff3c
00000110: f94b 9cbc a309 36bd 4a6f 743d 57e6 6d3d
00000120: 7fb5 a6bd 7074 b4bd 51f2 afbd 9b2f 843d
00000130: 6024 47bd 5c40 89bc 9558 6a3d 8151 3aba
00000140: acea bdbd 6ef4 823d d330 82bd c2ef 94bd
00000150: b9fc cbba 77f6 583c d15b 933c c9bc 1a3a
00000160: 26e4 9a3d 3a62 83bd 9577 da3a 6d0c 273c
00000170: 1d82 15bc 7583 a63c 9b6f c03c 2634 c2bd
00000180: 8ea5 c2bd 8b57 b73b 286b 85bd 5cd2 d23b
00000190: 287e e03b 963c 43bd 3fde ac3c 921d b0bd
000001a0: 84c2 df3c b443 44bd 48fa 4abd 2a48 4abc
000001b0: ae6d aa3d 56fc c7bb f0d0 2dbd cb87 86bd
000001c0: 6696 cc3c b76a a83c 57c2 8b3c 5e53 3b3d
000001d0: 3b03 98bd 0495 21ba ecd3 d03a d776 1bbb
000001e0: 3e28 673d 38ab 783d 00ef 08bd 88c9 163d
000001f0: 4d6c 823d ac86 a0bd 71fa 7c3d b353 873d
00000200: f43a e8bc e2f9 8dbc 8423 663d 8436 f83c
00000210: d0b0 e9bc 9c37 2e3d 8cb9 933d 01d0 9739
00000220: 0cd0 783d abf7 8ebc 5cf8 afbd e16e ba39
00000230: 1511 76bd 994f 2cbd 9a9c a0bd a636 92bd
00000240: ff63 9abc c767 96bc 81d0 813d 5213 863d
00000250: 5013 1cbd dc96 d6bb 0758 5abd 1979 79bd
00000260: f09c c93c a958 b83b 7140 53bd fff9 a6bc
00000270: e410 89bd 4ae2 b2bd 2f18 8cbd dfe6 74bc
00000280: 57f6 39bd b341 afbd 5a77 b33d 800d 7f3d
00000290: 6f16 8c3d d01d b3bd 7d66 91bd 8f89 9cbd
000002a0: ab75 11bd 6c9e 573d ca4d b03d bc42 003d
000002b0: a011 953c 1133 a43c aaad 15bd 6320 5cbc
000002c0: 10e0 9f3d c468 ad3d 9c3e 81bc 65de 313d
000002d0: 7dfe 3e3b cf53 94bb d7e1 a9bd 6ef8 65bc
000002e0: a8b1 68bd ec3e 4abd d9c9 04bc c23f 9a3d
000002f0: d0a6 8ebd c0a3 bbbc a457 833d ef24 eabc
00000300: 0216 9ebd c2a7 09bd 3b1d acbd 9cae 093d
00000310: c39c a3ba 4990 15bd e409 5abd 382d b33d
00000320: 67d5 a4bd 9bb7 37bd 88ba 5d3d fcb7 6fbc
00000330: aba6 543d 4c3f d0bc c181 a03c 7e67 abbd
00000340: 9a4d 683d d71f 86bd 3bab 8e3d 0ab8 04bd
00000350: 92bb 86bd 7e82 20bd 8ed8 a9bd fcd5 75bd
00000360: 03a3 243d b84c 0b3c 5efa 77bd 2821 a53d
00000370: dd2d 91bd d3d1 223a 2f9b 92bd 2964 4b3c
00000380: b061 a9bd c3e7 853d 5b60 413d 3202 87bd
00000390: d50e 893d 681c 67bd e883 3cbc 6fcf d93b
000003a0: cf4d 25bd 656d af3d 1446 853c 15ef 3bbd
000003b0: 883a 86bd 4730 4bbd 7710 a73d 3857 a43c
000003c0: 3a1e 89bd 8c02 80bd 75f7 acbd 981a dd3c
000003d0: 6843 ffbc 7011 1f3d 78bd b0bd 6944 b0bd
000003e0: ccd1 fb3c 02d3 06bd 5625 dc3c 5b3f 843d
000003f0: b3b7 40bd 0b37 a53d 49df a43d 9d4f a73d

fc2.bias f4 [128]
0.027401319 -0.085326955 0.07585282 -0.017183227 0.18211606 -0.08742696 0.13979496 -0.07812666
-0.03835562 -0.020296395 -0.057350926 0.0052561117 0.05582386 0.04598871 0.18937846 -0.051806293
0.2163623 -0.07295444 -0.028376477 0.132002 0.043296173 0.059515253 -0.04500799 0.14718258
0.10399409 -0.05607013 0.19502549 0.18957132 0.09109449 -0.08528867 0.017745646 0.057413954
-0.08223529 0.14382055 0.13400912 0.035649445 0.2028171 -0.057598908 -0.012900604 0.084912226
0.15020984 0.20095825 -0.033107076 0.12209197 0.09762063 0.1848953 0.041620452 0.050111
0.16857895 0.049944256 0.1769373 0.050344888 0.04832516 0.15320024 0.046864714 0.12232806
0.15814835 0.08069057 0.008063909 0.13086458 0.19719581 0.16202389 0.07928015 -0.023025293
-0.037973795 -0.054561768 0.11151562 0.18588673 0.15758419 0.10180486 0.013506922 0.1252266
0.07155878 0.04980586 -0.06843615 0.110380895 -0.087886795 0.1327096 -0.0029378363 0.20312446
0.16385089 -0.023282379 -0.059465066 0.05021418 0.029914659 0.028656071 0.20604925 -0.07382634
0.03753267 0.06095492 0.19206578 0.040469997 0.060589883 0.041585155 0.008478536 0.01480178
-0.052774392 -0.05332552 -0.0046696695 0.119528934 -0.0053060413 0.060092174 0.20766307 0.17669812
0.009896904 0.04048984 -0.05239249 -0.0428987 0.035201665 0.100749835 0.09580929 0.1439862
-0.04175479 0.14384797 0.19194266 0.053359963 -0.01413138 -0.009587122 0.07256553 -0.015833678
0.1837516 0.07191203 -0.04627867 0.007166937 0.022995938 0.097974874 0.12368733 -0.081513345
00000000: bb78 e03c e6bf aebd b958 9b3d d7c3 8cbc
00000010: a27c 3a3e e80c b3bd 6926 0f3e df00 a0bd
00000020: c81a 1dbd a044 a6bc cee8 6abd 763b ac3b
00000030: 8fa7 643d a85e 3c3d 6dec 413e d632 54bd
00000040: 148e 5d3e 2369 95bd c975 e8bc 882b 073e
00000050: 5457 313d 44c6 733d 4c5a 38bd 08b7 163e
00000060: dafa d43d cba9 65bd c3b4 473e fc1e 423e
00000070: bf8f ba3d d4ab aebd 515f 913c e52a 6b3d
00000080: fa6a a8bd b245 133e b039 093e 2705 123d
00000090: 49af 4f3e d5ec 6bbd 0e5d 53bc 76e6 ad3d
000000a0: 9cd0 193e 00c8 4d3e 499b 07bd 5b0b fa3d
000000b0: 53ed c73d 3255 3d3e 357a 2a3d 3141 4d3d
000000c0: f69f 2c3e 5992 4c3d 0d2f 353e 7136 4e3d
000000d0: 9af0 453d 86e0 1c3e 37f5 3f3d 2287 fa3d
000000e0: a4f1 213e 1941 a53d 7c1e 043c 5d01 063e
000000f0: b3ed 493e 97e9 253e a25d a23d 8a9f bcbc
00000100: 698a 1bbd 297c 5fbd 4d62 e43d 1759 3e3e
00000110: c05d 213e 117f d03d 234c 5d3c 673b 003e
00000120: 698d 923d 3b01 4c3d 4128 8cbd 610f e23d
00000130: fefd b3bd 06e5 073e b788 40bb dcff 4f3e
00000140: 87c8 273e b0ba bebc a491 73bd 62ad 4d3d
00000150: 960f f53c 23c0 ea3c 93fe 523e 4432 97bd
00000160: dbbb 193d deab 793d e4ac 443e dec3 253d
00000170: 192d 783d 3255 2a3d 8fe9 0a3c 2a83 723c
00000180: f629 58bd dc6b 5abd 0704 99bb 96cb f43d
00000190: 4dde adbb 3623 763d a1a5 543e 5af0 343e
000001a0: a026 223c add8 253d 8299 56bd 8cb6 2fbd
000001b0: 9f2f 103d ee55 ce3d a937 c43d 1e71 133e
000001c0: 1207 2bbd e24c 133e 9e8c 443e fa8f 5a3d
000001d0: 4e87 67bc 4e13 1dbc 3d9d 943d a1b5 81bc
000001e0: 6129 3c3e 9d46 933d b48e 3dbd a0d8 ea3b
000001f0: fa61 bc3c 0da7 c83d c84f fd3d 78f0 a6bd

q_out.weight f4 [4, 128]
0.07227478 -0.020611737 -0.13767831 0.08713281 -0.1258794 0.0074311597 -0.1499258 0.07729134
0.025433138 0.06172566 0.07404635 0.022609109 0.010812591 -0.19170325 -0.12805751 0.016731929
-0.1580326 0.062461596 0.053138185 -0.12191352 0.023786016 -0.1451763 0.018232847 -0.19117913
-0.03467026 -0.0062734294 -0.0635446 -0.1252822 -0.16060321 0.013984158 -0.041756634 -0.16381359
0.03643217 -0.086759105 -0.1735004 -0.17870618 -0.20187443 -0.020520188 0.02748272 0.056123275
-0.16222502 -0.1313989 -0.08644244 -0.17097448 -0.15445887 -0.16785544 -0.03059729 -0.030116905
-0.1576683 -0.19122893 -0.13167581 -0.19924705 -0.18303499 -0.1946581 -0.032259382 -0.10491392
-0.14164868 0.021151839 -0.05840722 -0.12017093 -0.10515487 -0.06983578 -0.17464657 0.07223662
-0.08247857 -0.04844087 -0.12291267 -0.0820077 -0.14135751 -0.11743948 -0.0015292721 -0.06211928
-0.11969976 -0.10257862 0.006579829 -0.09239371 0.067372814 -0.07025051 0.03272702 -0.13786171
-0.11854778 0.055637207 0.0142290555 -0.114457354 -0.19156803 0.071239516 -0.11437122 0.071789086
-0.06207047 0.05288854 -0.11475603 0.019193796 -0.18413578 -0.18053757 0.0056154276 0.019520404
0.0330952 -0.031103795 -0.0009670178 -0.10906662 0.022071863 -0.19894883 -0.057836007 -0.1710379
0.0378615 0.03837182 -0.013532542 -0.07463752 -0.040321834 -0.08825656 -0.04595425 -0.17641924
0.07951009 -0.1460132 -0.17684972 0.016262183 0.06204259 0.05178425 -0.07059405 -0.07988978
-0.108079255 0.03948521 0.037390914 -0.016917825 0.0016312883 -0.031179523 -0.18998897 -0.037788317
-0.049367733 0.082320794 -0.20581508 -0.006552149 -0.19064002 0.050535735 -0.18840525 -0.050549842
-0.0054349904 0.046959426 0.02558363 0.024716001 0.045053124 -0.10900912 -0.19245641 -0.06195413
-0.10892912 0.0050134766 0.065995924 -0.19656046 0.01727073 -0.18370327 -0.08452806 -0.21080136
-0.1123955 -0.0011817827 -0.04151252 -0.18472943 -0.19063245 -0.0016242658 0.012518543 -0.10411368
-0.02841764 -0.15799063 -0.084575206 -0.06280645 -0.05993896 0.020988578 0.007555319 -0.09171427
-0.13157201 -0.16657259 0.02726451 -0.17476586 -0.07057072 -0.11447352 0.007909588 0.055035885
-0.1236711 -0.16329727 -0.07626938 -0.19289787 -0.18754925 -0.1405104 0.00052003044 -0.17109486
-0.14362423 -0.038249318 0.06883617 -0.067376874 -0.05327626 -0.16557488 -0.08623966 -0.0049082893
0.013892729 0.07176945 -0.18429409 -0.04858139 -0.17671824 -0.12161615 0.074315846 -0.20155434
-0.11842543 -0.10931474 -0.08246801 -0.15903051 -0.059356045 -0.17416757 0.07424114 -0.20216617
-0.20812567 -0.00021254252 -0.013286927 -0.075325675 -0.06932428 -0.08254842 -0.06931423 -0.060315188
0.057472315 -0.071981326 -0.11101663 0.052421704 -0.06485272 -0.17033753 0.042771105 0.0037419847
0.026126878 0.019766843 -0.022530207 -0.19503313 0.031735357 -0.13421464 -0.14515524 -0.09240812
-0.024488011 0.028551858 0.029995354 0.06304166 0.025469093 -0.14388034 -0.16661587 -0.16400795
0.077348225 -0.16073245 -0.128967 0.05283136 0.047081612 0.025077801 -0.19496323 0.012287258
-0.13887818 0.03205997 -0.0634686 0.015619269 -0.03982777 -0.16968928 -0.15004362 0.05813218
00000000: cd04 943d f2d9 a8bc 8bfb 0cbe b072 b23d
00000010: 88e6 00be 1681 f33b 2686 19be ec4a 9e3d
00000020: 2859 d03c 0cd4 7c3d 9da5 973d bd36 b93c
00000030: 4b27 313c db4d 44be 8221 03be 6611 893c
00000040: 4cd3 21be bbd7 7f3d 6da7 593d ccad f9bd
00000050: e4da c23c 19a9 14be 0d5d 953c 76c4 43be
00000060: 6702 0ebd 5791 cdbb ac23 82bd fa49 00be
00000070: 2b75 24be cf1d 653c 0109 2bbd c0be 27be
00000080: e639 153d c2ae b1bd 17aa 31be c1fe 36be
00000090: 2cb8 4ebe f419 a8bc 7123 e13c 85e1 653d
000000a0: 511e 26be 6f8d 06be bc08 b1bd ef13 2fbe
000000b0: 772a 1ebe 4ce2 2bbe 2ba7 fabc bab7 f6bc
000000c0: cd73 21be 84d1 43be 06d6 06be 6b07 4cbe
000000d0: 866d 3bbe 7454 47be 6a22 04bd 1cdd d6bd
000000e0: 5a0c 11be 9f46 ad3c 693c 6fbd 2d1c f6bd
000000f0: 705b d7bd 1006 8fbd 8dd6 32be cbf0 933d
00000100: 86ea a8bd ef69 46bd a3b9 fbbd a7f3 a7bd
00000110: 06c0 10be 1c84 f0bd db71 c8ba c970 7ebd
00000120: 2625 f5bd bd14 d2bd 9b9b d73b ea38 bdbd
00000130: c2fa 893d 80df 8fbd c50c 063d 9f2b 0dbe
00000140: 2ec9 f2bd d7e3 633d fc20 693c 9e68 eabd
00000150: 692a 44be 06e6 913d 753b eabd 2806 933d
00000160: 9b3d 7ebd a7a1 583d 3605 ebbd 4f3c 9d3c
00000170: 178e 3cbe d7de 38be 9f01 b83b 41e9 9f3c
00000180: d58e 073d 63cd febc 777f 7dba 525e dfbd
00000190: 0dd0 b43c 3eb9 4bbe 73e5 6cbd 8f24 2fbe
000001a0: a914 1b3d c52b 1d3d 98b7 5dbc 8edb 98bd
000001b0: 8228 25bd dbbf b4bd 863a 3cbd 3fa7 34be
000001c0: 30d6 a23d 7c84 15be 1818 35be 4538 853c
000001d0: 5f20 7e3d b91b 543d 9d93 90bd 419d a3bd
000001e0: a858 ddbd 3ebb 213d 3727 193d 4097 8abc
000001f0: f4d0 d53a 336c ffbc 788c 42be ecc7 1abd
00000200: d235 4abd ce97 a83d 30c1 52be 69b3 d6bb
00000210: 2337 43be 8ffe 4e3d 4eed 40be 5a0d 4fbd
00000220: 0118 b2bb 8758 403d c394 d13c 3679 ca3c
00000230: a089 383d 2c40 dfbd 4b13 45be 9dc3 7dbd
00000240: 3b16 dfbd 1748 a43b df28 873d 2547 49be
00000250: 597b 8d3c b61c 3cbe 0c1d adbd 50dc 57be
00000260: 9d2f e6bd 0ce6 9aba 0809 2abd b629 3dbe
00000270: 2735 43be 51e5 d4ba 931a 4d3c 8e39 d5bd
00000280: 1ccc e8bc 4cc8 21be c435 adbd aba0 80bd
00000290: 8e82 75bd 3df0 ab3c 9c92 f73b b1d4 bbbd
000002a0: d0ba 06be 0192 2abe d259 df3c d2f5 32be
000002b0: 6287 90bd 1871 eabd 3797 013c 4f6d 613d
000002c0: 4647 fdbd 6637 27be 1f33 9cbd 0587 45be
000002d0: e90c 40be f5e1 0fbe a752 083a 7e33 2fbe
000002e0: 3b12 13be 51ab 1cbd faf9 8c3d e3fc 89bd
000002f0: 3538 5abd 768c 29be 6b9e b0bd b7d5 a0bb
00000300: 549e 633c ddfb 923d 97b7 3cbe 48fd 46bd
00000310: a0f5 34be e311 f9bd e832 983d 4364 4ebe
00000320: 0889 f2bd 68e0 dfbd fde4 a8bd e5d8 22be
00000330: 531f 73bd fc58 32be bd0b 983d a604 4fbe
00000340: e51e 55be f3dd 5eb9 69b1 59bc 5944 9abd
00000350: e3f9 8dbd 250f a9bd 9ef4 8dbd 0f0d 77bd
00000360: 1768 6b3d f26a 93bd b05c e3bd 24b8 563d
00000370: 81d1 84bd f66c 2ebe c130 2f3d 163c 753b
00000380: 0908 d63c 13ee a13c 4591 b8bc c4b6 47be
00000390: effc 013d 906f 09be 93a3 14be 7840 bdbd
000003a0: 159b c8bc 96e5 e93c d1b8 f53c fc1b 813d
000003b0: 8fa4 d03c 5e55 13be 5a9d 2abe b3f1 27be
000003c0: bf68 9e3d 0c97 24be ed0f 04be b265 583d
000003d0: a6d8 403d f66f cd3c 71a4 47be 7f50 493c
000003e0: 1536 0ebe 5151 033d d3fb 81bd f6e7 7f3c
000003f0: 7222 23bd 07c3 2dbe 09a5 19be 021c 6e3d

q_out.bias f4 [4]
-0.003707629 -0.049188696 -0.08510719 -0.0637634
00000000: b1fb 72bb 167a 49bd ae4c aebd 6396 82bd
